dqn_taxi_light128.pth (torch, 45932 bytes, 6 tensors)

fc1.weight f4 [128, 16]
000000 24 75 33 3e d3 f6 8f 3d 4c 3f ea bd 2e 49 18 3e
       0.17525154 0.070295 -0.11437854 0.14871666
000010 72 7c 33 3e b1 cf 8e 3e 39 7a ab 3e 80 ca 8a 3d
       0.17527941 0.2789283 0.33491686 0.06776905
000020 83 31 8c 3e d6 61 80 3d d0 72 bd 3d a9 8b 15 3e
       0.27381524 0.06268661 0.09250414 0.14604057
000030 fa 8b a7 bb 2d 20 94 3e 7c 83 d0 bc 3d a8 bc bd
       -0.005113122 0.28930798 -0.025453322 -0.092117764
000040 e6 a2 35 be c8 a5 45 3d 08 f1 70 3d d0 e2 ed 3d
       -0.17737922 0.048253804 0.058823615 0.11615527
000050 0e 49 56 be 49 e2 63 3e 1d cb 7b 3e b0 3f 99 bd
       -0.20926306 0.2225429 0.245892 -0.074828506
000060 d5 76 82 3e 17 2f 84 3d ad ef d7 3c 3b 15 24 be
       0.25481287 0.06454294 0.026359404 -0.16023724
000070 8e fa 44 3d 38 3b f9 bd 24 32 04 bd 3f 33 0d 3d
       0.04809051 -0.12169498 -0.03227438 0.0344727
000080 d7 3b 5e bd 29 a9 ae 3e f0 34 6a bd 60 17 12 3d
       -0.054256286 0.34113434 -0.05717939 0.035666823
000090 cc 07 86 bd 59 79 47 3e 9e d6 dc 3d 74 c0 a1 3d
       -0.06544456 0.19479884 0.107831225 0.07898036
0000a0 7a f3 7a bd a5 7b 38 3e f6 2d 60 3d 68 18 62 3d
       -0.061267354 0.18015917 0.05473133 0.055199057
0000b0 7f ff 19 3e 17 6d 3c 3c 60 b2 da 3c 5b d7 8f 3e
       0.1503887 0.011500618 0.026696384 0.2809399
0000c0 11 f7 b3 3e 9c 28 35 3e 9e e3 45 be d0 25 88 bc
       0.35149434 0.17691272 -0.1932511 -0.016619593
0000d0 a2 71 58 3e 51 f3 70 3e f1 80 5a 3e 76 42 0c 3e
       0.21137097 0.23530318 0.2133825 0.13697228
0000e0 54 17 95 bd 5a 99 aa bc 59 73 9d 3e 83 93 37 3e
       -0.0727984 -0.020825077 0.30752066 0.17927365
0000f0 a9 99 52 bd 63 5b 52 3e 00 52 7a 3e fd 4f 26 3e
       -0.051416073 0.20542674 0.24445343 0.1624145
000100 c8 f5 e7 3c 5a 89 08 3d 08 83 1a 3d 00 b0 f5 b9
       0.02831544 0.033334114 0.037722617 -0.00046861172
000110 a0 ba 3b 3d 0c c7 b4 3e 82 62 eb 3d 48 54 3b bd
       0.045832276 0.3530811 0.11493398 -0.045734674
000120 1e 5c fe 3d 43 34 3e 3d 1f 56 c3 3d 79 98 1e 3e
       0.12419914 0.04643656 0.09537911 0.15487851
000130 52 cf a8 3d 0c 88 b1 3e d2 e5 a1 3d 9c bb 1f 3e
       0.08242668 0.34674108 0.07905163 0.15598911
000140 e0 90 99 3d e6 2f fe 3d 70 21 05 3e 88 18 e6 bd
       0.07498336 0.1241148 0.13001037 -0.11235148
000150 40 5d 3f 3c 80 7b a4 3e 64 d7 fc 3d b4 7e db bd
       0.011679947 0.32125473 0.1234577 -0.10717526
000160 08 ea 3b 3d 92 55 8a bc 63 09 93 3e c3 65 c3 3e
       0.045877486 -0.016886506 0.287181 0.38163576
000170 31 ec b9 3e 82 32 c8 3e c3 c9 86 3e 1b 72 1d 3e
       0.36313012 0.39101034 0.26325807 0.15375559
000180 49 c4 87 bb c3 3f 15 3e 1a f2 17 be a6 6a 23 be
       -0.004143272 0.14575104 -0.14838448 -0.15958652
000190 c0 5b b9 bb 1e a4 06 3d 17 55 8e 3e f6 f5 1d be
       -0.0056566894 0.032871358 0.27799293 -0.15425858
0001a0 b7 46 12 3e d9 20 72 3e d8 5a 77 3e f7 e1 a2 bd
       0.14284788 0.23645343 0.24155748 -0.079532556
0001b0 17 be 99 bd 6f a8 95 3e fa e3 e7 3c 29 b5 05 bd
       -0.0750696 0.29230067 0.02830695 -0.03264347
0001c0 84 be 88 3e 48 07 f8 bc 8c 99 20 3e 90 98 e7 3d
       0.26707852 -0.03027691 0.15683573 0.11308396
0001d0 20 6b 7a 3c 46 aa 28 3e de c8 89 3e 60 a0 a1 3c
       0.01528433 0.16471204 0.26911062 0.019729793
0001e0 ff 7f e0 bd d4 4e 92 3e 30 ab d7 bb 93 66 9f 3d
       -0.10961913 0.28575766 -0.0065816864 0.07783236
0001f0 6a 34 3b 3c e1 fc e1 3d 16 c8 83 3e 5e 32 ac bd
       0.011426071 0.11034561 0.2573859 -0.08408044
000200 bf 51 8b 3d cb 0d bb 3e fc ce 09 3e e2 7f 40 be
       0.06802701 0.3653396 0.13457865 -0.18798783
000210 64 af b3 3d c6 68 57 bd f4 e5 4f 3d b8 35 63 3e
       0.087736875 -0.052590154 0.05075641 0.22188461
000220 39 c8 23 3d 57 f1 9b 3e 3c c7 72 3e 13 45 53 3e
       0.03998587 0.30457565 0.23708814 0.20631818
000230 b3 29 47 3e a5 f9 bf 3e 1d 6e 82 bd ea 0e 56 3e
       0.194495 0.3749515 -0.06368659 0.20904127
000240 da b5 a6 3d 89 e5 3c 3e f0 e4 8d 3c 90 4c 00 bd
       0.08140154 0.18446936 0.01732108 -0.031323016
000250 cc 6f c9 bd b7 2e 0a 3e ff 06 dc 3d b0 8c b7 3c
       -0.09835777 0.13494383 0.10743522 0.022405952
000260 6f 40 3f 3e 21 35 60 3e f4 21 37 3e ac 21 90 3d
       0.18676923 0.21895267 0.17884046 0.070376724
000270 d7 75 26 3d 98 86 3f 3e eb 93 22 3e 5d d3 51 3e
       0.040639725 0.18703687 0.15876739 0.20490785
000280 c7 42 e3 bd 2f 37 16 3e ca 8f 47 3e a0 a3 13 be
       -0.11096721 0.14669488 0.19488445 -0.14417887
000290 c8 d9 8a bd c8 ee af 3e c2 11 6a 3e 58 ab 23 bd
       -0.0677982 0.34361863 0.22858337 -0.039958328
0002a0 01 0d 9c 3d c2 f9 a4 bb 0c 86 0f 3e bc ad 7a bd
       0.07619668 -0.0050346563 0.14015979 -0.061200842
0002b0 8c 92 24 3d 89 ff b7 3d e3 5a 98 bc 6e 91 74 3d
       0.04017882 0.08984286 -0.018598026 0.059709005
0002c0 f6 e7 36 3d 2c d7 bf 3c ae de 68 3e a6 cc 29 be
       0.04465481 0.023418032 0.22741196 -0.16581973
0002d0 08 9a ae 3d 38 1c 61 3d 2b f2 25 3e b8 08 f1 3d
       0.08525473 0.054958552 0.16205661 0.11769241
0002e0 e4 9f 3f 3d ee 4a e2 3d 5e 15 bd 3e 71 13 84 3e
       0.046783343 0.11049448 0.36930364 0.25796083
0002f0 67 34 a8 3e 04 fd 9f 3d d5 32 f0 bd 5c 7c 6c 3e
       0.3285248 0.07811931 -0.117284454 0.23094314
000300 e3 51 3a 3e 82 55 8b 3e ea 98 0e 3e ac 5a 99 bd
       0.181953 0.27213675 0.1392552 -0.074879974
000310 22 27 5c be dc d8 3d 3d 21 9c 01 be 98 0e dd bd
       -0.21499303 0.04634939 -0.12657215 -0.10793799
000320 ed 4d 87 3e 03 15 8e 3e d1 6a bc bc f5 97 ca 3d
       0.2642664 0.27750406 -0.023000153 0.09892265
000330 85 35 d1 3d d7 9a 64 3e 4e 94 8a 3d a3 80 9e 3e
       0.10215286 0.22324692 0.06766568 0.30957517
000340 2a 4c 7f 3d 78 9d b6 bc 4a 05 78 3e 00 ff 10 be
       0.062328495 -0.022291884 0.24220768 -0.14159775
000350 54 c6 dc 3d 33 d3 94 3e a3 6e 48 bd da b6 02 3e
       0.107800156 0.29067382 -0.048933636 0.12765065
000360 83 fc a8 3e 01 57 20 3e 76 14 34 bd d6 af 0e 3e
       0.3300515 0.1565819 -0.043964826 0.13934264
000370 cb 7f ff bc 78 e0 61 bd 27 64 a2 bd e7 0d 0b 3e
       -0.031188866 -0.05514571 -0.07929259 0.13579522
000380 2c 8b 88 3e a4 ca 23 3e 10 b6 f5 bc a0 9a 4c 3c
       0.2666868 0.1599527 -0.02999404 0.012488037
000390 30 96 e5 3c b7 a1 e1 3d c2 f2 ed 3d 80 b9 08 3d
       0.028025717 0.11017173 0.11618568 0.03338003
0003a0 6e 87 46 3e 0e 2e 63 3e 59 d5 65 3e f1 d4 a5 3e
       0.193876 0.22185537 0.22444667 0.32389024
0003b0 b2 8b dd 3e 05 d3 a4 3e d8 75 1b 3e 90 44 95 3e
       0.43270642 0.32192245 0.15181673 0.29153872
0003c0 3b 0d ac 3e a4 0b cc 3d 98 22 47 3e cc af 68 3e
       0.33603844 0.09963158 0.1944679 0.22723311
0003d0 34 a4 54 3e fe 44 86 3d 68 7b a5 ba b4 0a c0 bd
       0.20765764 0.06556128 -0.0012625279 -0.093770415
0003e0 62 a2 1c 3e db 8e 33 3e 6b ad af 3e 74 34 a4 3c
       0.15296319 0.17534964 0.34311995 0.020044543
0003f0 ef 48 81 bd 39 2f 2e 3e 80 9e e2 3d d9 12 97 3e
       -0.06312739 0.17010202 0.11065388 0.29506567

fc1.bias f4 [128]
000000 a1 de d9 3d df c5 84 3e 1d ca 69 3e d6 41 de 3c
       0.10638166 0.25932214 0.22831006 0.027131002
000010 77 e6 c7 3c 5e 2a 26 3e 73 aa 54 3b c6 71 82 3e
       0.024401886 0.162271 0.0032450228 0.25477427
000020 1d 95 9b 3d 10 f7 db 3d 1d 92 43 3b 75 c9 3b 3e
       0.075968005 0.10740483 0.002984173 0.18338569
000030 8a de 16 3e ad 1c bc 3e 01 e7 04 3e fd 23 f4 bc
       0.1473333 0.36740628 0.12978746 -0.029802317
000040 31 14 72 3e 7e 9a 73 3d 93 da 75 3e 87 19 91 3d
       0.23640515 0.059473507 0.2400916 0.07084947
000050 37 3c 39 3e 8d a5 c9 3e 65 23 04 3d 2c 35 2f 3d
       0.18089376 0.39384118 0.032260317 0.042775318
000060 bc 28 1d bd 62 f7 d1 3e 42 3a ad 3e 44 88 f9 3d
       -0.038368925 0.4100905 0.3383351 0.12184194
000070 4a c0 91 3c b4 b2 75 3e e8 b5 6c 3d 56 45 42 3e
       0.017791886 0.23993951 0.057790667 0.18971762
000080 78 dd ce 3e 7d de ae 3e 7d 9a 6b 3e 82 dd 6e bc
       0.40403342 0.3415412 0.23008151 -0.014579179
000090 97 b3 4a 3e 0f 3c 0b be ef 52 0c 3e 02 5e 0c be
       0.1979507 -0.1359713 0.13703512 -0.13707736
0000a0 26 d8 10 bd 41 63 20 3e 5f c1 5f 3d a7 2d 48 bd
       -0.035362385 0.15662862 0.054627772 -0.048871662
0000b0 96 91 3e bd bc 34 5e 3e 2d 2b ee bc 19 f9 ef bb
       -0.04652556 0.21699804 -0.029073322 -0.007323396
0000c0 6d 37 ec bd ef 27 84 3e 19 7d 90 3d 81 12 cd 3d
       -0.11534009 0.25811717 0.070551105 0.10013295
0000d0 bf a6 85 3d 0e 6c 3c 3d 7e b4 82 3e 9b 01 88 3e
       0.06525945 0.046001486 0.2552833 0.26563725
0000e0 b8 02 0f 3e b2 d0 87 3e b0 f8 9b 3e 06 9e 8e 3e
       0.13965881 0.2652641 0.3046317 0.27854937
0000f0 bc 7c eb 3e 4e 65 af 3e 90 94 38 bd bd bb 87 3d
       0.45993602 0.34256977 -0.045063555 0.06627605
000100 81 c9 c1 3d 35 c3 89 3e 86 f1 4a 3e 13 e7 58 3e
       0.09462262 0.26906744 0.19818696 0.21181898
000110 ee e4 42 bd 18 e0 32 3d fd 71 fb 3c 87 36 45 3e
       -0.047581606 0.043670744 0.030694002 0.19259082
000120 63 e0 42 3d f4 a2 33 bb 8d 90 b4 3d 33 63 2d 3e
       0.047577273 -0.002741036 0.088166334 0.16932373
000130 a4 f5 86 3e d9 16 75 3d 95 18 7e 3e 85 51 55 3d
       0.26359284 0.059836242 0.24814065 0.052079696
000140 fe eb 5b 3c d6 23 93 3d 39 e9 57 3e fb 96 95 3d
       0.013422964 0.071845695 0.21085061 0.07304188
000150 b8 4e 7d 3e a9 20 54 3e b9 2b 9b 3c e7 c1 4c 3e
       0.2473706 0.20715584 0.018941747 0.19995843
000160 bf 9a b2 3e 09 ff 1b 3e a5 01 3e 3e 9b 7a 89 3d
       0.34883687 0.15234007 0.18555315 0.06712838
000170 50 11 96 3e cb ff ae 3e d3 aa 8d 3d 2d f9 51 bc
       0.29310083 0.3417953 0.06917348 -0.012815756
000180 3c b1 9f 3e 03 9b 07 3e 1d c7 83 3e a2 ca bc bd
       0.31189907 0.13242726 0.2573785 -0.09218337
000190 34 1f a0 3d 5d f7 07 3e 71 85 36 3c 83 b2 13 be
       0.078184515 0.13277955 0.011140213 -0.14423566
0001a0 1c 3e b9 bd d1 71 b6 3e d2 73 97 bd c6 1c c4 bd
       -0.090450495 0.3563371 -0.07395138 -0.095758006
0001b0 07 86 8f 3e f9 75 88 3e f9 7e 66 bd 36 2f 3e 3e
       0.28031942 0.26652506 -0.056273434 0.18572697
0001c0 77 12 80 3e 7d a8 50 3b ff 48 92 3e 2f 09 51 3e
       0.25014088 0.0031838708 0.28571317 0.2041366
0001d0 e4 a8 c1 3e c6 a2 80 3e ba c1 9a 3e 30 31 6e 3e
       0.37824166 0.25124186 0.30225927 0.23260951
0001e0 60 be db 3e 79 64 65 3e ed a8 d3 3e 52 71 b0 3e
       0.42918682 0.22401609 0.41339818 0.34461457
0001f0 51 7d 6a 3d 43 cb 03 be c2 f3 81 bd 5e d0 db 3e
       0.057248417 -0.12870507 -0.06345321 0.4293241

fc2.weight f4 [64, 128]
000000 91 17 35 3d 0f fa b8 3d 41 ad ec 3d c5 e3 57 3e
       0.044211928 0.0903207 0.11556483 0.21082981
000010 46 1a 8c 3e 31 2b 54 3e 5a c6 0e 3e 60 bd d9 3d
       0.27363795 0.20719601 0.13942853 0.106318235
000020 d9 73 57 3e 18 a2 39 3e f3 af 36 3e 68 24 10 3e
       0.21040286 0.1812824 0.17840557 0.14076388
000030 d9 c6 af 3c 9a 17 07 3e 22 06 88 3e 4d b0 1f 3e
       0.021457123 0.13192597 0.2656718 0.15594597
000040 9c 25 d4 3c 2a 7d a3 3d eb 8f eb 3d 6a ba 47 3e
       0.02589684 0.079828575 0.115020595 0.19504705
000050 7d 1d 25 3e ef c4 3a 3e 24 ef 03 3e 06 26 97 3d
       0.1612453 0.18239187 0.12884194 0.07380299
000060 0c b9 26 3e ce bb 65 3e 46 f6 57 3e 14 76 08 3e
       0.16281527 0.22434923 0.2109004 0.13326293
000070 c1 2b 3b 3e 4f f6 42 3e 16 71 0d 3d b1 dd 89 3d
       0.1827841 0.19039272 0.034531675 0.067317374
000080 10 03 6d 3e ac 1b 5e 3d 84 4c 28 3e 19 a1 90 3d
       0.231457 0.05422561 0.16435438 0.07061977
000090 55 c4 3e 3e 64 f8 59 3d 0a 6e d9 3d 52 b8 da 3d
       0.18629582 0.0532154 0.106166914 0.106796876
0000a0 b9 cd e8 3c d1 86 47 3c f8 58 ad 3d 2c e6 46 3e
       0.028418409 0.012178139 0.08464235 0.19423741
0000b0 40 d3 69 3e ea 2a 01 3d c9 ed 30 3e b2 c1 ed 3d
       0.22834492 0.031535067 0.17278208 0.1160921
0000c0 c9 ad 53 3d cb be 1f 3e d4 54 50 3d 41 ed b7 3e
       0.051679406 0.15600125 0.05086215 0.35923198
0000d0 76 40 37 3d f0 d6 10 3e 3d 32 c2 3d 36 aa 24 3e
       0.04473921 0.14144492 0.094822384 0.16080555
0000e0 88 c5 11 3f 6a 54 71 3e 51 37 92 3d eb 05 3a 3e
       0.56942034 0.23567358 0.07139457 0.1816632
0000f0 7a 5f eb 3d 4b 25 33 3e 46 34 3d 3e 2b cf af 3d
       0.1149282 0.17494695 0.18476972 0.08584436
000100 30 26 c0 3d 5d 4c ad 3e 9b a7 bc 3d 9f e8 78 3d
       0.09382284 0.33847323 0.09211656 0.06076872
000110 89 6c 2e 3e 04 19 d6 3c ff 4f 3c 3d 3a 86 b1 3d
       0.1703359 0.026134975 0.045974728 0.0866818
000120 d5 3d 47 3d 34 f1 9c 3c 00 b6 29 3e 70 01 09 3e
       0.048642952 0.019157983 0.16573334 0.13379455
000130 54 c5 41 3e c8 5e 82 3d ca 2a 3c 3e 52 cf 18 3e
       0.18922931 0.06365734 0.18375698 0.14922836
000140 45 a3 5e 3d 9f 3a 7e 3e 3a 1a 67 3e 90 b2 cd 3d
       0.054354925 0.2482705 0.22568598 0.10043824
000150 46 a2 37 3e ef 16 e9 3d 3a 10 7c 3d 1a 7a 2a 3d
       0.17932996 0.11381327 0.061538912 0.04162035
000160 ad 99 03 3e 9d 76 37 3e ef fc c7 3d 8c c6 32 3e
       0.12851591 0.17916341 0.0976504 0.17458552
000170 4f 55 80 3d 8b 37 2f 3e e3 dc f4 3d 6f 74 76 3d
       0.06266271 0.17111032 0.11956193 0.060169633
000180 54 a6 74 3e 38 8c 0b 3e f0 52 3c 3e ac bc a0 3d
       0.23891574 0.13627708 0.18391013 0.07848486
000190 a1 53 99 3d 52 22 36 3d e9 05 0d 3e d4 2e d6 3d
       0.07486654 0.044466324 0.13771786 0.104581505
0001a0 d5 c2 e9 3d ad 38 19 3e c8 03 ff 3d 4b 0c 1b 3e
       0.114141144 0.14963026 0.12451893 0.15141408
0001b0 a8 41 06 3e 5d a9 cb 3d 57 41 a6 3d 30 4b 39 3e
       0.13110983 0.09944413 0.08117931 0.18095088
0001c0 22 18 ce 3d da 5c e0 3d 71 3d eb 3d 82 c5 2f 3d
       0.10063197 0.1095521 0.114863284 0.042912968
0001d0 9a 67 a5 3c 29 c8 1a 3e b0 17 85 3e f2 4d 83 3d
       0.020191003 0.15115418 0.25994635 0.06411351
0001e0 38 a9 07 3e a6 0c 1f 3d 81 64 ee 3d 76 91 98 3d
       0.13248146 0.038830422 0.11640263 0.074496195
0001f0 06 e2 2f 3d e3 9a 83 3d bb 2e cb 3d 6f 7b 2c 3e
       0.042940162 0.06426027 0.099210225 0.16843961
000200 c1 4c ce 3d 0b 21 6f 3d 17 74 e6 3d 50 9e 55 3e
       0.100732334 0.05838112 0.11252611 0.20861173
000210 b9 09 ed 3d 12 b3 65 3e a8 f4 93 3d 0a 49 16 3e
       0.1157412 0.22431591 0.07224399 0.146763
000220 82 b9 4a 3e 13 e0 8c 3e bd 8e 78 3d 7c e5 c4 3d
       0.19797328 0.27514705 0.060683 0.09614083
000230 41 d6 20 3e f9 c4 a7 3d 20 d4 c3 3e 61 98 3b 3e
       0.15706731 0.081918664 0.38247776 0.18319847
000240 99 67 03 3e 49 77 df 3d c5 6a 7f 3b b8 35 52 3e
       0.12832488 0.10911424 0.0038973552 0.20528305
000250 36 47 cc 3d 2f 6e e5 3d 46 33 08 3e a2 9d fc 3b
       0.0997452 0.112026565 0.1330081 0.007709221
000260 97 ec 1d 3d c5 f4 37 3e 6c e9 59 3e 68 c2 09 3e
       0.038555708 0.17964466 0.2128045 0.13453066
000270 5a 4a 0d 3d 4b c6 27 3e 5d 76 2c 3d ef 21 16 3d
       0.034494735 0.16384237 0.042105068 0.036653455
000280 69 c7 97 3e fa 8a 14 3e f9 6b 01 3e 12 2a 0b 3d
       0.29644325 0.1450614 0.12638845 0.03397567
000290 29 af e3 3d 06 af 09 3e 99 fd c2 3d d7 8e 3a 3d
       0.111173935 0.13445672 0.09521026 0.04554638
0002a0 77 6d 01 3e 6c a7 a9 3d ca 16 ff 3d 75 4a 85 3e
       0.12639414 0.08283886 0.124555185 0.2603337
0002b0 01 12 39 3e e7 80 0e 3e b9 93 76 3c 84 4e 1c 3e
       0.18073274 0.1391636 0.015049868 0.15264326
0002c0 44 36 8f 3d 0d d4 34 3e d1 f2 36 3d 5b d0 07 3f
       0.06992772 0.17659016 0.04466516 0.530523
0002d0 52 ca de 3d 4a 35 6c 3d ff 10 25 3e 54 68 08 3d
       0.10878433 0.057668008 0.16119765 0.03330262
0002e0 ab 81 14 3f 30 70 05 3e a4 4f 03 3e ba 37 fd 3d
       0.5801036 0.13031077 0.12823349 0.123641446
0002f0 af 98 1d 3e 18 ad c2 3d e5 dc 31 3e 47 c9 ad 3d
       0.15390275 0.09505671 0.17369421 0.08485656
000300 24 00 02 3e b4 5e 08 3f 92 b9 76 3d c0 c9 ae 3d
       0.12695366 0.53269506 0.060235567 0.085345745
000310 d2 12 0a 3d fe 1f 90 3d 65 e4 0a 3e f2 51 03 3e
       0.033709355 0.07037352 0.13563688 0.12824228
000320 04 a6 d7 3d 30 1d b1 3c 26 a0 31 3e e2 aa ef 3c
       0.10529712 0.021620363 0.17346248 0.029256288
000330 32 e5 44 3e a9 ca cb 3d ae 07 a0 3e ce 5d 8c 3e
       0.19228056 0.09950764 0.3125586 0.27415317
000340 48 6c d5 3c 35 48 48 3e b1 f9 6e 3e 31 31 f7 3d
       0.02605261 0.19558795 0.23337437 0.120699294
000350 80 ca db 3d 4d 2d cc 3d 2e 0c f6 3c 90 a6 58 3d
       0.10731983 0.09969578 0.030035105 0.05289322
000360 ee 2e b9 3d cf 08 87 3d 81 6c 92 3d fb ef 32 3e
       0.09042154 0.06593477 0.07149602 0.17474358
000370 34 55 cf 3d 1a 1b 8d 3d 5e 3c 2b 3e c1 f1 26 3e
       0.10123673 0.06889935 0.16722247 0.1630316
000380 15 26 ea 3e ef c7 01 3e 93 44 1d 3e d2 d0 9c 3c
       0.4573218 0.12673925 0.1535819 0.019142542
000390 40 b7 f9 3d 0d a3 e6 3c 58 1b 07 3e b1 cd d5 3d
       0.12193155 0.02815392 0.13194025 0.10439623
0003a0 1d 8c a9 3d f2 f7 8b 3d 4a 4f 0c 3e 33 9f 94 3d
       0.082786776 0.06834401 0.13702121 0.07256927
0003b0 76 e1 b4 3d 77 f3 4b 3e 08 9b d2 3d fb 57 1c 3e
       0.08832066 0.19917093 0.10283476 0.15267937
0003c0 67 7c aa 3d a6 7c 14 3e c3 dd b3 3d b6 c8 22 3e
       0.08324509 0.14500675 0.08782532 0.15896878
0003d0 39 bf 1a 3e f3 43 9b bb 36 44 49 3e 0d 69 92 3d
       0.15112008 -0.004738325 0.19654927 0.07148943
0003e0 ab f2 86 3e 66 ec 02 3e 68 d6 4b 3e c9 36 0c 3e
       0.26357016 0.12785491 0.19906008 0.13692774
0003f0 de fc f0 bb 45 a1 81 3d 13 ac 27 3d f8 74 d0 3d
       -0.007354363 0.06329588 0.040935587 0.1017856

fc2.bias f4 [64]
000000 a2 dc db 3d 6d 58 16 3e 70 40 c2 3d 39 21 4d 3c
       0.10735442 0.1468217 0.09484947 0.012520128
000010 8d 3c 6e 3d be df 17 3e aa 89 21 3e 4d 37 de 3d
       0.058163214 0.14831445 0.15775171 0.108503915
000020 8f 3e 1a 3e a4 92 e8 3d 01 c5 c8 3c 96 20 a2 3d
       0.15062927 0.113560945 0.024508001 0.079163715
000030 15 fd 9d 3c 91 bd ae 3b 84 af 24 3c 8c 6f 37 3d
       0.019285718 0.0053326567 0.010051612 0.044784114
000040 f7 9d 8b 3d 06 30 25 3e 30 00 19 3c 93 60 64 3d
       0.06817239 0.161316 0.009338424 0.055756163
000050 1f f2 aa 3d 35 b8 16 3e 16 a0 cf 3c 63 6c 19 3d
       0.08346962 0.14718707 0.02534489 0.03745688
000060 a4 d9 fd 3d b5 e8 ee 3d a7 77 e1 3d dc d9 0f 3c
       0.12395027 0.11665479 0.1100915 0.008779969
000070 8f e0 64 3d 2c bf 08 3e fa 0d e6 3d 9e 12 a0 3d
       0.05587822 0.13354176 0.112331346 0.07816051
000080 6e c8 a7 3d 6a 45 1e 3d a8 2d e7 3d 73 f1 a3 3d
       0.08192526 0.038640417 0.11288005 0.08005037
000090 b7 54 ea 3c 23 e0 f6 3c a9 4d 42 3d 39 d5 9e 3d
       0.028604848 0.030136174 0.047437344 0.07755513
0000a0 3d f7 06 3e 41 09 17 3d 0f 56 a5 3d 68 cc 02 3e
       0.13180251 0.03687406 0.08073055 0.12773287
0000b0 f1 39 0d 3e 5f 76 c8 3d 7e 58 1c 3e a1 64 0e bc
       0.13791634 0.097882025 0.15268132 -0.008690984
0000c0 77 0a 45 3d b9 95 cf 3d 77 4e 86 3c 20 c4 dc 3d
       0.048105683 0.10135979 0.016394837 0.107795954
0000d0 d2 83 d8 3c a8 4d e2 3c f7 73 dd 3d b2 f0 61 3d
       0.026430044 0.02762492 0.10813134 0.055161186
0000e0 2f bd 93 3c 40 e2 d7 3c fa 9b e6 bb 23 d2 e9 3c
       0.018034546 0.026353002 -0.007037637 0.028542584
0000f0 42 bc 5a 38 ee e9 28 3d b2 bf ba 3d 7c 5d 14 3e
       5.215058e-05 0.041238718 0.09118594 0.14488786

fc3.weight f4 [6, 64]
000000 30 ff 39 c0 c9 ee 36 c0 c1 73 41 c0 ac e0 35 c0
       -2.9062004 -2.8583243 -3.02269 -2.841838
000010 02 e1 e6 bf 2a 2f 37 c0 de 09 34 c0 ae 5a 40 c0
       -1.8037417 -2.8622537 -2.8131022 -3.0055346
000020 ce 46 37 c0 18 8c 34 c0 ed 18 31 c0 02 6a 35 c0
       -2.8636966 -2.8210506 -2.7671463 -2.8345952
000030 72 4a 3b c0 d3 54 32 c0 2f 65 b8 bf e6 bf f4 bf
       -2.9264188 -2.7864273 -1.4405879 -1.9121063
000040 35 bd 03 c0 40 82 3b c0 8d e0 31 c0 65 72 f6 bf
       -2.0584233 -2.9298248 -2.7793305 -1.925366
000050 e9 13 3c c0 e3 c4 3c c0 b0 5c 36 c0 ca ea 34 c0
       -2.9387152 -2.949517 -2.8494072 -2.8268304
000060 77 0f 39 c0 64 1f 3c c0 c6 b9 3a c0 c6 4a 32 c0
       -2.891569 -2.939416 -2.9175887 -2.7858138
000070 85 2b 35 c0 96 59 35 c0 d9 8f 35 c0 30 8e 3d c0
       -2.8307812 -2.833593 -2.8369048 -2.9618034
000080 b1 d2 37 c0 95 c2 ce bf e4 a0 bb be 6a f8 34 c0
       -2.8722346 -1.6153132 -0.36646187 -2.827662
000090 ea 9e 37 c0 b2 22 34 c0 75 bd 31 c0 cb 89 34 c0
       -2.8690743 -2.8146176 -2.7771885 -2.8209102
0000a0 55 a7 39 c0 7a cd 37 c0 95 22 3f c0 84 de af bf
       -2.9008381 -2.8719163 -2.9864857 -1.3739781
0000b0 6e 91 3a c0 e5 13 3d c0 1d 32 3c c0 b5 4a 31 c0
       -2.9151263 -2.9543393 -2.9405587 -2.7701848
0000c0 cb 74 3b c0 22 cc 3a c0 3c 49 32 c0 31 ff 3c c0
       -2.9290035 -2.9187093 -2.7857199 -2.9530756
0000d0 7d 9f 3f c0 0a eb 39 c0 94 a7 33 c0 38 bb 38 c0
       -2.9941094 -2.9049706 -2.8071032 -2.886427
0000e0 88 30 38 c0 78 65 3f c0 6e 0d 3b c0 3f a1 40 c0
       -2.877962 -2.9905682 -2.9226947 -3.0098417
0000f0 58 c2 b6 bf 00 a9 35 c0 9d c6 34 c0 92 d2 33 c0
       -1.4278059 -2.83844 -2.8246224 -2.8097272
000100 a5 60 3c c0 37 1a 34 c0 ba c8 3e c0 c4 a5 3f c0
       -2.9433987 -2.8141 -2.9810014 -2.9944925
000110 0c ae e8 bf 2e 8c 30 c0 ed b4 3d c0 d1 5f 37 c0
       -1.8178115 -2.758556 -2.9641678 -2.8652232
000120 f1 19 36 c0 02 1a 3d c0 95 f6 3a c0 b7 d9 2f c0
       -2.8453333 -2.9547124 -2.9213002 -2.7476633
000130 c0 9a 3a c0 9b 52 38 c0 fb 6a b6 bf 5c 24 00 c0
       -2.9156952 -2.8800418 -1.4251398 -2.0022192
000140 e4 7f fe bf 9b 68 32 c0 5f b0 34 c0 3b 34 ef bf
       -1.9882779 -2.7876346 -2.8232648 -1.8687814
000150 0b ae 3c c0 3d 02 3b c0 0d ed 3b c0 05 56 32 c0
       -2.9481227 -2.9220116 -2.9363434 -2.7865002
000160 c7 e7 3a c0 49 1e 3e c0 d4 48 36 c0 9a 7e 30 c0
       -2.9203966 -2.9705985 -2.848195 -2.7577271
000170 1c 8a 32 c0 8d 96 3f c0 51 28 36 c0 69 e6 31 c0
       -2.7896795 -2.993564 -2.8462107 -2.7796881
000180 23 f3 3b c0 1b 91 c5 bf d6 b9 fa be e5 95 31 c0
       -2.936715 -1.5434908 -0.48969907 -2.7747738
000190 8b 3e 36 c0 47 e8 34 c0 37 cb 3b c0 92 bb 3c c0
       -2.8475673 -2.826677 -2.9342782 -2.9489484
0001a0 b5 b9 31 c0 fe ae 39 c0 15 f8 3d c0 4e b3 ae bf
       -2.7769597 -2.9013057 -2.9682667 -1.364847
0001b0 6c b1 35 c0 73 19 3a c0 4c 79 3f c0 1b 04 38 c0
       -2.838954 -2.9078033 -2.9917784 -2.8752506
0001c0 4f d1 36 c0 a0 14 35 c0 f0 ea 38 c0 7f 79 37 c0
       -2.8565252 -2.8293839 -2.8893394 -2.8667905
0001d0 0f 45 3a c0 a3 57 3f c0 33 f7 3d c0 e2 8a 3a c0
       -2.910465 -2.989724 -2.9682128 -2.9147267
0001e0 4f 90 39 c0 fb 33 32 c0 89 80 35 c0 f5 53 31 c0
       -2.899433 -2.7844226 -2.8359702 -2.7707493
0001f0 74 30 c2 bf 7d 3a 3e c0 df 6b 34 c0 0d a2 32 c0
       -1.5171037 -2.9723198 -2.819084 -2.7911408
000200 ed 6c 3a c0 42 ee 35 c0 71 c0 38 c0 1a 06 32 c0
       -2.9128983 -2.842667 -2.8867457 -2.7816224
000210 2a fa d4 bf 28 7e 3d c0 1e 8e 37 c0 58 0a 36 c0
       -1.6638844 -2.960825 -2.8680491 -2.8443813
000220 e6 c8 32 c0 f5 6a 3f c0 d6 12 3a c0 40 70 2b c0
       -2.7935119 -2.9909031 -2.9073997 -2.6787262
000230 1b 77 35 c0 af 55 3b c0 6a ad b1 bf a0 12 e3 bf
       -2.8353946 -2.9271047 -1.3881047 -1.7740059
000240 33 2f ff bf 1d ab 38 c0 8b 6e 35 c0 e3 46 e8 bf
       -1.9936279 -2.885444 -2.834872 -1.8146633
000250 97 40 38 c0 ef cb 40 c0 3a 32 33 c0 62 75 3a c0
       -2.8789423 -3.012447 -2.7999406 -2.9134145
000260 5f d5 2f c0 59 8e 3f c0 8c df 3b c0 32 33 31 c0
       -2.7473981 -2.9930632 -2.9355192 -2.7687497
000270 99 33 40 c0 d2 e5 3a c0 a5 b9 3b c0 c0 d3 31 c0
       -3.0031493 -2.920277 -2.9332058 -2.7785492
000280 5a 28 3d c0 eb 68 c0 bf e1 12 a6 be 6a d9 34 c0
       -2.9555879 -1.5032018 -0.32436278 -2.82577
000290 f1 67 3e c0 c9 ce 35 c0 1b 87 37 c0 ae e6 3c c0
       -2.975094 -2.8407462 -2.8676212 -2.9515796
0002a0 6b 07 3d c0 cd 3e 40 c0 6f 70 3b c0 9d a9 c6 bf
       -2.9535778 -3.003833 -2.9287374 -1.5520512
0002b0 35 94 39 c0 5a 42 3f c0 76 08 34 c0 ff dc 31 c0
       -2.8996708 -2.9884248 -2.8130164 -2.7791135
0002c0 aa d2 34 c0 ac b2 3e c0 e0 93 31 c0 03 2b 36 c0
       -2.825358 -2.9796553 -2.7746506 -2.8463752
0002d0 b2 7e 3e c0 ef ec 3a c0 b4 11 35 c0 c1 ca 35 c0
       -2.9764829 -2.9207113 -2.8292055 -2.8405
0002e0 f0 58 37 c0 6a 42 37 c0 59 5e 3e c0 7b cd 37 c0
       -2.8648033 -2.8634286 -2.9745085 -2.8719165
0002f0 1b dd be bf 9a e9 3e c0 ca 72 3d c0 f4 67 36 c0
       -1.4911226 -2.983008 -2.9601312 -2.8500948
000300 ab 48 3f c0 21 c1 39 c0 c8 3a 39 c0 9a 70 3f c0
       -2.9888103 -2.9024127 -2.8942127 -2.9912477
000310 7f 7e e9 bf b4 37 39 c0 01 15 3f c0 9f 4a 35 c0
       -1.8241729 -2.8940248 -2.985657 -2.8326795
000320 86 f0 32 c0 84 3b 35 c0 79 fe 3b c0 c0 8b 35 c0
       -2.7959304 -2.8317575 -2.9374068 -2.8366547
000330 cc 92 3a c0 b1 96 34 c0 15 14 b6 bf 98 6c 03 c0
       -2.9152098 -2.8216975 -1.4224879 -2.053503
000340 e1 cb 06 c0 8a 19 33 c0 2f 7b 32 c0 b7 b7 ef bf
       -2.1061938 -2.7984338 -2.7887685 -1.872794
000350 10 48 3d c0 f2 e8 30 c0 89 49 3e c0 0b c5 3e c0
       -2.9575233 -2.7642179 -2.9732382 -2.9807765
000360 dd 06 38 c0 af 3f 37 c0 7c 8f 30 c0 55 9e 33 c0
       -2.875419 -2.863262 -2.7587576 -2.8065388
000370 34 12 37 c0 0c 4b 36 c0 af f1 30 c0 e8 b8 38 c0
       -2.860486 -2.8483305 -2.7647512 -2.8862858
000380 6d 25 38 c0 b8 a3 d0 bf d0 8f ac be cc af 39 c0
       -2.8772843 -1.6299963 -0.3370347 -2.9013548
000390 81 d9 39 c0 42 58 3b c0 02 61 32 c0 31 ce 34 c0
       -2.9039004 -2.9272618 -2.787171 -2.825085
0003a0 c9 f9 36 c0 6c 17 33 c0 f6 19 3c c0 d4 65 c5 bf
       -2.8589957 -2.7983046 -2.9390845 -1.54217
0003b0 3c b8 3b c0 2c 44 33 c0 a3 54 39 c0 16 76 33 c0
       -2.9331198 -2.801036 -2.8957908 -2.8040824
0003c0 f6 1d 38 c0 f8 64 35 c0 a0 52 3d c0 4b 81 34 c0
       -2.8768287 -2.8342876 -2.958168 -2.8203914
0003d0 84 64 38 c0 2d a2 33 c0 da 9c 38 c0 fa 9c 37 c0
       -2.881135 -2.8067734 -2.8845735 -2.868956
0003e0 91 30 33 c0 98 8e 3e c0 3f fd 36 c0 d7 53 3c c0
       -2.7998393 -2.9774532 -2.859207 -2.9426172
0003f0 7d a0 cc bf ca 80 34 c0 83 66 3a c0 c8 18 3c c0
       -1.5986477 -2.8203607 -2.9125068 -2.9390125

fc3.bias f4 [6]
000000 9d 4f 3b c0 9c 4a 35 c0 8c 51 39 c0 79 45 34 c0
       -2.9267342 -2.8326788 -2.8956022 -2.8167403
000010 7b fc 2d c0 71 e5 2f c0
       -2.7185352 -2.748379
