dqn_taxi_light128.pth (torch, 45932 bytes, 6 tensors)

fc1.weight f4 [128, 16]
000000 7b bb 9e 3e 1c e5 f6 3d b0 9d 97 bc 58 71 3d bd
       0.3100241 0.12055418 -0.018507808 -0.04625067
000010 fe 32 43 3e 2c 9d 19 bd 8a ae 31 bd 50 82 41 3e
       0.1906242 -0.037503406 -0.043379344 0.18897367
000020 32 b7 98 3e c4 c5 f9 bc f0 d3 a1 3e 9a 79 a8 3e
       0.29827267 -0.03048981 0.31607008 0.32905275
000030 5a 60 1b 3d 2b 18 9f bd 86 a1 06 be eb 11 8b bd
       0.037933685 -0.077682815 -0.13147554 -0.06790527
000040 22 72 17 3c 89 ef 88 3e c8 8e d3 3d a0 04 1f 3e
       0.00924352 0.2674525 0.10329968 0.15529108
000050 ea c0 5d 3e d7 f4 a7 3d 61 af a1 3d 8c ed dc bd
       0.21655622 0.08200996 0.07894779 -0.10787496
000060 57 d6 d3 3d 30 d2 36 3e 51 e6 6b bd 0e 43 34 3e
       0.103436165 0.17853618 -0.057592694 0.17603704
000070 ba 92 ad 3d b3 0d b1 3e 8c 6b 1f 3e 54 e2 be 3e
       0.084752515 0.34580764 0.1556837 0.3728205
000080 d0 ee 41 3d 06 2e 90 3e 1a a2 09 3e f2 6b 14 3e
       0.04734689 0.28160113 0.13440743 0.14494303
000090 e0 49 da bc 07 c6 a8 3e 1a 8b b0 bd d8 e0 59 bd
       -0.026646554 0.32963583 -0.086202815 -0.053192943
0000a0 78 d2 9e 3d be b3 79 bd c1 c5 9f 3e 5f d3 03 bc
       0.077549875 -0.06096243 0.31205562 -0.008046
0000b0 93 fe 3a 3d 49 4b 42 3e ef e9 0b 3e 21 ce 07 3e
       0.045652937 0.18974032 0.13663457 0.13262226
0000c0 57 d3 3f ba dc c4 5a bd 6a 8f 0f 3e a8 3c 65 bd
       -0.0007317564 -0.053410396 0.14019552 -0.05596605
0000d0 28 aa 91 bd 36 09 8d 3e a5 fa 07 3e 8a 42 4b 3e
       -0.07112533 0.2754609 0.13279207 0.19849601
0000e0 2d 8a 1a 3e 61 4f 38 bc 92 ed f8 3d 08 93 e9 3d
       0.15091772 -0.011249394 0.12154688 0.11404997
0000f0 16 b4 df 3d ff c7 8e 3c 35 9d 80 3e 0d f7 aa bd
       0.109230205 0.01742935 0.2511994 -0.083479024
000100 3a 4d 4d 3d 30 5e 82 bc 3a e7 1a be a6 82 15 be
       0.050122477 -0.015914053 -0.15127268 -0.1460062
000110 04 aa e0 bd 2f e7 d6 3d 0f 64 1d bc f8 4b 54 bd
       -0.10969928 0.104933135 -0.009606375 -0.051830262
000120 61 31 f9 3d f1 83 08 3e 31 3b 4d bc ee 38 73 3e
       0.121676214 0.13331582 -0.012526319 0.23752186
000130 7e e8 52 3e 2e 22 f7 bc de 8f 5b 3e 1e 8a 6f 3b
       0.20596501 -0.030167665 0.214416 0.003655083
000140 8b d9 e4 3d 30 e1 06 3e 40 10 88 3c 90 36 48 bd
       0.111743055 0.1317184 0.016609311 -0.04888016
000150 e4 e1 03 3e 6d 8b 7c 3e bb a9 8a 3e 38 a6 54 bd
       0.12879139 0.24662562 0.2708262 -0.05191633
000160 79 4d a9 bd 61 5d d2 bd 4f 3f 43 3e 01 f2 a4 3d
       -0.0826673 -0.10271717 0.19067119 0.08053971
000170 6a 14 e7 3d 58 44 f2 3c 93 ef 2c 3e 66 2e 8a 3e
       0.112831905 0.029573604 0.16888265 0.26988524
000180 93 c5 78 3e a8 c2 a3 3e f8 ac 31 be 9e 34 36 be
       0.24294119 0.31984448 -0.17351139 -0.1779351
000190 7c 77 29 3e 19 ba fa bd 63 23 34 3d 8c 56 06 3e
       0.16549486 -0.122425266 0.04397906 0.13118953
0001a0 f1 af a4 3e 0e ab 03 3e b6 11 63 bd 26 c9 c8 3d
       0.32165483 0.12858221 -0.055436812 0.09803991
0001b0 8c 0c a8 3d e3 16 87 bd 41 58 e3 3c 2a 42 e2 bd
       0.08205518 -0.06596162 0.027752044 -0.11047776
0001c0 e3 6b 0d bc a5 5b 1d bd 68 e5 48 bd 84 28 c2 3d
       -0.008631679 -0.038417477 -0.049046904 0.09480384
0001d0 24 45 a5 bd 97 62 e0 3c 12 2e 0a 3e 3c c4 d3 3d
       -0.08069828 0.027390761 0.13494137 0.10340163
0001e0 29 6c 4e 3c 3a b9 65 3e fe ca 51 3e 62 db 84 3e
       0.01259903 0.2243394 0.20487592 0.25948626
0001f0 61 b3 00 be 26 76 2f bc 19 b3 18 3c 5c 29 28 be
       -0.12568428 -0.010709321 0.009320044 -0.16422027
000200 0a 68 1a 3c 65 e8 87 3d 7a 97 3b be 68 09 40 3d
       0.009424219 0.066361226 -0.18319502 0.04688397
000210 44 f6 c8 bd ac 7c 67 3e 3a 90 37 3b 34 64 3a 3e
       -0.098125964 0.22606152 0.002800955 0.18202287
000220 ac 85 81 3c 12 af 57 3e a9 2f 8d bd e7 0a 8d 3e
       0.01581081 0.21062878 -0.06893856 0.2754738
000230 61 64 9c 3e ed 50 47 3e a6 65 88 3e d3 f4 54 3e
       0.30545333 0.19464464 0.26640052 0.20796518
000240 3d ee 30 3e d4 ad 15 3d d4 98 55 3e 78 ab 5f 3e
       0.1727838 0.03654273 0.2085908 0.21842754
000250 b0 bd df 3c 66 cd 9f 3e 9d 00 6b 3e 60 62 12 3e
       0.02731213 0.31211394 0.22949453 0.1429534
000260 1c 63 aa 3e 13 32 bd bd 8b 15 65 3e f7 af de 3d
       0.3327874 -0.092380665 0.22371499 0.108734064
000270 89 d3 78 bc a2 e9 09 be 96 c3 2d be bc 32 89 bd
       -0.015187153 -0.1346803 -0.16969141 -0.0669913
000280 8e c6 26 3e 29 d4 4b bc dc 6d 39 3e f0 fe ad 3d
       0.1628668 -0.01244072 0.18108314 0.08495891
000290 d8 9e 41 be 59 4d 93 3d 46 1a 28 3d d0 ad e1 3c
       -0.1890825 0.07192487 0.04104068 0.0275487
0002a0 13 35 74 3e e1 9e ed 3d f5 50 5c 3e 7f e8 d6 bd
       0.23848371 0.11602569 0.21515258 -0.10493564
0002b0 7a d6 b1 3e 72 e3 93 3e 18 71 93 3d 8b b2 ec bc
       0.34733945 0.28884465 0.07199305 -0.02889373
0002c0 20 18 bf 3d 50 19 85 3e fe 30 2c be 40 ce 42 bd
       0.09330773 0.25995874 -0.16815564 -0.047559977
0002d0 22 72 12 be d6 22 cd 3d 41 aa e4 3d e6 5d 07 be
       -0.1430135 0.1001641 0.11165286 -0.13219413
0002e0 84 08 e3 bb 39 98 d2 3d e0 18 e4 3c f1 be cb 3d
       -0.0069285054 0.102829404 0.027843893 0.099485286
0002f0 d3 b1 6a 3e 4a 3b 9f 3e 75 63 68 3e 12 48 13 bd
       0.22919397 0.3109992 0.2269419 -0.035957403
000300 ef 20 68 3e 33 fc 83 3e e4 65 21 be 78 72 32 3d
       0.22668813 0.2577835 -0.15761524 0.043566197
000310 24 84 5a be a9 01 24 3e 97 c0 0a 3e a8 b7 48 3d
       -0.2133947 0.16016258 0.1355003 0.049003273
000320 e1 e1 24 3d 72 9e f8 3c 3d ce 91 3e 70 5a 90 3d
       0.040254477 0.03034899 0.2847766 0.070484996
000330 cb e6 6b 3e ab a3 88 3e 5f f7 63 bd 8d 39 2d 3e
       0.2303726 0.2668737 -0.055655833 0.16916485
000340 41 8f 1e bd 8f 46 b1 3e b0 ba 05 3e b6 7b 35 be
       -0.038710836 0.34624144 0.13059497 -0.17722973
000350 e0 ba 94 bc 70 e2 a4 bd ae 3b b5 3d 88 04 56 bd
       -0.018155515 -0.08051002 0.088492736 -0.052250415
000360 9f fa a1 3e 27 3c 05 3e e0 39 c2 3e 5e ab 99 3e
       0.3163652 0.13011228 0.3793478 0.30013555
000370 9b 46 32 bd 00 85 ab 3d 98 95 83 3e 49 80 2a 3e
       -0.043524366 0.08374977 0.25700068 0.166505
000380 ab 3a 51 3e ee 6a 6c 3e a4 fb f3 3d 50 74 4a bd
       0.20432536 0.23087665 0.11913231 -0.04942733
000390 fc fa ac bd ab ec 08 be 08 b7 93 bc c2 c8 1d 3e
       -0.08446309 -0.13371532 -0.018031612 0.15408614
0003a0 36 f9 82 3e b8 60 ae 3e 50 fa 28 bd 44 0c b1 3d
       0.25580758 0.34058166 -0.04125434 0.086449176
0003b0 d0 56 8c 3e ed cc ae bd e5 29 c0 bd b7 b9 26 be
       0.27409983 -0.0853518 -0.09382991 -0.16281782
0003c0 9d 9f 3c 3e 47 f8 ca bd 32 26 20 be 20 70 ff 3d
       0.18420263 -0.099106364 -0.1563957 0.12472558
0003d0 58 85 35 3d 93 37 9a bd ce 9c a4 3e f6 e8 14 be
       0.04431662 -0.07530131 0.32150882 -0.14541993
0003e0 36 84 9f 3d cb 76 0c 3e 27 20 b2 3e 60 3d 55 3e
       0.07788889 0.13717191 0.34790155 0.20824194
0003f0 2e c0 c2 3d 02 b4 d2 bd e9 a7 85 3e 6a 9a 4e 3e
       0.095093116 -0.1028824 0.26104668 0.20176092

fc1.bias f4 [128]
000000 73 e2 2a 3e 35 9e c1 3e d9 f5 5a 3e f6 bc 92 3e
       0.16687946 0.37816015 0.21382846 0.2865979
000010 dc 1d 0d 3e 5d d8 9e 3e 98 51 44 3e ea e9 62 3e
       0.13780922 0.31024447 0.1917175 0.22159544
000020 dd f9 95 3e df d4 87 3e 59 84 1f bd e0 65 b9 3e
       0.29292193 0.26529595 -0.038944576 0.36210537
000030 96 f5 aa 3e 45 06 5e 3b e5 56 a4 bd bb 91 86 3e
       0.33390492 0.0033878249 -0.08024386 0.2628306
000040 c8 e4 51 bd 73 79 24 3b 30 0b f6 3c 45 0a aa 3e
       -0.051243573 0.0025096803 0.030034631 0.3321096
000050 8b 96 9d 3e 19 bb 36 3e b3 ab 0d 3d 4f 2e d9 3d
       0.30778918 0.1784481 0.034587573 0.10604536
000060 a9 f9 d9 3e 31 f1 d3 3d ae 74 a6 3e 5e 37 98 3e
       0.42573288 0.10348738 0.32510895 0.29729742
000070 9e 27 16 3d 43 a7 2a 3e fd e7 95 3d 10 83 91 3e
       0.036658876 0.16665368 0.07319639 0.28420305
000080 b7 ca 44 3e 00 74 04 3e 23 49 19 bd d0 6f 91 3e
       0.19217955 0.12934875 -0.037423264 0.2840562
000090 59 57 d5 3d 88 92 c3 3e 39 87 29 3e 5c 13 51 3e
       0.10417051 0.38197732 0.1655549 0.20417541
0000a0 99 4c 9c 3d 80 48 37 3e 75 48 36 bd f2 b8 a7 3e
       0.07631797 0.1789875 -0.044502694 0.3275829
0000b0 df 92 ec 3d 32 1c be 3d 2a cf 11 3e 66 53 88 3e
       0.11551451 0.092827216 0.14239183 0.26626128
0000c0 6c 69 af bd 61 82 dd 3d 3a 96 7a 3e b7 12 3d bd
       -0.085650295 0.108158834 0.2447137 -0.046160426
0000d0 28 48 ec bd e8 bd 5c 3e 21 da 51 bc 1d ff bd 3e
       -0.115372 0.21556818 -0.012808354 0.37108698
0000e0 13 9e b7 3d ec 22 ee 3d 0c 9d cf bd 4e 59 7c 3e
       0.08965697 0.116277546 -0.10137376 0.24643442
0000f0 41 7e b1 3e b1 99 81 3e a9 2b 23 3e 5f c7 90 3e
       0.34666637 0.2531257 0.15934624 0.28277108
000100 44 0a ed 3d 61 4e a6 3e 4b 0c f3 3c d8 66 8e 3e
       0.11574224 0.32481673 0.029668948 0.2781284
000110 03 51 44 3e 10 15 da 3d dc 9b b0 3c 1e 67 97 3e
       0.19171529 0.106485486 0.021558695 0.2957086
000120 72 89 d7 3d 05 cd d8 3e 03 47 a4 bd d3 41 9b 3e
       0.105242625 0.42343917 -0.08021357 0.30323657
000130 3a 45 e1 3d 12 28 eb 3e 81 6e 74 bc 41 90 90 3e
       0.10999532 0.4592901 -0.014918924 0.28235057
000140 4f 2f 54 3e fa 88 9f 3e fe cb 75 3e 54 7e b2 3c
       0.20721172 0.31159192 0.24003598 0.021788754
000150 8a 76 2a 3e ae 34 0e bd 24 96 2b 3d 23 bb e6 bc
       0.16646782 -0.034718208 0.041891232 -0.028165406
000160 50 98 9f 3e 1c 20 5f 3d d9 7f 33 3d b1 36 47 3e
       0.31170893 0.05447398 0.043823097 0.19454457
000170 77 00 53 3e a2 9a 85 3e 17 7f fc bd b5 54 3a 3d
       0.20605646 0.26094538 -0.12328928 0.04549094
000180 71 2e b4 3e 8b e6 d1 3d a4 09 61 3e 32 08 ca 3d
       0.35191682 0.10249051 0.21976334 0.098648444
000190 65 e4 42 3e 59 49 3e 3e 13 2f b2 bd 72 ad ad 3d
       0.19032438 0.18582667 -0.08700385 0.08480348
0001a0 66 c0 d5 3e 8b 70 57 3e 20 a9 8a 3e 2b 50 7a 3e
       0.4174835 0.21039025 0.27082157 0.24444644
0001b0 5b e4 74 3c 57 17 bb 3e 69 89 00 3e f5 ac a4 3e
       0.014947022 0.36541244 0.12552418 0.32163206
0001c0 84 4d ad 3e 78 d4 d1 3d 71 b9 dd bd 6d 3a 52 3b
       0.33848202 0.10245603 -0.10826386 0.0032078282
0001d0 cd d6 fb bc 0f 26 10 3e 6d a5 16 be c3 a7 45 3e
       -0.030742073 0.14077018 -0.14711542 0.19302277
0001e0 71 08 2f bd a6 96 54 bd 94 95 8a 3e 7d 46 3a 3e
       -0.04273266 -0.051901482 0.27067244 0.18190952
0001f0 a2 7b 8e 3e 51 e2 d7 3e ad d8 ac 3e eb b6 87 bd
       0.278287 0.42164853 0.3375906 -0.06626686

fc2.weight f4 [64, 128]
000000 e7 b9 2d 3e a8 01 56 3e 76 83 d1 3d 59 30 8f 3d
       0.16965447 0.2089907 0.10230152 0.069916435
000010 83 1f ba 3d 8d 22 d1 3d 7f a3 4c 3d 5f 99 38 3d
       0.09088042 0.10211668 0.04996061 0.04506814
000020 46 70 52 3d 04 48 a6 3d 31 99 4b 3d be 3b 3c 3e
       0.051376604 0.08119205 0.04970664 0.18382165
000030 92 72 eb 3d 1a 9e 3f 3e 50 28 c7 3c e9 ea 9b 3c
       0.11496462 0.18712655 0.024311215 0.019032912
000040 d3 ae b4 3d 0b f7 28 3e 1d 9c 2c 3e 9a de ec bb
       0.088224076 0.1650049 0.16856427 -0.0072286846
000050 59 b0 90 3d bc b2 c2 3c 1a 21 9c bc b1 c0 4f 3d
       0.07064886 0.023766868 -0.019058753 0.050720874
000060 c7 96 da 3d e2 bb cf 3d b0 b0 60 3d 56 e7 e0 3d
       0.1067329 0.10143258 0.054856002 0.10981624
000070 78 f9 26 3e af 47 5b 3e 76 3c 37 3d bc 49 0e 3e
       0.16306102 0.21414064 0.044735394 0.13895315
000080 68 32 cb 3d 54 71 18 3e 87 10 11 3e e3 e7 18 3e
       0.099217236 0.14886981 0.14166461 0.14932208
000090 cf be 05 3e 0b 76 e4 3d 1b 03 c8 3d ed 73 09 3e
       0.13061069 0.111553274 0.09766217 0.13423128
0000a0 27 ae bb 3d 7f 6e ab 3c 55 ce 0c 3e 1e 70 bc 3d
       0.09164076 0.020926712 0.13750584 0.09201072
0000b0 db 45 aa 3d 94 60 09 3e 93 df 25 3d 84 aa 63 3c
       0.08314105 0.13415748 0.04049642 0.013895635
0000c0 1b b7 16 3d 74 b0 7f bc 2b 88 2e 3e 09 9c b9 3d
       0.036795717 -0.015606035 0.17044131 0.090629645
0000d0 53 5f 19 3d 8f 65 d2 3d 0e 78 3b 3e 26 05 31 3e
       0.037444424 0.10273277 0.18307516 0.1728712
0000e0 a6 0c 13 3e 95 b0 ee bb 00 e0 25 3e e0 2f b5 bc
       0.14360294 -0.007284234 0.1619873 -0.022117555
0000f0 e4 b6 d9 3d fc e2 66 3d 06 7a 0a 3e 70 f5 35 3e
       0.10630587 0.056368813 0.13523111 0.17769408
000100 8a d4 08 3d 14 18 8a 3d 4c eb c8 3d d0 85 06 3b
       0.033405818 0.06742874 0.09810504 0.0020526536
000110 90 86 e0 3d df f9 a6 3d e1 4b c5 3c 12 6c e4 3d
       0.10963166 0.08153128 0.024084033 0.11153425
000120 5e 17 a0 3d 87 9c d5 3e f0 c7 24 3e 98 14 5e 3e
       0.07816957 0.41720983 0.16091895 0.21687543
000130 2a 7b 3d 3e 11 ef 76 3e 9c 82 b2 3d 1d d5 e6 3d
       0.18504015 0.24114634 0.08716318 0.11271117
000140 8c f4 f1 3d 47 93 08 3e 05 ba ea 3d 2b 13 db 3d
       0.11814222 0.13337432 0.11461262 0.106970154
000150 f2 10 1c 3d 67 af c0 3d 30 95 24 3e 36 f6 88 3d
       0.038102098 0.09408455 0.16072536 0.06687586
000160 cf 20 e9 3d 7c 62 1a 3e 45 90 b6 3d 0f 89 32 3e
       0.11383211 0.15076631 0.08914236 0.17435096
000170 85 90 e0 3d 19 7f de 3e 14 dc 93 3d a1 ea 7e 3d
       0.10965065 0.43456343 0.07219711 0.06223548
000180 f5 8d a1 bc 4d a8 29 3e 74 34 15 3d b8 99 c4 3d
       -0.01972101 0.16568108 0.036426976 0.09599632
000190 b0 9a 5e bb 35 4d 40 3d ad a4 23 3d b5 05 29 3e
       -0.0033966713 0.04694863 0.03995197 0.16506083
0001a0 a2 1d 84 3e 8e 64 01 3e 41 79 f9 3b 89 46 42 3e
       0.25803858 0.12636015 0.0076133315 0.1897222
0001b0 89 01 80 3d c9 40 04 3e 1a 70 1c 3e af e8 07 3e
       0.06250293 0.12915339 0.15277138 0.13272355
0001c0 b1 29 c5 3d c8 71 d1 3c b8 89 3e 3d 5a 29 fe 3d
       0.09627093 0.02556695 0.046518058 0.12410231
0001d0 35 33 b9 3c e9 6e b3 3d 2f 51 fa 3c 2d ca 96 3d
       0.022607425 0.08761389 0.03055629 0.07362781
0001e0 3a a5 43 3e 3f c1 02 3e 6c d8 9c 3d 6f f2 96 3d
       0.19105998 0.1276903 0.07658467 0.07370459
0001f0 fc 72 dd 3d f9 c8 ce 3d cc 3c 32 3e ed 58 13 3c
       0.10812947 0.10096926 0.17406005 0.0089933695
000200 eb 30 d5 3d 16 4a 6d 3e 47 94 28 3e 0c 89 1c 3e
       0.10409721 0.23172793 0.16462813 0.15286654
000210 7c 0b 14 3e 45 c5 a9 3d 30 d4 42 3d 74 b7 57 3d
       0.14457506 0.08289579 0.04756564 0.05266519
000220 a8 5a f6 3d 10 05 22 bb 8a cb 47 3e b7 68 90 3d
       0.1202901 -0.0024722256 0.19511238 0.07051223
000230 20 bb 31 3e 3e fd e4 3d fe 08 b9 3d 4c d3 d5 3d
       0.17356539 0.111811146 0.09034918 0.10440692
000240 af 74 2d 3e a6 b4 5d 3e 08 70 2e 3e e3 90 35 bc
       0.16939043 0.21650943 0.17034924 -0.011081907
000250 ba d4 11 3e 3c 4e d5 3d b6 54 12 3e 84 cd 9e 3d
       0.14241305 0.10415313 0.14290127 0.07754043
000260 02 e7 82 3e 9d 2e e3 bb 61 9a 95 3d 31 46 6d 3d
       0.2556687 -0.006933047 0.07304836 0.057928268
000270 bd 12 ea 3c 64 ed a2 3d f5 aa 4c 3e 01 ac 00 3d
       0.028573388 0.07955435 0.1998709 0.031414036
000280 92 19 81 3e 83 53 1f 3d 0b 7f 06 3e 9b 82 fb 3d
       0.2521482 0.038898002 0.131344 0.122807704
000290 52 9e 25 3e a9 ca d1 3d ee 13 3f 3d 77 58 84 3d
       0.16173676 0.102437325 0.046649866 0.06462186
0002a0 2b 61 b2 3d 95 0f 10 3e ac a4 db 3d b6 96 57 3e
       0.087099396 0.14068444 0.10724768 0.21053585
0002b0 ce 2b 3a 3e 74 00 fc 3c 6c de 0a 3e 07 f4 6c 3d
       0.18180773 0.030761935 0.1356141 0.05784991
0002c0 2c c2 df 3d 46 ab 21 39 19 5c 2d 3e 3c 6c c3 3d
       0.10925707 0.00015417961 0.16929664 0.095421284
0002d0 e7 77 77 3d 54 6d 1b bc 27 d8 ee 3d 7e 48 02 3e
       0.060417082 -0.009486515 0.116623215 0.12722966
0002e0 a0 c1 7e 3e d0 1f 12 3d 64 39 83 3d 82 df f1 3d
       0.2487855 0.03567487 0.06407431 0.11810209
0002f0 23 5e d4 3d 25 6f 9e 3d f9 6b 44 3d be 25 60 3e
       0.10369518 0.07736043 0.047954533 0.21889398
000300 06 91 38 3c 12 70 03 3e cf df 1d 3c d0 39 d0 3d
       0.011265045 0.1283572 0.00963588 0.10167277
000310 3b 9d 9f 3d a0 dc 13 bc 2f ff 0f 3e 5b 4a 4c 3d
       0.07793661 -0.009024769 0.14062189 0.0498756
000320 d1 e7 65 3d f2 8d a9 3e ac 5a ec 3d 54 f2 62 3e
       0.05612928 0.33116108 0.11540732 0.22162753
000330 db 99 02 3d 63 6e 37 3e 67 b2 01 3e 39 49 19 3e
       0.03188501 0.17913203 0.12665711 0.14969338
000340 46 95 09 3e 1f 3d 9c 3d 2c fa d3 3d 92 4e b3 3d
       0.1343585 0.076288454 0.10350451 0.087552205
000350 94 83 88 3d 1e cd b7 3d 32 76 b0 3e cc 55 d8 3d
       0.066657215 0.0897467 0.34465176 0.105632395
000360 33 84 19 3e e3 78 32 3e 74 17 8a 3d ee 2f 30 3e
       0.14991836 0.17428927 0.067427546 0.17205784
000370 e3 0f e2 3c 9d d0 80 3e 99 35 a9 3d a6 9a 10 3e
       0.027595466 0.2515916 0.08262176 0.14121494
000380 94 fc b2 3c 56 8c 46 3e 66 b1 a0 3d ba 90 0d 3d
       0.021848954 0.19389471 0.07846336 0.03456185
000390 98 74 a1 3c 3d f9 47 3e 55 e4 0c 3e 95 91 27 3d
       0.019708917 0.1952867 0.13758977 0.040910322
0003a0 64 03 4b 3e 44 68 13 3c 4f b0 31 bc 15 28 a0 3d
       0.19825512 0.008997027 -0.010845258 0.07820145
0003b0 5c 73 c5 3d ee 6a e3 3d 69 85 3f 3e e4 cf 38 3e
       0.09641144 0.111043796 0.18703236 0.18048054
0003c0 e3 6d 06 3d 89 c9 fb 3c 23 fc 62 3d 88 d5 28 3e
       0.03281964 0.030735748 0.055416238 0.16487706
0003d0 97 4f c4 3d f6 81 22 3e a2 66 8e 3d 46 57 39 3c
       0.09585493 0.15869889 0.069531694 0.0113123115
0003e0 09 35 92 3d ca b2 ac 3d 38 8b 5e 3d 54 d8 4b 3c
       0.07139022 0.08432539 0.054331988 0.012441713
0003f0 5b 47 30 3e c6 b4 0c 3e e7 a2 c0 3d a8 bf 82 3b
       0.1721472 0.13740835 0.09406071 0.0039901324

fc2.bias f4 [64]
000000 e2 30 c2 bb 96 84 ba 3d 56 55 c4 3d 52 40 d5 3d
       -0.0059262374 0.0910732 0.09586589 0.10412659
000010 e4 0c d7 3d ee bd 1a 3d 99 b2 ad 3c d5 01 1c 3d
       0.105005056 0.037778787 0.021203326 0.038087685
000020 4c 93 b1 3c 90 71 77 3d 46 38 3d 3b cb a2 ad 3d
       0.021676682 0.060411036 0.0028872653 0.08478316
000030 43 05 8a 3d 86 bc cb 3c e6 d9 3a bc 40 51 3a 3c
       0.06739285 0.024870168 -0.01140449 0.011371911
000040 83 16 23 3d a4 cb c8 3d e2 f1 82 bc 87 55 fd 3d
       0.03981639 0.09804466 -0.01598448 0.12369829
000050 c2 10 ee 3d ec a3 9f 3d 57 0e a3 3c 81 07 05 3e
       0.1162429 0.077949375 0.019904299 0.12991144
000060 12 b5 1c 3d 83 53 15 3e 59 9b 00 3d 69 2d d6 3d
       0.03825862 0.14582638 0.03139815 0.1045788
000070 11 ce 98 3d de 53 c9 3d fb 32 1c 3e 72 87 08 3e
       0.07461179 0.098304495 0.15253823 0.13332918
000080 c5 60 9c bb ca f1 d2 3c dc 4f 86 3d 45 04 76 3d
       -0.004772278 0.02575006 0.06558201 0.060062665
000090 47 9f 0c 3e 8f 70 ea 3d 5f d0 bb 3d ec 41 76 bc
       0.13732634 0.1144725 0.09170603 -0.015030365
0000a0 37 2e 52 3d c0 1a 14 3e 02 89 11 3e 31 a1 6b 3b
       0.051313605 0.1446333 0.1421242 0.0035954232
0000b0 45 95 13 3e 66 c4 dc 3a 0b a4 88 3d 4b 60 ad 3b
       0.1441241 0.0016843199 0.06671914 0.00529102
0000c0 56 e8 a8 bc 6a 08 2a 3b 60 7c 0a 3e b9 b4 b7 3d
       -0.020618599 0.0025944957 0.13524008 0.08970017
0000d0 7b 87 b7 3c 32 44 b9 bc 0f 3b 18 3e 0b 20 f6 3c
       0.02240347 -0.022615526 0.14866279 0.030044576
0000e0 cf c1 65 bc 47 f2 d3 3d df 8a 02 3e 0a 1f bc 3d
       -0.014023258 0.10348945 0.12748288 0.09185608
0000f0 a3 a0 7a bc 19 c4 31 3d d4 7f 69 3d a2 37 17 3e
       -0.015297088 0.043399904 0.057006672 0.14767316

fc3.weight f4 [6, 64]
000000 3a 6f 81 bf 8d 81 81 bf 14 7a 4d bf 02 18 70 bf
       -1.0112069 -1.0117661 -0.802644 -0.93786633
000010 8e 2e 81 bf e0 8a 6f bf ed a7 8d bf 2d 9b 72 bf
       -1.0092332 -0.9357128 -1.1066872 -0.9476803
000020 e4 c7 73 bf 0b 5d 83 bf f8 53 86 bf 3a 6b 84 bf
       -0.95226884 -1.026277 -1.0494375 -1.0345223
000030 9b e0 8b bf 5d 04 76 bf 2b aa 87 bf 1d 44 8c bf
       -1.0927919 -0.9610041 -1.0598806 -1.0958287
000040 56 43 68 bf 11 80 8e bf 3f eb 8a bf f0 e4 64 bf
       -0.90727746 -1.1132833 -1.0853041 -0.8941183
000050 ba e0 7b bf d7 c6 68 bf 42 fa 77 be 87 40 88 bf
       -0.9838978 -0.90928406 -0.2421656 -1.0644692
000060 e5 36 87 bf 8c b3 66 bf d5 05 88 bf 9e fd 8a bf
       -1.0563627 -0.90117717 -1.062678 -1.0858648
000070 a4 d4 6a bf 5d 3b 8d bf 33 2a 83 bf e2 51 8a bf
       -0.91730714 -1.1033741 -1.0247253 -1.0806239
000080 82 56 63 bf f1 a1 67 bf d8 27 82 bf 83 f1 86 bf
       -0.88803875 -0.9048148 -1.0168409 -1.0542454
000090 93 e4 82 bf 59 b3 86 bf dd 7a 7b bf 44 cb 08 bf
       -1.0226005 -1.0523483 -0.9823435 -0.5343516
0000a0 5d 11 72 bf cd d7 61 bf 3d 13 85 bf d3 35 79 bf
       -0.94557744 -0.8821991 -1.0396496 -0.97347754
0000b0 50 a4 7b bf c3 c9 6e bf 8b 32 8f bf c4 b6 5f bf
       -0.98297596 -0.93276614 -1.11873 -0.87388253
0000c0 d4 0f 81 bf 1a 64 6e bf af ae 8b bf f7 52 74 bf
       -1.0082955 -0.9312149 -1.0912684 -0.95439094
0000d0 f7 d7 7b bf f8 74 7f bf fd 07 6d bf 4d 5d 3d bf
       -0.9837641 -0.99787855 -0.92590314 -0.7397049
0000e0 d1 df 6d bf 99 cf 82 bf 8b 98 81 bf c5 61 67 bf
       -0.9291964 -1.0219604 -1.0124677 -0.9038356
0000f0 fa 15 6e bf 2a 53 8c bf f8 1b 70 bf a6 18 8f bf
       -0.93002284 -1.096288 -0.93792677 -1.1179397
000100 19 b9 82 bf bd 1a 84 bf 5c bb 40 bf 79 6d 7b bf
       -1.0212737 -1.032066 -0.7528589 -0.98213917
000110 51 9a 7a bf e4 bc 7e bf b1 1d 78 bf 04 ed 63 bf
       -0.9789172 -0.99506974 -0.96920305 -0.8903353
000120 86 e6 80 bf 84 80 63 bf 78 c5 70 bf 4e b5 64 bf
       -1.007035 -0.88867974 -0.94051313 -0.8933915
000130 82 90 6f bf 16 9d 88 bf 66 a7 79 bf 1b c0 8c bf
       -0.93579876 -1.0672939 -0.97521055 -1.0996126
000140 a3 93 84 bf a8 db 61 bf 1b c0 93 bf 18 91 89 bf
       -1.0357555 -0.88225794 -1.1543001 -1.0747404
000150 d6 9e 86 bf 8b f3 8a bf a4 a5 7f be 08 32 69 bf
       -1.0517223 -1.0855573 -0.2496553 -0.91091967
000160 fa 48 82 bf 44 1b 6d bf 6c 33 65 bf d6 cc 82 bf
       -1.0178521 -0.9261973 -0.8953159 -1.0218761
000170 a5 60 87 bf ca b8 8c bf 5b 57 7a bf 8c 4c 82 bf
       -1.0576369 -1.0993893 -0.97789544 -1.017961
000180 2a db 6e bf 62 58 86 bf 3a d9 8b bf 59 d5 8b bf
       -0.9330317 -1.0495722 -1.0925667 -1.0924484
000190 0e dc 63 bf d4 23 72 bf 68 fa 86 bf 19 ea 1a bf
       -0.8900765 -0.9458592 -1.0545168 -0.60513455
0001a0 06 f3 92 bf b3 07 76 bf 01 e0 89 bf f5 59 84 bf
       -1.1480415 -0.961055 -1.0771486 -1.0339953
0001b0 b2 2b 84 bf 21 98 6d bf 26 4c 80 bf a1 c1 62 bf
       -1.0325835 -0.92810255 -1.0023239 -0.88576704
0001c0 23 15 66 bf 13 df 5f bf 9f b5 63 bf b9 8c 68 bf
       -0.89876 -0.8744976 -0.88949007 -0.90839726
0001d0 01 1d 85 bf 85 e5 67 bf 0f 50 87 bf e5 b5 61 bf
       -1.0399476 -0.90584594 -1.0571307 -0.88168174
0001e0 91 ad 8b bf d2 c7 80 bf ef 90 73 bf c1 07 7c bf
       -1.0912343 -1.006098 -0.95143026 -0.9844933
0001f0 20 96 8e bf 62 53 83 bf 3f d3 70 bf 94 dc 85 bf
       -1.1139565 -1.0259821 -0.94072336 -1.045794
000200 06 ec 69 bf 6f 29 7d bf 8b 1b 6b bf 8e b5 88 bf
       -0.9137577 -0.9889135 -0.918389 -1.0680406
000210 8f c7 73 bf 37 e1 79 bf 74 b7 8d bf 6d a1 5f bf
       -0.9522638 -0.97609276 -1.107161 -0.8735569
000220 e7 63 81 bf 37 e2 80 bf 03 cc 88 bf 7e 6d 86 bf
       -1.0108613 -1.0069035 -1.068726 -1.0502164
000230 45 37 79 bf ee a8 85 bf 56 23 8a bf 6c 68 85 bf
       -0.9734996 -1.0442178 -1.0792034 -1.0422492
000240 37 2f 64 bf 3f bb 80 bf a2 8f 69 bf 80 40 61 bf
       -0.89134544 -1.0057143 -0.9123479 -0.87989044
000250 41 18 6d bf 53 84 86 bf 55 f9 ad be a9 4f 80 bf
       -0.92615134 -1.0509132 -0.33979288 -1.002431
000260 b9 b8 7c bf 1a b8 84 bf a8 41 84 bf 3d e0 8a bf
       -0.98719364 -1.0368683 -1.0332537 -1.0849682
000270 f6 13 88 bf 4c e8 61 bf 3e 23 80 bf 8c 77 8f bf
       -1.0631092 -0.8824508 -1.0010755 -1.1208358
000280 84 7d 7f bf 85 08 6b bf fe 5b 6a bf 2e 4b 87 bf
       -0.99800897 -0.91809875 -0.9154662 -1.0569818
000290 28 0a 86 bf fa de 7a bf 80 50 74 bf 15 88 23 bf
       -1.047185 -0.97996485 -0.95435333 -0.6387952
0002a0 70 ce 75 bf 3c f7 7e bf 97 20 8d bf 1a ca 6a bf
       -0.96018124 -0.99596 -1.1025571 -0.9171463
0002b0 0e 90 6b bf 34 6f 6b bf 46 f2 5e bf e6 d4 8b bf
       -0.92016685 -0.9196656 -0.8708843 -1.0924346
0002c0 e4 9e 83 bf 53 79 87 bf f9 d8 83 bf ae ea 86 bf
       -1.0282865 -1.05839 -1.030059 -1.0540369
0002d0 4f af 84 bf 5d 7f 7c bf 4b 01 81 bf a5 09 48 bf
       -1.0366 -0.9863184 -1.007852 -0.78139716
0002e0 f3 67 8c bf 54 6d 65 bf 99 26 78 bf 5e 7d 90 bf
       -1.0969223 -0.89619946 -0.96933895 -1.1288259
0002f0 be 65 5d bf 0f 98 6a bf 45 a0 66 bf 23 bd 83 bf
       -0.8648337 -0.91638273 -0.900883 -1.0292095
000300 51 92 8c bf 51 37 84 bf 22 e9 46 bf 8c 57 7a bf
       -1.0982152 -1.0329381 -0.7769948 -0.97789836
000310 5f e5 8a bf f5 09 74 bf c9 4b 72 bf b9 4e 8b bf
       -1.0851249 -0.95327693 -0.9464689 -1.0883399
000320 eb d2 72 bf 0f 66 82 bf 28 47 7a bf 52 b2 6e bf
       -0.94853085 -1.0187396 -0.97764826 -0.93240845
000330 3a 71 6b bf 99 64 87 bf 4f fc 67 bf 4d bc 68 bf
       -0.91969645 -1.0577575 -0.9061937 -0.90912324
000340 4d 0d 65 bf 50 ec 86 bf 70 39 76 bf f5 d6 8a bf
       -0.8947342 -1.0540867 -0.9618139 -1.084685
000350 bc 12 61 bf ff a5 5a bf d5 a7 bf be 54 f1 83 bf
       -0.8791921 -0.8540954 -0.37432733 -1.0308022
000360 1f 6b 76 bf a4 c3 66 bf 9d 51 65 bf 8b e2 75 bf
       -0.96257204 -0.90142274 -0.89577657 -0.960488
000370 b1 d5 6f bf 12 6e 85 bf 06 9c 85 bf 4b 6a 8b bf
       -0.9368544 -1.0424216 -1.043824 -1.0891813
000380 64 e0 80 bf ec 16 79 bf ef b0 6c bf f4 4b 65 bf
       -1.0068479 -0.973006 -0.9245748 -0.8956902
000390 44 52 71 bf 18 d3 89 bf 37 78 6b bf ca 21 1b bf
       -0.9426615 -1.0767546 -0.9198031 -0.60598433
0003a0 7b bd 7d bf c4 c4 8b bf f6 de 89 bf da 72 82 bf
       -0.9911725 -1.0919423 -1.0771167 -1.01913
0003b0 47 64 81 bf 9b 4b 89 bf f6 3f 85 bf a1 cd 83 bf
       -1.0108727 -1.0726198 -1.0410144 -1.0297128
0003c0 f3 ab 8a bf dd f3 85 bf 72 c2 81 bf 78 5e 6f bf
       -1.0833725 -1.0465046 -1.0137465 -0.9350352
0003d0 41 75 78 bf 14 3d 8a bf 7a ee 78 bf 12 ac 54 bf
       -0.97053915 -1.079989 -0.97238886 -0.8307506
0003e0 65 0d 7c bf a5 01 8c bf 61 62 7d bf 37 30 7b bf
       -0.9845794 -1.0938002 -0.9897824 -0.98120445
0003f0 04 e3 86 bf 64 28 7b bf a4 de 81 bf 43 52 74 bf
       -1.053803 -0.98108506 -1.014607 -0.9543802

fc3.bias f4 [6]
000000 16 35 8b bf a8 3f 83 bf 29 3c 7c bf 40 d0 85 bf
       -1.0875576 -1.0253801 -0.985293 -1.0454178
000010 60 58 81 bf 07 f3 83 bf
       -1.0105095 -1.0308541
