dqn_taxi_light128.pth (torch, 45932 bytes, 6 tensors)

fc1.weight f4 [128, 16]
000000 12 69 a0 3e 83 01 ff 3d b0 9d 97 bc 58 71 3d bd
       0.31330162 0.1245146 -0.018507808 -0.04625067
000010 fe 32 43 3e 11 4a 02 bd 6f 5b 1a bd 50 82 41 3e
       0.1906242 -0.031808916 -0.037684854 0.18897367
000020 9c a1 9b 3e 7f 1f cb bc ce 7b a6 3e f8 60 aa 3e
       0.30396736 -0.024795292 0.3251633 0.33277106
000030 e1 70 31 3d 8f ea 8a bd af 3c fd bd 4e 58 7d bd
       0.04332054 -0.0678302 -0.1236509 -0.061851792
000040 d4 a6 74 3c 0f e0 8a 3e c8 8e d3 3d a0 04 1f 3e
       0.014932353 0.27124068 0.10329968 0.15529108
000050 ea c0 5d 3e bc bf b4 3d 46 7a ae 3d 8c ed dc bd
       0.21655622 0.08825633 0.085194156 -0.10787496
000060 3c a1 e0 3d a8 37 3d 3e 59 c3 4f bd 7e 25 3a 3e
       0.10968253 0.18478262 -0.050723407 0.18178365
000070 f4 c7 b6 3d 3a 2f b5 3e 0d 49 26 3e 61 de c0 3e
       0.08924857 0.35387594 0.16238804 0.37669662
000080 2b 16 57 3d 79 b2 91 3e 1a a2 09 3e f2 6b 14 3e
       0.052511375 0.28456476 0.13440743 0.14494303
000090 e0 49 da bc c4 3d ab 3e c2 ab a6 bd d8 e0 59 bd
       -0.026646554 0.3344556 -0.08138229 -0.053192943
0000a0 d0 b1 a8 3d 35 f5 65 bd 83 67 a2 3e d5 d3 05 bb
       0.0823704 -0.05614205 0.31719598 -0.0020420451
0000b0 49 a9 4d 3d 53 20 49 3e e2 f9 11 3e 78 5b 0c 3e
       0.05021027 0.19641237 0.14255479 0.13706768
0000c0 f1 0a 0c 3b 9a a6 4d bd 6a 8f 0f 3e a8 3c 65 bd
       0.0021368826 -0.05020771 0.14019552 -0.05596605
0000d0 28 aa 91 bd 78 c8 8e 3e 23 79 0b 3e 8a 42 4b 3e
       -0.07112533 0.2788732 0.13620429 0.19849601
0000e0 ab 08 1e 3e f6 66 00 bc e9 26 01 3e 22 56 f2 3d
       0.15432994 -0.007837048 0.126125 0.11832835
0000f0 99 ac e7 3d a2 fd aa 3c 8e 7e 82 3e 3c 64 a5 bd
       0.11312217 0.020872895 0.2548718 -0.08075759
000100 2a ac 5c 3d 8d d2 47 bc 3a e7 1a be a6 82 15 be
       0.053875126 -0.012196195 -0.15127268 -0.1460062
000110 04 aa e0 bd cf 89 df 3d e7 9e b0 bb f8 4b 54 bd
       -0.10969928 0.10914957 -0.0053900364 -0.051830262
000120 03 ea 00 3e 43 d5 0c 3e 62 0d d4 bb 0d c5 77 3e
       0.12589268 0.13753228 -0.006471322 0.24196263
000130 01 79 57 3e d0 db c6 bc c8 1f 60 3e 46 86 02 3c
       0.21042253 -0.024274737 0.21887124 0.007966584
000140 01 ec eb 3d 8f 22 0a 3e 40 10 88 3c 90 36 48 bd
       0.115196235 0.13489746 0.016609311 -0.04888016
000150 e4 e1 03 3e ce 8e 80 3e d2 f2 8c 3e 38 a6 54 bd
       0.12879139 0.2510895 0.27529007 -0.05191633
000160 09 29 a0 bd f1 38 c9 bd 74 6a 4a 3e 2b 3e ac 3d
       -0.07820327 -0.09825314 0.19767171 0.08410295
000170 76 fd ed 3d db 5e 16 3d 41 50 31 3e 36 bb 8b 3e
       0.116206095 0.036711555 0.1731577 0.27291268
000180 ca ae 7c 3e a9 ab a5 3e f8 ac 31 be 9e 34 36 be
       0.24676052 0.3235753 -0.17351139 -0.1779351
000190 7c 77 29 3e 24 38 ef bd 44 27 4b 3d 8c 56 06 3e
       0.16549486 -0.1168063 0.049597993 0.13118953
0001a0 7e 90 a7 3e f6 6b 09 3e c0 46 3f bd ee 17 d1 3d
       0.32727426 0.1342009 -0.04669833 0.10209642
0001b0 de 11 b2 3d 5a 21 6f bd c9 dd 0a 3d 5e bd d6 bd
       0.08694814 -0.058381416 0.033902917 -0.10485338
0001c0 6c 17 52 bb cf 38 08 bd 68 e5 48 bd 84 28 c2 3d
       -0.0032057418 -0.033257302 -0.049046904 0.09480384
0001d0 24 45 a5 bd 49 16 04 3d 59 27 0f 3e 3c c4 d3 3d
       -0.08069828 0.032247815 0.13979854 0.10340163
0001e0 13 00 8f 3c 81 b2 6a 3e 27 06 56 3e 09 ba 87 3e
       0.01745609 0.22919656 0.20900784 0.2650912
0001f0 23 d0 f0 bd 11 f7 a0 bb 3a 1f 5f 3c 70 59 24 be
       -0.11758449 -0.004912265 0.013618285 -0.16049743
000200 8b 55 5c 3c 09 79 8e 3d 7a 97 3b be 68 09 40 3d
       0.013448129 0.069566794 -0.18319502 0.04688397
000210 44 f6 c8 bd d5 bb 6b 3e 8a ac e3 3b 34 64 3a 3e
       -0.098125964 0.23020871 0.0069480585 0.18202287
000220 b1 7e a3 3c 3b ee 5b 3e 71 f7 83 bd 7d 6f 8f 3e
       0.019957872 0.21477596 -0.0644368 0.28014746
000230 85 eb 9e 3e c0 dd 4e 3e f6 d2 8a 3e cc 6d 58 3e
       0.31039062 0.20201778 0.27114075 0.21135634
000240 9b 9e 33 3e b7 95 23 3d d4 98 55 3e 78 ab 5f 3e
       0.17540972 0.0399377 0.2085908 0.21842754
000250 b0 bd df 3c 0b e2 a1 3e d9 29 6f 3e 60 62 12 3e
       0.02731213 0.3161777 0.23355807 0.1429534
000260 c1 77 ac 3e 89 df b4 bd 5e 70 6a 3e 1c fd e4 3d
       0.33685115 -0.088316984 0.22894427 0.11181089
000270 0e 55 45 bc a1 2a 06 be 62 a5 29 be fc 7b 84 bd
       -0.012044204 -0.13102199 -0.16566995 -0.06468961
000280 f4 59 2a 3e 78 cb 01 bc dc 6d 39 3e f0 fe ad 3d
       0.16635877 -0.007922046 0.18108314 0.08495891
000290 d8 9e 41 be d6 98 9e 3d 2d b1 3e 3d d0 ad e1 3c
       -0.1890825 0.07743995 0.046555687 0.0275487
0002a0 c0 da 79 3e 5e ea f8 3d 0b e4 64 3e 82 83 ce bd
       0.24399853 0.12154077 0.22352616 -0.10083677
0002b0 2c 45 b4 3e 32 75 97 3e d1 47 9b 3d 6b fd ce bc
       0.35209024 0.295816 0.07582057 -0.025267323
0002c0 26 27 c8 3d 64 b5 86 3e fe 30 2c be 40 ce 42 bd
       0.09773092 0.26310265 -0.16815564 -0.047559977
0002d0 22 72 12 be 22 d3 d8 3d 8d 5a f0 3d e6 5d 07 be
       -0.1430135 0.105871454 0.11736021 -0.13219413
0002e0 71 10 a0 ba 85 48 de 3d 1e 4b 12 3d b8 f3 d6 3d
       -0.0012211931 0.10853676 0.03571617 0.104957044
0002f0 22 87 6e 3e a4 28 a4 3e b4 93 6d 3e 1e b0 fc bc
       0.23293737 0.32062256 0.23200876 -0.030845698
000300 6f f1 6c 3e 38 d7 85 3e e4 65 21 be 78 72 32 3d
       0.23138975 0.2614076 -0.15761524 0.043566197
000310 24 84 5a be 64 d0 2b 3e 52 8f 12 3e a8 b7 48 3d
       -0.2133947 0.16778713 0.14312485 0.049003273
000320 e0 1c 44 3d 3b 8a 1b 3d ef 7f 97 3e ca 5c 9c 3d
       0.0478791 0.037973624 0.29589793 0.076348856
000330 c4 55 6f 3e 00 b7 8f 3e e9 f1 43 bd 0f 62 32 3e
       0.2337256 0.28069305 -0.047838125 0.17420219
000340 aa 8f 03 bd 3c a9 b2 3e b0 ba 05 3e b6 7b 35 be
       -0.03211943 0.3489474 0.13059497 -0.17722973
000350 e0 ba 94 bc 6c 8d 97 bd b2 90 c2 3d 88 04 56 bd
       -0.018155515 -0.07400021 0.09500255 -0.052250415
000360 e5 4f a5 3e ae e6 0b 3e 1e a2 c4 3e 22 8e 9c 3e
       0.32287517 0.13662216 0.38404936 0.3057719
000370 cf 69 21 bd e3 3a c2 3d 1f 40 86 3e 4b 9c 2e 3e
       -0.039407548 0.09483888 0.26220796 0.17051809
000380 45 b1 54 3e 1a 5a 6f 3e a4 fb f3 3d 50 74 4a bd
       0.20770748 0.23374215 0.11913231 -0.04942733
000390 fc fa ac bd cf ae 04 be 2e 90 63 bc c2 c8 1d 3e
       -0.08446309 -0.12957309 -0.013889356 0.15408614
0003a0 1f 18 85 3e a1 7f b0 3e 60 5e 16 bd 77 61 b7 3d
       0.25994965 0.34472373 -0.036711097 0.08954137
0003b0 07 ae 8e 3e b2 9f a2 bd fb d3 b5 bd 88 79 23 be
       0.27867147 -0.07940616 -0.08878323 -0.15964329
0003c0 8e 0b 40 3e 72 79 c3 bd 32 26 20 be 20 70 ff 3d
       0.18754408 -0.09544648 -0.1563957 0.12472558
0003d0 58 85 35 3d 13 3d 92 bd 69 9b a6 3e f6 e8 14 be
       0.04431662 -0.07140555 0.32540444 -0.14541993
0003e0 b6 7e a7 3d 08 74 10 3e bd f7 b4 3e 6a 42 59 3e
       0.08178465 0.14106762 0.3534526 0.21216741
0003f0 73 b6 ce 3d 05 71 c6 bd 33 40 88 3e f2 44 52 3e
       0.10093393 -0.096895255 0.2661148 0.20534113

fc1.bias f4 [128]
000000 03 65 31 3e bd 3e c5 3e a9 88 60 3e 54 bc 94 3e
       0.17323689 0.38524428 0.21927132 0.29049933
000010 cc 0e 12 3e e8 a4 a1 3e cb 15 4b 3e a8 a7 68 3e
       0.14263457 0.31571126 0.19832532 0.22720206
000020 ae 6c 98 3e 51 fd 89 3e cc 5a 04 bd c4 c9 bc 3e
       0.29770416 0.26951078 -0.032313153 0.36872685
000030 e0 46 af 3e 5f c4 34 3c f9 df 9a bd ff f1 88 3e
       0.3423376 0.011033147 -0.07562251 0.26747128
000040 3e b4 38 bd 07 10 2f 3c 0a 89 11 3d f8 bc ac 3e
       -0.045093767 0.010684974 0.03553108 0.33737922
000050 31 19 9f 3e d4 91 3c 3e 8a 82 24 3d 21 ed e4 3d
       0.31073907 0.18415004 0.040163554 0.11178041
000060 f5 98 dd 3e cd 41 db 3d e4 bd a8 3e 25 97 9b 3e
       0.4328076 0.1070591 0.32957375 0.30388752
000070 04 78 2b 3d 0a 56 32 3e da 7f a6 3d 49 12 94 3e
       0.041862503 0.17415634 0.081298545 0.289202
000080 6f 6f 4c 3e 72 23 0a 3e af 89 07 bd ae fd 93 3e
       0.19964384 0.13490084 -0.03309029 0.2890448
000090 d0 72 de 3d 11 1e c6 3e 51 79 2f 3e 91 ec 55 3e
       0.108617425 0.38694814 0.17136122 0.20891024
0000a0 a5 8b a8 3d cf bb 3c 3e b8 7d 25 bd c6 11 ab 3e
       0.0822976 0.18431018 -0.040403098 0.33411998
0000b0 d2 60 fa 3d 77 1c c5 3d c4 de 14 3e f8 ee 8a 3e
       0.12225498 0.0962457 0.14538103 0.27135444
0000c0 0a 9c a3 bd 13 08 e5 3d 98 b5 80 3e 1a 1f 27 bd
       -0.079887465 0.11183181 0.25138545 -0.040801145
0000d0 4b bf dc bd 7b e6 61 3e 82 8f 57 bb fd 1f c1 3e
       -0.10778674 0.22060578 -0.0032891934 0.37719718
0000e0 c5 6c c5 3d 48 56 fb 3d 12 da c5 bd 00 3c 80 3e
       0.09639887 0.12272316 -0.09660734 0.25045776
0000f0 65 50 b4 3e 16 97 84 3e 5d 0d 27 3e 3b 20 94 3e
       0.35217586 0.2589652 0.16313691 0.2893084
000100 20 de f5 3d 76 54 a9 3e 2c 2c 13 3d 03 e5 90 3e
       0.120052576 0.3307225 0.035930797 0.28299722
000110 02 52 49 3e 5e 7f e9 3d bf d1 cd 3c 03 bf 99 3e
       0.1966019 0.114012465 0.025124429 0.30028543
000120 1a 32 e3 3d b0 45 de 3e b9 e4 96 bd 2f 86 9e 3e
       0.110935405 0.43412542 -0.07367844 0.3096175
000130 5b 3b ee 3d e0 e1 ee 3e b5 46 02 bc 46 70 93 3e
       0.11632415 0.46656704 -0.007951428 0.28796595
000140 d0 bd 58 3e 52 e0 a2 3e d6 35 7d 3e 31 50 d9 3c
       0.21166158 0.31811768 0.24727568 0.026527496
000150 66 54 2f 3e 5c 18 fc bc cb c2 52 3d 71 30 b1 bc
       0.17122039 -0.030773334 0.0514553 -0.021629544
000160 50 72 a2 3e ed f4 73 3d 50 c8 45 3d 8b 06 4d 3e
       0.3172784 0.05955975 0.048286736 0.20022027
000170 98 41 58 3e 59 8c 8a 3e a5 c9 f1 bd 84 63 57 3d
       0.21118772 0.27060202 -0.11806039 0.05258514
000180 a8 15 b7 3e 4d 47 df 3d 77 a4 67 3e 8b 76 d9 3d
       0.3575871 0.109022714 0.22621332 0.106183134
000190 87 9c 47 3e 91 97 45 3e a5 c2 a4 bd 03 91 b6 3d
       0.19493304 0.19296099 -0.08044938 0.089143775
0001a0 66 68 d9 3e 53 8f 5c 3e 83 1a 8d 3e 91 5c 80 3e
       0.42462462 0.21539049 0.2755929 0.25070623
0001b0 4e 63 b4 3c ef fb bd 3e e7 a0 07 3e e9 8b a7 3e
       0.022020008 0.37106273 0.13244973 0.3272393
0001c0 f9 ed af 3e 0a 12 de 3d 41 ee d2 bd 28 2d fc 3b
       0.34361246 0.108432844 -0.102993496 0.0076958127
0001d0 80 c9 d6 bc bf c7 17 3e ff 50 11 be 3a 63 49 3e
       -0.02621913 0.14822291 -0.14191054 0.19666758
0001e0 38 1e 10 bd 29 46 3d bd 01 cb 8c 3e e7 6c 3e 3e
       -0.03518507 -0.046209488 0.2749863 0.1859623
0001f0 42 57 92 3e d0 dc da 3e be 6c af 3e cd fa 7c bd
       0.28582197 0.42746592 0.3426265 -0.06176262

fc2.weight f4 [64, 128]
000000 44 57 34 3e b7 f5 5f 3e 7d 54 dd 3d 68 cc 97 3d
       0.17611414 0.21871077 0.108071305 0.07412034
000010 34 af c5 3d 4c 57 db 3d 06 43 5e 3d ab 04 50 3d
       0.09652558 0.1071001 0.054263137 0.0507857
000020 6f 6c 64 3d f2 23 ae 3d d7 52 65 3d 08 7a 43 3e
       0.055767473 0.0850295 0.055987205 0.1908952
000030 ee d4 02 3e 8f 27 48 3e 75 81 e9 3c 0e 4c c3 3c
       0.12776539 0.1954634 0.028504113 0.023839977
000040 7b 33 c1 3d 83 70 32 3e 4e d5 31 3e 7a 45 5f bb
       0.09433647 0.17425732 0.17366526 -0.003406851
000050 59 2c 99 3d fd d3 ea 3c 79 5f 6f bc 4f ec 65 3d
       0.07479162 0.028665537 -0.014610165 0.056133565
000060 20 32 ec 3d 78 fc d7 3d 19 70 71 3d e3 44 ed 3d
       0.11532998 0.105462015 0.058944795 0.11585405
000070 b5 6b 2c 3e 70 8a 65 3e 66 28 53 3d 3a 7a 13 3e
       0.16837962 0.22416091 0.0515522 0.14402094
000080 7e 21 dc 3d 4d f5 1c 3e 6f 26 16 3e 51 22 1e 3e
       0.10748576 0.1532795 0.14663099 0.15442778
000090 c4 04 0a 3e d6 98 f0 3d 9e 20 d2 3d 85 96 0d 3e
       0.1347838 0.11747901 0.102601275 0.1382695
0000a0 f8 db c9 3d e9 e2 ce 3c 49 dc 10 3e f4 61 cd 3d
       0.09856409 0.025254684 0.14146532 0.10028449
0000b0 a2 e4 b7 3d 95 4a 0d 3e 24 93 35 3d 72 02 95 3c
       0.08979155 0.13797982 0.044329777 0.018189643
0000c0 db 1b 2e 3d c7 f1 40 bc d2 a3 34 3e 1d db c5 3d
       0.042507034 -0.011776394 0.17640617 0.09660933
0000d0 ee a0 2c 3d a2 dc da 3d a4 bc 4a 3e 81 b4 3a 3e
       0.042145662 0.106866136 0.19798523 0.1823292
0000e0 20 ea 1b 3e 4f 7a 56 bb 97 43 2b 3e d1 a0 92 bc
       0.1522603 -0.003272671 0.16725002 -0.017898949
0000f0 f8 e7 e4 3d a8 4b 82 3d bb 5d 0e 3e 68 5d 3e 3e
       0.11177057 0.063620865 0.13902943 0.18590319
000100 10 e3 1a 3d 98 02 97 3d c4 5a d3 3d b8 e8 d9 3b
       0.0378142 0.073735416 0.103200465 0.0066500567
000110 0d d8 e8 3d b5 68 af 3d c9 34 e7 3c cb 2c ed 3d
       0.113693334 0.08564893 0.028223412 0.11580809
000120 96 15 aa 3d 86 8f f5 3e 10 4a 2b 3e 00 b8 67 3e
       0.083048984 0.47961062 0.16727471 0.22628784
000130 d9 c6 43 3e 33 62 81 3e a4 dd c3 3d a7 af f3 3d
       0.19118823 0.25270233 0.09563759 0.118987374
000140 f1 10 fa 3d 54 0f 0f 3e 60 c7 fb 3d 1b ea e2 3d
       0.122102626 0.13970691 0.12293887 0.11079808
000150 02 ca 2e 3d 59 6d c9 3d ca df 37 3e 3a 0b 91 3d
       0.04267312 0.098353095 0.17956463 0.070822194
000160 ae 70 f3 3d 58 56 1f 3e ea c0 be 3d 36 b3 38 3e
       0.11886726 0.15560281 0.09314139 0.18037114
000170 4c 61 eb 3d 44 61 f5 3e cc db 9b 3d bf a9 8c 3d
       0.11493167 0.4792577 0.07610282 0.06868314
000180 fd 92 79 bc f5 81 30 3e 73 39 2c 3d 75 40 d1 3d
       -0.015232799 0.17237075 0.042046975 0.10217372
000190 ba 32 ea 39 69 39 5a 3d 3d 6f 3d 3d 6e 27 2e 3e
       0.00044669752 0.053277407 0.046248663 0.17007229
0001a0 3b 22 8b 3e 71 21 06 3e d7 b8 3d 3c 7d 1f 4a 3e
       0.27174553 0.13098694 0.011579714 0.19738574
0001b0 ce 72 91 3d 39 6d 0a 3e f0 cb 25 3e d9 4f 0d 3e
       0.071019754 0.13518228 0.16191077 0.1379999
0001c0 2a 6b cf 3d fb 75 fe 3c 13 a7 52 3d 8f 9c 03 3e
       0.10127862 0.031062117 0.051428866 0.12852691
0001d0 63 83 dd 3c 38 1e c1 3d 8c 24 0e 3d ed 95 9f 3d
       0.02704019 0.09429592 0.034702823 0.07792268
0001e0 6a 1d 4a 3e 2d 06 0a 3e c4 63 a5 3d d7 e5 9e 3d
       0.19737783 0.13478918 0.080756694 0.07758682
0001f0 ce eb ec 3d a3 c6 dd 3d a9 94 37 3e 03 7f 61 3c
       0.11568414 0.108289026 0.17927803 0.013763192
000200 b7 b9 e0 3d 06 89 81 3e 50 48 2d 3e a9 e6 1e 3e
       0.10972922 0.25299853 0.16922116 0.15517677
000210 77 da 18 3e 32 84 b0 3d e7 cd 4c 3d fa 1f 6a 3d
       0.14927088 0.08618964 0.05000105 0.0571594
000220 4b 95 fb 3d b4 ae fe b9 df be 4d 3e ce b1 a2 3d
       0.12284335 -0.0004857682 0.20092343 0.0794407
000230 ea 00 48 3e e1 3a f6 3d 57 e3 bd 3d c1 07 dc 3d
       0.19531599 0.12022949 0.09271877 0.107436664
000240 3a b6 32 3e 43 fe 6c 3e dd 11 32 3e ee 25 15 bc
       0.17452326 0.23143868 0.17389627 -0.009103281
000250 76 1d 14 3e e2 d2 db 3d f7 01 15 3e 7b 5f a6 3d
       0.14464363 0.10733582 0.14551531 0.0812368
000260 ff 7b 89 3e ad 98 9d bb d3 16 9a 3d 9c 62 80 3d
       0.26852414 -0.00480946 0.075238846 0.06268808
000270 5e 50 05 3d 0a 9e ba 3d 96 ea 53 3e ca 06 0f 3d
       0.032547347 0.09112175 0.20694956 0.034918584
000280 61 af 87 3e db 04 2a 3d 81 e5 09 3e b0 74 01 3e
       0.2650099 0.041508537 0.13466455 0.12642169
000290 ec fe 27 3e ed cd dc 3d ad bd 4b 3d 18 bb 88 3d
       0.16405839 0.10781465 0.049741436 0.0667631
0002a0 65 cb c0 3d 9c 9b 12 3e 01 f0 df 3d fa 53 65 3e
       0.094137944 0.14317173 0.10934449 0.22395316
0002b0 62 06 42 3e 50 1d 06 3d bb e7 0c 3e 2c 39 77 3d
       0.18947747 0.0327428 0.13760273 0.060357258
0002c0 4e 58 ea 3d 5e be 0b 3b fb 2f 32 3e b0 c1 cf 3d
       0.11442624 0.0021323184 0.17401116 0.10144365
0002d0 22 5b 81 3d dc ab eb bb ec 22 07 3e 53 8a 13 3e
       0.0631621 -0.007192118 0.13196915 0.14408235
0002e0 2d 6d 88 3e 85 f6 1a 3d 9a 93 8a 3d 87 b2 f6 3d
       0.26645795 0.037832756 0.06766434 0.1204577
0002f0 bb b6 dd 3d 72 d8 af 3d e8 77 4c 3d fe ba 6a 3e
       0.10825869 0.085862055 0.04991904 0.22922894
000300 1f 0e 61 3c cc 76 09 3e 4b 90 58 3c 9b c2 d5 3d
       0.013736277 0.13424224 0.013217996 0.10437509
000310 15 2b a4 3d 5f 13 de bb c6 4e 12 3e 9e 1f 56 3d
       0.0801603 -0.0067772116 0.14287862 0.052276246
000320 da 4e 72 3d 59 79 c3 3e df 28 fa 3d 9f fa 72 3e
       0.05915723 0.38178518 0.12214827 0.23728417
000330 36 fd 1a 3d a4 58 49 3e d5 2f 11 3e 88 4a 1f 3e
       0.037839137 0.1966272 0.14178403 0.15555775
000340 29 bd 0b 3e 7f 3e a9 3d 78 8d e8 3d 97 62 b7 3d
       0.13646378 0.08263873 0.11355108 0.089543514
000350 7b e5 8d 3d 67 da bc 3d 40 4d c2 3e 5e 9e dc 3d
       0.069285356 0.092213444 0.37949562 0.10772394
000360 34 c2 1c 3e 4b 9e 35 3e b3 66 8e 3d f6 a3 36 3e
       0.15308458 0.17736165 0.06953182 0.17835984
000370 11 27 01 3d b4 6a 94 3e 43 71 ad 3d 31 61 17 3e
       0.031531397 0.28987658 0.084688686 0.1478317
000380 a8 55 c9 3c 17 34 4d 3e 26 f0 a9 3d e7 92 24 3d
       0.024576977 0.20039402 0.08297758 0.04017916
000390 31 e9 b1 3c b7 02 4e 3e 28 07 12 3e 61 6b 35 3d
       0.02171764 0.20118223 0.14260542 0.044291858
0003a0 0c 5c 62 3e 4f d5 41 3c 0f a6 0f bc 43 6f b4 3d
       0.22105426 0.011830642 -0.008767619 0.08810284
0003b0 e0 09 e1 3d 0d 65 f0 3d 30 c3 4d 3e 85 99 3c 3e
       0.10988212 0.11738024 0.2009399 0.18417938
0003c0 7f 20 14 3d 40 60 0e 3d e9 ca 6f 3d 53 7d 2b 3e
       0.036163803 0.03475976 0.05854312 0.16747026
0003d0 50 94 c9 3d 83 58 2b 3e a6 18 93 3d 89 e6 60 3c
       0.098427415 0.16732983 0.07182436 0.013726839
0003e0 da 54 9e 3d d3 89 c0 3d 61 25 68 3d ed df 6c 3c
       0.07731028 0.09401288 0.056676272 0.014457685
0003f0 8f 53 3b 3e 16 5d 16 3e 28 30 c8 3d b2 f3 e6 3b
       0.18293594 0.14683947 0.0977481 0.0070480937

fc2.bias f4 [64]
000000 22 c5 0e bb c7 73 be 3d 24 36 d0 3d b5 e2 d8 3d
       -0.002178498 0.092994265 0.101665765 0.10590116
000010 46 df da 3d d3 da 22 3d 7e 8e bd 3c db a3 24 3d
       0.10687117 0.03975947 0.023139235 0.040195327
000020 38 ac c4 3c 9d 30 7f 3d cb b0 c0 3b f2 24 b3 3d
       0.024007902 0.06230222 0.0058804504 0.08747281
000030 63 cb 92 3d af a1 df 3c b7 81 1a bc be 9f 5c 3c
       0.07167699 0.027298776 -0.0094303405 0.01346582
000040 9a 9a 3c 3d c5 7a cd 3d b9 01 42 bc 51 93 00 3e
       0.046045877 0.10033182 -0.011841231 0.12556197
000050 78 d3 f3 3d 17 9d a3 3d 57 6a 10 3d 66 cd 06 3e
       0.11905569 0.07988947 0.035257664 0.13164291
000060 dd ec 23 3d 8c 26 17 3e ed 77 0a 3d 6d 14 dc 3d
       0.040020812 0.14760798 0.033805776 0.107460834
000070 1b d4 a2 3d b0 41 cd 3d 0b 55 1e 3e c8 70 0c 3e
       0.07950612 0.100222945 0.15462129 0.13714898
000080 b4 89 cc ba 6d 36 e2 3c 79 4c 8a 3d 08 44 7e 3d
       -0.0015605004 0.027613843 0.06752867 0.0620766
000090 ab 46 0f 3e b8 39 ef 3d 92 76 c0 3d 4b c5 cf bb
       0.13991801 0.11680931 0.093976155 -0.006340658
0000a0 c3 f3 5d 3d 11 18 16 3e cc 64 13 3e 65 c9 b0 3b
       0.054187547 0.14657618 0.1439392 0.005395102
0000b0 55 59 16 3e ed 28 78 3b e9 b7 8c 3d 32 41 f8 3b
       0.14682515 0.003786619 0.068710156 0.0075761313
0000c0 50 e4 93 bc cb c5 8e 3b 1f 87 0c 3e db b3 bd 3d
       -0.018053204 0.004357075 0.1372342 0.0926282
0000d0 4f 28 c6 3c 01 d0 aa bc 06 43 1a 3e 5e 68 15 3d
       0.024189143 -0.020851137 0.1506463 0.036476485
0000e0 d2 ab 44 bc 35 fc d7 3d 7c 4d 04 3e 5d af c2 3d
       -0.012003856 0.105461515 0.12920183 0.09506104
0000f0 0f 59 5a bc 4e 01 3b 3d 29 d3 70 3d 0a 63 19 3e
       -0.013326897 0.04565554 0.058795128 0.14979187

fc3.weight f4 [6, 64]
000000 1c 38 a0 bf 54 49 a0 bf d6 b3 85 bf a8 d3 96 bf
       -1.2517123 -1.2522378 -1.0445507 -1.1783342
000010 50 f6 9f bf 24 8d 96 bf ac 6f ac bf 5d 15 98 bf
       -1.2497044 -1.1761823 -1.347158 -1.188152
000020 bb ab 98 bf d4 24 a2 bf 21 1c a5 bf 48 33 a3 bf
       -1.1927408 -1.2667489 -1.2899209 -1.2750025
000030 b1 a9 aa bf 05 ca 99 bf f3 71 a6 bf df 0b ab bf
       -1.3333036 -1.2014776 -1.3003525 -1.3362998
000040 58 03 93 bf d6 47 ad bf 92 b4 a9 bf 28 3a 91 bf
       -1.1485395 -1.3537548 -1.3258231 -1.1345873
000050 7c b8 9c bf 23 2b 93 bf 6d 84 0a bf 2c 08 a7 bf
       -1.22438 -1.1497539 -0.54108316 -1.3049369
000060 a2 fe a5 bf 72 21 92 bf ab cd a6 bf a7 c5 a9 bf
       -1.2968333 -1.1416457 -1.3031515 -1.3263444
000070 c6 37 94 bf 1a 03 ac bf f5 f1 a1 bf 8d 1a a9 bf
       -1.1579521 -1.3438447 -1.2651964 -1.3211228
000080 88 73 90 bf a8 98 92 bf 93 ef a0 bf 3e b9 a5 bf
       -1.1285257 -1.1452837 -1.2573112 -1.2947156
000090 79 ac a1 bf 33 7b a5 bf 49 85 9c bf b8 5b 48 bf
       -1.263076 -1.2928222 -1.2228175 -0.7826495
0000a0 d4 d0 97 bf a8 b3 8f bf f3 da a3 bf 9b 62 9b bf
       -1.1860604 -1.1226702 -1.2801193 -1.2139467
0000b0 3e 9a 9c bf b4 2c 96 bf 4d fa ad bf 1f a3 8e bf
       -1.2234571 -1.1732392 -1.3592011 -1.1143531
0000c0 c1 d7 9f bf c1 f9 95 bf 5a 76 aa bf 94 f1 98 bf
       -1.2487718 -1.1716844 -1.3317368 -1.1948724
0000d0 b8 b3 9c bf 38 82 9e bf a7 4b 95 bf 75 68 7b bf
       -1.2242346 -1.238349 -1.1663712 -0.98206264
0000e0 af b7 95 bf 61 97 a1 bf 31 60 a0 bf 2b 79 92 bf
       -1.1696681 -1.2624322 -1.2529355 -1.1443228
0000f0 ac d2 95 bf 06 1b ab bf a3 d5 96 bf 67 e0 ad bf
       -1.1704917 -1.3367622 -1.1783947 -1.3584107
000100 9b 87 a1 bf 8b e6 a2 bf 52 c2 7e bf 47 82 9c bf
       -1.2619509 -1.2726606 -0.9951526 -1.2227257
000110 e4 18 9c bf 11 2a 9e bf 93 da 9a bf 62 c2 90 bf
       -1.2195096 -1.2356588 -1.2097954 -1.1309321
000120 6b b2 9f bf 20 8c 90 bf 88 2f 97 bf 33 27 91 bf
       -1.2476324 -1.1292763 -1.181138 -1.1340088
000130 39 97 96 bf 27 69 a7 bf 7a 9f 9b bf e2 8b ab bf
       -1.17649 -1.3078965 -1.2158043 -1.3402064
000140 c8 7d a3 bf af b9 8f bf 56 8f b2 bf c9 5c a8 bf
       -1.277276 -1.1228541 -1.3949993 -1.3153316
000150 83 6b a5 bf 48 bf a9 bf d6 2f 0d bf 92 64 93 bf
       -1.2923435 -1.32615 -0.55151117 -1.1515067
000160 a2 14 a1 bf 41 59 95 bf c0 65 91 bf 5a 99 a1 bf
       -1.2584422 -1.1667863 -1.1359177 -1.2624924
000170 a5 35 a6 bf 70 84 ab bf 6e f7 9b bf bb 1a a1 bf
       -1.2985121 -1.3399792 -1.2184885 -1.2586282
000180 b0 3a 96 bf 01 24 a5 bf dd a4 aa bf 0a a1 aa bf
       -1.173666 -1.2901613 -1.3331562 -1.3330395
000190 32 ba 90 bf f0 dd 97 bf 80 c6 a5 bf 53 ba 5a bf
       -1.1306822 -1.1864605 -1.2951202 -0.8544056
0001a0 b9 bf b1 bf b4 cf 99 bf 99 ab a8 bf 8e 25 a3 bf
       -1.3886634 -1.2016511 -1.3177367 -1.2745836
0001b0 52 f8 a2 bf 19 98 95 bf e7 17 9f bf ac 2c 90 bf
       -1.2732031 -1.1687042 -1.242917 -1.1263633
0001c0 d6 d6 91 bf 2e bb 8e bf 67 a6 90 bf 08 13 93 bf
       -1.1393688 -1.1150873 -1.1300782 -1.1490183
0001d0 a8 e8 a3 bf 73 be 92 bf a9 1b a6 bf 28 ec 8f bf
       -1.2805376 -1.146437 -1.2977191 -1.1243944
0001e0 6c 79 aa bf 9c 93 9f bf 0a 94 98 bf 00 d1 9c bf
       -1.3318305 -1.2466922 -1.1920178 -1.2251282
0001f0 bc 61 ad bf 69 1f a2 bf 2f 35 97 bf 5d a8 a4 bf
       -1.3545451 -1.2665836 -1.1813105 -1.286388
000200 f8 a0 93 bf 12 3e 9d bf 2e 64 94 bf ba 5e a7 bf
       -1.1533499 -1.2284567 -1.1593072 -1.3075783
000210 15 8d 98 bf db 99 9b bf bf 60 ac bf 21 7a 8e bf
       -1.1918055 -1.2156328 -1.3467025 -1.1131021
000220 52 0d a0 bf 9b 8b 9f bf e2 75 a7 bf 3a 17 a5 bf
       -1.2504065 -1.2464479 -1.308285 -1.2897713
000230 ca 46 9b bf 6b 52 a4 bf b7 cc a8 bf b8 11 a4 bf
       -1.2130978 -1.2837652 -1.3187474 -1.2817907
000240 77 da 90 bf 9e 64 9f bf 21 73 93 bf 8f 49 8f bf
       -1.131667 -1.2452581 -1.151951 -1.1194323
000250 e8 35 95 bf 9d 2d a5 bf e9 19 23 bf d2 f8 9e bf
       -1.1657076 -1.2904545 -0.6371141 -1.2419684
000260 a0 05 9d bf 54 61 a3 bf 19 eb a2 bf ef 89 a9 bf
       -1.2267342 -1.2764077 -1.2727996 -1.3245219
000270 08 c3 a6 bf 7a 9d 8f bf 8b cc 9e bf 42 22 ae bf
       -1.3028269 -1.1219933 -1.2406172 -1.3604205
000280 d9 68 9e bf 8c 2d 94 bf 49 d7 93 bf 6f f4 a5 bf
       -1.2375747 -1.15764 -1.1550075 -1.296522
000290 b0 b3 a4 bf fd 18 9c bf c6 d1 98 bf 96 de 62 bf
       -1.2867336 -1.2195126 -1.1939018 -0.8862089
0002a0 11 91 99 bf 0c 25 9e bf cc c9 ab bf 49 0e 94 bf
       -1.1997396 -1.2355056 -1.3420959 -1.156686
0002b0 ca 71 94 bf 18 61 94 bf 78 22 8e bf 45 7e aa bf
       -1.1597226 -1.1592131 -1.1104269 -1.3319784
0002c0 7b 48 a2 bf 8b 22 a6 bf 2b 82 a2 bf 77 94 a5 bf
       -1.2678369 -1.2979292 -1.2695974 -1.2935933
0002d0 90 58 a3 bf ed e8 9c bf 7d aa 9f bf 38 e7 82 bf
       -1.2761402 -1.2258583 -1.2473904 -1.0226812
0002e0 61 11 ab bf 10 60 91 bf 81 bc 9a bf 75 27 af bf
       -1.3364679 -1.1357441 -1.2088777 -1.3683916
0002f0 18 5c 8d bf 90 f5 93 bf 58 f9 91 bf 74 66 a2 bf
       -1.104373 -1.1559315 -1.1404219 -1.2687516
000300 fd 51 ab bf 1e f5 a2 bf 63 57 82 bf 5a e9 9b bf
       -1.3384396 -1.2731054 -1.0182918 -1.2180588
000310 1d a3 a9 bf 9e c2 98 bf 9b e3 97 bf 95 0c aa bf
       -1.3252903 -1.1934392 -1.1866335 -1.328509
000320 4e 27 98 bf e5 23 a1 bf 1b e2 9b bf 84 17 96 bf
       -1.1886995 -1.2589079 -1.2178377 -1.1725926
000330 7d 78 94 bf 9a 22 a6 bf f0 bb 92 bf f0 1b 93 bf
       -1.159927 -1.297931 -1.1463604 -1.1492901
000340 d4 58 91 bf 1c aa a5 bf c0 dc 99 bf ad 94 a9 bf
       -1.1355233 -1.2942538 -1.2020493 -1.3248497
000350 d2 47 8f bf be 10 8c bf 77 99 2a bf ec ae a2 bf
       -1.1193793 -1.0942609 -0.6664042 -1.2709632
000360 42 f3 99 bf 72 1f 92 bf c3 66 91 bf 9e af 99 bf
       -1.2027361 -1.1415846 -1.1359485 -1.2006719
000370 16 ad 96 bf c4 2b a4 bf c9 59 a4 bf b9 29 aa bf
       -1.1771572 -1.2825856 -1.28399 -1.3293983
000380 1f 9f 9f bf 19 49 9b bf 26 16 95 bf ae 63 91 bf
       -1.2470435 -1.2131683 -1.1647384 -1.1358545
000390 39 67 97 bf 0e 91 a8 bf 1a 7a 94 bf 5e 34 5a bf
       -1.1828376 -1.3169267 -1.1599762 -0.85236156
0003a0 3b 9d 9d bf a4 82 aa bf 94 9c a8 bf 78 30 a1 bf
       -1.2313608 -1.3321118 -1.3172784 -1.2592916
0003b0 a8 22 a0 bf 90 09 a8 bf b4 fd a3 bf 7d 8b a2 bf
       -1.2510576 -1.3127918 -1.2811799 -1.2698818
0003c0 18 6a a9 bf 86 b1 a4 bf 0a 80 a0 bf ac 6d 96 bf
       -1.3235502 -1.2866676 -1.2539074 -1.1752219
0003d0 52 f8 9a bf c7 fa a8 bf dd 34 9b bf 6d 42 89 bf
       -1.2107031 -1.3201531 -1.2125508 -1.0723397
0003e0 91 c4 9c bf 71 bf aa bf c8 6e 9d bf d6 56 9c bf
       -1.2247487 -1.3339673 -1.2299433 -1.2214
0003f0 a7 a0 a5 bf 2e 52 9c bf 3a 9c a0 bf e6 e6 98 bf
       -1.2939652 -1.2212579 -1.2547677 -1.1945465

fc3.bias f4 [6]
000000 8b fc a9 bf d9 0a a2 bf f4 c6 9c bf 7d 8d a4 bf
       -1.3280195 -1.265956 -1.2248216 -1.2855679
000010 58 74 a2 bf d9 75 a2 bf
       -1.2691755 -1.2692214
