dqn_taxi_light_real.pth (torch, 45952 bytes, 6 tensors)

fc1.weight f4 [128, 16]
0	0x3e5d7b48	0.2162906
1	0x3d0a7b40	0.033808947
2	0x3d3f2530	0.046666324
3	0x3e5c6798	0.21523893
4	0xbd8acf84	-0.06777862
5	0x3e7ea221	0.24866535
6	0x3e972b3a	0.29525167
7	0x3d6412b0	0.055681884
8	0x3f073e21	0.52829176
9	0x3ed071cd	0.40711823
10	0x3e95f473	0.29288062
11	0x3e473b76	0.19456276
12	0x3cf2300e	0.02956393
13	0x3f129654	0.5726063
14	0x3e290bf0	0.1650846
15	0x3e67fe49	0.22655596
16	0x3d667244	0.056261316
17	0x3d9fcbd8	0.07802552
18	0xbe1d4ea6	-0.15362033
19	0xba648200	-0.0008716881
20	0x3e4c806e	0.19970867
21	0x3f216409	0.63043267
22	0x3ec54a1f	0.38533112
23	0xbe054c7c	-0.13017458
24	0x3f10e4c7	0.56599087
25	0x3eb855d5	0.36002985
26	0x3f328664	0.69736314
27	0x3dfda041	0.12384082
28	0x3e836df5	0.25669828
29	0x3f4eab48	0.80730104
30	0x3eb5fe40	0.3554554
31	0x3eba2eae	0.3636374
32	0xbc7f85e9	-0.0155958915
33	0x3e3d17b0	0.18466067
34	0xbd3b40d8	-0.045716137
35	0x3af0f600	0.0018383861
36	0x3e50362e	0.20333168
37	0x3f23b032	0.6394073
38	0x3eb14ad1	0.34627393
39	0xbc376fc0	-0.011196077
40	0x3eee647b	0.46561036
41	0x3ede47f5	0.43414274
42	0x3ee07cfb	0.43845353
43	0x3ebd8412	0.37014824
44	0x3db4f3ba	0.0883555
45	0x3f4d82b1	0.80277544
46	0x3dd39253	0.103306435
47	0x3e73cd6e	0.23808834
48	0x3dd683e8	0.10474378
49	0x3ecd00e7	0.4003975
50	0x3def4308	0.11682707
51	0xbde1ba48	-0.110218585
52	0x3d200168	0.03906384
53	0x3f0a563a	0.5403782
54	0x3ef46fba	0.4774149
55	0x3dd2a7e4	0.10285929
56	0x3ef6b2bc	0.48183239
57	0x3e80f19c	0.25184333
58	0x3f31da4e	0.6947373
59	0x3ed384c4	0.4131223
60	0x3ec0d8b6	0.37665337
61	0x3ec2de88	0.38060403
62	0x3edb43a7	0.42825052
63	0x3ebd9aa4	0.37032044
64	0x3e15ae9a	0.14617386
65	0x3e4454ba	0.19172946
66	0x3df23f78	0.11828512
67	0x3b457080	0.003012687
68	0x3e177852	0.14791992
69	0x3f14bb31	0.5809813
70	0x3ecbd4f8	0.3981092
71	0xbe3c8efa	-0.18413916
72	0x3f043b14	0.51652646
73	0x3f2f298b	0.68422765
74	0x3f0978bd	0.53699857
75	0x3e922040	0.2854023
76	0x3eaac752	0.33355194
77	0x3f02cfe9	0.51098496
78	0x3ed8bb48	0.42330384
79	0x3f0847cc	0.53234553
80	0x3ea648e6	0.32477492
81	0x3e6c2332	0.23060301
82	0x3e49ca36	0.19706044
83	0xbe184362	-0.14869455
84	0x3e7f5788	0.24935734
85	0x3f2c779b	0.67370003
86	0x3f06b12d	0.526141
87	0xbe089836	-0.13339314
88	0x3f26742d	0.6502102
89	0x3f1566d3	0.5836002
90	0x3e9bb08b	0.3040813
91	0x3ed32856	0.4124171
92	0x3d41b94d	0.047295857
93	0x3ec42b76	0.38314408
94	0x3e8c2509	0.27372006
95	0x3e7e3cf3	0.24827938
96	0x3ebd4249	0.36964634
97	0x3db997ca	0.090621546
98	0x3df8ea54	0.121540695
99	0xbe39b4a8	-0.18135321
100	0xbe19de9e	-0.15026328
101	0x3f2cac09	0.67450005
102	0x3e9ae539	0.30253008
103	0x3d987888	0.074448645
104	0x3f28f52c	0.659991
105	0x3ec34fed	0.38146916
106	0x3f0afeb4	0.54294896
107	0x3dfd0ddb	0.12356158
108	0x3d317309	0.043322597
109	0x3f34cdb7	0.70626396
110	0x3e80f4c4	0.2518674
111	0x3e89c63a	0.26909047
112	0x3eda83ad	0.42678586
113	0x3eb9ce4e	0.3629021
114	0x3e63619e	0.22205207
115	0xbd87ba6c	-0.06627354
116	0x3df8a738	0.121412694
117	0x3eea7393	0.457913
118	0x3f0d300f	0.55151457
119	0xbe501188	-0.20319188
120	0x3edf7f5c	0.43651855
121	0x3eec99f0	0.46211195
122	0x3ecdbd41	0.40183452
123	0x3cc4e8cc	0.024036787
124	0x3ed316b0	0.41228247
125	0x3eff844b	0.4990562
126	0x3d88a46c	0.06671986
127	0x3f0528e6	0.5201553
128	0x3e8d4f63	0.2759963
129	0x3e8a9c52	0.27072388
130	0xbd7c84f8	-0.061650246
131	0xbbc77f00	-0.0060881376
132	0xbe027182	-0.12738612
133	0x3ee4ff86	0.447262
134	0x3f2c69f2	0.6734916
135	0x3e6560f0	0.2240026
136	0x3eaed196	0.34144276
137	0x3eb17d1a	0.34665757
138	0x3f0e77d0	0.5565157
139	0x3ec90793	0.3926359
140	0x3d9bde85	0.076108016
141	0x3eab0055	0.3339869
142	0xbc9ac4e0	-0.018892705
143	0x3e7dfa38	0.24802482
144	0x3e525cb1	0.20543171
145	0x3e5669cf	0.209388
146	0xbda5f144	-0.081026584
147	0x3dda3914	0.10655418
148	0x3d8f2770	0.06989944
149	0x3ea40ec2	0.3204251
150	0x3f1cb6ca	0.61216414
151	0x3e542d9e	0.20720527
152	0x3f002a03	0.50064105
153	0x3f137b65	0.5761016
154	0x3f013d2d	0.5048397
155	0x3d816d2d	0.06319652
156	0x3e5609e4	0.2090221
157	0x3f20129e	0.6252841
158	0x3e52fdea	0.20604673
159	0x3df52028	0.11969024
160	0x3ec28864	0.37994683
161	0x3e5b2c93	0.21403722
162	0xbcbb45e0	-0.022860467
163	0x3e4550bc	0.19269079
164	0x3d53cf48	0.05171135
165	0x3ee7446f	0.45169398
166	0x3eacaead	0.33727017
167	0xbe78bf18	-0.24291646
168	0x3e7c1386	0.24616823
169	0x3ea8367f	0.32854077
170	0x3ee87a56	0.45405835
171	0x3eabc3e9	0.33547905
172	0x3e9d411a	0.3071373
173	0x3f1d1957	0.6136679
174	0x3eba4d3d	0.36387053
175	0x3d5362e9	0.051608
176	0x3d114be1	0.035472754
177	0xbd78d28f	-0.06074768
178	0x3e4efeac	0.20214337
179	0x3d9cb6f0	0.0765208
180	0xbe134e82	-0.14385417
181	0x3f34a81a	0.70569
182	0x3ecd89f6	0.40144318
183	0x3e0743d8	0.13209474
184	0x3f0d7bd6	0.55267084
185	0x3f1effad	0.6210888
186	0x3eb18952	0.3467508
187	0x3dcecf67	0.100981526
188	0x3ef81b4a	0.4845832
189	0x3f0e6d20	0.5563526
190	0xbd548db3	-0.051892947
191	0x3f08f018	0.53491354
192	0x3e5b2a32	0.21402815
193	0x3ebacf71	0.3648639
194	0xbe1a193e	-0.15048692
195	0x3e667e06	0.22509012
196	0xbe7bf03c	-0.24603361
197	0x3f2cdae4	0.675215
198	0x3eeb15b6	0.45915002
199	0xbe488450	-0.19581723
200	0x3e8d6208	0.27613854
201	0x3f19c2eb	0.60063046
202	0x3f462bd8	0.7741065
203	0xbc048b47	-0.008089847
204	0x3e994d70	0.29941893
205	0x3ed90922	0.4238978
206	0xbcaf9530	-0.021433443
207	0x3e665633	0.2249382
208	0x3e51ba9e	0.20481345
209	0xbe384cc2	-0.17998031
210	0x3e6f03ac	0.23341244
211	0xbd8cbad8	-0.06871575
212	0xbd472c00	-0.048625946
213	0x3e272be8	0.16325343
214	0xbe26551a	-0.16243401
215	0xbe475314	-0.19465286
216	0xbd48b6f0	-0.049002588
217	0xbe66e1da	-0.22547093
218	0x3e47ea2a	0.1952292
219	0xbe009974	-0.12558538
220	0x3dde272c	0.10847315
221	0x3d679570	0.056539
222	0xbe6b17f2	-0.22958353
223	0xbe246142	-0.16052726
224	0xbd4b1690	-0.049582064
225	0x3e049c5e	0.12950274
226	0xbe0e23fc	-0.13880914
227	0x3e76fdfa	0.24120322
228	0xbcd9fe20	-0.026610434
229	0x3e0dac98	0.1383537
230	0xbe6b7f9a	-0.22997895
231	0x3e473410	0.19453454
232	0xbe6835ba	-0.22676745
233	0x3e5502e6	0.20801887
234	0xbe3297f8	-0.17440784
235	0xbe2809f8	-0.16410053
236	0xbe2b5052	-0.16729859
237	0xbe79e822	-0.24404958
238	0xbe00a466	-0.12562713
239	0xbc836740	-0.016040444
240	0x3eab6bb4	0.33480608
241	0x3dd2b07f	0.1028757
242	0xbe1ff28e	-0.15619871
243	0x3dc569a0	0.09639287
244	0x3b66bb00	0.0035206676
245	0x3eec8b5c	0.46200073
246	0x3f0dae2a	0.5534388
247	0xbdd290c0	-0.10281515
248	0x3f2e42b6	0.6807054
249	0x3e9a5a9b	0.3014725
250	0x3ecc9623	0.39958295
251	0x3ec9cf33	0.39415893
252	0x3e67ce50	0.22637296
253	0x3f31a69b	0.69394845
254	0x3dd503b6	0.104010984
255	0x3d960814	0.073257595

fc1.bias f4 [128]
0	0x3f25913c	0.64674735
1	0x3f16d3d4	0.58916974
2	0x3f3f1a2b	0.74649304
3	0x3ec41b46	0.38302058
4	0x3f405cd2	0.7514163
5	0x3f2c6495	0.67340976
6	0x3ebc64ec	0.36795747
7	0x3f26b842	0.65124905
8	0x3eb941ed	0.3618311
9	0x3f3b2285	0.7309955
10	0x3ef483fe	0.47756952
11	0x3ef30119	0.47461775
12	0x3f31756c	0.69319797
13	0xbe33d95e	-0.17563388
14	0xbe197640	-0.14986515
15	0x3f343ebc	0.70408225
16	0x3f473a19	0.77823025
17	0x3f3ebad4	0.7450383
18	0x3cabbf50	0.020965248
19	0x3edeb90d	0.43500558
20	0x3eaaa87b	0.33331665
21	0x3f1fa944	0.62367654
22	0x3f1d7e24	0.615206
23	0x3f2b7124	0.66969514
24	0xbe7fea4c	-0.24991721
25	0xbdda5df0	-0.106624484
26	0xbda83c24	-0.08214596
27	0x3f31aa9e	0.69400966
28	0x3f1ecaf2	0.6202842
29	0x3f268703	0.6504976
30	0x3d8ec44c	0.069710344
31	0x3f01bfce	0.50683296
32	0x3f467300	0.77519226
33	0x3edaf0a5	0.42761722
34	0x3ec5ad14	0.3860861
35	0x3f0675e0	0.5252361
36	0x3f0af213	0.54275626
37	0xbe15516c	-0.14581841
38	0x3f36bc9f	0.7138156
39	0xbe1c3c86	-0.15257463
40	0x3f10ec44	0.5661051
41	0x3e385d7c	0.18004411
42	0x3f2f965c	0.68588805
43	0xbe50ffb0	-0.20410037
44	0x3f0abdf0	0.5419607
45	0x3e1b89a6	0.15189227
46	0x3ec64fe9	0.38732842
47	0xbdc6b8a4	-0.09703186
48	0x3e610b50	0.21976972
49	0x3db11270	0.08646095
50	0x3f240f78	0.64086103
51	0x3f48a291	0.78373057
52	0x3f22a789	0.6353689
53	0x3f1c74e5	0.61115867
54	0x3edb80e8	0.42871785
55	0xbe58a4d8	-0.21156633
56	0x3f187c46	0.59564626
57	0xbe02a1d4	-0.12757045
58	0x3f1ba090	0.60791874
59	0x3f16f02a	0.5896021
60	0xbe074ee4	-0.13213688
61	0x3f456309	0.7710424
62	0x3d43f570	0.04784149
63	0xbddbc898	-0.107316196
64	0x3e0c1290	0.13678956
65	0xbd4895a0	-0.04897082
66	0xbcd47ed0	-0.025939375
67	0x3e9016cd	0.28142396
68	0x3f48e68d	0.7847679
69	0x3f2967f4	0.66174245
70	0x3f42af72	0.7604896
71	0x3f4375da	0.763517
72	0xbd6bb7a0	-0.057548165
73	0x3f04969b	0.51792306
74	0x3f482830	0.7818632
75	0x3f19f49c	0.6013887
76	0x3f1850ce	0.594983
77	0x3e6684da	0.22511616
78	0x3f4231c7	0.75857204
79	0x3f2608e8	0.6485734
80	0x3f4bfdf1	0.7968436
81	0x3f1356af	0.57554144
82	0xbe52ae6c	-0.20574349
83	0xbda50974	-0.08058444
84	0x3edb9168	0.42884374
85	0x3f501691	0.81284434
86	0xbe1762c4	-0.1478377
87	0x3f280722	0.65635884
88	0x3ece5ef9	0.40306833
89	0x3e0c6db8	0.1371373
90	0x3f0cad14	0.54951596
91	0x3f3e7b31	0.74406725
92	0x3ede7952	0.43451935
93	0x3f49445f	0.7861995
94	0x3e476956	0.19473776
95	0x3d0e07c0	0.03467536
96	0x3f2573a1	0.6462956
97	0x3f1f423c	0.6221044
98	0xbdb472b1	-0.08810938
99	0x3ebf015b	0.37305722
100	0x3f44d1f9	0.7688289
101	0x3f2a5926	0.6654228
102	0x3ed4bfa7	0.4155247
103	0x3f4c2e99	0.797586
104	0x3f453681	0.7703629
105	0x3f2207ef	0.63293356
106	0x3f34101c	0.7033708
107	0x3ebd02dd	0.36916247
108	0x3f39a8de	0.72523296
109	0x3f301e35	0.6879609
110	0x3f2d295b	0.6764123
111	0x3f22400e	0.6337899
112	0x3f0d724e	0.5525254
113	0x3eddafef	0.4329829
114	0x3f24c5d7	0.6436438
115	0x3f113b66	0.5673126
116	0x3f06f346	0.52714956
117	0x3ef4b6ab	0.47795615
118	0x3efbb0e9	0.4915841
119	0x3ec5bfb5	0.38622823
120	0x3edabf28	0.42723966
121	0x3f38b6ca	0.72153914
122	0x3ec06ba0	0.3758211
123	0xbe3114b9	-0.17293061
124	0x3f43f753	0.7654926
125	0x3ef11444	0.47085774
126	0x3ec10a0c	0.37702978
127	0x3f07426c	0.52835727

fc2.weight f4 [64, 128]
0	0x3d58b9cb	0.05291156
1	0x3d7e65d8	0.062108845
2	0x3bb47192	0.0055067027
3	0xbd88d844	-0.066818744
4	0x3d111472	0.03541989
5	0xbc4fcd00	-0.012683153
6	0x3c94d012	0.018165622
7	0x3d81fcaa	0.0634702
8	0xbc9f302a	-0.019432146
9	0xbdb33101	-0.08749581
10	0xbdb2157e	-0.086955056
11	0xbd17faa2	-0.037104256
12	0x3d307315	0.0430785
13	0xbce6aa60	-0.028157413
14	0xbaf4d269	-0.001867843
15	0x3ca6cf25	0.020362446
16	0x3da740b4	0.08166638
17	0x3cea468d	0.028598094
18	0xbdae26a5	-0.085034646
19	0x3d896eb9	0.06710572
20	0xbd802711	-0.06257451
21	0x3c9b3750	0.018947273
22	0xbc4aa9de	-0.012369601
23	0x3c489a79	0.01224386
24	0xbc560c33	-0.013064432
25	0xbba71703	-0.0050991788
26	0x3c5b40ad	0.013382119
27	0x3d080325	0.033206124
28	0x3d162835	0.03665944
29	0x3cc4f11a	0.024040747
30	0x3c3512bd	0.011051831
31	0x3d945420	0.07242608
32	0xbd9469d1	-0.072467454
33	0x3ad4e0bb	0.0016241291
34	0xbd70e25c	-0.058809623
35	0xbda878ad	-0.08226142
36	0xbd459275	-0.048235375
37	0xbdb3ca8d	-0.08778868
38	0xbd927fdb	-0.07153293
39	0x3d49f02b	0.049301308
40	0xbc2314ec	-0.009953719
41	0x3c3be48a	0.011468062
42	0x3cd042a5	0.025422404
43	0xbd331ddd	-0.04372965
44	0x3d05eb21	0.03269494
45	0x3d4040e0	0.04693687
46	0x3d62f776	0.05541178
47	0x3b397a65	0.0028301713
48	0xbc6e8a95	-0.014559408
49	0x3d167b77	0.03673884
50	0x3da0d0b5	0.07852308
51	0xbd5fcfe5	-0.054641623
52	0xbdb8ca72	-0.090229884
53	0x3d980c2b	0.07424196
54	0x3ce91bce	0.028455641
55	0xbd58596e	-0.05281966
56	0xbcb77448	-0.022394314
57	0xbd397ce8	-0.045285136
58	0x3c4eb08a	0.012615332
59	0xbdb425df	-0.08796286
60	0x3d3be2b5	0.0458705
61	0xbd188eb5	-0.03724547
62	0xbdadc126	-0.08484106
63	0x3d990c8b	0.074730955
64	0xbd91110f	-0.07083332
65	0x3dafd5eb	0.085857235
66	0xbd5b6827	-0.053566124
67	0xbd8c7394	-0.06857982
68	0xbd46e150	-0.04855472
69	0xbc5f174a	-0.013616392
70	0xbcb292d3	-0.021798527
71	0x3c2b395d	0.010450688
72	0xbdb41856	-0.08793704
73	0xbcf3e2e9	-0.029771285
74	0x3d10bc03	0.035335552
75	0x3d71e0bd	0.059052218
76	0xbd662d2e	-0.05619543
77	0xbcacf296	-0.021111768
78	0x3d079d3d	0.03310894
79	0x3c043488	0.008069165
80	0xbc83cb48	-0.016088143
81	0xbd106a04	-0.035257354
82	0xbd2e26f0	-0.042517602
83	0xbd6e7416	-0.058216177
84	0xbcc93b7e	-0.0245645
85	0xbd09e2ca	-0.03366355
86	0xbd95504f	-0.07290708
87	0x3cac3092	0.021019254
88	0xbd69147a	-0.056904294
89	0x3d4de357	0.050265636
90	0xbdc138f0	-0.09434688
91	0xbc8e39f6	-0.017361622
92	0xbc8cadce	-0.01717272
93	0x3d1c9ace	0.03823357
94	0xbd859b92	-0.06523813
95	0xbd899100	-0.0671711
96	0xbd9f0333	-0.07764282
97	0x3d9badde	0.07601522
98	0xbd801bf5	-0.062553324
99	0x3ca0a903	0.019611841
100	0x3d63ed30	0.05564612
101	0x3b713709	0.0036806485
102	0xbdbf9edf	-0.09356474
103	0xbcea88f3	-0.028629756
104	0x3d789cec	0.060696527
105	0xbc3e012b	-0.011596958
106	0xbce49320	-0.027902186
107	0x3c13b019	0.009014153
108	0xbc3a8606	-0.011384493
109	0xbcbe04a0	-0.023195565
110	0x3b1f4afa	0.0024306164
111	0x3c774e9d	0.015094426
112	0xbd4bc70d	-0.049750376
113	0xbdb33f04	-0.08752254
114	0x3d55192a	0.05202595
115	0x3d6ef6b1	0.058340732
116	0xbdc0b325	-0.09409169
117	0x3d5d749c	0.054066285
118	0xbd43474d	-0.04767542
119	0xbd4a9851	-0.049461666
120	0x3d6b4dc0	0.057447195
121	0xbba45c95	-0.0050159195
122	0x3d0f3656	0.03496393
123	0xbbb44d0c	-0.0055023488
124	0x3c800aef	0.015630214
125	0x3d2ea4e9	0.04263774
126	0xbd87448e	-0.06604873
127	0x3cae28a2	0.02125961
128	0x3d935264	0.07193449
129	0xbd04342b	-0.032276314
130	0xbdb4239c	-0.087958544
131	0x3c8d5e74	0.017256953
132	0x3d8dc074	0.06921473
133	0x3c8930df	0.016746936
134	0xbd0301e1	-0.031984214
135	0x3cba0d3e	0.022711392
136	0x3d9c9f96	0.07647626
137	0xbdbddc4b	-0.09270533
138	0xbd0c479e	-0.034247987
139	0x3d8b8a30	0.068134665
140	0xbd8a0cef	-0.06740748
141	0x3be945bb	0.007118908
142	0xbd6c4c22	-0.057689793
143	0x3d06bc0f	0.03289419
144	0xbd95d4fb	-0.073160134
145	0xbcab6f74	-0.020927168
146	0x3d84a2c1	0.06476355
147	0x3a9490eb	0.0011334693
148	0xbd268c14	-0.040660933
149	0xbcb8f925	-0.022579739
150	0x3d33f738	0.043936938
151	0x3d702b42	0.058635004
152	0xbcfa5740	-0.030559182
153	0x3b38168b	0.0028089609
154	0x3da1d033	0.07901039
155	0xbc8357a8	-0.016033009
156	0xbdc733e5	-0.09726695
157	0x3c08007e	0.008300899
158	0x3d042526	0.03226199
159	0x3cc1adca	0.02364244
160	0x3d8f535f	0.06998324
161	0x3d94919a	0.07254334
162	0x3d5961ee	0.05307191
163	0xbd814e0b	-0.06313714
164	0xbd1216f4	-0.03566642
165	0xbd67e833	-0.056617927
166	0xbdbb4f3b	-0.091459714
167	0x3d8f7686	0.070050284
168	0x3d31c527	0.04340091
169	0x3d4f2acc	0.050577924
170	0xbd2299f8	-0.039697617
171	0x3d339330	0.04384154
172	0xbd80a830	-0.06282079
173	0x3d2b4f04	0.041823402
174	0xbd2c9ee9	-0.042143736
175	0x3d799f73	0.06094308
176	0x3d8131be	0.06308316
177	0x3da76a67	0.081745915
178	0x3d2684d2	0.04065401
179	0x3d2ffb89	0.042964492
180	0x3b090777	0.002090899
181	0x3d83b14e	0.064303026
182	0x3d97d53f	0.0741372
183	0x3da6da88	0.0814715
184	0xbb876572	-0.0041319663
185	0x3c58885b	0.013216103
186	0xbd08225a	-0.033235885
187	0xbd2ec181	-0.04266501
188	0x3d9ab774	0.07554522
189	0xbd38b77b	-0.045096856
190	0x3c530b6c	0.012881141
191	0x3c9ff29c	0.019524865
192	0xbc16fcd8	-0.009215556
193	0xbd1c95b8	-0.03822872
194	0xb95ad100	-0.00020867959
195	0xbd006cdc	-0.031353816
196	0x3d19cf5b	0.037551265
197	0x3c0a9452	0.008458214
198	0x3d457873	0.048210572
199	0x3d9f169e	0.07767986
200	0xbd275732	-0.04085464
201	0x3cb558cc	0.022137068
202	0x3d8b06c2	0.06788398
203	0xbd3fbb57	-0.04680952
204	0x3a295e9e	0.00064609374
205	0xbd0f1d2e	-0.034939937
206	0x3d09d261	0.0336479
207	0xbdb8da59	-0.090260215
208	0x3cd79bd9	0.026319431
209	0x3c72632e	0.014794154
210	0x3cb3fc8f	0.021971015
211	0x3d346927	0.044045594
212	0xbd1e3804	-0.03862764
213	0x3d8612ec	0.06546578
214	0xbd92cb5f	-0.07167696
215	0x3d0eaf3b	0.03483508
216	0x3c23f069	0.010006049
217	0xbd156ce5	-0.036480803
218	0x3d172710	0.036902487
219	0xbd378bee	-0.04481118
220	0xbdb71d5b	-0.08941146
221	0x3d83201b	0.06402608
222	0xbce4f1d4	-0.027947344
223	0x3bf04080	0.0073319077
224	0xbd9df093	-0.077119015
225	0xbd986d28	-0.07442695
226	0x3b7109f3	0.0036779612
227	0xbd793100	-0.060837746
228	0xbdc4fc03	-0.0961838
229	0x3cc97110	0.024590045
230	0xbda27fe7	-0.07934552
231	0xbd792682	-0.06082774
232	0xbcf0d959	-0.029400514
233	0xbd072c07	-0.033000972
234	0xbd3c7052	-0.046005554
235	0x3d332055	0.043732006
236	0xbda436eb	-0.08018287
237	0xbcfdce00	-0.030982018
238	0x3d4f0926	0.050545834
239	0xbdb2a5e8	-0.0872305
240	0x3cb56180	0.022141218
241	0x3c35a979	0.011087769
242	0x3d402b9d	0.046916593
243	0xbd20be39	-0.03924391
244	0x3d0f10b6	0.034928046
245	0x3c3c2cfb	0.011485334
246	0x3d7dd669	0.061972056
247	0x3d3421fc	0.043977723
248	0x3bc2a0ae	0.0059395647
249	0xbdb1dad4	-0.08684316
250	0xbc7162c8	-0.014733024
251	0xbd96a18a	-0.0735503
252	0x3d2432d4	0.040087536
253	0x3d2637da	0.040580608
254	0xbdbefa60	-0.09325099
255	0xbd0fca0e	-0.035104804

fc2.bias f4 [64]
0	0xbc7a302f	-0.015270277
1	0x3ce69fb3	0.028152322
2	0xbd15f5e1	-0.03661144
3	0x3ef2d402	0.47427374
4	0xbcd34c3b	-0.025793185
5	0x3daf280a	0.08552559
6	0x3f079a70	0.5297003
7	0x3d193ac5	0.037409563
8	0x3ec0e234	0.3767258
9	0xbd971632	-0.0737728
10	0x3ebad2ad	0.36488858
11	0x3ebb8e52	0.3663202
12	0x3ee39b46	0.44454402
13	0x3c498cb2	0.012301611
14	0xbd46ae7d	-0.04850625
15	0xbd7a03e3	-0.061038863
16	0x3ef3962f	0.47575518
17	0x3d207298	0.039171785
18	0xbd705ce8	-0.058682352
19	0x3eda7782	0.42669302
20	0xbdb7515f	-0.08951067
21	0x3eeec12a	0.46631747
22	0x3f054d28	0.52070856
23	0x3ecae49c	0.3962754
24	0xbd9dbd91	-0.077021725
25	0x3ed89874	0.42303813
26	0x3ecd0dcd	0.40049592
27	0x3eea97db	0.45818982
28	0x3f025aaa	0.5091959
29	0x3f0afa13	0.5428783
30	0xbd25593c	-0.040368304
31	0x3ec79574	0.3898121
32	0x3ec97207	0.39344808
33	0x3f022459	0.5083671
34	0x3ce3aecf	0.027793316
35	0x3f056790	0.5211115
36	0x3ed7d2fa	0.4215315
37	0xbdacbd3f	-0.08434533
38	0x3d1c8dd4	0.038221195
39	0x3cb04831	0.021518799
40	0x3edd09b7	0.43171474
41	0x3d8c63f6	0.068550035
42	0xbd3cccf9	-0.046093915
43	0xbd76d077	-0.0602574
44	0xbd427a44	-0.047479883
45	0xbd90cfa2	-0.07070853
46	0xbd8978a5	-0.06712464
47	0x3d12c040	0.035827875
48	0x3d2fd202	0.04292489
49	0x3d7737b1	0.060355846
50	0x3be33bbb	0.0069346107
51	0x3efca2c8	0.49342942
52	0x3ee6e32e	0.450952
53	0x3eece725	0.462701
54	0x3f09470a	0.5362402
55	0x3eef0a9a	0.46687776
56	0x3ee7dd83	0.45286188
57	0x3e80c8a0	0.25153065
58	0x3d77f69d	0.060537923
59	0xbdc44acd	-0.095845796
60	0xbc1ae1aa	-0.009453217
61	0x3d9bfd75	0.076167025
62	0x3eca6c0a	0.39535552
63	0xbda9d462	-0.08292462

fc3.weight f4 [6, 64]
0	0x3cce284e	0.025165703
1	0x3c9c11bc	0.019051425
2	0x3de8703a	0.113495305
3	0xbe775057	-0.24151741
4	0xbb87c260	-0.0041430444
5	0xbd150894	-0.036385134
6	0xbe6f168b	-0.23348443
7	0xbcb0c4a8	-0.021578148
8	0xbea37d83	-0.31931695
9	0x3de48f12	0.11160101
10	0xbe385c60	-0.18003988
11	0xbe5d63c6	-0.21620092
12	0xbec0f6cb	-0.37688288
13	0x3cdc9840	0.026928067
14	0xbd849390	-0.06473458
15	0x3c9fe644	0.019518979
16	0xbe6d16ea	-0.23153272
17	0x3cf3838e	0.029725816
18	0xbd9686fa	-0.073499635
19	0xbe6079b4	-0.21921426
20	0xbdcc2a98	-0.099690616
21	0xbe221f71	-0.15832306
22	0xbe96b66a	-0.29436046
23	0xbec3ea24	-0.38264573
24	0x3d843de8	0.0645712
25	0xbe5faa4d	-0.21842308
26	0xbe447dad	-0.19188567
27	0xbe9d36c9	-0.3070586
28	0xbe868ae9	-0.26277855
29	0xbe9b4c55	-0.30331674
30	0xbd0630db	-0.032761436
31	0xbe9a482e	-0.30133194
32	0xbea60e1d	-0.32432643
33	0xbec83cfc	-0.39109027
34	0x3dd4110c	0.10354814
35	0xbe5dd263	-0.21662287
36	0xbe35db73	-0.17759494
37	0x3cf4a4de	0.029863771
38	0x3d35421c	0.0442525
39	0x3dc739c3	0.09727814
40	0xbeba8905	-0.36432663
41	0x3dc9bb98	0.09850234
42	0xbdab6282	-0.08368398
43	0x3d6df1e4	0.058092013
44	0xbd48c08b	-0.04901175
45	0x3d8a7fff	0.067626946
46	0x3dbe5f1c	0.092954844
47	0x3d10c53c	0.035344347
48	0xbbbfcea0	-0.005853489
49	0x3d4daac4	0.050211683
50	0x3d8af6fe	0.06785391
51	0xbeacf1b8	-0.33778167
52	0xbec24a8a	-0.37947494
53	0xbe9e5ffa	-0.309326
54	0xbe8d60e3	-0.2761298
55	0xbe8dbf7e	-0.2768516
56	0xbea66dba	-0.3250559
57	0xbe38bb77	-0.18040262
58	0xbd95fcd6	-0.07323615
59	0xbc296587	-0.010339147
60	0x3c131dfc	0.008979317
61	0xbdcaef06	-0.09908871
62	0xbec50855	-0.3848292
63	0x3d6f9b95	0.058497984
64	0xbc6e75dd	-0.014554468
65	0xbc34acd1	-0.011027531
66	0xbd0ebf4c	-0.034850404
67	0xbe5c16cf	-0.21493076
68	0xbdeb1e77	-0.1148042
69	0xbdc0fa80	-0.09422779
70	0xbe89995f	-0.26874825
71	0xbd838e74	-0.06423655
72	0xbe35ca94	-0.17753059
73	0xbd04e034	-0.03244038
74	0xbe589db7	-0.21153913
75	0xbe91b717	-0.2846
76	0xbead3931	-0.33832696
77	0xbd88645c	-0.06659767
78	0xbd6557cc	-0.055991933
79	0x3d1b61e0	0.037935138
80	0xbe5b4537	-0.21413122
81	0x3d7b4a28	0.061350018
82	0x3d0806e8	0.03320971
83	0xbe85b881	-0.26117328
84	0x3d1fe928	0.039040715
85	0xbebb60c1	-0.36597255
86	0xbe6707d1	-0.22561575
87	0xbeb62a6b	-0.35579237
88	0xbdb3f1e6	-0.08786373
89	0xbe66cd03	-0.22539143
90	0xbec49897	-0.38397667
91	0xbe6d38f3	-0.23166256
92	0xbe36b654	-0.1784299
93	0xbeca0ad2	-0.3946138
94	0xbdedc3a0	-0.11609578
95	0xbe8b516a	-0.27210552
96	0xbeadeca6	-0.3396961
97	0xbe978cf4	-0.29599726
98	0x3d1c2a48	0.03812626
99	0xbe6e1144	-0.23248774
100	0xbeb3222b	-0.34987006
101	0xbd9ec801	-0.077529915
102	0x3c091b20	0.0083682835
103	0xbdacac09	-0.084312506
104	0xbe95585d	-0.29168978
105	0x3d432344	0.047641054
106	0x3db3a328	0.08771354
107	0xbdf824c0	-0.121163845
108	0xbd0d9707	-0.03456786
109	0x3d1de3b4	0.038547233
110	0x3da5efbc	0.08102366
111	0x3dc2ddde	0.09514974
112	0x3deb663e	0.114941105
113	0xbdf3c05c	-0.11901924
114	0xbdc01222	-0.093784586
115	0xbe654443	-0.22389321
116	0xbe9d83b5	-0.30764547
117	0xbe438989	-0.19095434
118	0xbeb34fbb	-0.35021767
119	0xbe8a44d2	-0.2700563
120	0xbed1f014	-0.41003478
121	0xbe922c0c	-0.2854923
122	0x3db5e2c8	0.08881146
123	0x3de7a68a	0.11311062
124	0x3d4d55f9	0.050130818
125	0x3db18e1e	0.08669685
126	0xbe882c8d	-0.2659649
127	0xbd1fcd0c	-0.039013907
128	0xbd147c86	-0.036251567
129	0x3cfcc8a3	0.03085739
130	0xbd1d0037	-0.038330283
131	0xbeb4b224	-0.3529216
132	0x3ce85609	0.028361337
133	0x3d421efc	0.04739283
134	0xbe84cb7e	-0.25936502
135	0xbd8b7d86	-0.06811051
136	0xbe9b3bc5	-0.30319038
137	0x3dc5e0fe	0.096620545
138	0xbe45163b	-0.19246762
139	0xbe5a09a4	-0.2129274
140	0xbe394e5d	-0.180963
141	0x3d84ad24	0.064783365
142	0x3ceb4520	0.028719485
143	0xbc10632f	-0.00881271
144	0xbeb42f33	-0.3519226
145	0xbd430e31	-0.047620956
146	0x3d731354	0.059344605
147	0xbe81187b	-0.2521399
148	0x3daeedb8	0.08541435
149	0xbe7d4806	-0.24734506
150	0xbeb51a00	-0.353714
151	0xbea08177	-0.31348774
152	0x3dd02f15	0.1016523
153	0xbe4d1c5e	-0.20030352
154	0xbe947d6e	-0.29001945
155	0xbe5815b0	-0.21102023
156	0xbec03a6a	-0.37544566
157	0xbe6b2ef9	-0.22967137
158	0x3deb21e2	0.11481072
159	0xbeba99f4	-0.36445582
160	0xbeb0c805	-0.34527603
161	0xbec6cbd5	-0.38827386
162	0x3df07a93	0.11742129
163	0xbec99b54	-0.39376318
164	0xbe423478	-0.18965328
165	0xbc57a0c6	-0.01316089
166	0xbd2cbba8	-0.04217115
167	0x3c4e532d	0.012593073
168	0xbe76629d	-0.24061055
169	0x3d599258	0.05311808
170	0xbd9ad7fd	-0.07560728
171	0x3d107f24	0.0352775
172	0x3db7ae22	0.0896876
173	0x3db6d3f2	0.08927144
174	0x3da7b764	0.08189276
175	0x3db84d86	0.089991614
176	0x3d0401d8	0.03222832
177	0xbd921ae0	-0.07134032
178	0xbd3945fc	-0.045232758
179	0xbea243e0	-0.3169241
180	0xbea224d6	-0.3166873
181	0xbe5d0c10	-0.21586633
182	0xbed0580b	-0.4069217
183	0xbe2f4765	-0.17117079
184	0xbe6eeea6	-0.23333225
185	0xbe9180e1	-0.2841864
186	0xbcb7701e	-0.022392329
187	0x3d5c27a6	0.05374875
188	0xbde6d5c8	-0.11271244
189	0xbdc5b374	-0.096533686
190	0xbe421c97	-0.18956219
191	0x3c230efa	0.009952301
192	0xbdf5c957	-0.12001293
193	0x3d8e8b6d	0.06960187
194	0x3d0d46af	0.034491237
195	0xbe888894	-0.266667
196	0xbce85826	-0.028362345
197	0xbd2c57b0	-0.042075813
198	0xbea84693	-0.32866344
199	0x3c847d50	0.016173035
200	0xbe302bb2	-0.17204168
201	0x3caf86f0	0.021426648
202	0xbecb24b2	-0.39676434
203	0xbe289f01	-0.16466905
204	0xbe9c137e	-0.3048362
205	0x3d2bacac	0.04191272
206	0xbd6cf480	-0.05785036
207	0x3dbb44dd	0.09143994
208	0xbe937382	-0.28799063
209	0xbdc2082a	-0.094742134
210	0x3d3375ac	0.043813393
211	0xbea2a58a	-0.3176692
212	0x3d3d9424	0.046283856
213	0xbe89775e	-0.26848882
214	0xbe813f7f	-0.25243756
215	0xbea00ea8	-0.31261182
216	0x3a88cc86	0.0010436929
217	0xbe55a064	-0.20861965
218	0xbe84fd43	-0.25974473
219	0xbec4e52b	-0.3845609
220	0xbeba73ed	-0.3641657
221	0xbeb3e256	-0.35133618
222	0xbd7a81ab	-0.061158817
223	0xbe9c6142	-0.30542952
224	0xbe9a87c3	-0.30181703
225	0xbe8c40f1	-0.27393296
226	0xbb095540	-0.0020955354
227	0xbec2283b	-0.37921318
228	0xbe7653d7	-0.2405542
229	0xbdcdc128	-0.10046607
230	0x3d5876b0	0.052847564
231	0xbb88102b	-0.004152318
232	0xbecc4444	-0.39895833
233	0x3d8702c6	0.06592326
234	0xbd3d4cfb	-0.046215992
235	0x3d1f932c	0.038958713
236	0xbd30e7e4	-0.043189898
237	0xbdb5fa76	-0.08885662
238	0x3c636630	0.013879344
239	0x3ce84840	0.028354764
240	0xbdae3d9a	-0.08507843
241	0xbcc85d30	-0.024458498
242	0x3dd73678	0.10508436
243	0xbe656fe2	-0.22405961
244	0xbe5b1a4e	-0.21396753
245	0xbeab49cb	-0.33454737
246	0xbe961e40	-0.29319954
247	0xbe908899	-0.28229216
248	0xbe5015c6	-0.20320806
249	0xbdf31d0f	-0.11870777
250	0x3d5ea472	0.054356046
251	0x3dd49a6e	0.103810176
252	0x3dde7df3	0.10863867
253	0xbd1a98b0	-0.03774327
254	0xbe3af3ef	-0.18257116
255	0x3dee3c37	0.11632579

fc3.bias f4 [6]
0	0xbe54d683	-0.20784955
1	0xbeaad06e	-0.33362144
2	0xbe86a272	-0.2629581
3	0xbe18b13a	-0.14911357
4	0xbe2b0b5e	-0.16703555
5	0xbe3af27b	-0.18256561
