dqn_taxi_light64.pth (torch, 45922 bytes, 6 tensors)

fc1.weight f4 [128, 16]
00000000: 0b9d 0c3f b632 773e 68d8 9c3d 8447 e93d
00000010: 1475 183e a3e2 903f 809f 8c3f 5cd9 6fbe
00000020: fc2a 463f 4748 8d3f 2998 863f 7cdd 1c3f
00000030: e385 193f aa73 943f 793a 8f3e 4cbd 483f
00000040: 309f d43e 1570 0e3f e834 e53d 9cc0 5dbe
00000050: e8db 98bd 5e97 903f fa41 943f f8c9 08bd
00000060: 881d 683f 005c 623f 73ca 953f e0cf 3d3f
00000070: fa1e 5c3f 4645 c63f 3bea 543e b548 2a3f
00000080: 904e 673e 442e 013f 50e4 34bd badf 38be
00000090: f6cc 3bbe 12e7 983f 3c0a 813f 0818 02be
000000a0: e651 933f 5314 813f 1864 a83f d8c0 cc3e
000000b0: d6e7 003f 19f1 953f 842b ff3e df22 023f
000000c0: 34fa acbd aa4b 43be cabb 503e 6c0b d83d
000000d0: 0031 4fbc a0b0 243c c057 e7bd 4024 143d
000000e0: bcad e53d 508b 6dbe 8025 eb3c 3435 5ebe
000000f0: 68c6 49bd a493 93bd 1acb 4ebe 1edc 403e
00000100: 37eb 863e 94ac 503e 602f 833d 1c81 64be
00000110: d675 5ebe d5bc 4b3f 099a 803f 68fc cb3d
00000120: d7a3 6c3f bfff 933f 8ed7 bf3f 8634 143f
00000130: 9323 f93e ebb3 c03f 2ac0 e23e 2e9a 5a3f
00000140: e751 0f3d aac9 1c3e b6ef 493e e06e 77bc
00000150: 00b4 edb9 fe15 ed3c ac52 89bd d8bf 76be
00000160: 80e1 70be 7f88 8e3d 8039 d83c a5f0 be3c
00000170: 7172 1b3c 4e9c 3abe 087c 1a3c f155 1ebe
00000180: e0b0 9d3c 5088 d7bd dcab 16be 50bd 053e
00000190: 123d 3dbe 82e9 33be 486c c5bd b05e 8bbc
000001a0: 7ebb 78be 0826 4abd 6ca9 79be 08d1 be3d
000001b0: ec7b bf3d 6c0e cb3d f40c babd 1681 5b3e
000001c0: c9ac 243e f002 813e cc20 303e 9cb9 c9bd
000001d0: a0a2 03be 86d6 433f 825a 9a3f 6076 6d3e
000001e0: 7292 5b3f d378 973f 3cd1 933f ee06 083f
000001f0: 6ad6 dd3e 7441 993f aa00 9c3e 6f1b 5a3f
00000200: 52af 003f 794e 073f ac99 bcbd 5c84 8f3d
00000210: 6eb5 2c3e 8ede 8e3f ae8f 8c3f 7cf4 cdbd
00000220: 3d31 993f 84cf 853f dbb3 b23f 56d2 f43e
00000230: 2575 303f 6555 9f3f 8322 f43e 47bc 673f
00000240: 6c4c 853e 9e8d 203e 6ea6 013e 000d 7fbc
00000250: b07a 823d 115e 993f aec8 8f3f ea80 1f3e
00000260: e90f 5b3f 34ae 803f 999d a03f 7a2b 0b3f
00000270: 78b1 283f 7d66 9d3f 48b2 cc3e ae46 693f
00000280: 0b95 2a3e f662 093f 0461 abbd 80e3 3b3e
00000290: 10c8 a1bd ecac 843f 8379 743f 7cbb 61be
000002a0: 199f 693f ebd2 7f3f 9cf8 ab3f fd28 e33e
000002b0: 92bf 263f da3a 943f 3a81 d83e cf94 2b3f
000002c0: 0004 733b d813 31be 54be e93d d059 e33c
000002d0: ca9b 183e d02f 8bbd 124d 79be 1c1b 3a3e
000002e0: 3cd3 65be 4600 673e 385b 07bd 041d 7a3e
000002f0: 40fb aabc c409 dabd 92d3 3e3e 1c93 c4bd
00000300: e426 2e3e ee00 a33e 08ee 31be 5af2 5fbe
00000310: 80ae 9c3d a2de 853f ba03 893f 78a8 0e3e
00000320: 93cd 833f 2d5d 633f dec9 b33f a7eb c93e
00000330: 1333 4c3f 6ff4 983f 5e18 093f 769b 7d3f
00000340: e3ac eb3e ed45 043f e060 00be 46aa 3e3e
00000350: b87f 94bd 2ea9 3b3f 9c87 773f 860c 4dbe
00000360: 9c95 843f 4c99 7d3f b00c a33f db79 233f
00000370: 237b 033f 023a a13f 9a0f 813e 3543 0d3f
00000380: e1dd 023f 0ec8 9a3e e66c 3a3e 4c13 bcbd
00000390: 24e4 e1bd 19d4 4e3f 42ea 8e3f 504e ab3c
000003a0: db69 963f 3ddb 533f 74df c63f 8f9f d93e
000003b0: 74a7 f13e d322 9b3f 9411 e73e 8ea6 093f
000003c0: 1ea6 7b3e f44b e53e e459 b03d 40f6 37bd
000003d0: 8854 5e3e 251d 993f d911 513f 78e3 683e
000003e0: f5c5 9b3f 79ef 7d3f 5d9d b03f d6b7 243f
000003f0: 524a df3e 01c7 c13f 3f27 c93e e635 0b3f
0.5492713 0.24140438 0.07658464 0.11390594 0.14888412 1.1319164 1.0986176 -0.2342276
0.7740934 1.1037682 1.0515186 0.6127546 0.5996992 1.1597798 0.279743 0.78413844
0.415277 0.55639774 0.11191732 -0.21655506 -0.07463819 1.1296194 1.1582634 -0.033395737
0.9067006 0.8842163 1.1702408 0.7414532 0.85984766 1.548989 0.20792477 0.6651719
0.22588563 0.5046122 -0.04416305 -0.18054095 -0.18339905 1.1945517 1.0081248 -0.1270448
1.1509368 1.0084327 1.3155546 0.39990878 0.50353754 1.1714202 0.49837887 0.5083446
-0.0844616 -0.19071832 0.20384136 0.105490535 -0.01264596 0.010051876 -0.11296034 0.036167383
0.11214778 -0.23197675 0.028704405 -0.21699983 -0.04926148 -0.072058946 -0.20194665 0.18833968
0.2635133 0.20378333 0.064055204 -0.22314876 -0.21724638 0.7958501 1.0047008 0.09960252
0.924375 1.1562423 1.4987657 0.57892644 0.48659953 1.5054907 0.44287235 0.8539151
0.034990218 0.15311304 0.19720349 -0.015102118 -0.00045338273 0.02894115 -0.067052215 -0.2409662
-0.23523521 0.06959628 0.026394606 0.023308108 0.009487734 -0.18223688 0.009428985 -0.15462472
0.01924938 -0.105240464 -0.14713997 0.13060498 -0.18480328 -0.17569545 -0.09639794 -0.017012924
-0.24290273 -0.049352676 -0.24381036 0.09317213 0.09349808 0.0991486 -0.09084502 0.21435961
0.16081537 0.25197554 0.17200011 -0.09849855 -0.12855005 0.7649921 1.2058871 0.23189688
0.8577033 1.1833748 1.1548228 0.53135574 0.43327647 1.19731 0.30469257 0.8519811
0.5026752 0.52854115 -0.09208998 0.070076674 0.16866085 1.1161668 1.0981348 -0.10056397
1.1968151 1.0453954 1.3961138 0.47816724 0.6892875 1.2447935 0.4768258 0.90521663
0.26034868 0.15679023 0.12661144 -0.015567064 0.06371057 1.1981832 1.1233118 0.1557652
0.8557115 1.0053163 1.2548095 0.54363215 0.65895796 1.2296902 0.39979768 0.91123474
0.16658418 0.5366663 -0.08368114 0.18348503 -0.07899487 1.0365272 0.9549791 -0.22044176
0.9125839 0.9993121 1.3435245 0.4436721 0.65136063 1.158046 0.42286092 0.6702394
0.0037081242 -0.17292726 0.11413255 0.027752787 0.14903179 -0.06796229 -0.24345806 0.18174404
-0.22443861 0.22558698 -0.033045977 0.24425131 -0.020871758 -0.10646394 0.18635395 -0.095983714
0.17007023 0.31836647 -0.17375958 -0.21869794 0.07650471 1.0458567 1.0704262 0.13931453
1.0297111 0.8881405 1.404598 0.394376 0.79765433 1.1949595 0.53552806 0.9906534
0.4603034 0.516692 -0.12536955 0.18619642 -0.07250923 0.7330502 0.966913 -0.20024309
1.0358157 0.9906204 1.2738247 0.6385781 0.51359767 1.2595828 0.25207216 0.55180675
0.5111981 0.30230755 0.18205604 -0.09183368 -0.110298425 0.80792385 1.116524 0.020911366
1.1751055 0.82756406 1.5536942 0.42504546 0.4719807 1.2120003 0.451306 0.5376977
0.24575087 0.4478451 0.08610895 -0.044912577 0.21711934 1.1962019 0.8166786 0.22743022
1.2169787 0.9919353 1.3798023 0.6434301 0.4361139 1.5138856 0.39287755 0.5437912

fc1.bias f4 [128]
00000000: 7bb2 c43f 0a16 d83f 3b59 de3f 20e9 b53d
00000010: d354 e83f 279c e3bd 3815 b6bd 8468 db3f
00000020: 1e82 f03f ab3c c33f 3350 d33f e074 34be
00000030: 857d eb3f 018c b63f 0c10 e93f 0c9d e83f
00000040: 106a df3f 69c1 1e3e b680 43be e0b7 cd3f
00000050: 7b66 f33f 0b30 c73f 7196 f03f 0536 e13f
00000060: 70ab ac3d e8ff 78be 48e6 3cbd 66db 1cbe
00000070: ec46 ce3f a7ac c43f 3b67 b83f 5076 e63f
00000080: 1ff1 bf3f be56 743e 5b7f ce3f 5c51 b53f
00000090: d32f cd3f 7756 b23f 3800 13be cc01 bc3f
000000a0: 1437 d13f d763 d63f 85e1 d53f 680b c53f
000000b0: aa24 da3f 3dde eb3f 564f 1cbe 5634 34be
000000c0: 4b82 df3f ef8a f03f 001a cf3f d508 ef3f
000000d0: 25af b23f 7088 8f3d f82c f13f fa3d c33f
000000e0: 6e82 21be 2f7c ec3f ec57 b63f d2aa 33be
000000f0: 61f9 c83f 7603 45be 41be e63f b63c 24be
00000100: 38c8 e93f 5394 d13f 8588 ea3f 9c8a cb3f
00000110: ba25 6d3e 8e2a 2cbe 403e b73f 5ca4 d93f
00000120: c0a2 b53f 1c23 bd3f 90f7 043d d773 f13f
00000130: c5c3 c13f dc2f 07be 5cc2 e63f 8c53 e23f
00000140: 2a8a 2dbe b0a6 c33f ac5e f13f c2eb 12be
00000150: b716 e73f f1ab c43f 7aa7 d23f 9cab e93f
00000160: a386 c13f ffcc e63f 87d3 f23f b9ca e03f
00000170: 2ef6 74be 87ff e93f 6c85 e73f e242 ee3f
00000180: 8389 c63f edcc f03f bc5c b73d 41a3 d83f
00000190: 0ae4 78be 1b83 cc3f 3ff2 c23f f828 743d
000001a0: 0c7e c53f 7ee8 47be fe84 e53f d47d d43f
000001b0: 76ce ba3f 6567 ce3f 8f94 ce3f 6c33 163e
000001c0: 8368 de3f febd 743e daef bc3f b3e6 b13f
000001d0: a060 ce3f 0aba e53f 465f 263e c83a f13f
000001e0: 688a e93f 0774 df3f 6fe0 c03f 4937 e93f
000001f0: 8c3f ee3d 9b21 b93f d8ae e93f cc9f e53f
1.5366968 1.6881726 1.7370981 0.08882356 1.8150886 -0.11113768 -0.08890766 1.7141271
1.8789709 1.5252889 1.650885 -0.1762271 1.839768 1.4261476 1.8208022 1.8172927
1.7454243 0.15503468 -0.19092068 1.6071739 1.901565 1.5561537 1.8795911 1.759461
0.084311366 -0.2431637 -0.04611805 -0.15318069 1.6115394 1.5365189 1.4406503 1.8004856
1.4995459 0.23861215 1.6132616 1.4165454 1.603022 1.3932637 -0.14355552 1.4688048
1.6344934 1.6749219 1.6709448 1.5394106 1.7042439 1.8427197 -0.1526464 -0.1759809
1.7461637 1.8792399 1.617981 1.867457 1.39597 0.07008445 1.8841848 1.5253289
-0.15772411 1.8475398 1.4245582 -0.17545632 1.5701104 -0.19239601 1.8026811 -0.16038784
1.8264227 1.637339 1.8322912 1.5901675 0.23158923 -0.16813108 1.4315872 1.7003284
1.4190292 1.477634 0.032462656 1.8863477 1.5137869 -0.1320185 1.8028064 1.7681746
-0.16947237 1.5285244 1.8857017 -0.14347747 1.8053807 1.5364972 1.645736 1.8255496
1.5119213 1.803131 1.8970803 1.7561866 -0.23922035 1.8281106 1.8087592 1.8614161
1.5510715 1.8812538 0.089532346 1.6924821 -0.2430574 1.597751 1.5230178 0.059609383
1.5429091 -0.19522282 1.7931211 1.66009 1.4594257 1.6125304 1.6139086 0.14668053
1.7375644 0.23900601 1.4760697 1.3898529 1.6123238 1.79474 0.16247281 1.8846064
1.8245363 1.7457284 1.5068492 1.8219997 0.11633214 1.446338 1.8256483 1.7939391

fc2.weight f4 [64, 128]
00000000: 682b 01bd 6b38 5d3c ca7a 0e3d 0e73 753c
00000010: 98cd b0bd 57c4 b1bd 7cf3 cfbc 69eb a13c
00000020: 92fb 1f3d 806c 16bd 9c21 afbb 283a 9c3d
00000030: be84 71bc 4931 a8bd 8f9c 44bd 61ca 673d
00000040: e1f3 2d3d 1a3c 873d b09a a7bd 6ba4 643d
00000050: 5e92 8ebc 4e22 bdbd bf24 1c3a 9563 913d
00000060: ed4e 963d 255d 91bd 2d0a 483c 4c4f 953c
00000070: 43f6 c43b 86d0 5e3c b14a acbc 789a eaba
00000080: 399f bdbb 7fb0 383d ba8f 963d fbe4 a93c
00000090: 9b10 723d 5b08 6f3d 1a8f 82bc bcc4 a6bd
000000a0: 47ac cf3c c3fc 8b3d 7d2f a2bd 9eeb 83bd
000000b0: e3a2 213c 0e2d 693d 208a be3c dfb6 94bd
000000c0: 64d7 2abd 5ad5 683c 4a79 5bbc 4f2b 56bd
000000d0: d84d 6dbc e3c4 9bbc f6f4 b03c 6745 9e3d
000000e0: 8b7d 9abd adb6 60bd d797 0dbd b289 853b
000000f0: f95c 82bc 353e d6bb f083 9abd f682 a7bd
00000100: 4a37 94bc 34b1 4e3d bb26 8dbc ed9e 63bd
00000110: 461a 0f3c dd1a aebc 6c7e 7c3d c519 9bbd
00000120: 1d82 513d 686e 91bd 2edd 113d 1516 d4bc
00000130: f8ab 9f3d fe24 63bd 73e2 98bd 2580 90bc
00000140: c832 45bd c89f 8a3c 01d3 08bc 22c2 76bd
00000150: 25b0 a53c 5e5a 9c3d 51a3 643c 9003 79bd
00000160: fb2d b33b 8944 5abc 464c 363d c3cd 81bd
00000170: bc49 683c 2924 44bd 96c1 41bd 6197 14bc
00000180: ca2a 703c bd12 b23b 1eae 153c 21d2 b9ba
00000190: 75cc d43c c1e9 763d 8f94 b2bd 0abc 4b3d
000001a0: 320d d2bc 89da babc eff8 6d3d f6d2 af3b
000001b0: 643e 7fbd 9cf6 493d 4c60 a3bd 0bd9 663d
000001c0: 7220 903c cca2 1cbd 9a55 8ebd d6eb ffbc
000001d0: 31f4 fc3c 56f7 efbb a9ea a2bd a044 4ebc
000001e0: cee8 76bb 3dc0 1dbb 646b a4bd 1672 24bd
000001f0: 6d1a 833d 3afc f1bc 7fd9 503c 1960 82bd
00000200: 17ee 50bc 1209 cabc 0c78 91bd 18b1 6abc
00000210: d8ae 503c ccfb dfbc daf0 713d 301e 97bd
00000220: ee77 4e3d 7731 603d 5f19 9bbc 1bde ac3d
00000230: 05e5 633d 454f 7ebd b0e5 a33d 6f72 793d
00000240: 46b8 5e3c f238 a0bd 475c 653d d93f c63c
00000250: 4286 50bd 330f c23b 481b 6b3d 9606 9abc
00000260: 7b0c 3ebc df56 603d 2fbe 90bc 4487 53bd
00000270: f344 3dbd 02b9 723a e71e 9cbc 60f5 f73c
00000280: 6cc3 66bd db6d 1cbd a10d 8fbd 1497 d03c
00000290: 5cb2 623b b823 843d a9c6 7bbd dc07 f03c
000002a0: a654 14bc f9d2 12bc 96cc 9e3d ad95 7dbd
000002b0: 11d7 41bd 2510 193b b141 16bd c834 2cbd
000002c0: 70f8 4bbd f75b 89bd a32d 123c 7b6d 0cbd
000002d0: 2342 b7bc deb5 f73b 6c26 b8bd 8b16 99bd
000002e0: d77d 9c39 9637 8ebc 5354 e1bc 1864 103c
000002f0: 9345 343d f786 963d 43b0 373d 9686 543d
00000300: 8ccf 81bd 83b0 e73c ac57 a53a bd15 89bd
00000310: 61d1 09bd 428c 95bd 3ab6 fa3b 714e 183c
00000320: cd41 94bd 530b 8f3c 3bfa a83d ef8c 433d
00000330: 7f80 253d 92f9 47bd 9bce 43bd dd6e f2bc
00000340: a94f 8c3d 877e 9a3d 4675 87bc 1fad 78bd
00000350: 096c b1bb 5512 6d3d 6f89 663d 932c 343c
00000360: cecc 54bd 4981 fb3c 4d25 43bb 385e cf3b
00000370: 5fef 8c3c 55ef b03d 0946 a3bd ae48 3ebd
00000380: 6d49 c43c 28cd 703d 526d 8e3d a714 26bc
00000390: 9a86 c43c 74f4 2d3d 2409 36bd d952 8a3c
000003a0: a7a6 653c ce13 88bd c01b 39bd 3aed 35bd
000003b0: db9e 64bd 750f a63d 9a16 ab3c 43f9 10bd
000003c0: 1fe5 fbbc 5c61 f43b f087 c43c 3e78 a0bd
000003d0: 0b6b bfbc 2c72 c0bc 927c af3d 154a 913d
000003e0: d293 153c 90bc 413d 5cc5 983d fd5e cd3c
000003f0: dcae 9abd 8d04 9c3c 87c0 03bd 050c db3c
-0.031535536 0.013502221 0.03478507 0.014981044 -0.08632964 -0.08680027 -0.025384657 0.019765573
0.039058276 -0.036724567 -0.0053445827 0.0762828 -0.014741121 -0.082125254 -0.04800087 0.056589488
0.04246891 0.0660326 -0.08183801 0.055820864 -0.017403778 -0.09235059 0.00059564033 0.07099072
0.07339273 -0.07097844 0.012209457 0.018226288 0.006010802 0.013599521 -0.02103171 -0.0017898818
-0.005786803 0.045090195 0.073516324 0.02073907 0.059097867 0.058357578 -0.015937377 -0.08142993
0.025350703 0.0683532 -0.07919214 -0.06441425 0.009865495 0.056927733 0.023259223 -0.072614424
-0.04170932 0.014211023 -0.013395617 -0.052287396 -0.014483891 -0.019014781 0.021601181 0.07728081
-0.07543477 -0.054861713 -0.034568634 0.0040752525 -0.015913473 -0.0065381774 -0.07544696 -0.08179276
-0.01809277 0.050461963 -0.017230382 -0.055571485 0.008734291 -0.021253044 0.061644003 -0.075732745
0.051149476 -0.071011364 0.035611324 -0.025889436 0.07796472 -0.0554552 -0.07465067 -0.01763923
-0.048144132 0.016921893 -0.0083510885 -0.060243733 0.020225594 0.07634424 0.013954953 -0.060794413
0.005468128 -0.013322004 0.044506334 -0.06338074 0.014177736 -0.047886048 -0.04730376 -0.009069295
0.014658639 0.0054343627 0.009135751 -0.0014177003 0.025976399 0.06028152 -0.087197416 0.049739875
-0.025641058 -0.022809284 0.05809873 0.0053657247 -0.06231536 0.04930745 -0.079773515 0.056359332
0.017593596 -0.038241193 -0.06949921 -0.031240385 0.030878158 -0.007323186 -0.07954914 -0.012589604
-0.0037675384 -0.0024070882 -0.08028296 -0.040147863 0.06401525 -0.029539216 0.012747168 -0.063659854
-0.012752078 -0.024662528 -0.07102975 -0.014324449 0.0127369985 -0.027341746 0.059067585 -0.07378805
0.050407343 0.054734673 -0.018932996 0.08440801 0.055638332 -0.062087316 0.08002794 0.060900148
0.013593739 -0.078233615 0.055996206 0.024200367 -0.05090929 0.005922222 0.057399064 -0.018801969
-0.011599655 0.054770347 -0.017668812 -0.05164267 -0.046208333 0.00092591357 -0.019057704 0.030268371
-0.056338713 -0.038190704 -0.069850214 0.025462665 0.0034591174 0.06452125 -0.061468754 0.029300623
-0.009053385 -0.008961433 0.077538654 -0.06191032 -0.047324244 0.002335557 -0.036683742 -0.042042524
-0.049797475 -0.06706994 0.008922013 -0.034284096 -0.022370404 0.007559522 -0.089917034 -0.07475003
0.00029848397 -0.01736049 -0.02750603 0.008812927 0.044011664 0.07349961 0.04484583 0.051886164
-0.063384145 0.02828241 0.0012614629 -0.066935994 -0.033646945 -0.07302143 0.0076511176 0.009296046
-0.07239113 0.017461454 0.08250853 0.047741827 0.040405747 -0.048821993 -0.047804456 -0.02959388
0.068511315 0.075436644 -0.016535413 -0.060711976 -0.00541449 0.05787881 0.05628341 0.010996955
-0.05195313 0.030701296 -0.0029776872 0.0063283704 0.017203985 0.08639399 -0.079723425 -0.04645603
0.023960793 0.058789402 0.06954445 -0.01013676 0.023989964 0.042469457 -0.04444231 0.016885208
0.014016784 -0.066444024 -0.04519248 -0.04441569 -0.05581556 0.08108417 0.0208848 -0.035393964
-0.030748902 0.007457895 0.023990601 -0.078354344 -0.023366472 -0.023491941 0.08568682 0.07094208
0.009129481 0.047298968 0.07459518 0.025069708 -0.07552883 0.019045139 -0.03216603 0.02673913

fc2.bias f4 [64]
00000000: 70a1 14bc 04b3 943c c491 a83f 8597 9d3f
00000010: c2ac e1bb cb9f a73f 3bd4 913b 263c b83f
00000020: 95eb bc3f cbad b13c 82e8 ac3f 0306 29bd
00000030: cbf0 bdbd f227 ae3f 567f 063d e7a1 013d
00000040: b139 aa3f d861 b13f 4792 2cbd 4157 b63c
00000050: 30e3 9abd 4d99 a93f a089 a93f 2b34 9c3f
00000060: 34d3 ce3c 3b47 583d 5107 a4bd 1769 b03f
00000070: 27c3 dabb f6ba 843d 65ad a33d 8296 f23c
00000080: 20c6 5a3c fd5f abbd b72a a33f dd45 b63f
00000090: 20ac a53c d76e e9bc 8333 523d 37c3 2d3d
000000a0: f3af a23f dfc6 53bd decc 29bc b8ac 01bd
000000b0: 59e9 813d 1492 ab3f 56ec 45bd e081 e1bc
000000c0: ea7c cabc 47ee 9f3d 6134 703d c229 ac3f
000000d0: 23c2 1fbd fe3c 58bd 2f3b a0bd cb04 a73d
000000e0: cc26 b43f 455a c4bd f5d9 3b3d 4ec1 bb3f
000000f0: f8ed b33f a46f 883d 4f76 87bd a600 b0bd
-0.009071693 0.018151768 1.3169484 1.2311865 -0.0068870494 1.309564 0.0044503487 1.4393356
1.4759394 0.021689316 1.3508456 -0.0412655 -0.09274443 1.360594 0.03283628 0.031648543
1.3298856 1.3857985 -0.04213169 0.022258403 -0.07562864 1.3249909 1.3245125 1.220342
0.025247194 0.052802306 -0.08009208 1.3782071 -0.006676096 0.064809725 0.07992057 0.029612783
0.013352901 -0.08367918 1.274741 1.424007 0.020223677 -0.028495235 0.051318657 0.0424225
1.2709945 -0.05170333 -0.010363786 -0.031658858 0.06343336 1.3403955 -0.04832109 -0.02752775
-0.024717767 0.0780912 0.058643702 1.3450243 -0.039003503 -0.05279254 -0.078237884 0.08155211
1.407434 -0.0958753 0.045862157 1.4668367 1.4056997 0.06661919 -0.066143624 -0.08593874

fc3.weight f4 [6, 64]
00000000: 4d71 e03d bdb1 863d 04da 10bf 28f4 edbe
00000010: 0188 a13d 1458 fabe b434 dd3d 2cf6 f7be
00000020: 1fe1 30bf fcb6 593d afe8 32bf ac52 08bd
00000030: 0898 3fbd 6d7d 30bf 8651 ebbd 61db 0a3d
00000040: 9eed 2fbf b221 11bf c1f8 f3bd 8cd9 15bd
00000050: 363a d3bd 4cd5 23bf 400a 20bf 2fe7 16bf
00000060: 11ec 85b9 bdf1 cabd d049 b8bd 2dac 0fbf
00000070: c0fe e43c 2eb7 bfba 1416 973d 673a b33d
00000080: 12ac 933d ae73 a8bd 758a 30bf c52f f3be
00000090: c4c3 003d 613e ff3d 28db 9fbc 05e0 243d
000000a0: 7800 fbbe 20f9 473d 2aad f23d 221d bebd
000000b0: 0894 e43d 531a 0fbf 59f5 623c 00a2 e7bb
000000c0: 84ae 65bc f686 a53d 1d63 f7bd d7bc 14bf
000000d0: 133b ef3d 7610 3e3c 8954 3abc a07a b33d
000000e0: af54 00bf 3bc8 05be dc2a a4bd f528 18bf
000000f0: 4ef4 efbe 8121 63b9 b11f 973d e102 7dbd
00000100: 1966 18bd 365b dd3d c0c6 0cbf 57f8 24bf
00000110: 0ce2 d43d 796b 21bf d837 493d edb2 f0be
00000120: 4902 20bf f24f a1bd d82d 13bf 3a01 e23d
00000130: 7887 8a3d 2f90 21bf 766c bdbd 3db9 8bbd
00000140: 2959 06bf dbed 21bf f30b e73b c0b2 963d
00000150: 0a13 d23d 149c 2abf 48c9 f4be 3843 00bf
00000160: 4855 cebd eb50 04be 7699 8f3d 9d87 22bf
00000170: b97b e73d 0b81 eb3d a8b0 223d d194 f6bd
00000180: f8f4 b1bd 5ab6 d9bd ce55 efbe 70c6 03bf
00000190: 0160 9a3d 6570 1dbd 00cc d3bc 7b5e 34bc
000001a0: 7c87 27bf d4b1 d3bd 3ced b4bc 981f 913c
000001b0: 0e31 c2bd 655c d9be 5852 8cbd d2a1 b3bd
000001c0: 8f8e 073d 6191 5f3d a820 5c3d 004a 1cbf
000001d0: 899b b73c 3989 e03d 5c98 553d 3c1c 763d
000001e0: 2474 22bf 1acd 97bd dc31 c6bc fc5b 11bf
000001f0: 08d7 27bf 1009 a9bc 5581 65bd a31c acbd
00000200: ef45 b83b e0dc 863b 07f3 00bf e3ca f3be
00000210: dac9 0dbe 0b61 05bf 2270 febd 1c58 18bf
00000220: dc10 09bf c409 593d ec3d 0ebf 7a85 d0bc
00000230: 9d83 7d3c 359c 0bbf 5443 43bd e7bc fabd
00000240: e289 1fbf a49a 2cbf a264 2a3d 2034 8f3d
00000250: 80d5 cabb 5332 15bf b185 31bf e9c1 2cbf
00000260: ded2 ab3d 89cd 923d 5474 313d f096 1bbf
00000270: 9cbe 923d 4ecd cbbd 482d 38bd 3ace e2bd
00000280: 8061 bb3a f036 c6bd 51f5 1bbf c82e 08bf
00000290: fc49 843d 7725 783d 786c 3f3d 045c f73d
000002a0: f1b7 02bf 20ad bfbc 63e8 e63c da9d 89bd
000002b0: 6c55 62bd c57e 06bf fa7a cd3d b4f2 e2bd
000002c0: 3638 c13d d8e0 723b 1442 443d c017 24bf
000002d0: 9441 01be 42d8 4ebd b11c 83bd 3d2c ba3c
000002e0: 7935 1ebf 3a2f 593d 1efc d63d 8d97 1abf
000002f0: 235d 01bf 7018 ab3c b42d d83c 92c1 6ebd
00000300: 6782 4c3d 8420 9fbd c8a2 0bbf 2ba0 08bf
00000310: db43 6b3d 647d 12bf bc40 603d 6d5c 28bf
00000320: a20a 22bf 78cd 523d 907f 18bf 4dca dc3d
00000330: 0ad4 383d 9fa4 14bf 2cab 213d 16b4 603d
00000340: 43eb 0cbf 925b 0dbf 2de3 4fbd 74cd 2c3d
00000350: 580c 6ebd 2006 20bf 1f27 20bf 14e4 ecbe
00000360: 527c 07bd 1890 003d c609 a2bd 1bd3 15bf
00000370: b0ff 15bd 87bd 803d 331d d43d 1fbb 73bd
00000380: 7edc cdbd 8055 3d3c a20c d9be b8af 10bf
00000390: 2870 4dbd 2126 bb3d c073 0b3c 6c56 d4bd
000003a0: 1e8b f1be 025c ecbd fb85 a63d 8862 bcbd
000003b0: fa1b ec3d 4627 2dbf 72da b9bd b0d0 0e3c
000003c0: 867f 5cbc 2b21 a4bc 9629 86bd daa2 23bf
000003d0: 6d2a dd3d 00e5 a8bd 57d0 aebd 809b 49bd
000003e0: b808 f9be 5de0 ba3d 6bc6 d83d 298f 2fbf
000003f0: 26ed 20bf 7e40 e93d 2f00 da3d a1f1 363d
0.109591104 0.0657687 -0.56582665 -0.4647534 0.07887269 -0.48895323 0.10801068 -0.48430002
-0.6909351 0.053153023 -0.69886297 -0.033281967 -0.046775848 -0.68941385 -0.11490159 0.033900622
-0.6872195 -0.5669204 -0.119126804 -0.036584422 -0.10313837 -0.6399734 -0.6251564 -0.5894651
-0.0002554362 -0.09909389 -0.089984536 -0.56122094 0.027953506 -0.0014626735 0.07377258 0.08751374
0.07210554 -0.08225189 -0.6896127 -0.47497383 0.031436697 0.1246307 -0.019513682 0.040252704
-0.49023795 0.04882157 0.11849435 -0.092829004 0.11161047 -0.5589954 0.013852441 -0.0070688725
-0.014018659 0.080823824 -0.12079451 -0.58100647 0.116811894 0.011600604 -0.011372694 0.08763623
-0.50129217 -0.13064663 -0.08015987 -0.59437495 -0.46866077 -0.00021660888 0.073790915 -0.061770324
-0.037206743 0.10808413 -0.5499077 -0.64441437 0.103946775 -0.63054615 0.049125522 -0.4701151
-0.62503487 -0.078765765 -0.57491827 0.1103539 0.0676412 -0.6311063 -0.09249203 -0.06822441
-0.524798 -0.63253564 0.007050985 0.073583126 0.10257538 -0.66644406 -0.47809815 -0.5010257
-0.1007486 -0.12921493 0.07011692 -0.6348818 0.11302895 0.11499222 0.039719254 -0.12040103
-0.08689302 -0.10630484 -0.4674515 -0.51474667 0.075378425 -0.038437266 -0.02585411 -0.011008854
-0.6544111 -0.103366524 -0.022085778 0.01771526 -0.09482013 -0.42453304 -0.06851643 -0.08771099
0.03309494 0.054582004 0.05374208 -0.61050415 0.022413032 0.10963673 0.052147254 0.06008552
-0.63458467 -0.07412167 -0.024193697 -0.5678098 -0.65562487 -0.020634204 -0.056031544 -0.084038995
0.005623571 0.004115686 -0.5037083 -0.47615728 -0.13846532 -0.521012 -0.124237314 -0.59509444
-0.5354135 0.05298783 -0.55563235 -0.025454272 0.015473274 -0.5453523 -0.04767163 -0.122430615
-0.6231977 -0.6742346 0.041599877 0.06992364 -0.006190002 -0.58279914 -0.6934462 -0.67483383
0.08389829 0.07168109 0.04332383 -0.6077719 0.07165262 -0.09951268 -0.04496506 -0.11074491
0.0014296025 -0.09678447 -0.609212 -0.5319638 0.06459424 0.060582604 0.046734303 0.120780975
-0.5106192 -0.023397982 0.028186982 -0.06719561 -0.055257246 -0.52537185 0.100332215 -0.11081448
0.094345495 0.0037060287 0.04791458 -0.6409874 -0.12622672 -0.05049921 -0.06401957 0.022726173
-0.6180034 0.053023554 0.10497306 -0.603875 -0.5053274 0.020885676 0.02638898 -0.05829007
0.04992905 -0.07769874 -0.5454526 -0.53369397 0.05743776 -0.5722258 0.054749236 -0.6576603
-0.63297474 0.05146548 -0.59569645 0.10780773 0.04512409 -0.5806369 0.039469883 0.054859243
-0.5504648 -0.5521785 -0.05075376 0.042188123 -0.05811724 -0.62509346 -0.62559694 -0.4626776
-0.033077545 0.03138742 -0.079120204 -0.58525246 -0.036620796 0.062861495 0.10357132 -0.059504624
-0.10051821 0.011556029 -0.4239245 -0.56518126 -0.05015579 0.09138132 0.008511484 -0.10368046
-0.4717645 -0.115409866 0.081310235 -0.09198481 0.115287736 -0.6763805 -0.09074868 0.008716747
-0.013458138 -0.020035347 -0.06550901 -0.63920367 0.10799108 -0.08246803 -0.085358314 -0.049220562
-0.48639464 0.09124825 0.1058472 -0.6857782 -0.6286186 0.11389254 0.10644566 0.04466403

fc3.bias f4 [6]
00000000: 9b50 f0be 3f7f 32bf a717 bdbe 6b9b 31bf
00000010: 202c 2dbf ad19 04bf
-0.46936497 -0.6972541 -0.36932108 -0.69377774 -0.67645454 -0.5160168
