dqn_taxi_light_real.pth (torch, 45952 bytes, 6 tensors)

fc1.weight f4 [128, 16]
-0.22694573 -0.0044516325 0.1298028 -0.21521586 -0.11412659 -0.21093944 -0.15567419 -0.049760073
-0.02175486 0.037270695 -0.2298795 0.07299587 0.014306545 0.046961695 -0.22392741 0.060831785
0.1452979 0.11624981 -0.22444728 -0.14724109 -0.09292108 -0.18344276 0.23320766 -0.12828305
0.24295537 0.040373042 0.11795476 0.18653485 -0.030244775 0.2149549 0.26099417 0.2002844
0.1581196 -0.044195578 0.14574665 -0.11576319 0.1908688 0.012736703 0.2241878 -0.11662462
-0.16328578 0.26014984 -0.09618921 -0.06542595 -0.09606965 -0.15535055 -0.19849572 -0.14475541
-0.23808837 -0.11664078 0.1177685 -0.051205426 0.025259435 -0.08906239 -0.024693519 -0.16493192
-0.113830775 -0.23848954 0.11728796 0.015775412 0.17492446 0.0801543 0.17506942 0.22452867
-0.19404376 -0.135721 0.22932309 0.10051218 -0.14644682 -0.030023336 -0.050393015 0.103741765
-0.09466013 -0.105311215 -0.13744554 -0.045856684 -0.12721646 0.16892809 -0.11836687 -0.19005457
0.15019408 0.04289438 -0.14688051 -0.17993331 -0.2330775 0.20625226 0.28891468 -0.20053864
-0.13248931 -0.02965999 -0.12100345 -0.09237918 0.082403794 -0.0753504 -0.030160733 0.049644772
0.17998475 0.24883725 -0.11645177 0.15072149 0.044012904 0.08026426 0.049180243 0.110180765
0.2551547 0.217547 0.21185999 0.11862542 -0.19679289 0.20640261 0.113072135 0.08914981
0.26668453 0.08356394 -0.006759107 -0.04159677 0.20894724 0.28503028 0.21244076 0.084387034
0.21018532 0.026545255 0.023602564 -0.07379829 0.2091574 -0.071128085 -0.19603397 -0.21802326
-0.16348317 0.06318131 -0.21477193 -0.07631433 0.07564616 -0.15596747 0.24790224 0.05825028
-0.20653018 -0.03515169 0.23712939 0.03680265 -0.08404961 0.10207176 0.16099423 0.024359465
0.24516337 -0.1660623 -0.15594625 -0.1174441 0.19692257 -0.216359 -0.047370426 0.24345952
0.019022625 0.030776441 0.11635292 -0.17956895 0.13182062 0.040056977 -0.14416683 -0.12927034
-0.14085767 -0.008226812 -0.21033442 -0.06453627 0.034934998 -0.14985242 -0.11894938 0.2408782
0.0910804 0.07287976 -0.07196143 -0.12770537 0.110354066 0.21214652 -0.2180632 0.1231367
0.08521957 0.098380975 -0.098492175 0.15069255 0.011874467 -0.15787981 0.041198988 0.1158703
0.26512334 0.09186868 -0.19060904 -0.06484094 -0.030672599 0.14969072 0.0041743605 0.21348688
0.061464876 -0.23349056 -0.045147717 0.06601438 0.06897777 -0.18866241 0.21090177 0.056036204
-0.06977075 -0.10228506 -0.018226087 0.19251245 -0.11435646 0.18196365 -0.1222232 -0.2015621
0.2615607 -0.09748839 -0.081448555 0.04673478 -0.09579408 0.18053333 0.28025874 -0.19111434
0.08044056 -0.1460364 -0.1513816 0.2329229 -0.0017643566 -0.07234553 -0.104914255 0.25863928
0.030983048 0.20614015 0.10721654 0.16359109 -0.11328882 0.21289632 -0.06919201 0.07444793
0.18089801 0.31767833 -0.15082948 -0.13635664 0.10338799 0.21201496 0.0454719 0.23423818
0.06722682 -0.11736593 0.032559067 -0.02445227 0.09669897 0.20411053 -0.044066213 0.04474306
0.16057414 0.16383779 0.16584103 -0.0028508503 -0.16262338 0.20768607 0.002618515 0.21906088
00000000: 7664 68be 00df 91bb 06eb 043e 8c61 5cbe
00000010: 34bb e9bd 8200 58be 0e69 1fbe 38d1 4bbd
00000020: 4037 b2bc 28a9 183d 8865 6bbe dc7e 953d
00000030: 0066 6a3c e85a 403d 3a4d 65be c02a 793d
00000040: f9c8 143e 6114 ee3d 82d5 65be 5ec6 16be
00000050: 684d bebd 6bd8 3bbe fdcd 6e3e a25c 03be
00000060: 4bc9 783e 345e 253d 4492 f13d fe02 3f3e
00000070: e4c3 f7bc 231d 5c3e 07a1 853e 5b17 4d3e
00000080: 1bea 213e 6c06 35bd 9c3e 153e 4015 edbd
00000090: 1c73 433e 9bad 503c 7d91 653e e4d8 eebd
000000a0: 6334 27be 5c32 853e d9fe c4bd 0afe 85bd
000000b0: 2ac0 c4bd 3714 1fbe 7642 4bbe c33a 14be
000000c0: 70cd 73be 5ce1 eebd 9c30 f13d c8bc 51bd
000000d0: e0ec ce3c 5866 b6bd 104a cabc eae3 28be
000000e0: 1c20 e9bd 9a36 74be ac34 f03d 703b 813c
000000f0: 661f 333e f027 a43d 6645 333e d8ea 653e
00000100: 68b3 46be 72fa 0abe acd3 6a3e 54d9 cd3d
00000110: 28f6 15be 80f3 f5bc e868 4ebd 9076 d43d
00000120: 2cdd c1bd 68ad d7bd 86be 0cbe 38d4 3bbd
00000130: 0845 02be 7cfb 2c3e 546a f2bd aa9d 42be
00000140: 7acc 193e 04b2 2f3d d867 16be 7040 38be
00000150: deab 6ebe cb33 533e a0ec 933e 005a 4dbe
00000160: 47ab 07be 82f9 f2bc a8d0 f7bd 4c31 bdbd
00000170: 52c3 a83d 4f51 9abd a413 f7bc 5158 4b3d
00000180: ec4d 383e 31cf 7e3e 447e eebd bc56 1a3e
00000190: e046 343d 9761 a43d 3971 493d 74a6 e13d
000001a0: a3a3 823e a4c4 5e3e d3f1 583e e2f1 f23d
000001b0: 1384 49be 355b 533e 5d92 e73d 2d94 b63d
000001c0: e08a 883e 9223 ab3d 807b ddbb 6061 2abd
000001d0: 44f6 553e 7def 913e 128a 593e 1cd3 ac3d
000001e0: d23a 573e 6f75 d93c 2a5a c13c 8f23 97bd
000001f0: 5c2d 563e 9aab 91bd 21bd 48be 7d41 5fbe
00000200: 2268 27be 3465 813d 2ced 5bbe b04a 9cbd
00000210: 60ec 9a3d f0b5 1fbe 16da 7d3e d897 6e3d
00000220: a67c 53be 38fb 0fbd 0cd2 723e 60be 163d
00000230: 3422 acbd 000b d13d acdb 243e 808d c73c
00000240: 1b0c 7b3e 3c0c 2abe 60b0 1fbe 8886 f0bd
00000250: 12a6 493e 378d 5dbe 7e07 42bd 744d 793e
00000260: 56d5 9b3c e01e fc3c 714a ee3d ece0 37be
00000270: fcfb 063e c912 243d 78a0 13be 725f 04be
00000280: fe3c 10be c0c9 06bc e861 57be 982b 84bd
00000290: 0018 0f3d ea72 19be bc9b f3bd c6a8 763e
000002a0: 5c88 ba3d fc41 953d 8460 93bd 32c5 02be
000002b0: 5001 e23d f03c 593e f64b 5fbe 182f fc3d
000002c0: 9987 ae3d f77b c93d 44b6 c9bd 264f 1a3e
000002d0: 208d 423c 3fab 21be 45c0 283d 684d ed3d
000002e0: 3fbe 873e a625 bc3d 042f 43be 54cb 84bd
000002f0: 1a45 fbbc 8648 193e 13c9 883b 4e9c 5a3e
00000300: 98c2 7b3d 2618 6fbe d0ec 38bd 8c32 873d
00000310: 3844 8d3d b830 41be a2f6 573e 3886 653d
00000320: f8e3 8ebd d47a d1bd e04e 95bc fc21 453e
00000330: b833 eabd ae54 3a3e 2850 fabd 4c66 4ebe
00000340: 49eb 853e fea7 c7bd 80ce a6bd f86c 3f3d
00000350: b02f c4bd bbdd 383e 137e 8f3e 7ab3 43be
00000360: 05be a43d 918a 15be c703 1bbe 5783 6e3e
00000370: fc41 e7ba e529 94bd 49dd d6bd 5e6c 843e
00000380: 29d0 fd3c 6716 533e 5894 db3d 6c84 273e
00000390: f803 e8bd 7e01 5a3e 8ab4 8dbd 2878 983d
000003a0: 543d 393e bca6 a23e 0b73 1abe 13a1 0bbe
000003b0: 15bd d33d 731a 593e be40 3a3d 22dc 6f3e
000003c0: 37ae 893d 8c5d f0bd a85c 053d 2050 c8bc
000003d0: 1c0a c63d 5a02 513e c67e 34bd 8044 373d
000003e0: 8c6d 243e 18c5 273e 3bd2 293e 55d5 3abb
000003f0: be86 26be a8ab 543e 649b 2b3b 7f51 603e

fc1.bias f4 [128]
0.00015330315 -0.12561227 0.0889364 0.07077253 -0.21564966 0.14831787 0.16482891 0.2502438
-0.14813256 -0.1732075 -0.22349119 0.10171527 -0.17198789 0.26114723 0.043044664 0.28682968
-0.0260004 0.10137895 0.2382667 0.1804538 -0.07327244 0.09581062 0.13077183 -0.108086705
0.012708298 0.18390092 0.047570918 0.06248718 0.24566555 0.07769409 0.25806314 0.22201648
0.24832681 0.22129244 0.14668527 -0.050858613 0.13347378 0.08026862 0.11799073 0.14581624
-0.1377125 -0.06578846 -0.22151598 -0.010367423 0.23960853 -0.11298931 0.0037256288 0.31214228
-0.1345192 0.3161132 0.1928302 -0.18648389 0.20370732 0.09514241 0.17770085 -0.102630414
-0.18784738 -0.102390915 -0.19520503 0.31279638 0.109485865 -0.04946235 -0.061759174 -0.1515781
0.2595905 -0.06615969 -0.048330016 -0.08869457 0.036759213 -0.20538503 0.20673588 0.20534953
0.30650684 0.29903346 0.059406243 0.030960673 -0.1543213 -0.07634515 -0.07085559 0.058624335
-0.15374249 0.0085173845 0.12910818 0.1739174 -0.11054793 -0.031962253 -0.087533824 0.3010698
-0.10276754 0.03154823 0.29634884 0.059663825 0.014095348 0.23972842 -0.023928374 0.21437992
-0.08161024 -0.08896262 0.12755677 0.109937154 -0.059621483 0.24751577 -0.06644282 0.08717852
-0.068063304 -0.007480085 -0.05829105 -0.038807284 0.06734574 0.07854567 0.31549078 0.00036361814
0.100120656 0.23106672 -0.027356869 0.06572365 0.12610097 -0.090738446 0.12886502 -0.22044629
0.19547647 0.21781904 0.04350011 0.22496009 -0.11834205 -0.21343186 0.23070991 0.0031427587
00000000: 00c0 2039 81a0 00be 4a24 b63d 30f1 903d
00000010: 44d3 5cbe a4e0 173e e9c8 283e f51f 803e
00000020: 10b0 17be 4f5d 31be e0da 64be 1850 d03d
00000030: 981d 30be 17b5 853e 9a4f 303d 57db 923e
00000040: cafe d4bc c49f cf3d 30fc 733e e2c8 383e
00000050: dc0f 96bd 5c38 c43d 0de9 053e 905c ddbd
00000060: 7736 503c 8650 3c3e b9d9 423d 8ff2 7f3d
00000070: c08f 7b3e 141e 9f3d da20 843e 4a58 633e
00000080: 6249 7e3e 7c9a 623e aa34 163e 1f51 50bd
00000090: 5aad 083e e063 a43d 20a5 f13d da50 153e
000000a0: 8104 0dbe 1abc 86bd 16d5 62be 20dc 29bc
000000b0: f05b 753e f066 e7bd ae29 743b 1dd1 9f3e
000000c0: 67bf 09be 97d9 a13e 4875 453e a2f5 3ebe
000000d0: a798 503e 06da c23d 36f7 353e e52f d2bd
000000e0: 105b 40be 54b2 d1bd d4e3 47be d926 a03e
000000f0: 203a e03d 0899 4abd 30f7 7cbd 4a37 1bbe
00000100: 0ce9 843e bb7e 87bd b2f5 45bd 80a5 b5bd
00000110: d490 163d 7450 52be 92b2 533e 2647 523e
00000120: 77ee 9c3e ea1a 993e f653 733d 3da1 fd3c
00000130: 6706 1ebe d95a 9cbd bc1c 91bd 1220 703d
00000140: ac6e 1dbe 808c 0b3c ef34 043e 6717 323e
00000150: f466 e2bd daea 02bd ef44 b3bd d225 9a3e
00000160: ca77 d2bd b838 013d 09bb 973e 0e62 743d
00000170: 2df0 663c 5e7b 753e 7005 c4bc 6986 5b3e
00000180: 4523 a7bd 0932 b6bd 3e9e 023e bb26 e13d
00000190: a835 74bd c674 7d3e 2c13 88bd a78a b23d
000001a0: c664 8bbd 801b f5bb 99c2 6ebd 63f4 1ebd
000001b0: 90ec 893d 8ddc a03d 0288 a13e 00a4 be39
000001c0: 0f0c cd3d c19c 6c3e 831b e0bc 1f9a 863d
000001d0: 9d20 013e 14d5 b9bd 31f5 033e acbc 61be
000001e0: fc2a 483e f40b 5f3e 2c2d 323d f05b 663e
000001f0: 515d f2bd e28d 5abe 383f 6c3e bef6 4d3b

fc2.weight f4 [64, 128]
-0.00025843392 0.08576481 0.04452124 0.061818257 0.02878733 0.0691357 0.102506965 0.06790468
-0.08718949 -0.08312839 -0.009488657 0.047161803 -0.0072897715 0.034775227 0.14259814 0.07536139
0.02984736 -0.042369466 0.08312525 -0.028376568 0.117456235 0.002947047 0.13201857 -0.050534386
0.0945917 0.024974441 -0.014735228 0.016976012 0.01735721 -0.012058585 0.046942253 0.028086789
0.051111966 0.065406725 -0.009069738 0.090758204 0.044360068 0.054053426 0.049249176 0.04833719
0.096577875 0.11185679 -0.08288419 0.023351898 0.061206844 -0.010248227 0.1306099 0.047190476
0.042252786 -0.009521127 0.014673712 0.05837309 0.08383236 -0.018447943 0.13723384 0.10333313
0.009660627 0.15352613 -0.060745314 -0.018813916 0.068277165 0.065429874 0.062442683 0.010624183
-0.023029746 0.082800955 0.096658625 0.037046056 0.08548876 0.048472237 0.061884847 -0.042495634
0.09584514 0.11365008 0.0017134472 -0.08115125 0.064476125 0.039507598 0.008402923 0.02681506
0.03543291 0.10145181 0.010879445 0.011392738 -0.0070824935 0.11476175 0.06790847 0.0892306
0.09353943 -0.057714745 0.09394411 0.025158038 -0.0143537065 0.018424349 0.05835033 0.11750767
0.092360035 -0.006745151 0.054496076 0.047309667 -0.012534747 0.006983666 -0.032960195 0.049859595
0.07652382 0.018284757 0.030526653 0.090825506 -0.0007794945 -0.02583644 -0.009241412 -0.031478606
0.06907732 -0.016163288 -0.017301178 0.12365416 -0.013507399 0.07258405 0.056482542 0.0010487506
0.054678738 -0.021564003 0.12234118 0.039307807 0.011925386 0.08067223 0.018541332 -0.037860107
-0.03530495 0.032690685 0.076711304 0.086648874 0.05368955 0.05504636 0.034221556 0.12403993
0.070325956 -0.0860491 -0.022271236 0.11892347 -0.059811678 0.076692365 0.12729089 -0.009927078
0.14080812 0.0282031 0.025375325 0.073014 -0.037916224 0.12312422 0.05298348 -0.039658286
0.08597219 0.08134388 0.086529836 -0.009315237 0.032035545 -0.0015649099 0.13733064 -0.03830442
0.041054178 -0.0040511657 -0.043234836 0.050613843 0.13931097 0.037052844 0.07996317 0.14410293
0.048556495 0.0848019 -0.05573871 -0.03995306 0.026923966 0.0045822896 0.08280361 0.097072795
0.11697349 0.07343563 -0.011587586 0.070675604 -0.029670078 0.061147697 -0.008112417 -0.0036509032
0.058738746 0.028619746 -0.06936005 0.07157216 -0.039582748 -0.0358527 0.020984674 0.050212577
0.08669598 -0.018551752 0.09047533 0.06533302 -0.026357388 0.08014456 0.039138965 0.024107195
0.061242726 0.1423003 -0.023835758 0.073314376 -0.026097005 0.12465551 0.06886751 0.012269601
-0.0063132783 -0.01749422 0.12773703 -0.022956397 0.048664458 0.09979085 0.035896912 -0.011638457
0.0509106 0.04184833 0.10354138 -0.01888583 0.018186282 0.10319967 0.010244993 -0.024005275
-0.024480762 0.026098907 0.017714722 -0.020620262 0.029899584 0.013481094 0.07985669 0.053178202
0.056767333 -0.023669638 -0.06794415 -0.022278324 0.0687637 -0.051271193 0.12213114 0.018644143
0.03541768 0.040845394 0.0017092507 0.004789064 0.08099977 0.078049496 -0.008978557 0.062255803
-0.06034238 -0.02009568 0.13953099 0.087448955 0.008651412 -0.07892332 0.007602745 0.07838455
00000000: 6a7e 87b9 76a5 af3d e75b 363d 2435 7d3d
00000010: 68d3 eb3c 0597 8d3d 2cef d13d 9c11 8b3d
00000020: 6790 b2bd 383f aabd 5076 1bbc bc2c 413d
00000030: 09df eebb 7870 0e3d 3f05 123e 1357 9a3d
00000040: 7382 f43c 9b8b 2dbd 923d aa3d fa75 e8bc
00000050: e58c f03d 3e23 413b e02f 073e 25fd 4ebd
00000060: 4bb9 c13d 3397 cc3c 076c 71bc 4711 8b3c
00000070: b530 8e3c 5f91 45bc 8546 403d 4416 e63c
00000080: c85a 513d f6f3 853d 3d99 14bc 70df b93d
00000090: e7b2 353d 2067 5d3d 81b9 493d 38fd 453d
000000a0: 9fca c53d 2c15 e53d 30bf a9bd 7b4c bf3c
000000b0: 07b4 7a3d 2ee8 27bc 9abe 053e cd4a 413d
000000c0: 4211 2d3d 80fe 1bbc 026a 703c 9f18 6f3d
000000d0: 4db0 ab3d 2420 97bc 0787 0c3e 52a0 d33d
000000e0: 9b47 1e3c f435 1d3e 14d0 78bd a41f 9abc
000000f0: e6d4 8b3d 1900 863d e6c3 7f3d 0e11 2e3c
00000100: e1a8 bcbc 8c93 a93d f5f4 c53d 9bbd 173d
00000110: bb14 af3d d38a 463d f77a 7d3d e70f 2ebd
00000120: 754a c43d 60c1 e83d bf95 e03a a032 a6bd
00000130: 0f0c 843d b8d2 213d 6aac 093c 42ab db3c
00000140: 1922 113d f7c5 cf3d b33f 323c 9ba8 3a3c
00000150: 4314 e8bb 3508 eb3d 9913 8b3d 88be b63d
00000160: 9a91 bf3d 4c66 6cbd c565 c03d 3b18 ce3c
00000170: cf2b 6bbc a9ee 963c c100 6f3d dca7 f03d
00000180: 4227 bd3d 6d06 ddbb 4737 5f3d c8c7 413d
00000190: 8a5e 4dbc 3dd7 e43b 4501 07bd 9339 4c3d
000001a0: 85b8 9c3d eac9 953c 0813 fa3c b902 ba3d
000001b0: fe56 4cba f1a6 d3bc 4b69 17bc b6ef 00bd
000001c0: 6978 8d3d df68 84bc 33bb 8dbc 643e fd3d
000001d0: 234e 5dbc f2a6 943d 3d5a 673d 3b76 893a
000001e0: d0f6 5f3d fea6 b0bc 038e fa3d 3901 213d
000001f0: b262 433c 7b37 a53d fee3 973c 3313 1bbd
00000200: ec9b 10bd abe6 053d d11a 9d3d f774 b13d
00000210: 93e9 5b3d 4b78 613d e72b 0c3d a608 fe3d
00000220: 0e07 903d 833a b0bd 2b72 b6bc 268e f33d
00000230: 17fd 74bd e310 9d3d 8b58 023e 2fa5 22bc
00000240: 0130 103e 300a e73c eadf cf3c 5d88 953d
00000250: 0b4e 1bbd 8d28 fc3d 3505 593d ba70 22bd
00000260: 3012 b03d 9f97 a63d 8e36 b13d f09e 18bc
00000270: b437 033d aa1d cdba 67a0 0c3e 18e5 1cbd
00000280: 6d28 283d a4bf 84bb 0317 31bd 7650 4f3d
00000290: 89a7 0e3e b9c4 173d bbc3 a33d b88f 133e
000002a0: 2de3 463d 9eac ad3d 464e 64bd d2a5 23bd
000002b0: a68f dc3c 0827 963b f094 a93d 1ace c63d
000002c0: cc8f ef3d 6b65 963d dcd9 3dbc 5fbe 903d
000002d0: aa0e f3bc 0276 7a3d f1e9 04bc fe43 6fbb
000002e0: 0a98 703d f573 ea3c a40c 8ebd 6d94 923d
000002f0: 8521 22bd 48da 12bd 0de8 ab3c b4ab 4d3d
00000300: a98d b13d d8f9 97bc 214b b93d 52cd 853d
00000310: 73eb d7bc d522 a43d 2e50 203d 747c c53c
00000320: a7d9 7a3d 2bb7 113e 3543 c3bc d925 963d
00000330: 63c9 d5bc 634b ff3d 690a 8d3d 7006 493c
00000340: 9edf cebb 0a50 8fbc 7fcd 023e 0e0f bcbc
00000350: 6254 473d 255f cc3d a408 133d 3aaf 3ebc
00000360: a287 503d 2869 2b3d 810d d43d 75b6 9abc
00000370: 66fb 943c 595a d33d 9dda 273c b6a6 c4bc
00000380: e18b c8bc 60cd d53c 771e 913c d3eb a8bc
00000390: f9ef f43c cedf 5c3c e78b a33d 63d1 593d
000003a0: dd84 683d d4e6 c1bc 4d26 8bbd 0881 b6bc
000003b0: fcd3 8c3d be01 52bd e41f fa3d 9abb 983c
000003c0: 2112 113d 804d 273d f008 e03a 95ed 9c3b
000003d0: 35e3 a53d 6ad8 9f3d cc1a 13bc f1ff 7e3d
000003e0: 9229 77bd b29f a4bc 36e1 0e3e 7018 b33d
000003f0: a7be 0d3c 8da2 a1bd 7320 f93b 1488 a03d

fc2.bias f4 [64]
0.0011377549 0.045089956 -0.0120189 0.10325786 0.020057686 0.02486985 0.026930856 -0.034540426
0.027709696 -0.060367487 -0.054762706 -0.011000912 0.09933705 -0.0025174317 0.033111095 -0.027247505
-0.024562161 0.05602337 -0.008248422 0.05550738 0.008146575 0.07585089 0.054361142 0.050911907
0.08904857 0.005716695 -0.043569945 -0.01802115 0.14734744 -0.068897404 -0.011126656 0.028364394
-0.02912442 0.13617742 0.005175993 -0.044833247 0.060091335 0.0077271187 0.03603719 0.012559066
-0.060205866 0.115538895 -0.064613834 0.022217972 0.016645024 0.031706277 0.074202046 0.011515438
-0.05114615 0.11878909 0.08041281 0.06135138 -0.08222259 0.059518334 0.07928069 0.10594317
-0.030377794 0.06434238 0.065276556 0.07480317 0.05035996 -0.09430859 0.08702069 -0.03225513
00000000: b820 953a 3fb0 383d ecea 44bc db78 d33d
00000010: 0450 a43c dbbb cb3c 199e dc3c 437a 0dbd
00000020: 72ff e23c e643 77bd dc4e 60bd 2b3d 34bc
00000030: 3971 cb3d 7ffb 24bb 809f 073d 2936 dfbc
00000040: 9636 c9bc c378 653d 6424 07bc b55b 633d
00000050: 3679 053c b657 9b3d caa9 5e3d 0189 503d
00000060: 195f b63d 1d53 bb3b 6676 32bd 17a1 93bc
00000070: 3fe2 163e 151a 8dbd 944c 36bc 725c e83c
00000080: 5696 eebc 1872 0b3e 609b a93b 11a3 37bd
00000090: 5522 763d c533 fd3b bc9b 133d 8ac4 4d3c
000000a0: 6d9a 76bd a89f ec3d 4254 84bd 7702 b63c
000000b0: 255b 883c 71de 013d 3ef7 973d 3fab 3c3c
000000c0: a07e 51bd b247 f33d 79af a43d 964b 7b3d
000000d0: 5164 a8bd 7fc9 733d ea5d a23d bcf8 d83d
000000e0: dada f8bc f0c5 833d b7af 853d 6832 993d
000000f0: 3f46 4e3d dd24 c1bd e737 b23d f51d 04bd

fc3.weight f4 [6, 64]
0.033422757 0.05422889 -0.10988351 0.004095839 0.0063465238 0.103399955 -0.06441903 -0.121038914
-0.12216856 -0.010951279 0.116518274 0.07675745 -0.04385434 -0.14056855 -0.029644864 -0.017445013
0.038734958 0.025803844 -0.040779665 -0.002386851 0.075751126 -0.13727085 0.043950282 -0.124228984
-0.046259515 -0.11295939 0.0019246393 -0.008006632 -0.11169006 -0.016622135 0.026787689 -0.0115360785
0.04130503 -0.12846294 0.028944537 -0.0025015324 -0.058488205 0.10226561 -0.1161105 0.089971885
-0.026455551 -0.036551524 0.03143976 -0.07749247 -0.07933766 -0.022206308 -0.04481476 -0.027799163
-0.027934713 -0.109723516 -0.14665087 -0.1236493 -0.058412805 0.12073468 -0.0137435645 -0.080315076
-0.12335558 -0.17429416 -0.13463143 -0.003137191 0.019066706 -0.047096178 -0.071088076 -0.11428973
-0.14535205 -0.011920498 -0.0045668855 -0.018959248 0.0848147 -0.02569563 -0.030771568 0.041414693
-0.06642582 -0.028524239 -0.045614794 -0.16651097 -0.06284419 -0.091193765 -0.14064746 0.02163361
-0.05883111 -0.08730253 0.02850996 0.043664325 -0.10969265 -0.114101194 0.0171873 0.017593607
-0.0973636 0.01573085 0.03248039 -0.044195116 0.03458705 -0.05649187 0.013332802 -0.12362486
0.072748974 -0.15397687 -0.09486475 0.06193769 -0.036880698 -0.04900007 -0.04441563 -0.064342484
0.047474325 -0.10606562 0.029042121 -0.114119336 0.0012226552 -0.1311987 0.0046628816 0.1094455
0.050037608 0.023896083 0.07800682 -0.031839292 -0.019352913 0.021884486 0.100604594 -0.032261893
-0.098144725 -0.15673847 0.084150076 -0.10057254 0.117637664 -0.036799572 0.11049174 -0.014900503
-0.09231562 -0.1649259 0.0068664453 -0.050026752 -0.101504534 0.11316417 0.0057219863 0.05015476
0.06751554 -0.094605856 0.11248559 -0.07134418 -0.1240134 0.076352715 -0.15475877 0.062897354
-0.057433337 -0.05780644 0.055845395 -0.14478433 0.08269645 -0.042869475 -0.13489936 0.047709823
-0.00029213796 0.104008794 0.086864546 0.024776638 -0.08178662 -0.120702766 0.08403592 -0.019134283
-0.0855143 -0.0032775102 0.078830086 0.07491392 0.021495461 -0.028649643 0.043043014 0.046598077
-0.021180883 -0.0262986 -0.010658485 0.0407917 -0.012354389 0.08630955 -0.0912413 -0.036590144
-0.025890682 -0.056498427 0.013810517 -0.007180839 0.11210923 0.09389189 -0.08080836 -0.011466836
0.069433644 0.022558808 -0.040388357 -0.123279706 -0.10294977 -0.020901795 -0.1135537 0.02843264
-0.18476614 -0.094100684 0.11659184 0.045836885 -0.03981766 0.032232992 -0.10469483 -0.064051986
-0.051418822 0.0400233 0.106044084 -0.012162696 -0.15010627 -0.0132785365 -0.038583826 -0.052143693
-0.05160202 0.03787398 0.05759953 -0.10156189 0.019057155 -0.009407643 -0.028358521 0.11808492
-0.120349795 0.012896678 -0.11423858 0.04423721 -0.01719449 0.057596155 -0.028321335 0.033365216
0.031932525 -0.047545973 -0.042454027 0.035042897 -0.1111345 0.08132252 -0.1484531 -0.04428482
0.034668326 -0.023677656 0.009115811 -0.13546817 0.09262769 0.048341297 -0.10072732 -0.028480478
0.04601681 -0.0093723005 -0.08931197 0.012558617 0.12278023 0.04317279 0.03447771 -0.15162227
0.057837278 -0.013803166 0.04774947 -0.00031445123 0.023409307 0.10726033 0.023040384 -0.02447303
00000000: 4de6 083d 1d1f 5e3d 9b0a e1bd 6336 863b
00000010: 80f6 cf3b 5bc3 d33d 20ee 83bd 40e3 f7bd
00000020: 8333 fabd fe6c 33bc 22a1 ee3d 0333 9d3d
00000030: 9ca0 33bd 34f1 0fbe c9d9 f2bc d8e8 8ebc
00000040: 8ca8 1e3d 9562 d33c 9408 27bd b76c 1cbb
00000050: 6823 9b3d bb90 0cbe 3605 343d c46b febd
00000060: 9e7a 3dbd 4157 e7bd 2e44 fc3a 402e 03bc
00000070: c2bd e4bd 252b 88bc db71 db3c d201 3dbc
00000080: 772f 293d ca8b 03be 181d ed3c c0f0 23bb
00000090: 5491 6fbd a270 d13d 58cb edbd 2e43 b83d
000000a0: 50b9 d8bc 0db7 15bd fac6 003d 5fb4 9ebd
000000b0: c87b a2bd 01ea b5bc af8f 37bd 12bb e3bc
000000c0: 57d7 e4bc b9b6 e0bd a52b 16be d83b fdbd
000000d0: 4442 6fbd be43 f73d b02c 61bc 3b7c a4bd
000000e0: daa1 fcbd 2b7a 32be d2dc 09be 5599 4dbb
000000f0: c831 9c3c ece7 40bd a096 91bd bc10 eabd
00000100: 2bd7 14be 314e 43bc d0a5 95bb 6d50 9bbc
00000110: 54b3 ad3d a47f d2bc a814 fcbc 74a2 293d
00000120: 430a 88bd aaab e9bc 94d6 3abd da81 2abe
00000130: 74b4 80bd ccc3 babd e305 10be f838 b13c
00000140: e4f8 70bd abcb b2bd b88d e93c 5dd9 323d
00000150: 8aa6 e0bd e3ad e9bd 61cc 8c3c 7820 903c
00000160: 9166 c7bd fcdd 803c 280a 053d f005 35bd
00000170: 27ab 0d3d 0564 67bd d371 5a3c 082f fdbd
00000180: 6afd 943d 1dac 1dbe 7348 c2bd 60b2 7d3d
00000190: 3710 17bd 4cb4 48bd 2aed 35bd fec5 83bd
000001a0: 7074 423d ef38 d9bd bee9 ed3c 66b7 e9bd
000001b0: 8041 a03a f458 06be 16cb 983b f624 e03d
000001c0: 3cf4 4c3d b8c1 c33c 0ac2 9f3d eb69 02bd
000001d0: 008a 9ebc 1847 b33c c809 ce3d 0c25 04bd
000001e0: 1a00 c9bd 0d80 20be e056 ac3d faf8 cdbd
000001f0: 04ec f03d 26bb 16bd 7e49 e23d 3d21 74bc
00000200: f90f bdbd 56e2 28be ebff e03b dae8 4cbd
00000210: 9ce1 cfbd 9ec2 e73d 807f bb3b 146f 4d3d
00000220: 9645 8a3d b7c0 c1bd d85e e63d e61c 92bd
00000230: bdfa fdbd d05e 9c3d 1579 1ebe 54d0 803d
00000240: 383f 6bbd 72c6 6cbd 24be 643d 5842 14be
00000250: c25c a93d e797 2fbd 0f23 0abe 606b 433d
00000260: 182a 99b9 9002 d53d 0ae6 b13d 60f8 ca3c
00000270: be7f a7bd 0333 f7bd 061b ac3d 80bf 9cbc
00000280: 1f22 afbd 7fcb 56bb ab71 a13d 786c 993d
00000290: 4017 b03c a8b2 eabc df4d 303d a0dd 3e3d
000002a0: 8883 adbc 2970 d7bc eda0 2ebc 3315 273d
000002b0: 106a 4abc 10c3 b03d b8dc babd 8cdf 15bd
000002c0: b218 d4bc e56a 67bd 8245 623c 3e4d ebbb
000002d0: 8699 e53d 644a c03d da7e a5bd 65df 3bbc
000002e0: 3a33 8e3d 40cd b83c 436e 25bd 127a fcbd
000002f0: 54d7 d2bd 3e3a abbc d88e e8bd 91eb e83c
00000300: 5633 3dbe dcb7 c0bd b4c7 ee3d 75bf 3b3d
00000310: d817 23bd be06 043d 3e6a d6bd b02d 83bd
00000320: 8b9c 52bd 79ef 233d a42d d93d 0b46 47bc
00000330: 75b5 19be 388e 59bc 130a 1ebd a094 55bd
00000340: a45c 53bd bf21 1b3d 7ced 6b3d aeff cfbd
00000350: c01d 9c3c 8422 1abc 2150 e8bc 82d6 f13d
00000360: f479 f6bd 974c 533c ebf5 e9bd 1432 353d
00000370: 76db 8cbc f2e9 6b3d 2502 e8bc f7a9 083d
00000380: aecb 023d 91bf 42bd 46e4 2dbd 2489 0f3d
00000390: 7c9a e3bd 6c8c a63d 1704 18be 0064 35bd
000003a0: 6000 0e3d a5f7 c1bc 7c5a 153c 2bb8 0abe
000003b0: 96b3 bd3d 8601 463d 204a cebd e44f e9bc
000003c0: 1f7c 3c3d 478e 19bc 32e9 b6bd a8c2 4d3c
000003d0: 3474 fb3d f4d5 303d 8038 0d3d de42 1bbe
000003e0: c8e6 6c3d ad26 62bc f394 433d eedc a4b9
000003f0: e0c4 bf3c 4eab db3d 30bf bc3c aa7b c8bc

fc3.bias f4 [6]
-0.076924674 -0.03825294 -0.15191898 0.015029562 -0.13934271 0.04889875
00000000: af8a 9dbd 1daf 1cbd a690 1bbe 8d3e 763c
00000010: dbaf 0ebe 0e4a 483d
