dqn_taxi_light128.pth (torch, 45932 bytes, 6 tensors)

fc1.weight f4 [128, 16]
0.17763667 0.07297551 -0.11437854 0.14871666 0.17527941 0.28219026 0.3381788 0.06776905
0.2770772 0.06594865 0.09665227 0.14861071 -0.0029418392 0.29271287 -0.021847622 -0.09026428
-0.17451918 0.051424555 0.058823615 0.11615527 -0.20926306 0.22609913 0.24944824 -0.074828506
0.25836903 0.068099126 0.031924855 -0.15682879 0.051104672 -0.117915 -0.027960485 0.03707489
-0.04542347 0.34602913 -0.05717939 0.035666823 -0.06544456 0.20517865 0.118210524 0.07898036
-0.050887898 0.19053897 0.06833149 0.0654754 0.15771192 0.02909214 0.04110798 0.29006442
0.3562494 0.1838759 -0.1932511 -0.016619593 0.21137097 0.24536505 0.22344437 0.13697228
-0.06273663 -0.010763228 0.32865378 0.18431155 -0.041685205 0.22167167 0.25833863 0.17214759
0.03550216 0.041743275 0.037722617 -0.00046861172 0.045832276 0.36237764 0.12423009 -0.045734674
0.13349529 0.055732682 0.10777616 0.16361636 0.09352277 0.358374 0.08881081 0.16458598
0.08014185 0.12947723 0.13001037 -0.11235148 0.011679947 0.32843253 0.13063543 -0.10717526
0.053055182 -0.0097087575 0.29758695 0.3871285 0.36904305 0.40251023 0.27121553 0.16032824
0.0023280228 0.15188153 -0.14838448 -0.15958652 -0.0056566894 0.040889423 0.28601104 -0.15425858
0.15086618 0.24447173 0.253005 -0.071752995 -0.06722627 0.30569214 0.038208466 -0.024831643
0.27425182 -0.02057681 0.15683573 0.11308396 0.01528433 0.17608024 0.2804781 0.019729793
-0.09825089 0.29712513 0.012583489 0.08665396 0.02420943 0.12670106 0.27193725 -0.07125243
0.0710081 0.36746433 0.13457865 -0.18798783 0.087736875 -0.04839082 0.054955743 0.22188461
0.044185203 0.30877504 0.24322653 0.20976667 0.19704293 0.3819882 -0.0567871 0.21211797
0.08441519 0.18733023 0.01732108 -0.031323016 -0.09835777 0.13895512 0.11144642 0.022405952
0.19078052 0.22296396 0.18477543 0.074804485 0.04488277 0.19336185 0.1633206 0.20899016
-0.105128124 0.15128215 0.19488445 -0.14417887 -0.0677982 0.34999728 0.23496221 -0.039958328
0.082575694 0.0013442097 0.14913514 -0.051819924 0.04732779 0.1016199 -0.008956313 0.06793026
0.052284755 0.031448428 0.22741196 -0.16581973 0.08525473 0.064916775 0.1720146 0.11769241
0.05674152 0.120452635 0.38221857 0.26537266 0.33662888 0.0928179 -0.10284127 0.23776498
0.18475923 0.2753333 0.1392552 -0.074879974 -0.21499303 0.050412215 -0.12250931 -0.10793799
0.26832938 0.28156704 -0.016616218 0.10255657 0.10577246 0.22865435 0.07289502 0.31322873
0.07066534 -0.012889841 0.24220768 -0.14159775 0.107800156 0.3020731 -0.03753465 0.12765065
0.34145078 0.16798078 -0.023925487 0.15041281 -0.017514944 -0.0396063 -0.06351061 0.1481911
0.2694929 0.16365294 -0.02999404 0.012488037 0.028025717 0.11515015 0.121164106 0.03338003
0.19885461 0.22683398 0.23209952 0.32685298 0.43672806 0.32936636 0.15666033 0.2958033
0.33940688 0.10481502 0.1944679 0.22723311 0.20765764 0.07210774 0.0052839736 -0.093770415
0.15950981 0.18189624 0.3556456 0.024463404 -0.055941515 0.17939544 0.11979423 0.30097988
00000000: 63e6 353e 2f74 953d 4c3f eabd 2e49 183e
00000010: 727c 333e 3e7b 903e c625 ad3e 80ca 8a3d
00000020: 10dd 8d3e 1610 873d a0f1 c53d 682d 183e
00000030: dfcb 40bb 76de 953e c9f9 b2bc 7bdc b8bd
00000040: 28b5 32be 8ea2 523d 08f1 703d d0e2 ed3d
00000050: 0e49 56be 8886 673e 5c6f 7f3e b03f 99bd
00000060: f248 843e 8e77 8b3d a3c3 023d ba97 20be
00000070: 2253 513d 6b7d f1bd 630d e5bc d7db 173d
00000080: f60d 3abd bb2a b13e f034 6abd 6017 123d
00000090: cc07 86bd 5a1a 523e 5c18 f23d 74c0 a13d
000000a0: d46f 50bd a61c 433e 61f1 8b3d f717 863d
000000b0: 3c7f 213e a452 ee3c d760 283d 5383 943e
000000c0: 5266 b63e f749 3c3e 9ee3 45be d025 88bc
000000d0: a271 583e fa40 7b3e 9ace 643e 7642 0c3e
000000e0: 107c 80bd 4058 30bc 4f45 a83e 2bbc 3c3e
000000f0: 1bbe 2abd e6fd 623e f644 843e 7547 303e
00000100: b76a 113d fffa 2a3d 0883 1a3d 00b0 f5b9
00000110: a0ba 3b3d 9089 b93e 586c fe3d 4854 3bbd
00000120: fdb2 083e f447 643d bfb9 dc3d 0c8b 273e
00000130: de88 bf3d cc7c b73e 71e2 b53d 3a89 283e
00000140: 6921 a43d ae95 043e 7021 053e 8818 e6bd
00000150: 405d 3f3c 4f28 a83e 4bc5 053e b47e dbbd
00000160: 6450 593d 7b11 1fbc 515d 983e b535 c63e
00000170: 36f3 bc3e d215 ce3e c3dc 8a3e 162d 243e
00000180: be91 183b d586 1b3e 1af2 17be a66a 23be
00000190: c05b b9bb ab7b 273d 0a70 923e f6f5 1dbe
000001a0: aa7c 1a3e cc56 7a3e df89 813e 3cf3 92bd
000001b0: edad 89bd ae83 9c3e 7b80 1c3d bb6b cbbc
000001c0: bc6a 8c3e b390 a8bc 8c99 203e 9098 e73d
000001d0: 206b 7a3c 614e 343e d39a 8f3e 60a0 a13c
000001e0: c337 c9bd c920 983e fa2a 4e3c a277 b13d
000001f0: db52 c63c ecbd 013e 5c3b 8b3e cbec 91bd
00000200: b26c 913d 4924 bc3e fcce 093e e27f 40be
00000210: 64af b33d 7435 46bd 4619 613d b835 633e
00000220: 8bfb 343d c317 9e3e 6010 793e 13cd 563e
00000230: 9fc5 493e f593 c33e 9799 68bd 7435 593e
00000240: dfe1 ac3d 7fd3 3f3e f0e4 8d3c 904c 00bd
00000250: cc6f c9bd 404a 0e3e 053e e43d b08c b73c
00000260: f85b 433e aa50 643e c535 3d3e 1833 993d
00000270: ffd6 373d a600 463e 843d 273e 8401 563e
00000280: 6a4d d7bd b5e9 1a3e ca8f 473e a0a3 13be
00000290: c8d9 8abd d832 b33e ef99 703e 58ab 23bd
000002a0: 721d a93d 3130 b03a e2b6 183e 2141 54bd
000002b0: c9da 413d 181e d03d 80bd 12bc 051f 8b3d
000002c0: 8a28 563d 11d0 003d aede 683e a6cc 29be
000002d0: 089a ae3d 16f3 843d 9824 303e b808 f13d
000002e0: cc69 683d dfaf f63d 27b2 c33e edde 873e
000002f0: 9f5a ac3e 5017 be3d 729e d2bd aa78 733e
00000300: 8631 3d3e 7cf8 8c3e ea98 0e3e ac5a 99bd
00000310: 2227 5cbe 0a7d 4e3d 29e6 fabd 980e ddbd
00000320: 7862 893e 8e29 903e bc1e 88bc 2e09 d23d
00000330: 3b9f d83d 5e24 6a3e fc49 953d 845f a03e
00000340: fdb8 903d e92f 53bc 4a05 783e 00ff 10be
00000350: 54c6 dc3d 53a9 9a3e efbd 19bd dab6 023e
00000360: a3d2 ae3e 2703 2c3e 62ff c3bc d105 1a3e
00000370: 807b 8fbc 373a 22bd da11 82bd 68bf 173e
00000380: f9fa 893e a394 273e 10b6 f5bc a09a 4c3c
00000390: 3096 e53c d8d3 eb3d e324 f83d 80b9 083d
000003a0: 8ba0 4b3e 2b47 683e 7fab 6d3e 4659 a73e
000003b0: d29a df3e b5a2 a83e 916b 203e 8873 973e
000003c0: bdc6 ad3e 42a9 d63d 9822 473e ccaf 683e
000003d0: 34a4 543e 39ad 933d 2f25 ad3b b40a c0bd
000003e0: 8a56 233e 0243 3a3e 2e17 b63e 7a67 c83c
000003f0: ee22 65bd 70b3 373e ad56 f53d 091a 9a3e

fc1.bias f4 [128]
0.10978492 0.2633411 0.24041821 0.038872525 0.035854533 0.17083874 0.012867156 0.26811227
0.08110354 0.112544976 0.011092975 0.1949067 0.15206097 0.38136223 0.13592474 -0.021867627
0.25056845 0.063701734 0.25270867 0.08234286 0.193334 0.40203798 0.044394217 0.050532885
-0.025106912 0.41969103 0.34824157 0.1290916 0.02985531 0.24819733 0.059746657 0.20222838
0.41079876 0.35352516 0.24144365 -0.009623633 0.20843734 -0.13195539 0.14848347 -0.13394123
-0.027456934 0.16858397 0.057343815 -0.038059212 -0.03554367 0.22295937 -0.024636509 0.0029867662
-0.10487203 0.25977808 0.08234963 0.10248171 0.07756922 0.054150898 0.2653066 0.2661128
0.14065388 0.27272537 0.31274232 0.28951305 0.46851754 0.35479876 -0.035776455 0.07481072
0.103678204 0.274539 0.20732608 0.22192268 -0.04500753 0.05473807 0.034008186 0.20252268
0.057468742 0.008437887 0.09886403 0.17925814 0.27246037 0.062252074 0.25091165 0.06193765
0.026360929 0.081103444 0.22031954 0.08577879 0.25809926 0.21222645 0.025029248 0.2015348
0.3507208 0.16328114 0.19541532 0.06932264 0.30506662 0.35324913 0.07447742 -0.0058078356
0.3150708 0.13631794 0.26948825 -0.08439913 0.08478636 0.14314534 0.014711669 -0.14030893
-0.08807049 0.3633254 -0.070999205 -0.0891786 0.29161426 0.2789787 -0.045385342 0.18818937
0.26171598 0.009026369 0.28881347 0.2148064 0.39073908 0.25459683 0.3061883 0.24154916
0.43278638 0.23444091 0.42396003 0.35236546 0.06789366 -0.12631613 -0.062697746 0.43187103
00000000: ebd6 e03d a5d4 863e 3130 763e cc38 1f3d
00000010: 34dc 123d 5af0 2e3e c4d0 523c 0346 893e
00000020: 9d19 a63d fb7d e63d 4fbf 353c 9f95 473e
00000030: dfb5 1b3e e941 c33e db2f 0b3e bd23 b3bc
00000040: 824a 803e 0e76 823d 0863 813e 60a3 a83d
00000050: 59f9 453e ecd7 cd3e b6d6 353d 92fb 4e3d
00000060: 03ad cdbc bee1 d63e b84c b23e 9730 043e
00000070: 2093 f43c 7127 7e3e e9b8 743d f514 4f3e
00000080: 3754 d23e 4001 b53e 013d 773e 71ac 1dbc
00000090: 9970 553e 501f 07be 0d0c 183e e427 09be
000000a0: 5ded e0bc 47a1 2c3e 59e1 6a3d fae3 1bbd
000000b0: 3d96 11bd 764f 643e 81d2 c9bc 9fbd 433b
000000c0: 26c7 d6bd a201 853e eca6 a83d eee1 d13d
000000d0: 9cdc 9e3d 55cd 5d3d 44d6 873e f03f 883e
000000e0: 9207 103e a9a2 8b3e c31f a03e 0e3b 943e
000000f0: 88e1 ef3e 2fa8 b53e 558a 12bd 5d36 993d
00000100: 3d55 d43d 6090 8c3e 4a4d 543e b33f 633e
00000110: d159 38bd 0735 603d 2b4c 0b3d 1b62 4f3e
00000120: 5864 6b3d 103f 0a3c 3979 ca3d 728f 373e
00000130: ed7f 8b3e 08fc 7e3d 7e77 803e 55b2 7d3d
00000140: e0f2 d73c 9019 a63d 729b 613e caac af3d
00000150: 9625 843e e451 593e 230a cd3c 235f 4e3e
00000160: ad91 b33e 2c33 273e f41a 483e 07f9 8d3d
00000170: b131 9c3e 12dd b43e 9e87 983d a84f bebb
00000180: f650 a13e ee96 0b3e 5dfa 893e 73d9 acbd
00000190: 79a4 ad3d b194 123e 3609 713c 25ad 0fbe
000001a0: 4d5e b4bd c905 ba3e 0868 91bd 45a3 b6bd
000001b0: 774e 953e 4cd6 8e3e fbe5 39bd b7b4 403e
000001c0: a3ff 853e 56e3 133c 5cdf 933e 35f6 5b3e
000001d0: f40e c83e 845a 823e b6c4 9c3e aa58 773e
000001e0: 2d96 dd3e 4711 703e 4a11 d93e 3f69 b43e
000001f0: d50b 8b3d 0459 01be ad67 80bd 331e dd3e

fc2.weight f4 [64, 128]
0.045865692 0.091985226 0.11794478 0.2134416 0.27795365 0.21054728 0.1413106 0.108202815
0.21382377 0.1867068 0.1809157 0.14350334 0.023213224 0.13408233 0.2747867 0.15852726
0.028803773 0.08155107 0.116796285 0.19777338 0.16354689 0.18482825 0.13062246 0.07575
0.16523539 0.22752841 0.21423908 0.13523224 0.18456712 0.1938493 0.036266465 0.06898632
0.2363199 0.055883463 0.166157 0.07254366 0.18868192 0.055085093 0.10797999 0.108488806
0.030115854 0.013831333 0.08668926 0.19796327 0.23202728 0.03344453 0.17504556 0.11780235
0.053383887 0.15857778 0.052512553 0.371177 0.046506274 0.14309229 0.0966342 0.16246451
0.58389574 0.24064593 0.07353016 0.18389376 0.11851707 0.1781723 0.18698145 0.088323295
0.09589862 0.3474757 0.09385446 0.0629677 0.17266719 0.02791271 0.04855413 0.08871441
0.050302017 0.0210819 0.16861919 0.13566849 0.19435792 0.065359116 0.18865861 0.15314233
0.056529384 0.25187606 0.23060198 0.102989994 0.18177196 0.1155617 0.06331939 0.043404184
0.13070256 0.1808954 0.09954692 0.17686354 0.06446069 0.17712685 0.122332916 0.06194398
0.2469735 0.1402112 0.18748812 0.080135055 0.07659114 0.04626059 0.14081575 0.10629838
0.11585471 0.15279157 0.12667556 0.15339887 0.13376366 0.10289297 0.0830238 0.1836747
0.102800235 0.111546546 0.117391735 0.044608407 0.022234278 0.15280825 0.26387525 0.066912815
0.1364265 0.040967416 0.11944438 0.07730991 0.044667788 0.065930605 0.10087232 0.17183024
0.10150762 0.05917649 0.11426768 0.21070474 0.119585775 0.22765133 0.0732432 0.14779726
0.20136985 0.28199762 0.062428635 0.09830825 0.15795994 0.082986124 0.39346018 0.18550257
0.12950277 0.109962456 0.0047949133 0.20766327 0.101342134 0.1138191 0.13391778 0.008703317
0.040333226 0.1824319 0.2161045 0.13567945 0.0353783 0.166722 0.043004878 0.037441168
0.30135533 0.1458403 0.12732176 0.035028283 0.11285287 0.13555013 0.09615711 0.04636104
0.12721375 0.083612986 0.12584819 0.26375756 0.18408005 0.14024757 0.016519375 0.15346885
0.0707426 0.17877388 0.045441397 0.54515564 0.109678596 0.058437992 0.16213104 0.034080777
0.5956885 0.13431117 0.12944175 0.12511416 0.15633844 0.09642898 0.17517614 0.086644344
0.12805177 0.5435378 0.061089575 0.08676815 0.035365105 0.07125827 0.13769224 0.12944576
0.10607635 0.02267522 0.17573363 0.030315911 0.19810028 0.10034029 0.31897965 0.27861345
0.027468946 0.19941846 0.23856036 0.12203292 0.10899508 0.10057307 0.030948196 0.05382926
0.09194704 0.066782415 0.07255147 0.17624605 0.10215624 0.07222805 0.16942075 0.16393436
0.46727455 0.13073532 0.15595056 0.019923564 0.1227747 0.02909191 0.13498214 0.10524294
0.08362596 0.07114444 0.13849844 0.07352062 0.09046375 0.20300904 0.10383099 0.15504616
0.084677905 0.14611906 0.08996246 0.15978514 0.15234645 -0.0039552576 0.20114559 0.073927276
0.26737848 0.12927146 0.20202278 0.13927792 -0.0065097436 0.06409054 0.041724224 0.1053034
00000000: aadd 3b3d c062 bc3d 088d f13d 6f90 5a3e
00000010: f14f 8e3e b599 573e bab3 103e 7099 dd3d
00000020: 9ef4 5a3e 1130 3f3e f741 393e 8af2 123e
00000030: a929 be3c e14c 093e d8b0 8c3e f854 223e
00000040: e4f5 eb3c 3f04 a73d e432 ef3d 1b85 4a3e
00000050: d678 273e 9e43 3d3e e5c1 053e d122 9b3d
00000060: 7733 293e 35fd 683e 7d61 5b3e 527a 0a3e
00000070: 2aff 3c3e 6e80 463e 258c 143d b348 8d3d
00000080: d8fd 713e 0fe6 643d 1025 2a3e c591 943d
00000090: d535 413e e8a0 613d 9d24 dd3d 612f de3d
000000a0: 86b5 f63c d19c 623c 248a b13d e2b6 4a3e
000000b0: 8f98 6d3e 22fd 083d 253f 333e 5c42 f13d
000000c0: 10a9 5a3d 3762 223e 6717 573d e90a be3e
000000d0: 5d7d 3e3d c986 123e 27e8 c53d 195d 263e
000000e0: 317a 153f e36b 763e fb96 963d a54e 3c3e
000000f0: 14b9 f23d cd72 363e 1178 3f3e d8e2 b43d
00000100: 7f66 c43d 56e8 b13e c436 c03d 36f5 803d
00000110: abcf 303e 32a9 e43c b2e0 463d e7af b53d
00000120: 7d09 4e3d f3b3 ac3c 82aa 2c3e aeec 0a3e
00000130: c305 473e 00db 853d b92f 413e 58d1 1c3e
00000140: 5b8b 673d e6f5 803e ed22 6c3e 6bec d23d
00000150: 6e22 3a3e 9dab ec3d 99ad 813d 96c8 313d
00000160: e4d6 053e a53c 393e 41df cb3d b71b 353e
00000170: f703 843d be60 353e ae89 fa3d f9b8 7d3d
00000180: 9fe6 7c3e 8693 0f3e e3fc 3f3e d91d a43d
00000190: d1db 9c3d bf7b 3d3d 0132 103e f7b2 d93d
000001a0: 3c45 ed3d 6575 1c3e 3db7 013e 9814 1d3e
000001b0: 57f9 083e 8db9 d23d 6208 aa3d 3815 3c3e
000001c0: ee88 d23d 8472 e43d 146b f03d 4eb7 363d
000001d0: a924 b63c c479 1c3e a81a 873e 9609 893d
000001e0: 63b3 0b3e 73cd 273d 419f f43d a854 9e3d
000001f0: 92f5 363d a006 873d 2696 ce3d 44f4 2f3e
00000200: 3ae3 cf3d 0c63 723d 2c05 ea3d fcc2 573e
00000210: 63e9 f43d 6e1d 693e 8800 963d 2a58 173e
00000220: e633 4e3e fe61 903e 2bb5 7f3d d655 c93d
00000230: 40c0 213e a1f4 a93d 9d73 c93e 63f4 3d3e
00000240: 609c 043e ff33 e13d a61e 9d3b aea5 543e
00000250: 778c cf3d fd19 e93d be21 093e 5b98 0e3c
00000260: 7434 253d 6ecf 3a3e 804a 5d3e 8eef 0a3e
00000270: d6e8 103d 2cb9 2a3e e225 303d e95b 193d
00000280: 3f4b 9a3e 2957 153e a360 023e d179 0f3d
00000290: 681f e73d a7cd 0a3e 05ee c43d 13e5 3d3d
000002a0: 5244 023e 493d ab3d 59de 003e 3b0b 873e
000002b0: 7b7f 3c3e 0f9d 0f3e a453 873c f026 1d3e
000002c0: 7fe1 903d 8010 373e c220 3a3d 528f 0b3f
000002d0: 2c9f e03d ad5c 6f3d ae05 263e 4998 0b3d
000002e0: 0b7f 183f de88 093e 618c 043e ed1d 003e
000002f0: 2f17 203e 8f7c c53d 6061 333e 9772 b13d
00000300: 0120 033e 4b25 0b3f 1039 7a3d 80b3 b13d
00000310: 00db 103d dbef 913d 32ff 0c3e 6e8d 043e
00000320: 8f3e d93d 62c1 b93c 84f3 333e 1359 f83c
00000330: cdda 4a3e 367f cd3d 4d51 a33e 6ca6 8e3e
00000340: 8e06 e13c 5a34 4c3e 2b49 743e 65ec f93d
00000350: d038 df3d 41f9 cd3d 1287 fd3c 127c 5c3d
00000360: bb4e bc3d 38c5 883d dd95 943d d879 343e
00000370: 4a37 d13d 4dec 933d a27c 2d3e 69de 273e
00000380: 9c3e ef3e 7bdf 053e 81b1 1f3e be36 a33c
00000390: 4d71 fb3d 2852 ee3c c238 0a3e 9c89 d73d
000003a0: 1644 ab3d 2db4 913d 89d2 0d3e fb91 963d
000003b0: 0f45 b93d 9ae1 4f3e 58a5 d43d 6cc4 1e3e
000003c0: 9c6b ad3d 3ca0 153e 3d3e b83d b79e 233e
000003d0: b500 1c3e 1b9b 81bb 1cf9 4d3e 2f67 973d
000003e0: d5e5 883e bd5f 043e 0fdf 4e3e df9e 0e3e
000003f0: b04f d5bb e741 833d 05e7 2a3d 4fa9 d73d

fc2.bias f4 [64]
0.108997576 0.147588 0.096142314 0.013080666 0.06284925 0.14877771 0.1587876 0.10925016
0.15138286 0.1147446 0.025209162 0.081245154 0.020305116 0.006141508 0.01579122 0.049118042
0.072460614 0.16195141 0.01012917 0.060205415 0.084151626 0.1481041 0.026180036 0.03831811
0.12586801 0.117409796 0.11195892 0.009657703 0.05724028 0.13416873 0.11382566 0.07907803
0.08439978 0.043999247 0.14397605 0.08076782 0.029429082 0.030594552 0.04826199 0.078219146
0.13249193 0.037329 0.08142461 0.13331953 0.13922438 0.09868063 0.15553354 -0.007923877
0.04898412 0.10315242 0.017415201 0.11110706 0.027348049 0.028447492 0.10889515 0.055718735
0.020853171 0.027720248 -0.0062866625 0.031322733 0.005681864 0.042879183 0.092081286 0.14550234
00000000: 1f3a df3d 4f21 173e 43e6 c43d 4a50 563c
00000010: 1cb7 803d 2f59 183e 3799 223e 8cbe df3d
00000020: 1c04 1b3e 38ff ea3d 7283 ce3c dc63 a63d
00000030: ea56 a63c b43e c93b 975c 813c 0030 493d
00000040: 3b66 943d 97d6 253e d1f4 253c f499 763d
00000050: b057 ac3d 9aa8 173e 8477 d63c 73f3 1c3d
00000060: 8be3 003e 8c74 f03d b84a e53d 583b 1e3c
00000070: c974 6a3d 8763 093e 6d1d e93d aaf3 a13d
00000080: cbd9 ac3d 8e38 343d 756e 133e 9969 a53d
00000090: 4215 f13c 6da1 fa3c 5dae 453d 5c31 a03d
000000a0: f7ab 073e 4be6 183d f2c1 a63d ea84 083e
000000b0: d690 0e3e 1219 ca3d 2f44 1f3e 26d3 01bc
000000c0: 93a3 483d 9341 d33d 53aa 8e3c 198c e33d
000000d0: 0409 e03c b70a e93c 6c04 df3d 5439 643d
000000e0: 45d4 aa3c 9315 e33c 5900 cebb 444c 003d
000000f0: ee2e ba3b 15a2 2f3d 1d95 bc3d 91fe 143e

fc3.weight f4 [6, 64]
-3.1240404 -3.0761642 -3.24053 -3.0596778 -2.0220468 -3.0800936 -3.0309422 -3.2233746
-3.0815365 -3.0388906 -2.9849863 -3.0524359 -3.1442587 -3.0042672 -1.660698 -2.1302135
-2.2764258 -3.1476648 -2.9971704 -2.1434658 -3.1565552 -3.167357 -3.0672472 -3.0446703
-3.109409 -3.157256 -3.135429 -3.0036538 -3.0486212 -3.0514328 -3.0547447 -3.1796434
-3.0900748 -1.8343828 -0.801682 -3.045502 -3.0869143 -3.0324576 -2.9950285 -3.0387502
-3.118678 -3.0897563 -3.2043257 -1.593814 -3.1329663 -3.1721792 -3.1583989 -2.9880247
-3.1468434 -3.1365492 -3.0035598 -3.1709158 -3.2119493 -3.1228106 -3.024943 -3.104267
-3.0958023 -3.208408 -3.1405346 -3.2276819 -1.6476948 -3.05628 -3.0424623 -3.0275671
-3.1618068 -3.0325081 -3.1994095 -3.2129006 -2.0366886 -2.976964 -3.182576 -3.0836313
-3.0637414 -3.1731205 -3.1397083 -2.966072 -3.1341033 -3.09845 -1.6458386 -2.2209094
-2.2068505 -3.0060427 -3.041673 -2.0874705 -3.1665308 -3.1404197 -3.1547515 -3.0049083
-3.138805 -3.1890066 -3.0666034 -2.9761353 -3.0080876 -3.211972 -3.0646188 -2.9980962
-3.155123 -1.7631531 -0.9233344 -2.993182 -3.0659754 -3.0450852 -3.1526864 -3.1673565
-2.9953678 -3.1197138 -3.1866748 -1.5852607 -3.057362 -3.1262114 -3.2101867 -3.0936587
-3.0749333 -3.047792 -3.1077476 -3.0851986 -3.128873 -3.208132 -3.186621 -3.1331348
-3.117841 -3.0028307 -3.0543783 -2.9891577 -1.7375497 -3.190728 -3.037492 -3.009549
-3.1317089 -3.0614777 -3.1055562 -3.000433 -1.8831867 -3.1796355 -3.0868597 -3.063192
-3.0123224 -3.2097137 -3.1262102 -2.897537 -3.0542052 -3.1459153 -1.6092644 -1.9931027
-2.2126029 -3.1042545 -3.0536826 -2.0337536 -3.0977528 -3.2312577 -3.0187511 -3.132225
-2.9662087 -3.2118738 -3.1543298 -2.9875603 -3.2219598 -3.1390877 -3.1520164 -2.9973598
-3.1743984 -1.7233373 -0.7620701 -3.0445805 -3.1939046 -3.0595567 -3.0864317 -3.1703901
-3.1723883 -3.2226436 -3.147548 -1.7729189 -3.1184814 -3.2072353 -3.031827 -2.997924
-3.0441685 -3.1984658 -2.9934611 -3.0651858 -3.1952934 -3.1395218 -3.048016 -3.0593107
-3.0836139 -3.0822392 -3.193319 -3.090727 -1.7120337 -3.2018185 -3.1789417 -3.0689054
-3.2066262 -3.1202285 -3.1120286 -3.2090635 -2.0424626 -3.1118407 -3.2034729 -3.0504954
-3.0137463 -3.0495734 -3.1552227 -3.054471 -3.1330256 -3.0395133 -1.6426072 -2.2716084
-2.3241808 -3.0162497 -3.0065844 -2.090895 -3.1753392 -2.9820337 -3.191054 -3.1985924
-3.0932348 -3.0810778 -2.9765735 -3.0243547 -3.078302 -3.0661464 -2.982567 -3.1041017
-3.0951002 -1.8490821 -0.7678392 -3.1191707 -3.1217163 -3.1450777 -3.0049868 -3.0429008
-3.0768116 -3.0161204 -3.1569004 -1.762021 -3.1509356 -3.0188518 -3.1136067 -3.0218983
-3.0946445 -3.0521035 -3.175984 -3.0382073 -3.0989509 -3.0245893 -3.1023893 -3.086772
-3.0176551 -3.195269 -3.0770228 -3.160433 -1.8185335 -3.0381765 -3.1303227 -3.1568284
00000000: 47f0 47c0 e0df 44c0 d864 4fc0 c3d1 43c0
00000010: 3769 01c0 4120 45c0 f5fa 41c0 c54b 4ec0
00000020: e537 45c0 2f7d 42c0 040a 3fc0 1c5b 43c0
00000030: 893b 49c0 ea45 40c0 c191 d4bf 6b55 08c0
00000040: f6b0 11c0 5773 49c0 a4d1 3fc0 8b2e 09c0
00000050: 0005 4ac0 fab5 4ac0 c74d 44c0 e1db 42c0
00000060: 8f00 47c0 7b10 4ac0 deaa 48c0 dd3b 40c0
00000070: 9c1c 43c0 ad4a 43c0 f080 43c0 477f 4bc0
00000080: c9c3 45c0 0ecd eabf 083b 4dbf 81e9 42c0
00000090: 0190 45c0 c913 42c0 8cae 3fc0 e27a 42c0
000000a0: 6c98 47c0 91be 45c0 ac13 4dc0 1902 ccbf
000000b0: 8582 48c0 fc04 4bc0 3523 4ac0 cc3b 3fc0
000000c0: e265 49c0 39bd 48c0 533a 40c0 49f0 4ac0
000000d0: 9490 4dc0 21dc 47c0 ab98 41c0 4fac 46c0
000000e0: a021 46c0 8f56 4dc0 85fe 48c0 5792 4ec0
000000f0: aae7 d2bf 179a 43c0 b4b7 42c0 a9c3 41c0
00000100: 0b5b 4ac0 9d14 42c0 20c3 4cc0 2aa0 4dc0
00000110: 1b59 02c0 9486 3ec0 53af 4bc0 375a 45c0
00000120: 5714 44c0 6814 4bc0 fbf0 48c0 20d4 3dc0
00000130: 2695 48c0 014d 46c0 d7aa d2bf 6123 0ec0
00000140: 0a3d 0dc0 0163 40c0 c5aa 42c0 1e99 05c0
00000150: 71a8 4ac0 a3fc 48c0 73e7 49c0 6b50 40c0
00000160: 2ee2 48c0 af18 4cc0 3b43 44c0 0079 3ec0
00000170: 8284 40c0 f390 4dc0 b722 44c0 cfe0 3fc0
00000180: 89ed 49c0 00af e1bf a55f 6cbf 4b90 3fc0
00000190: f138 44c0 ade2 42c0 9dc5 49c0 f8b5 4ac0
000001a0: 1bb4 3fc0 64a9 47c0 7bf2 4bc0 d3e9 cabf
000001b0: d2ab 43c0 d913 48c0 b373 4dc0 81fe 45c0
000001c0: b5cb 44c0 060f 43c0 56e5 46c0 e573 45c0
000001d0: 753f 48c0 0952 4dc0 99f1 4bc0 4885 48c0
000001e0: b58a 47c0 612e 40c0 ef7a 43c0 5c4e 3fc0
000001f0: 0768 debf e334 4cc0 4566 42c0 739c 40c0
00000200: eb6d 48c0 40ef 43c0 6fc1 46c0 1807 40c0
00000210: 430c f1bf 267f 4bc0 1c8f 45c0 560b 44c0
00000220: e4c9 40c0 f36b 4dc0 d413 48c0 3f71 39c0
00000230: 1978 43c0 ad56 49c0 60fc cdbf fd1d ffbf
00000240: 499b 0dc0 1bac 46c0 896f 43c0 0529 02c0
00000250: 9541 46c0 edcc 4ec0 3833 41c0 6076 48c0
00000260: 5dd6 3dc0 578f 4dc0 8ae0 49c0 3034 3fc0
00000270: 9734 4ec0 d0e6 48c0 a3ba 49c0 bed4 3fc0
00000280: 5829 4bc0 5196 dcbf 0717 43bf 68da 42c0
00000290: ef68 4cc0 c7cf 43c0 1988 45c0 ace7 4ac0
000002a0: 6908 4bc0 cb3f 4ec0 6d71 49c0 02ef e2bf
000002b0: 3395 47c0 5843 4dc0 7409 42c0 fddd 3fc0
000002c0: a8d3 42c0 aab3 4cc0 de94 3fc0 012c 44c0
000002d0: b07f 4cc0 eded 48c0 b212 43c0 bfcb 43c0
000002e0: ee59 45c0 6843 45c0 575f 4cc0 79ce 45c0
000002f0: ec23 dbbf 98ea 4cc0 c873 4bc0 f268 44c0
00000300: 5d39 4dc0 d3b1 47c0 7a2b 47c0 4c61 4dc0
00000310: b5b7 02c0 6628 47c0 b305 4dc0 513b 43c0
00000320: 38e1 40c0 362c 43c0 2bef 49c0 747c 43c0
00000330: 7e83 48c0 6387 42c0 f440 d2bf 0862 11c0
00000340: 61bf 14c0 3c0a 41c0 e16b 40c0 39d1 05c0
00000350: c238 4bc0 a4d9 3ec0 3b3a 4cc0 bdb5 4cc0
00000360: 8ff7 45c0 6130 45c0 2e80 3ec0 078f 41c0
00000370: e602 45c0 be3b 44c0 61e2 3ec0 9aa9 46c0
00000380: 1f16 46c0 b9ae ecbf 1c91 44bf 7ea0 47c0
00000390: 33ca 47c0 f448 49c0 b451 40c0 e3be 42c0
000003a0: 7bea 44c0 1e08 41c0 a80a 4ac0 e789 e1bf
000003b0: eea8 49c0 de34 41c0 5545 47c0 c866 41c0
000003c0: a80e 46c0 aa55 43c0 5243 4bc0 fd71 42c0
000003d0: 3655 46c0 df92 41c0 8c8d 46c0 ac8d 45c0
000003e0: 4321 41c0 4a7f 4cc0 f1ed 44c0 8944 4ac0
000003f0: b5c5 e8bf 7c71 42c0 3557 48c0 7a09 4ac0

fc3.bias f4 [6]
-3.1445742 -3.051087 -3.1144128 -3.0345562 -2.936277 -2.9663265
00000000: b440 49c0 0245 43c0 8a52 47c0 2b36 42c0
00000010: f6eb 3bc0 4bd8 3dc0
