dqn_taxi_light14.pth (torch, 44878 bytes, 6 tensors)

fc1.weight f4 [128, 14]
00000000: 5045 17be f891 d23d 4a5d bf3c 6582 0bbe
00000010: 740e a63d 042e f23b dccd bf3d 9a0b c23f
00000020: d6b8 c33d c063 293d f1fc 7cbe 9612 e63d
00000030: 03a8 fa3e 5943 abbd 124b 983c 700a 353d
00000040: 44e0 3c3e eb72 813e bfb6 b33d 9f87 8cbc
00000050: d5ae a43f ca36 25be f372 f7bb 4271 d53c
00000060: d79d 02bd 8f8d 04bd bedc 193e 2bb1 173e
00000070: 33a4 d5bc e117 00bd c587 30bc b679 3c3d
00000080: c483 30bd 7d8d 83bd f180 693f 6882 533f
00000090: af07 543e 405f 3c3e 3094 613e eb25 a5bd
000000a0: ae69 fe3d c49b 57bd dc20 1abc a30a 873d
000000b0: f279 3dbe c296 db3d 6cd9 75bd 9348 0d3e
000000c0: 325d a0be db6b d83f fff4 463e a618 2abe
000000d0: d983 54bc 937c 883d 01ec 793e 2670 803d
000000e0: 9413 35bd 8ce6 3fbc 2fcd 15bd 939b 313d
000000f0: d773 db3c 74f4 dc3c 51a5 b1be fa82 c33f
00000100: 6e06 efbb 21e3 b13d 9648 4bbe 280e 06be
00000110: ffd8 9a3d 97b9 953d 9510 aebd e208 603e
00000120: 668a 8f3d 1850 c039 5e8f 36bc 405a e03c
00000130: a469 d4be 03cc c63f 5afd 18be a881 d3bd
00000140: 645a 913e 52d0 163e d160 d73e 7b1b 14bd
00000150: 2c97 d1bd ca53 27be a31a 4c3e d5fd 643d
00000160: 4e99 5c3e 0d73 33be 5281 7d3d 58b0 993f
00000170: 5c96 03bd 5d28 1abe 415b 14bd af0d 86be
00000180: 8db6 4d3e a254 49be e0b4 9cbc ae0b 3ebd
00000190: ecc7 1d3e 5605 e6bb 79f6 6abd 852c 31be
000001a0: 3e79 57be d689 c53f c83e b63d 7edf 9f3e
000001b0: 7b42 803d 6025 f8bd 5653 583e 7e0d 9fbd
000001c0: f1d3 0fbe 0a92 233e 30a2 28bd 20bb 1e3e
000001d0: f62f 58be d0eb a23c 0389 3a3f f697 3c3e
000001e0: 7924 1fbe 653d 0e3e fe78 94be 5bf1 613d
000001f0: 82b8 213e 4eea 92be 5f5e cfbd 51ea 00be
00000200: 57fe eb3c 363e 113e 9c8e 4ebd 7c36 13bd
00000210: 9ca0 193f 01f2 873f 65db 9c3e 6dda 893e
00000220: 2f15 513c 7d66 433a 1fcb 9f3e 378c fd3c
00000230: 411b 22bc bff9 333e 7c8f 893e c865 f83d
00000240: 26d6 9cbd 9bc8 113e c9ee ad3f d2d3 76bf
00000250: c348 473d fac0 c43e 673f 023e d675 a3bd
00000260: f380 f03e 1dd3 5dbe 9bd6 dabd 9c75 783e
00000270: fdee 863e f276 acbd 0cbb 563d ffe4 fb3c
00000280: b5e0 6d3f 7912 22bf e4ab d13e 192a 993d
00000290: 81c8 abbe 2efe 463e 13fe a53e 3e6e f03d
000002a0: 9099 2fbe 664d 87bd c6c2 643d dac6 2b3e
000002b0: 25aa 003e 1dbf b4be de30 543f 1405 ef3e
000002c0: 7dc8 693d 7c8c 103e cc83 59be 942c 2d3c
000002d0: 8b22 873e 77d0 6dbe 3419 3e3d 0962 9ebd
000002e0: b202 203e 749b 7e3e 0c36 983d 30ca 933e
000002f0: 5034 27bf 57e4 6c3f df79 453c e36b 233e
00000300: 9fd9 623d 55b4 37be befd 023e 82b7 ad3d
00000310: f252 02bd 8bca 123e ec31 3a3e c65b 783e
00000320: a4b7 4abd 64e6 c9bc 6430 f3be b6d3 c73f
00000330: 0cd0 9b3e c846 e13d b4e2 85bd 7914 4cbe
00000340: b2ad c03e a672 2ebe a43f 36bb 2fd8 783c
00000350: b6df 74bd 8d90 c83d 2645 973c 5aa9 61bc
00000360: c3cc a63f e10b d9bd 581b cf3d 90bb ea3b
00000370: 2d60 ca3d 232f 483e 0e60 793e f6da aebe
00000380: 6736 97bd 7e07 78be 8448 543c 48c2 b43c
00000390: 7fbb 26bd a58f 143e 1333 893f e956 103e
000003a0: 97d5 d73d 6959 10be 1318 68bb c99c 323e
000003b0: c17d d93e edda fb3d 3a44 50bd d46f 47be
000003c0: 514d 3bbe 060a 6a3e efe0 66be a106 18bd
000003d0: d743 883f 721e f33e 716b c93c d891 843e
000003e0: 1cde 0cbe 0785 fdbd b916 0d3d 87da 5a3e
000003f0: 705a 053d 7b7b 4abe e8b6 4a3e b51b 6d3e
-0.14772534 0.102817476 0.023359913 -0.1362396 0.081082255 0.0073907394 0.093654364 1.515979
0.09556739 0.041354895 -0.24705864 0.11234014 0.48956308 -0.08362455 0.018590484 0.044199407
0.18444926 0.25282988 0.087750904 -0.017154513 1.2865855 -0.16134182 -0.007551545 0.026054982
-0.03188881 -0.032361563 0.15025613 0.14813678 -0.026079273 -0.031272773 -0.0107745575 0.04601451
-0.04309441 -0.06423471 0.91212374 0.8262086 0.20706056 0.1839571 0.22029185 -0.08063873
0.124225006 -0.052638784 -0.009407248 0.06593826 -0.1850355 0.10722114 -0.060021803 0.13797216
-0.31321102 1.6907915 0.19429396 -0.16610965 -0.012970888 0.06664386 0.24406435 0.062713906
-0.044208124 -0.0117126815 -0.03657263 0.043361258 0.026788635 0.026972033 -0.3469644 1.5274346
-0.0072944677 0.086858995 -0.19851908 -0.13091338 0.0756092 0.07310789 -0.084992565 0.21878389
0.07008819 0.00036680768 -0.01114258 0.027386785 -0.41486847 1.553101 -0.14940396 -0.10327464
0.28389275 0.14727905 0.42066053 -0.03615902 -0.10233912 -0.16340557 0.19932036 0.055906136
0.21542856 -0.17524357 0.061890908 1.2006941 -0.032125816 -0.1505446 -0.03621984 -0.26182315
0.20089169 -0.19661191 -0.019129217 -0.046397857 0.15408295 -0.007019679 -0.05736396 -0.17302139
-0.21042344 1.5432689 0.08898693 0.31225199 0.0626268 -0.12116504 0.2112554 -0.07766245
-0.14045693 0.15973678 -0.0411703 0.1550107 -0.21112046 0.019887835 0.72865313 0.18417343
-0.15541257 0.13890608 -0.2899856 0.055161815 0.1579304 -0.28694385 -0.10125422 -0.12589385
0.028807802 0.14183888 -0.05042897 -0.035940632 0.60010695 1.0620729 0.30636135 0.26924458
0.012761398 0.00074539316 0.31209657 0.030950649 -0.009894193 0.1757574 0.26867282 0.12128788
-0.07658033 0.14236681 1.3588496 -0.9641696 0.048653375 0.3842848 0.12719499 -0.0798146
0.4697338 -0.21662565 -0.10685464 0.24263614 0.2635421 -0.084211245 0.052424476 0.030748842
0.92921 -0.6330944 0.40951455 0.074787326 -0.3355141 0.194329 0.32420406 0.11739777
-0.17148423 -0.066065595 0.055849813 0.16775075 0.12564905 -0.35302058 0.82887065 0.46683562
0.057075966 0.1411609 -0.21241683 0.01056971 0.26393542 -0.23224054 0.046410754 -0.077335425
0.15626028 0.24863988 0.074321836 0.28865194 -0.653142 0.9253592 0.012052982 0.15959124
0.05538332 -0.17939885 0.12792107 0.08482267 -0.031817384 0.14335077 0.18183106 0.24253759
-0.04949154 -0.024645992 -0.47497857 1.5611484 0.30432165 0.109998286 -0.06537381 -0.19929685
0.3763252 -0.17035922 -0.002780893 0.015188261 -0.05978366 0.09793196 0.01846559 -0.013773287
1.3031238 -0.10597969 0.10112637 0.0071634725 0.09881625 0.19549231 0.24353048 -0.3415143
-0.07383423 -0.24221608 0.012956742 0.022065297 -0.040706154 0.14507921 1.0718712 0.14095654
0.10538786 -0.14096607 -0.003541474 0.17442621 0.42478755 0.12297616 -0.050846316 -0.19476253
-0.18291213 0.22855386 -0.22546743 -0.037115697 1.0645703 0.47484165 0.024587365 0.2589252
-0.13756603 -0.123788886 0.0344455 0.21372424 0.03255695 -0.19773667 0.19796336 0.231551

fc1.bias f4 [128]
00000000: 6eef c83e 11bc 9b3e 4b44 1d3e f0c0 c93e
00000010: 2110 053e b7b1 973e 4b10 003f 2c09 7c3e
00000020: 4589 013f e4aa e73e 580a 833e b939 d23e
00000030: f489 b53e f9c7 7f3e 2184 853e a9be 353e
00000040: 6124 0d3f f397 c83e 89d1 553e 47a3 713e
00000050: 6f80 953e 7ed3 0d3f 3bf0 e83e b34f 853e
00000060: 147e c33e 477b 053f a9bc 203f c99e 223f
00000070: 8e73 a93e 1342 5a3d 1439 e93d 7465 6b3e
00000080: 7f2b 563e 9def f43e 7b08 423e 2d17 d23e
00000090: 3cb0 d33e 5d6b b13d ffe0 8c3e f6fb 313f
000000a0: d38a 683e 502b b53d df49 5f3e 68c1 e63e
000000b0: 1afb 193e 592f 013f df12 183f 7dc1 a53c
000000c0: 5e04 333e b3f9 b73e 51c6 953e 2ffc d13e
000000d0: ec15 f13e ced1 cebd 0a50 0b3f 4002 143f
000000e0: c752 d63e eb22 1f3e 60b6 133f d4ef 103f
000000f0: 5b97 153f 0089 b03e 71fa a03c de57 053e
00000100: 949b 993e 73f8 6c3e 20a1 2b3f 44e7 473e
00000110: 503a 223f 5a53 703e 9fbf 243e 6d0b 073f
00000120: 279d a73d face b43e bb97 e33e 0daa 7e3e
00000130: 2fc5 503e 6f6d 493e 65b3 ae3e 73e8 d03e
00000140: 427e cd3d 828b 8b3e b68b e73e fb6b 833e
00000150: d9da 5c3e aac7 ed3d b577 43be 6d36 963e
00000160: 912e e13e 33e3 6f3d 9427 393e 849b 2a3f
00000170: afbd cd3e de40 053f 1eaa 1f3e 182d af3e
00000180: 1aa3 d53d d9fc ab3d bbc1 183e 1311 103f
00000190: 350f b93e ee3b c13e f2f9 663e 4c90 f13e
000001a0: 1e47 883e c835 953e b142 223f 4aab ee3e
000001b0: 8ed0 0a3f 1ce8 f93e 3dd0 3a3e e3c2 1e3f
000001c0: 20c1 e83e c08e aa3e eed9 0c3f 2c8b 863e
000001d0: 2188 0f3f 1359 ea3e 051e 003f 4b17 253e
000001e0: bb05 873d 8c3b f13e fe19 123f 07c7 e83e
000001f0: 6285 c63d 3397 133d 150a 7a3e 3029 ec3e
0.3924517 0.3041692 0.15358083 0.39405012 0.12994434 0.29627773 0.5002486 0.24612874
0.5060008 0.45247567 0.2559383 0.41059664 0.35456812 0.24978627 0.2607737 0.17748512
0.55133635 0.39178428 0.20880713 0.23597442 0.2919955 0.55400836 0.4549578 0.26037368
0.38182127 0.5214123 0.6278787 0.63523537 0.33095974 0.05328567 0.1138784 0.2298792
0.2091503 0.4783906 0.18948548 0.41033307 0.41345394 0.08663056 0.27515408 0.69525087
0.22709207 0.08846152 0.21805523 0.45069432 0.15037194 0.5046287 0.59403795 0.020233864
0.17482135 0.35932693 0.29252866 0.41012713 0.47087038 -0.10098611 0.54419005 0.57815933
0.4186003 0.15540664 0.5770016 0.5661595 0.58434075 0.34479523 0.01965067 0.130218
0.3000151 0.23141651 0.6704273 0.19521815 0.6337023 0.23469296 0.16088723 0.5275181
0.08184271 0.3531416 0.444517 0.24869557 0.2038772 0.19670652 0.34121242 0.40802345
0.100338474 0.27254874 0.45223778 0.2566832 0.21567859 0.116103485 -0.19088633 0.293384
0.4398084 0.058566283 0.18081504 0.6664355 0.4018378 0.52052104 0.15592238 0.3421409
0.104315 0.08397836 0.14917652 0.56276053 0.36144415 0.37741035 0.22556284 0.47180402
0.26616758 0.29142594 0.63383013 0.46615058 0.5422448 0.48809898 0.18243499 0.62016124
0.45459843 0.33312035 0.55020034 0.26278055 0.5606709 0.45771083 0.50045806 0.16122167
0.0659289 0.47115743 0.5707091 0.45464346 0.096934095 0.036032867 0.24417908 0.46125174

fc2.weight f4 [64, 128]
00000000: f58b 893e 329d ddbd 114b 8f3e bcf7 b13e
00000010: e088 de3e 8032 be3e 63b9 b63e 92cb 003f
00000020: 5c72 123e c303 723e 2489 89be b374 4abe
00000030: 348f 123e fc91 543d c37e 393e cb46 5a3d
00000040: 80bf 0c3d 5161 8c3e ca35 d8bb 6ef8 9f3e
00000050: bb5e 0f3f 49f5 793e 7536 a83c 641b 9f3d
00000060: 9a0c e03e 0938 403e 2fee dc3c 95e6 babd
00000070: 187e 843e 0358 6cbd 9423 0d3e e0f2 073e
00000080: 39ce 953d 698f 293e 33c3 553e d7dc 0dbc
00000090: 975c 923e 90ac 1cbd 1d25 a33d 0183 89be
000000a0: 62d7 7d3e 7978 4b3e c460 bb3e 8de1 ab3e
000000b0: b5fa b33e 9576 7c3e 1f4f fc3d e653 cd3d
000000c0: 60a4 d23e afa1 1d3d edf8 2c3e cf37 113c
000000d0: 7134 973e 3ba5 37bd d50b a83d d2d9 fd3d
000000e0: 2f24 9f3e d040 a03e 2a1e 473e 54d6 7f3d
000000f0: 0188 ed3e 18fc b03e 29d0 403e 1236 943e
00000100: 292d eb3e 13aa 903e 6720 eb3d a2a0 a1bd
00000110: e932 993d 5435 ab3e 7f55 ef3d 0e5a b0bd
00000120: 701a cd3e 32f9 333e 0f14 d33e 32ed 3b3d
00000130: f5e1 c43d 1605 6e3e b254 533e 883d f0be
00000140: 82cc 7b3e 0606 b53e 5d4c 8e3e 2014 063d
00000150: 9c2c 403e da96 ae3e 3871 9d3d 6c73 ab3e
00000160: 7f80 4b3e 8e1e c23e d61a 91bd d03f b33e
00000170: 2b13 993e 0557 9f3c 9ae3 303e 9368 3e3e
00000180: b9ea 4f3e 001c c13d fb5c bc3e 4702 f8bd
00000190: 255e 143e db3f 813e da22 713c 148d 07be
000001a0: 7368 543e c68d 1e3e 1edc 9c3e 4faf 0f3c
000001b0: 89a2 7b3e 1cb0 683e 890f 943d 3c2a 793d
000001c0: d8ac 22bc c55b 293e ae2c 813e b15f 343e
000001d0: ac04 41bc 2dad 933d b5b5 c3bc a933 413e
000001e0: f305 873e 2b8f db3e acdc 173e 76ae 743e
000001f0: 0663 6d3e 3753 443d 7294 a63e 70c0 563d
00000200: ac41 e43d a1d6 b53d 6033 1e3e a4f3 433d
00000210: 8f4f 3bbd 211d f0bb 4e68 48bd fcf8 b0bc
00000220: 1036 723e 9b47 983d 3f69 853c 40d5 133d
00000230: 87b6 273e 08c0 c3bd 4ead ccbd d390 5a3e
00000240: 4747 023e 4bd9 b33e a40e 59bd 0631 a53e
00000250: 8426 88bc dc39 b03e 9f9b c23d e776 dbbd
00000260: b1fe 353e 224c 4d3e 1026 b63c 78f0 3f3e
00000270: 368a 073e 3b1c bc3d 12cc 7abd 5898 7bbd
00000280: be45 a2bc 3040 2f3e 886e 04bd 1d39 3a3d
00000290: ece9 f13d d18c 833b 1895 053e 4a9e 003f
000002a0: f127 7d3e 3bc8 053e 8a4a a03e d08d ad3e
000002b0: 5711 a23d 956d 533e 6c22 443e 90cb d13c
000002c0: 7a7b da3e 44c8 173f 3add 053e 3a6a 8e3e
000002d0: 77e3 4c3e 2f27 3c3c c98e 3a3e caf2 053e
000002e0: ac43 ebbc e789 5d3e 0444 403e 78b9 ebbb
000002f0: 44d4 1e3d c6a8 6b3e eaac 053e c677 0c3e
00000300: c263 183e 6edb 163e b484 a63e 905c 2ebc
00000310: 67e6 7b3e 74ef 4a3e 703c d93d 2e39 b43d
00000320: 0ed3 923d f16d 8f3d 8183 e43d 4988 ee3d
00000330: a11e c9bd ca67 453e 1f4c 593e 2042 973e
00000340: e455 5b3e 4873 e23d c4f6 cd3e 927e 803e
00000350: 5a90 313d a7ba 213e 3f11 91bb 2142 0d3e
00000360: 725a 943d a96e 8cbe 94bf 283d 4259 f53e
00000370: 2a5a 503e 0d97 c43d f4ff 7f3e 0918 323e
00000380: e053 79be fbd3 df3d 4f33 763e 8b38 9b3e
00000390: c11c 623e bc8d bf3e 59b1 cbbd e4e9 483b
000003a0: 4121 5a3d c480 3c3e 1b3f 643e 4ab7 b73d
000003b0: f4e7 ae3e 2be2 4a3e e95a 443e 4e8b 433c
000003c0: b1f7 213e a95f 0a3c 6b8c a03d 115a 163e
000003d0: c10c 123e c6e3 8f3e b851 0b3d f63b 9f3e
000003e0: 5cdb 203e 6a4b 053f 482c 173e d054 783e
000003f0: 1c59 69bd ffad 233e bb22 4b3e 11d8 033e
0.2686459 -0.10820998 0.2798696 0.3475932 0.43463802 0.37147903 0.35688314 0.50310624
0.14301437 0.23634247 -0.26862442 -0.1977108 0.1431244 0.051897034 0.18114762 0.05329017
0.034362316 0.27417997 -0.006598209 0.31244224 0.5600392 0.24409975 0.02053378 0.07768896
0.43759614 0.18771376 0.026969044 -0.09126011 0.25877452 -0.057701122 0.13783103 0.13276243
0.073147245 0.16558613 0.20875244 -0.008658609 0.28586265 -0.038250506 0.07966063 -0.2685776
0.24789193 0.19870175 0.36597264 0.3357052 0.35152212 0.2465461 0.12319779 0.10025768
0.41141033 0.03848427 0.16891833 0.008863403 0.29532197 -0.04483531 0.08205382 0.123950616
0.31082293 0.31299448 0.194451 0.06246026 0.46392825 0.34567332 0.18829407 0.28947502
0.45932892 0.28254756 0.1148079 -0.078919664 0.074804135 0.33439124 0.11686229 -0.086109266
0.40059233 0.17575529 0.4122624 0.045880504 0.096134104 0.23244128 0.20637777 -0.46921945
0.24589732 0.35356158 0.27792636 0.032734036 0.18767017 0.34099466 0.076876104 0.33486497
0.19873236 0.37913936 -0.07085197 0.35009623 0.29897436 0.019450674 0.17274323 0.1859458
0.20304383 0.09429169 0.36789688 -0.12109809 0.14489038 0.2524403 0.014717782 -0.13237411
0.20742969 0.1548377 0.30636686 0.008769824 0.24573721 0.2272343 0.072295256 0.060831293
-0.0099289045 0.16538914 0.252294 0.17614628 -0.011780899 0.07210765 -0.023890356 0.18867363
0.26371726 0.42882666 0.14830273 0.23894677 0.23182306 0.047930922 0.3253513 0.052429616
0.111453384 0.08878828 0.15449286 0.047839776 -0.04573017 -0.007327691 -0.048927598 -0.0216031
0.23653436 0.07435533 0.016285537 0.036092043 0.16378222 -0.095581114 -0.09993993 0.21344309
0.12722503 0.3512672 -0.052992478 0.32263964 -0.016619928 0.34419143 0.095023386 -0.10716038
0.17772938 0.20048574 0.022234946 0.18744075 0.13236317 0.09185072 -0.061229773 -0.061424583
-0.019808646 0.1711433 -0.032331973 0.045464624 0.11812195 0.0040145894 0.13045156 0.5024153
0.24722268 0.13064663 0.3130687 0.33897257 0.079134636 0.20647271 0.19153756 0.025609761
0.4267233 0.59289956 0.13072672 0.2781542 0.20008646 0.0114839515 0.1821853 0.13080898
-0.028718792 0.21634637 0.18775946 -0.0071937405 0.03877665 0.230136 0.13054243 0.13717565
0.14881805 0.14732143 0.3252312 -0.010642186 0.2459961 0.19817907 0.10607231 0.08799969
0.07169162 0.070033915 0.11157895 0.11647088 -0.09820295 0.19277874 0.21220444 0.29542637
0.21419483 0.110571444 0.4022733 0.25096565 0.043350555 0.15793858 -0.0044271047 0.13794757
0.072438136 -0.27428177 0.04119833 0.4791966 0.20346895 0.09599123 0.24999982 0.17391981
-0.24348402 0.10929104 0.2404301 0.30316576 0.22081281 0.37412822 -0.09945936 0.0030656988
0.05325437 0.18408495 0.22289698 0.089705065 0.3416134 0.19812839 0.19175304 0.011935068
0.15817143 0.008445659 0.078392826 0.14682795 0.14262678 0.28103465 0.03401348 0.31100434
0.15708679 0.520682 0.14762986 0.24251103 -0.056969747 0.15984343 0.19837467 0.12875392

fc2.bias f4 [64]
00000000: 8456 653e 7f15 813e accd ee3b 4630 3dbd
00000010: 780c 29bc f90e 263e 7111 d03d fca0 983d
00000020: 574b 1dbd a524 5e3e 9ad0 cabc 396c 143e
00000030: 0947 a13e 669d 593e 74aa 313e 0919 613e
00000040: 37d2 893e 65bc 223e 7a41 1f3e c0e3 8d3e
00000050: 1e1a 803e e8b4 003e a349 1b3d 52b1 693d
00000060: d0d5 b53e 1b80 223e aede 993d 3dbb eabd
00000070: 4580 e53d b06b 153c ca68 6a3d c6a9 7c3e
00000080: 2170 253e dffc e63d efa2 55bd ee95 a4bd
00000090: 9f64 c0bc d4fa f53c 390b 0c3d a7d4 323c
000000a0: 617c 6fbb de03 0f3b c982 483e a5e6 963e
000000b0: c772 7a3e 4e7c 933d c877 9ebd 81c7 edbc
000000c0: 13cf 113e a415 c0bb befa bd3e 2180 563e
000000d0: 0141 b7bd ad41 8f3e e1eb dd3d f093 b7bd
000000e0: 980b 853c 845e d4bd 68e0 f03c 5ede 06bd
000000f0: 2a86 443e 9870 813e de58 a73e 4ea8 203d
0.22396284 0.25211713 0.0072877016 -0.046188615 -0.010317914 0.16216649 0.10159577 0.0745258
-0.038401928 0.21693666 -0.024757672 0.14494409 0.31499508 0.21251449 0.17350179 0.21982206
0.26918194 0.1589218 0.15552321 0.27712822 0.25019926 0.1256901 0.037912022 0.05705387
0.35514688 0.15869181 0.07513176 -0.11461494 0.11206106 0.009119913 0.05722884 0.24674138
0.16156055 0.112787 -0.05215734 -0.08036409 -0.02348548 0.03002683 0.03419039 0.010914958
-0.0036542641 0.0021822373 0.1958114 0.29472843 0.24457847 0.072014436 -0.0773769 -0.029025795
0.14239149 -0.0058619548 0.37105364 0.20947315 -0.089479454 0.27979794 0.10836006 -0.08963764
0.01624088 -0.1036959 0.02940388 -0.03292691 0.19191805 0.25281215 0.32684988 0.039223008

fc3.weight f4 [6, 64]
00000000: e42f c7be 7333 01be b377 cbbc 22f7 69bc
00000010: 91a4 40bd 7902 8dbd 4104 adbe 2fd6 913d
00000020: fd2d ccbc 2c90 223e 5193 bdbb f521 eebd
00000030: 1f4b 2fbc 80e4 76be e018 6ebe 07b7 49be
00000040: 37a2 b9bd bccf 9cbe 597f fbbd 804f b7bc
00000050: f48f 15be f85a 68be 7142 253d fa85 c8bd
00000060: 33cd b23e 037b adbe 1946 92be e27d 2dbd
00000070: 5f7a 573e 6824 c9bd 7ee9 9c3e d8a3 7a3e
00000080: d786 a3be f6fa b2be ae0d 1a3d 80ac 903b
00000090: 992a cc3d 43af 8dbe b321 68bd 3c7c 68bd
000000a0: 60ce b73d fd68 d53d 060d e83d 0a75 1e3d
000000b0: f6e5 c5bd 4214 53be 3353 b83b f405 973c
000000c0: 896d 453f 63d6 c93b c526 873e 2d4c 98be
000000d0: a33d 94bd 7990 82bd 213c 93be 603d 6bbd
000000e0: 4b9a dfbe 6657 4c3d 0a21 f53d 3845 7e3d
000000f0: f1ec 8dbe 7a10 9fbe a0bf b1bc eaf1 e4bc
00000100: 353f df3b 8417 2cbe b72b 8f3d f89f b3bb
00000110: a024 42bd e29a abbe 4ebf dbbd 3517 8e3d
00000120: e302 8b3d 2ab3 3b3e 1437 f63d 2f6e a3be
00000130: ba7a 9ebe 286f 13bd 94fc d5bd 8d98 5dbc
00000140: f69b 07be ff8a 63be e7d2 90be 9213 47be
00000150: 4cc5 e0bd 0be3 17bc 1fc1 f13a 6027 e03c
00000160: 3c2d 16bf c9e9 4ebc 9745 37be 705c cd3c
00000170: 5717 52bc 6e63 a03d 48cf b4be d3b9 293e
00000180: 1f14 30be 05e4 dcbc 51a4 8a3c 9ad5 fe3d
00000190: d3b6 81bd 5122 da3c 7d39 883d 2e4b 6f3d
000001a0: d945 7bbb e79c c13d ef88 dfbe cbb1 47be
000001b0: f13c 85be 32a4 96be 25c2 00be e0aa 57bc
000001c0: 6681 8cbf 1d71 bf3d e368 0bbf 3d75 54be
000001d0: cd01 783d d86a 5ebe ced3 a5bc f9d2 f9bd
000001e0: 67d6 12bd e3a5 863d 910c f5bd 749c cbbd
000001f0: 4eb1 643d 04e0 153d 0dea a5be 9450 103d
00000200: 83d9 e4bc 266b 5ebe a0d2 533c 852a 463d
00000210: 2770 ddbb f59d 68be 96c2 9fbc 00cd 1f3b
00000220: 2967 8ebd 5949 703e 5c88 b2bd 49e1 13be
00000230: 70b5 7fbe b9c9 40be 5989 49be 8349 fbbc
00000240: de61 85bd aa44 8ebe f8b8 87be fa57 2bbe
00000250: aa94 39be 04dc 60be 71d3 30bc 2cb0 9ebd
00000260: c7d7 34bd e3ee 76be 6cd2 06be 4338 f43d
00000270: 6e35 073e e56a b93d ae5a 07bd eab7 123e
00000280: 2e09 f3bd 4eb6 20be d706 87bc 00f6 63bb
00000290: 86b3 d0bd 5a5c 52bd 727d 00be a525 f4bd
000002a0: 63c6 003d 0115 9bbd bd2a 9bbe f577 38be
000002b0: 1670 5cbe 0c2b dfbd 6ccc a5bd 8fe7 be3d
000002c0: a947 55be b1cd eb3c db87 9dbd d3d9 81be
000002d0: 842a cfbd f43d 53be e88c 5dbe 5569 d43d
000002e0: 136c b4bc 97b1 c3bd 662c be3d d4ca 783d
000002f0: 069c 29be 2748 d73b 4477 12be 652f 45bb
00000300: 8d24 3dbe 70af 1fbe bbe5 8dbd fbc0 473d
00000310: b96a b83d a217 9cbd f6f3 2cbe 3fa2 443d
00000320: 7527 17bd 099f f33d 2ae0 973d f99e fcbd
00000330: 9d2d 4ebe 48fd 39be d1e4 64bd 105c d9bd
00000340: 2fd2 98be 3b0d b2bd b3f1 a8be 367c 52be
00000350: 94ad 90be 864a 3b3d c5b7 e939 2e0e 9b3d
00000360: f94a e9be 1170 5cbd 478a 36be 1661 e4bd
00000370: 0eb7 15be 1dc6 4b3d 8e72 8a3d 77e9 043e
00000380: 2c04 37be 2693 8bbe 2a67 aabd 605d 163d
00000390: f015 38bd 7189 55be a003 8b3d f17c b63d
000003a0: 08e4 0d3d 1da7 813d f4e7 23be e650 bbbe
000003b0: 4198 08be b254 a5be e752 3abd b042 e53d
000003c0: 223c 5f3e 7e14 af3d 3aa5 00bf 472e 46be
000003d0: 9fc1 be3d 1bb8 d5bd 13c4 5dbe 46c4 993d
000003e0: 2f42 0abd 7b3e 043d aab4 fe3d 9a8e 723d
000003f0: 1d50 04be 96ca aebd 19ed 97bd 86fc f23d
-0.38903725 -0.12617283 -0.02483735 -0.014280112 -0.047031943 -0.06885237 -0.33792308 0.071209304
-0.024924273 0.1587531 -0.0057853837 -0.116275705 -0.010699063 -0.24110603 -0.23251677 -0.19698726
-0.09064143 -0.3062724 -0.12280149 -0.022376776 -0.14605695 -0.22690952 0.040346567 -0.09791179
0.3492218 -0.33882913 -0.28569105 -0.04235638 0.21042775 -0.09821397 0.3064689 0.24476564
-0.31938812 -0.34957093 0.037610702 0.004415095 0.09969062 -0.27672777 -0.056672763 -0.056759104
0.0897491 0.104204156 0.11330609 0.038685836 -0.09663002 -0.20613196 0.0056251525 0.018435456
0.7712026 0.00615959 0.26396766 -0.29745618 -0.07238319 -0.06375212 -0.28756812 -0.05743158
-0.43672404 0.049888037 0.11969192 0.06207773 -0.27719834 -0.31067258 -0.02169782 -0.027947385
0.006812955 -0.16805845 0.0699076 -0.0054817162 -0.04739821 -0.33516604 -0.10729848 0.0693802
0.0678766 0.18330064 0.12022224 -0.3192 -0.30953008 -0.03599468 -0.10448566 -0.0135251405
-0.13243088 -0.22220992 -0.28285906 -0.19441059 -0.109751314 -0.00927044 0.0018444395 0.027362525
-0.5866277 -0.012628981 -0.1789764 0.025068492 -0.012822947 0.07831465 -0.35314393 0.16574793
-0.17195176 -0.026964197 0.016924055 0.12443085 -0.06333699 0.026627691 0.0665159 0.058421306
-0.0038341193 0.09453755 -0.4365916 -0.19501416 -0.26023057 -0.29422146 -0.1257406 -0.013163298
-1.0976989 0.093477465 -0.5445692 -0.20747848 0.060548592 -0.21720445 -0.020242598 -0.12198443
-0.035849 0.06574609 -0.119652875 -0.099419504 0.055833153 0.03659059 -0.3240513 0.035233095
-0.027935749 -0.21720561 0.012928635 0.048380394 -0.0067577544 -0.22716506 -0.019501965 0.0024383664
-0.0695327 0.2346548 -0.08717415 -0.14441408 -0.24971557 -0.18826951 -0.196813 -0.030674702
-0.06512807 -0.27786762 -0.26508307 -0.16732779 -0.18123117 -0.2195893 -0.010792599 -0.07748446
-0.044151094 -0.24114566 -0.13166207 0.119247936 0.13203976 0.09053592 -0.033045463 0.1432797
-0.11866985 -0.15694544 -0.016482754 -0.0034784079 -0.101904914 -0.051357605 -0.12547854 -0.119212426
0.031439196 -0.075723656 -0.30306044 -0.1801451 -0.21527132 -0.108968824 -0.08095631 0.0932151
-0.20828117 0.028784605 -0.07691928 -0.253615 -0.10115531 -0.20629102 -0.21635783 0.10371653
-0.02202419 -0.09555357 0.09285812 0.060740307 -0.16563424 0.0065698805 -0.14303309 -0.0030088064
-0.18470974 -0.15594268 -0.06928583 0.048768025 0.09004731 -0.07621695 -0.16889939 0.048006292
-0.036902864 0.11895568 0.07415803 -0.12335009 -0.20134588 -0.18163025 -0.05588228 -0.10613263
-0.29847857 -0.0869393 -0.32996902 -0.20555195 -0.2825743 0.045725368 0.00044578142 0.07571064
-0.45565012 -0.053817812 -0.17826186 -0.1115133 -0.14620611 0.049749482 0.06760131 0.12979685
-0.17872685 -0.27260703 -0.08320458 0.036710143 -0.044942796 -0.20853211 0.06787801 0.089105494
0.034641296 0.063307025 -0.16006452 -0.36585158 -0.1333933 -0.3229118 -0.045489218 0.1119436
0.21800283 0.085488304 -0.50252116 -0.19353591 0.09314274 -0.10435506 -0.21656828 0.07508139
-0.033754524 0.03228615 0.12436803 0.059218027 -0.12921186 -0.08534734 -0.0741827 0.11864571

fc3.bias f4 [6]
00000000: f84e 083e aaee b2bd 6a70 02ba 59df 6fbe
00000010: 6448 2ebf df5c 3ebf
0.13311374 -0.08736928 -0.00049758574 -0.23425044 -0.6807921 -0.7436046
