dqn_taxi_light64.pth (torch, 43362 bytes, 6 tensors)

fc1.weight f4 [64, 16]
0	0x3ed14ce1	0.40878966
1	0x3e11f115	0.14252122
2	0x3e341f9e	0.17590186
3	0xbde49a71	-0.1116227
4	0xbd14aaee	-0.036295824
5	0x3f812cad	1.0091759
6	0x3f436be2	0.7633649
7	0xbe047f25	-0.12939127
8	0x3f5f0287	0.8711323
9	0x3f4ac169	0.7920137
10	0x3fced70d	1.6159378
11	0x3eee3d56	0.4653117
12	0x3e9f14d8	0.3107059
13	0x3faf803c	1.3711009
14	0xbdf71e3f	-0.12066316
15	0x3f3572d2	0.70878327
16	0x3b424a0f	0.0029646193
17	0xbe6159ed	-0.2200696
18	0xbdc7f562	-0.097636
19	0x3d35772b	0.0443031
20	0xbe0f2704	-0.13979727
21	0xbdca3f8b	-0.09875401
22	0xbe6ff4c2	-0.23433211
23	0xbd92a4e6	-0.07160358
24	0x3df29b88	0.118460715
25	0xbdaf0d9d	-0.085475184
26	0x3e482ae4	0.19547611
27	0xbdde3c56	-0.10851352
28	0xba5c76be	-0.0008410028
29	0xbe63065b	-0.22170393
30	0x3deb2756	0.11482112
31	0x3cabe47e	0.020982977
32	0x3d40a332	0.047030635
33	0xbc2a6bcd	-0.010401678
34	0x3c9320af	0.01795992
35	0xbdbe0055	-0.09277407
36	0x3e3e47ae	0.18582031
37	0xbd8f0797	-0.069838695
38	0xbd8f223a	-0.0698895
39	0x3dae2690	0.08503449
40	0x3c99f9fc	0.01879596
41	0xbda23c38	-0.07921642
42	0xbcf516cb	-0.029918095
43	0x3da5c2f1	0.08093823
44	0xbdca306d	-0.09872518
45	0x3e090306	0.1338006
46	0x3e042d6c	0.12907952
47	0xbdd49e63	-0.10381772
48	0x3ed25bbf	0.41085622
49	0x3edd9066	0.4327423
50	0x3e5827fc	0.21109003
51	0x3e286f26	0.1644865
52	0x3c77ed00	0.015132189
53	0x3f8f3171	1.1186963
54	0x3f981017	1.187991
55	0xbe3f207d	-0.18664737
56	0x3fa2a982	1.270798
57	0x3f798291	0.97464854
58	0x3fbafa80	1.4607697
59	0x3ee083c0	0.43850517
60	0x3f269319	0.65068203
61	0x3fb951c8	1.4478083
62	0x3dbcceed	0.092191555
63	0x3eebf01e	0.46081632
64	0xbdeac19e	-0.11462711
65	0xbe634ba5	-0.22196825
66	0xbe6d4796	-0.23171839
67	0x3e01e9dc	0.12686867
68	0xbcdbbd36	-0.026823621
69	0x3e3fa183	0.18713956
70	0x3da3a584	0.07990554
71	0xbe1ccb52	-0.15311936
72	0xbe75d5f1	-0.24007393
73	0xbe09d410	-0.13459802
74	0xbe2ceeb2	-0.1688793
75	0xbe3e35c8	-0.18575203
76	0xbacdb2c2	-0.0015693533
77	0xbe558755	-0.20852406
78	0xbdd41e2d	-0.10357318
79	0x3e00e21c	0.12586254
80	0xbd9ac6c4	-0.07557443
81	0x3e290825	0.16507013
82	0xbdd84ad9	-0.10561151
83	0x3e313809	0.17306532
84	0xbe62c973	-0.2214716
85	0xbd25b67f	-0.040457245
86	0x3d010a10	0.031503737
87	0x3e4d33d4	0.20039302
88	0xbe08fa4b	-0.13376729
89	0xbe6373e3	-0.22212176
90	0xbdc0445e	-0.0938804
91	0xbcb268f3	-0.02177856
92	0x3e630cc5	0.2217284
93	0xbdb3cf1d	-0.08779738
94	0xbdebb643	-0.11509373
95	0xbd2bf0b6	-0.041977607
96	0xbe2d177f	-0.16903494
97	0x3e4f9940	0.20273304
98	0x3e1f1fd5	0.15539487
99	0xbda36e5e	-0.07980035
100	0x3e033388	0.12812626
101	0xbe67b74a	-0.22628513
102	0xbd7ac8c7	-0.061226632
103	0x3e255518	0.16145742
104	0x3e14c091	0.14526583
105	0xbe45b605	-0.19307716
106	0xbe401736	-0.18758854
107	0xbe0e8d7a	-0.13921157
108	0xbe4e8053	-0.2016614
109	0xbcddfa4e	-0.027096894
110	0xbe2b16f0	-0.16707969
111	0xbd317baa	-0.043330826
112	0x3c14a770	0.009073123
113	0xbd789a2f	-0.060693916
114	0xbcab7460	-0.020929515
115	0x3d915fe7	0.0709837
116	0x3e189888	0.14901936
117	0x3c793955	0.015211423
118	0xbccb6d8c	-0.02483251
119	0xbd8013e1	-0.062537916
120	0x3ca17944	0.019711144
121	0xbda2d102	-0.07950021
122	0x3c27186f	0.0101986965
123	0x3e5745f6	0.21022782
124	0x3dd556e5	0.104169644
125	0xbe687f54	-0.22704822
126	0xbc8904f1	-0.016725989
127	0xbcf40748	-0.029788628
128	0x3dcb944c	0.09940395
129	0xbe2280b0	-0.15869403
130	0x3dd568f9	0.104204126
131	0xbd1fa361	-0.03897417
132	0x3e2fdfa8	0.17175162
133	0xbe070542	-0.131856
134	0xbe002eea	-0.12517896
135	0x3e1da184	0.15393645
136	0xbd629835	-0.055320937
137	0x3dc27876	0.09495632
138	0x3dce931c	0.10086653
139	0x3e13f5f7	0.14449297
140	0xbe0e0ad4	-0.13871318
141	0xbe5c1162	-0.21491006
142	0x3cd051ad	0.025429571
143	0xbe28a8e4	-0.16470677
144	0x3e5a9cb2	0.21348837
145	0x3f1896d9	0.59605175
146	0x3e29a2ad	0.16565962
147	0x3d4acd6c	0.04951231
148	0xbdb8b9e5	-0.090198316
149	0x3f7380e9	0.95118576
150	0x3f961cdc	1.1727557
151	0xbd11ced3	-0.035597634
152	0x3f56bf03	0.8388521
153	0x3f823c76	1.0174701
154	0x3faa6f51	1.3315221
155	0x3ef76437	0.48318645
156	0x3f4b0b0f	0.7931375
157	0x3fa87051	1.3159276
158	0x3eed4188	0.4633906
159	0x3f406af5	0.75163203
160	0x3dfbf856	0.12303226
161	0xbd475909	-0.048668895
162	0xbe479371	-0.19489838
163	0xbdc7cca0	-0.09755826
164	0xbe02c55a	-0.12770596
165	0xbe026b73	-0.12736301
166	0x3b3ad526	0.0028508394
167	0x3dcba9ea	0.09944518
168	0xbe770629	-0.24123444
169	0xbe067611	-0.13130976
170	0xbdd63cb1	-0.10460795
171	0x3e3da634	0.18520433
172	0xbe0f2087	-0.13977252
173	0x3d0bd550	0.034138978
174	0x3e703831	0.23458935
175	0x3e5a3747	0.21310149
176	0x3eed8f31	0.4639831
177	0x3eb42389	0.3518336
178	0x3dadfdc3	0.08495667
179	0x3e492559	0.19643153
180	0x3e2482f3	0.16065578
181	0x3f5f7329	0.87285095
182	0x3fa1173a	1.2585213
183	0x3e48f885	0.19626053
184	0x3f4e0e46	0.8049053
185	0x3fa1b448	1.2633142
186	0x3fabe540	1.3429337
187	0x3f1b87a5	0.6075385
188	0x3f255245	0.6457866
189	0x3f9414a1	1.1568795
190	0x3e98aba5	0.29818454
191	0x3f3d9281	0.7405167
192	0xbdabbf9c	-0.08386156
193	0x3e6c191b	0.23056452
194	0x3d354409	0.044254337
195	0x3da6d4ca	0.08146055
196	0x3e7148b4	0.2356289
197	0xbc996a26	-0.018727373
198	0xbe3fc320	-0.18726778
199	0x3d33d79c	0.043906793
200	0xbe45403b	-0.19262783
201	0x3b82533c	0.0039772075
202	0x3dc38ba5	0.095481195
203	0x3e311b31	0.17295529
204	0x3e1cffef	0.15332006
205	0xbdcbaa4c	-0.09944591
206	0xbd90cfa8	-0.07070857
207	0x3e6b4e81	0.22979166
208	0xbe545b9b	-0.2073807
209	0xbdfd9fb4	-0.123839766
210	0xbd44395d	-0.04790627
211	0xbb92d7e6	-0.0044813035
212	0x3de42b63	0.11141088
213	0x3da85f60	0.08221316
214	0xbd9b931a	-0.07596417
215	0xbd631d60	-0.055447936
216	0xbe5a4858	-0.2131666
217	0x3e2c9366	0.16853103
218	0xbd488a75	-0.048960168
219	0xbe232b6d	-0.15934534
220	0x3d9c9ac4	0.07646707
221	0xbe66f99e	-0.22556159
222	0xbd5db348	-0.054126054
223	0xbe310c0f	-0.17289756
224	0x3ee4261a	0.4456032
225	0x3e80ed52	0.2518106
226	0xbe1cb2f2	-0.15302637
227	0xbe440f9f	-0.19146584
228	0xbe3cbdcb	-0.18431775
229	0x3f9a30d3	1.204615
230	0x3f826a40	1.0188675
231	0x3dd906c5	0.10596994
232	0x3f7e6ade	0.99381816
233	0x3f93f51d	1.1559178
234	0x3fa9af59	1.3256637
235	0x3f1ce7f6	0.61291444
236	0x3f28c927	0.65931934
237	0x3fc2c3ea	1.5216038
238	0x3e8b1467	0.27164003
239	0x3f10f3f0	0.5662222
240	0x3e3339cb	0.17502515
241	0x3f1eac4a	0.6198164
242	0xbd8ab126	-0.0677207
243	0xbd96253e	-0.07331322
244	0xbe629775	-0.22128089
245	0x3f5f23e9	0.8716417
246	0x3f9afa12	1.2107565
247	0x3e52f6aa	0.20601907
248	0x3f8af87a	1.0857079
249	0x3f85ffdf	1.0468711
250	0x3fc26e18	1.5189848
251	0x3f503bf6	0.81341493
252	0x3f0b9c31	0.54535204
253	0x3fac659e	1.3468511
254	0xbbc1783d	-0.005904226
255	0x3ec3fe1c	0.38279808

fc1.bias f4 [64]
0	0x3fb6b311	1.4273397
1	0x3e0a3d2d	0.13499899
2	0x3d3bb7fb	0.045829754
3	0x3fc8d841	1.5690995
4	0x3da5afe9	0.08090193
5	0xbe45bbad	-0.19309874
6	0xbda966bf	-0.082715504
7	0xbe0860ad	-0.13318129
8	0x3ddb85ee	0.107189044
9	0x3fca85dc	1.5822101
10	0xbe1f29a2	-0.15543225
11	0x3fad5398	1.3541136
12	0xbe1a043f	-0.15040682
13	0x3e7032ef	0.2345693
14	0x3f9ae1f4	1.2100205
15	0x3fc5bb0f	1.5447711
16	0x3f956be7	1.1673554
17	0x3df7d64c	0.12101421
18	0x3fa94e33	1.322699
19	0x3f9f238d	1.2432724
20	0xbe417503	-0.18892293
21	0x3fb6090b	1.422151
22	0x3fc20b75	1.5159746
23	0x3da8e888	0.08247477
24	0x3f927e42	1.1444781
25	0x3fae602a	1.3623097
26	0x3fa68e53	1.3012184
27	0x3fbaba10	1.4588032
28	0x3fc57d52	1.542887
29	0x3fc475c3	1.5348438
30	0x3fa762bc	1.3077006
31	0xbdcd9870	-0.10038841
32	0xbd9f58ee	-0.07780634
33	0x3fc46721	1.5343972
34	0x3f95d388	1.1705179
35	0x3fc64527	1.5489854
36	0x3f9f108f	1.2426928
37	0xbe6a403a	-0.22876063
38	0x3cdb737a	0.026788462
39	0x3fb3fd81	1.4061738
40	0x3faa477c	1.3303065
41	0xbad6754e	-0.0016361864
42	0xbdd114bd	-0.10209034
43	0x3faa2c1c	1.3294711
44	0x3f92461f	1.1427649
45	0x3fc4cd9e	1.5375249
46	0x3d14fe62	0.03637541
47	0x3f992c3d	1.1966625
48	0x3fc4cf40	1.5375748
49	0xbd14e047	-0.0363467
50	0x3f9e23ba	1.2354653
51	0x3f92cfce	1.1469667
52	0x3fb3deec	1.4052405
53	0x3fa0c5ce	1.2560365
54	0x3fbc5328	1.4712877
55	0xbcab066c	-0.020877086
56	0xbc1a4503	-0.009415868
57	0x3f988c89	1.1917888
58	0xbd1c2418	-0.03812036
59	0x3fb64f1c	1.4242892
60	0x3fb8ccab	1.443746
61	0x3facca31	1.3499204
62	0x3f966e6a	1.1752446
63	0x3f925bc3	1.1434253

fc2.weight f4 [128, 64]
0	0x3d977be0	0.07396674
1	0x3d0433e5	0.032276053
2	0xbcdc41a8	-0.026886776
3	0x3d3cd970	0.046105802
4	0xbd806bf2	-0.06270589
5	0x3dd44ff7	0.103668146
6	0x3d0be814	0.034156874
7	0xbc2c4908	-0.010515459
8	0xbcde7be8	-0.027158692
9	0xbd9a7f1b	-0.07543775
10	0x3c3b14c0	0.011418521
11	0xbd5012ea	-0.050799288
12	0x3dc9b38f	0.09848701
13	0xbca15f1a	-0.019698668
14	0xbdf74de6	-0.12075405
15	0x3d75d3bc	0.06001638
16	0xbcf5f669	-0.030024724
17	0x3d70efb2	0.05882234
18	0x3d47f627	0.048818734
19	0x3b19895c	0.002342782
20	0xbc87c7c5	-0.01657475
21	0x3decd902	0.115648285
22	0x3cf6c584	0.03012348
23	0x3cd3cfdb	0.02585595
24	0xbd6d4c96	-0.057934366
25	0xbd674ce4	-0.056469813
26	0x3de10f0d	0.10989199
27	0x3dc5778a	0.09641941
28	0xbda0506a	-0.07827838
29	0xbd5569c7	-0.05210283
30	0xbd67f67a	-0.056631543
31	0x3b81e3ea	0.003963937
32	0xbdac2f7e	-0.08407496
33	0xbd50d975	-0.050988633
34	0x3d5de4f4	0.054173425
35	0xbdcb15fa	-0.09916301
36	0x3d6f41c4	0.05841233
37	0xbce0ecb3	-0.027456617
38	0x3d979fed	0.0740355
39	0x3da4d521	0.080484636
40	0xbd4adcd5	-0.049527008
41	0x3cf25b9a	0.029584695
42	0x3d616afd	0.055033673
43	0xbcc82c41	-0.024435164
44	0x3def872e	0.11695705
45	0x3c9117bc	0.017711513
46	0xbce7d6b4	-0.02830062
47	0x3d4d3ec1	0.050108675
48	0x3b5cd042	0.0033693467
49	0xbd9c3f8e	-0.076293096
50	0xbdc20e0b	-0.09475335
51	0xbcc92f21	-0.024558606
52	0xbd96db9a	-0.073661044
53	0xbca68e99	-0.020331668
54	0xbdc6ca36	-0.097065374
55	0xbd55389b	-0.052055936
56	0x3d27c927	0.04096332
57	0x3dead602	0.114666
58	0x3dc8d1d6	0.09805648
59	0x3dc696a3	0.096967004
60	0xbc8865f1	-0.016650172
61	0xbd0b2d1c	-0.033978567
62	0x3d431f5d	0.047637332
63	0xbdf11ec2	-0.11773445
64	0x3deefa68	0.11668855
65	0xbc88388b	-0.016628524
66	0x3d662b86	0.05619385
67	0xbdee9a22	-0.11650492
68	0x3d497f6d	0.04919379
69	0x3cd99527	0.02656038
70	0x3d46e07b	0.048553925
71	0xbdd87bd9	-0.10570497
72	0xbd083eff	-0.033263203
73	0xbd6fc9a3	-0.058541905
74	0xbdb1f8f8	-0.08690065
75	0x3c387159	0.011257493
76	0xbd987411	-0.07444013
77	0xbc996ad5	-0.0187277
78	0xbd2c971a	-0.04213629
79	0xbdaa750f	-0.083231084
80	0xbde81be2	-0.11333443
81	0xbd42e065	-0.04757728
82	0xbda688c8	-0.08131558
83	0xbb22ec02	-0.002485991
84	0x3c201987	0.009771711
85	0x3dc39689	0.09550197
86	0x3def97f5	0.116989054
87	0xbdd58e5f	-0.10427546
88	0xbde3c6ed	-0.111219265
89	0x3d382bfc	0.04496382
90	0x3daa5cd6	0.08318488
91	0xbdedc3c5	-0.11609606
92	0xbda95dd9	-0.08269853
93	0x3d87d4c7	0.06632381
94	0x3cfd0190	0.030884534
95	0xbd4b0175	-0.049561936
96	0xbdf56fc6	-0.1198421
97	0xbd3b0490	-0.045658648
98	0xbdf5905c	-0.11990425
99	0xbcc2c065	-0.023773381
100	0xbd83faf4	-0.0644435
101	0xbd2c8bb9	-0.042125437
102	0x3d74bfa5	0.05975308
103	0xbd169b9d	-0.0367695
104	0xbdea3ec2	-0.11437751
105	0xbdf93a07	-0.12169271
106	0x3c41fa00	0.01183939
107	0xbce8ad9c	-0.028403096
108	0x3dd273ec	0.102760166
109	0xbd1bcdef	-0.03803819
110	0x3d9f1da0	0.077693224
111	0x3d28030c	0.04101853
112	0xbc36cada	-0.011156762
113	0x3df606e5	0.12013034
114	0xbcf4b926	-0.029873442
115	0xbdd71a32	-0.10503043
116	0x3d2ae4c0	0.04172206
117	0xbd87ad82	-0.06624891
118	0x3d6fc2d0	0.058535397
119	0x3dc27dea	0.094966725
120	0x3ce48e57	0.027899904
121	0xbb72d916	-0.0037055663
122	0xbdd783d9	-0.10523195
123	0xbc3f2e74	-0.01166879
124	0xbc83aaf5	-0.01607273
125	0xbdcee1f8	-0.10101694
126	0x3dd57a8b	0.10423764
127	0x3b02fa50	0.0019985624
128	0x3d2afac7	0.041743066
129	0xbdf8823a	-0.12134214
130	0xbbde0c40	-0.0067763627
131	0xbde4d8e9	-0.11174185
132	0x3d1748a8	0.036934525
133	0x3d4c2a2a	0.0498449
134	0xbd4699a9	-0.048486385
135	0x3d72b082	0.059250362
136	0xbdc000f9	-0.093751855
137	0xbdd2158a	-0.102580145
138	0xbcae511e	-0.021278914
139	0xbcdee944	-0.02721084
140	0xbd5bfce0	-0.053707957
141	0x3dd72dd3	0.10506787
142	0x3d4d63f6	0.05014416
143	0xbcdfa659	-0.027301
144	0x3dab6f1c	0.08370802
145	0xbdef741c	-0.11692068
146	0xbd47d4fe	-0.04878711
147	0x3df08726	0.117445275
148	0xbd8b42f7	-0.06799882
149	0xbde01d7f	-0.10943126
150	0xbd741eba	-0.059599616
151	0x3db6be47	0.08923011
152	0x3d886758	0.06660336
153	0xbdbe1983	-0.0928221
154	0x3bd813ee	0.0065941727
155	0xbdfc80dd	-0.12329266
156	0xbdbd350a	-0.09238632
157	0xbd9f4961	-0.07777668
158	0x3b01254b	0.0019706066
159	0x3deefe28	0.1166957
160	0xbd920ec8	-0.071317255
161	0xbccd2cb2	-0.025045726
162	0xbda2fcac	-0.079583496
163	0x3d804f86	0.06265168
164	0x3dd812ea	0.105504826
165	0x3d1572d5	0.036486465
166	0xbdbe4a54	-0.09291521
167	0x3dd74d8c	0.10512838
168	0xbd9be58f	-0.07612144
169	0xbcf3789a	-0.029720593
170	0xbdb47127	-0.088106446
171	0xbdc7c217	-0.097538166
172	0x3da92355	0.08258692
173	0x3c884240	0.016633153
174	0x3bde75dc	0.0067889523
175	0xbd861b2e	-0.06548153
176	0x3d011c51	0.031521145
177	0xbdbb3dbc	-0.09142634
178	0x3dac27b9	0.08406014
179	0x3ddd4434	0.10804024
180	0x3c3aa72e	0.011392398
181	0x3d53fdd4	0.05175574
182	0xbd54bc54	-0.051937416
183	0x3d288ff0	0.041152894
184	0x3dacb457	0.084328346
185	0xbd236e87	-0.03990033
186	0xbda40e0b	-0.08010491
187	0xbb92c1aa	-0.004478653
188	0x3d0a8ba9	0.033824597
189	0xbb924696	-0.004463981
190	0x3d9bef6a	0.07614024
191	0xbd929679	-0.07157607
192	0x3f75a2db	0.9595162
193	0x3d531db2	0.05154199
194	0x3cb85904	0.022503383
195	0x3f5f0ca2	0.8712865
196	0xbc4b19f7	-0.012396327
197	0x3d29e04f	0.041473683
198	0xbbea77f4	-0.007155413
199	0xbd87691a	-0.066118434
200	0x3b62aedf	0.0034589095
201	0x3f8ea86f	1.1145152
202	0xbc3faddc	-0.011699166
203	0x3f758e1b	0.9591996
204	0xbdaabb65	-0.08336524
205	0x3dd9c8f7	0.10634034
206	0x3f85fbc1	1.0467454
207	0x3f7c8173	0.98635024
208	0x3f5a0a2f	0.8517179
209	0x3cf76265	0.030198285
210	0x3f6006b5	0.87510234
211	0x3f81a6e0	1.0129051
212	0xbd05693e	-0.03257107
213	0x3f7159f0	0.9427786
214	0x3f87ec65	1.0619017
215	0x3d85489d	0.065079905
216	0x3f68e7dc	0.9097879
217	0x3f7e449b	0.99323434
218	0x3f8990b0	1.074728
219	0x3f8a454e	1.08024
220	0x3f8d91fb	1.1060175
221	0x3f831999	1.0242187
222	0x3f84efc1	1.0385667
223	0x3d632478	0.0554547
224	0x3de1b9e3	0.11021783
225	0x3f598ffa	0.84985316
226	0x3f770f03	0.9650728
227	0x3f6de9e8	0.9293504
228	0x3f80b55f	1.005535
229	0x3c6567bb	0.014001782
230	0x3d335f3b	0.04379199
231	0x3f6c1a0d	0.9222725
232	0x3f89e3c2	1.0772631
233	0xbd66fc5f	-0.056393024
234	0x3d12ac2f	0.03580874
235	0x3f81e949	1.0149318
236	0x3f89d6ce	1.0768678
237	0x3f6e0f3b	0.9299199
238	0xbc10fbf0	-0.008849129
239	0x3f67b76c	0.90514255
240	0x3f660ab3	0.89860076
241	0xbde6167f	-0.112347595
242	0x3f8b03ac	1.0860496
243	0x3f805c9d	1.0028263
244	0x3f642772	0.8912269
245	0x3f5dd961	0.8665982
246	0x3f8b5e4e	1.0888155
247	0x3d9c3ec4	0.07629159
248	0xbdcadd26	-0.09905462
249	0x3f7f4e18	0.99728537
250	0x3bce2660	0.0062911958
251	0x3f77a558	0.9673667
252	0x3f60d419	0.87823635
253	0x3f83f649	1.0309535
254	0x3f87b9d5	1.0603586
255	0x3f88e060	1.0693474

fc2.bias f4 [128]
0	0xbd6aa6f7	-0.057288136
1	0x3df4e3f8	0.11957544
2	0xbd780a63	-0.06055678
3	0x3f8adb99	1.0848266
4	0x3f9f4cd2	1.2445319
5	0x3f82232c	1.0166984
6	0x3f984301	1.1895448
7	0xbd53aa6f	-0.05167621
8	0x3d829eb9	0.0637793
9	0x3f99f3dd	1.2027546
10	0xbdae3be5	-0.08507518
11	0xbde8db28	-0.11369926
12	0x3f968405	1.1759039
13	0x3f9d94be	1.2311018
14	0x3f967845	1.1755453
15	0x3f8c99bc	1.0984416
16	0x3f93e638	1.1554632
17	0xbd8de482	-0.0692835
18	0x3c6f9c55	0.014624675
19	0x3f877ce0	1.0584984
20	0x3f9b05b1	1.2111112
21	0x3b023417	0.0019867474
22	0x3f8b1875	1.0866839
23	0xbdc31e66	-0.095272824
24	0x3db5d3c4	0.08878282
25	0xbdc52f7b	-0.09628197
26	0x3f830487	1.0235757
27	0x3d26ee6f	0.04075473
28	0x3f854775	1.0412432
29	0x3f8afba9	1.085805
30	0xbda891dc	-0.082309455
31	0xbd0f80d9	-0.035034988
32	0x3cbc8f0e	0.023017433
33	0x3d6f2506	0.058384918
34	0x3fa00fab	1.2504781
35	0xbd0241ad	-0.031800915
36	0x3cd6a375	0.02620099
37	0xbdb53ca0	-0.08849454
38	0xbd3add38	-0.045621127
39	0xbdf60407	-0.12012487
40	0xbdc0df68	-0.09417611
41	0x3f8c8dd9	1.0980788
42	0xbdd3784c	-0.10325679
43	0x3f9e3d35	1.2362429
44	0x3f875854	1.0573831
45	0xbdde5166	-0.10855369
46	0x3f901d01	1.1258851
47	0x3f9eb360	1.2398491
48	0xbcc7071b	-0.02429538
49	0x3f994f01	1.1977235
50	0xbd0105ef	-0.0314998
51	0x3f8cffda	1.101558
52	0x3f97e57b	1.1866907
53	0x3cca0de8	0.024664834
54	0x3f95bb89	1.1697856
55	0x3f8a5509	1.0807201
56	0x3db5806b	0.088623844
57	0x3f8771c9	1.05816
58	0xbc208485	-0.00979722
59	0x3ddb1ef0	0.1069926
60	0x3f9fa075	1.2470843
61	0x3f871c9b	1.0555605
62	0xbdeb8e64	-0.11501768
63	0x3f84bee7	1.0370759
64	0x3f935f6a	1.1513493
65	0xbdb4e014	-0.08831802
66	0x3f91d6c4	1.1393666
67	0x3da19d5c	0.07891342
68	0xbd87cb12	-0.066305295
69	0x3ac135ac	0.0014740727
70	0x3f9074ce	1.1285646
71	0xbddddcd6	-0.10833137
72	0x3f990b14	1.1956506
73	0x3f9ae585	1.2101294
74	0x3f9dc603	1.2326053
75	0xbd39d83e	-0.04537224
76	0x3f8eb9e9	1.1150485
77	0x3dc17123	0.09445407
78	0x3d5cf1cc	0.053941533
79	0x3d71d3b8	0.0590398
80	0xbd7dd120	-0.061967015
81	0x3b4ba150	0.0031071492
82	0x3f913367	1.1343812
83	0xbd8c8e8a	-0.06863125
84	0xbd80c0e1	-0.06286789
85	0x3f98af92	1.192858
86	0xbd5fc16a	-0.054627813
87	0xbd592d21	-0.053021554
88	0xbdad34d3	-0.08457341
89	0xbd62cfd7	-0.055373993
90	0x3f8817bb	1.0632242
91	0x3fa24b8a	1.2679303
92	0x3d2a601d	0.041595567
93	0x3f969b1a	1.1766083
94	0x3d9cbe5c	0.07653496
95	0xbdc15e06	-0.09441762
96	0x3f8c0bd6	1.0941112
97	0x3f98fad5	1.1951548
98	0x3f921f6e	1.1415842
99	0xbd3a4086	-0.04547169
100	0x3f869257	1.0513409
101	0xbd9c9798	-0.07646102
102	0xbd96f6a3	-0.07371261
103	0xbd759963	-0.059960734
104	0x3f951762	1.1647761
105	0x3f9e0961	1.2346612
106	0x3f8e9886	1.1140296
107	0xbd879892	-0.06620897
108	0x3cbb6490	0.0228751
109	0x3f956001	1.1669923
110	0x3a3b9280	0.0007155314
111	0x3c50fbe5	0.012755369
112	0xbab3efd2	-0.0013728088
113	0x3f90f5e7	1.1325043
114	0x3d431e71	0.047636453
115	0x3f97016a	1.1797307
116	0x3fa1056a	1.2579777
117	0x3f91f051	1.1401464
118	0xbb5d241c	-0.0033743447
119	0x3f8a2f20	1.0795631
120	0x3cae8c69	0.021307187
121	0x3c816e98	0.015799806
122	0xbdc2a88f	-0.09504806
123	0x3d075b51	0.03304607
124	0xbe07a7f5	-0.13247664
125	0x3fa06295	1.2530085
126	0x3f984e3b	1.1898874
127	0x3f9e225e	1.2354238

fc3.weight f4 [6, 128]
0	0x3d462e35	0.04838391
1	0xbcb769ac	-0.022389255
2	0x3c7efcca	0.015563199
3	0xbef57a1c	-0.47944725
4	0xbf0ba268	-0.5454469
5	0xbf14ec32	-0.58172905
6	0xbf0239c0	-0.5086937
7	0x3d63cc64	0.055614844
8	0xbd8c3d09	-0.06847579
9	0xbefb91b8	-0.49134612
10	0xbd1d610a	-0.03842262
11	0xbd37861b	-0.044805627
12	0xbf1fb0e0	-0.62379265
13	0xbf0d4aa3	-0.5519201
14	0xbef81294	-0.48451674
15	0xbf0b14d5	-0.5432866
16	0xbf18a1c7	-0.5962185
17	0xbb872cc5	-0.00412521
18	0xbd1be7f6	-0.038063012
19	0xbf223638	-0.6336398
20	0xbf1ebb84	-0.62004876
21	0xbd5064fa	-0.05087755
22	0xbf1128a2	-0.56702626
23	0xbd475476	-0.048664533
24	0x3d073345	0.03300788
25	0x3d097d7f	0.033566948
26	0xbf19fd16	-0.60151803
27	0x3c6d5d9d	0.014487651
28	0xbf03336d	-0.51250345
29	0xbef5af2a	-0.47985202
30	0xba7dd0d5	-0.00096823025
31	0xbb97f261	-0.004637048
32	0xbd871898	-0.06596488
33	0xbca75054	-0.020424046
34	0xbf07def7	-0.5307459
35	0x3d5594cc	0.052143857
36	0x3d7617e7	0.06008139
37	0x3c28cc3f	0.010302602
38	0x3d796fac	0.060897514
39	0xbc53919b	-0.012913133
40	0xbd968f3b	-0.07351538
41	0xbf07b0ab	-0.5300395
42	0x3d8ebeb2	0.06969966
43	0xbefd59fa	-0.4948271
44	0xbf17fee7	-0.59373325
45	0x3cb342b9	0.021882402
46	0xbef5b4cd	-0.47989503
47	0xbf0b360a	-0.5437933
48	0xbd83ed30	-0.06441724
49	0xbf01ae0a	-0.5065619
50	0xbc6997ee	-0.014257414
51	0xbf08ba08	-0.5340886
52	0xbf058656	-0.52158105
53	0x3d200fc0	0.03907752
54	0xbf0d0307	-0.55082744
55	0xbf1f71dd	-0.62283117
56	0xba9af9a0	-0.0011823662
57	0xbf032ae4	-0.5123732
58	0x3d002201	0.03128243
59	0x3d8f7f57	0.0700671
60	0xbf100fdc	-0.562742
61	0xbf057316	-0.5212873
62	0xbd2b0279	-0.041750405
63	0xbf0f0ef0	-0.5588217
64	0xbf1f780d	-0.6229256
65	0x3c570d3f	0.013125717
66	0xbf0c60e8	-0.5483537
67	0x3cfc65e6	0.030810308
68	0xbcaa8750	-0.020816475
69	0xbd364f18	-0.044509023
70	0xbf0a5782	-0.54039776
71	0xbae36780	-0.0017349571
72	0xbf174c82	-0.59101117
73	0xbf016b41	-0.5055428
74	0xbf1b55b2	-0.60677636
75	0x3d6abc22	0.057308324
76	0xbf05639c	-0.52105117
77	0xbdabe79a	-0.08393784
78	0xbb6bd93b	-0.0035987634
79	0xbc5aec2d	-0.013361973
80	0xbcacd65c	-0.021098308
81	0xbc87cdd4	-0.016577639
82	0xbf1a6f69	-0.6032625
83	0x3d98ccce	0.074609384
84	0xbd1e2a64	-0.038614646
85	0xbf0bd96f	-0.5462865
86	0xbc6ebd64	-0.014571521
87	0x3d816ae9	0.063192196
88	0x3d8b7da5	0.06811074
89	0xbcd49179	-0.025948273
90	0xbf0dc873	-0.55383986
91	0xbf098d6f	-0.53731436
92	0x3c990455	0.018678823
93	0xbf018ed4	-0.50608563
94	0xbb6a52cc	-0.0035754917
95	0xbd47a631	-0.048742477
96	0xbf158533	-0.5840637
97	0xbf1bca48	-0.6085553
98	0xbef67e34	-0.4814316
99	0xbc465714	-0.012105722
100	0xbf231731	-0.6370726
101	0x3d5a75fd	0.05333518
102	0x3d2630ef	0.04057401
103	0xbd09767c	-0.03356026
104	0xbf043e7b	-0.5165784
105	0xbf16a3d8	-0.58843756
106	0xbf2338b0	-0.63758373
107	0xbd83fa28	-0.06444198
108	0xbca80246	-0.020508897
109	0xbf0db66d	-0.55356485
110	0xbd974ff2	-0.07388295
111	0x3d1f52b2	0.038897224
112	0xbd96e009	-0.0736695
113	0xbef62159	-0.48072317
114	0x3d451ab8	0.048121184
115	0xbf194927	-0.59877247
116	0xbf06daab	-0.5267741
117	0xbf218fcd	-0.6311005
118	0xbc6b9001	-0.014377595
119	0xbf28a38f	-0.6587457
120	0xbd4f1d24	-0.0505649
121	0x3bd5757c	0.0065142494
122	0x3d19e45a	0.03757129
123	0x3c4840f3	0.012222516
124	0x3c7a8153	0.015289622
125	0xbef9cdad	-0.4878973
126	0xbf25439b	-0.6455628
127	0xbf290f6c	-0.66039157
128	0xbb7eeecc	-0.0038899658
129	0xbb723e2c	-0.0036963327
130	0xbd7cacb8	-0.061688155
131	0xbf0735a9	-0.52816254
132	0xbf147716	-0.5799421
133	0xbf1e3c0d	-0.6181038
134	0xbf21dfa3	-0.6323187
135	0xbd650e84	-0.055922046
136	0xbd0d27ec	-0.0344619
137	0xbf09fa2f	-0.53897375
138	0xbd4df4a4	-0.050282136
139	0xbc7bebc1	-0.015376032
140	0xbf1653ce	-0.58721626
141	0xbf1a9750	-0.60387135
142	0xbf22957a	-0.63509333
143	0xbf143bf4	-0.5790398
144	0xbf0d47ba	-0.5518757
145	0xbd9a2caa	-0.0752805
146	0xbc3c79b5	-0.011503627
147	0xbf13e6f5	-0.5777429
148	0xbefdf957	-0.49604294
149	0x3d28e4e4	0.041233912
150	0xbef0e347	-0.470484
151	0x3d80bbb3	0.06285801
152	0x3c6965ab	0.014245431
153	0xbd62f155	-0.055405933
154	0xbf0cc908	-0.5499425
155	0x3d9e9af8	0.07744402
156	0xbf1e5d1f	-0.6186084
157	0xbf0591da	-0.52175677
158	0x3d6d02b7	0.057863917
159	0xbce6794a	-0.028134007
160	0x3d7c655a	0.061620094
161	0x3d8a0232	0.067387
162	0xbeefc1d8	-0.4682758
163	0x3d1196c7	0.035544183
164	0x3bfaa436	0.00764897
165	0xbc4fa8c7	-0.012674517
166	0xbda97b59	-0.0827548
167	0xbd528b46	-0.051402353
168	0x3d993dc7	0.07482486
169	0xbf1f80a2	-0.62305653
170	0xbd85d1a8	-0.065341294
171	0xbf1256d1	-0.5716372
172	0xbf226a21	-0.6344319
173	0x3d1d41ff	0.038393017
174	0xbf13de5d	-0.57761174
175	0xbf13e076	-0.57764375
176	0x3d4905b6	0.049077712
177	0xbf130e08	-0.57443285
178	0xbd89fd44	-0.0673776
179	0xbf1170d4	-0.5681279
180	0xbf080629	-0.531344
181	0xbc9bdc63	-0.019025987
182	0xbf0380f9	-0.5136867
183	0xbeece22d	-0.46266308
184	0x3d06770a	0.03282837
185	0xbf1d4220	-0.61429024
186	0x3d19266c	0.037390158
187	0xbbbdc92d	-0.0057918043
188	0xbf1c56d4	-0.6106999
189	0xbefe1a06	-0.4962923
190	0x3d37ad96	0.04484328
191	0xbf10e774	-0.5660317
192	0xbef9a103	-0.48755655
193	0x3d8e714c	0.069552034
194	0xbf1d9b5d	-0.6156519
195	0x3d87ea27	0.06636458
196	0x3ca24e94	0.01981286
197	0xbd99d6be	-0.07511662
198	0xbf0091d5	-0.5022252
199	0xbcb8b46b	-0.022546967
200	0xbf176322	-0.5913564
201	0xbf0e196e	-0.5550755
202	0xbeee3cb4	-0.46530688
203	0x3c39a9b3	0.011331963
204	0xbf04fea9	-0.5195108
205	0xbda1da02	-0.0790291
206	0x3cb8d2bf	0.022561429
207	0x3ccd8acc	0.025090598
208	0xbd3930f1	-0.04521269
209	0xbc98e325	-0.018662998
210	0xbf003a9c	-0.5008943
211	0x3d38f758	0.04515776
212	0x3da888cd	0.08229218
213	0xbf1c9f62	-0.611807
214	0x3d6d05c0	0.05786681
215	0x3cf2ab34	0.029622652
216	0xbce637cc	-0.028102778
217	0xbd877151	-0.0661341
218	0xbf089b77	-0.5336222
219	0xbf0c4927	-0.5479912
220	0xbd73981b	-0.05947123
221	0xbf220ec6	-0.6330379
222	0xbd477efe	-0.048705094
223	0xbd8a1f8c	-0.06744298
224	0xbef4ae7b	-0.47789368
225	0xbf1605af	-0.5860242
226	0xbf0f2b43	-0.5592539
227	0x3d9ffa3a	0.07811399
228	0xbf19c4d8	-0.60065985
229	0xbd7815c1	-0.06056762
230	0xbb8e829f	-0.0043490673
231	0xbd864f95	-0.06558148
232	0xbf07f52d	-0.53108484
233	0xbf07e898	-0.53089285
234	0xbf0c2aaf	-0.5475263
235	0x3b1a0c9a	0.0023506046
236	0x3c361037	0.011112264
237	0xbf0c15fd	-0.5472105
238	0x3d4f269e	0.050573938
239	0x3d3a5b53	0.04549725
240	0xbce799b1	-0.028271528
241	0xbf1fc1d7	-0.6240515
242	0xbd4366f9	-0.047705624
243	0xbf1ece1c	-0.6203325
244	0xbef9a630	-0.48759604
245	0xbef4c9f0	-0.47810316
246	0x3d21409a	0.03936825
247	0xbf031b61	-0.5121365
248	0xbc939002	-0.018013004
249	0x3d237d6f	0.039914545
250	0xbd3e7bba	-0.046504714
251	0x3cdb889f	0.026798544
252	0xbdb1b4a5	-0.08677033
253	0xbf07328a	-0.5281149
254	0xbf1947cf	-0.59875196
255	0xbf186d95	-0.5954221

fc3.bias f4 [6]
0	0xbedc38b5	-0.43012014
1	0xbf19a267	-0.6001343
2	0xbed62fe6	-0.4183342
3	0xbf0eee23	-0.5583212
4	0xbeccc2e8	-0.39992452
5	0xbedb40c7	-0.4282286
