dqn_taxi_light_real.pth (torch, 45952 bytes, 6 tensors)

fc1.weight f4 [128, 16]
0	0xbe686476	-0.22694573
1	0xbb91df00	-0.0044516325
2	0x3e04eb06	0.1298028
3	0xbe5c618c	-0.21521586
4	0xbde9bb34	-0.11412659
5	0xbe580082	-0.21093944
6	0xbe1f690e	-0.15567419
7	0xbd4bd138	-0.049760073
8	0xbcb23740	-0.02175486
9	0x3d18a928	0.037270695
10	0xbe6b6588	-0.2298795
11	0x3d957edc	0.07299587
12	0x3c6a6600	0.014306545
13	0x3d405ae8	0.046961695
14	0xbe654d3a	-0.22392741
15	0x3d792ac0	0.060831785
16	0x3e196de3	0.14983325
17	0x3df5c188	0.11999804
18	0xbe65d582	-0.22444728
19	0xbe16c65e	-0.14724109
20	0xbdbe4d68	-0.09292108
21	0xbe376abc	-0.1791181
22	0x3e733bac	0.23753232
23	0xbe035ca2	-0.12828305
24	0x3e7d36fa	0.24728003
25	0x3d3714d6	0.044697605
26	0x3df4918f	0.119418256
27	0x3e42bb24	0.19016701
28	0xbcdeed23	-0.027212685
29	0x3e5f7787	0.2182294
30	0x3e865805	0.2623903
31	0x3e4e8c10	0.20170617
32	0x3e271c10	0.16319299
33	0xbd242669	-0.040075693
34	0x3e153e9c	0.14574665
35	0xbded1540	-0.11576319
36	0x3e43731c	0.1908688
37	0x3c8ed564	0.017435737
38	0x3e6a614f	0.22888683
39	0xbdeed8e4	-0.11662462
40	0xbe226491	-0.15858676
41	0x3e879a51	0.26484922
42	0xbdc1f236	-0.09470026
43	0xbd7bd7dd	-0.06148516
44	0xbdbe2ec1	-0.09286261
45	0xbe1bc7cc	-0.15212935
46	0xbe49c544	-0.19704157
47	0xbe12c860	-0.1433425
48	0xbe73cd70	-0.23808837
49	0xbdeee15c	-0.11664078
50	0x3df1309c	0.1177685
51	0xbd51bcc8	-0.051205426
52	0x3cceece0	0.025259435
53	0xbdb66658	-0.08906239
54	0xbcca4a10	-0.024693519
55	0xbe28e3ea	-0.16493192
56	0xbde9201c	-0.113830775
57	0xbe74369a	-0.23848954
58	0x3df034ac	0.11728796
59	0x3c813b70	0.015775412
60	0x3e331f66	0.17492446
61	0x3da427f0	0.0801543
62	0x3e334566	0.17506942
63	0x3e65ead8	0.22452867
64	0xbe46b368	-0.19404376
65	0xbe0afa72	-0.135721
66	0x3e6ad3ac	0.22932309
67	0x3dcdd954	0.10051218
68	0xbe15f628	-0.14644682
69	0xbcf5f380	-0.030023336
70	0xbd4e68e8	-0.050393015
71	0x3dd47690	0.103741765
72	0xbdc1dd2c	-0.09466013
73	0xbdd7ad68	-0.105311215
74	0xbe0cbe86	-0.13744554
75	0xbd3bd438	-0.045856684
76	0xbe024508	-0.12721646
77	0x3e2cfb7c	0.16892809
78	0xbdf26a54	-0.11836687
79	0xbe429daa	-0.19005457
80	0x3e1f1596	0.15535578
81	0x3d40d679	0.047079537
82	0xbe1667d8	-0.14688051
83	0xbe384070	-0.17993331
84	0xbe6eabde	-0.2330775
85	0x3e58163e	0.21102235
86	0x3e965dd3	0.29368457
87	0xbe4d5a00	-0.20053864
88	0xbe02c8d4	-0.12771922
89	0xbccbe5e5	-0.024889896
90	0xbdf4aff1	-0.11947621
91	0xbdb4f6d9	-0.08836145
92	0x3daf7077	0.08566373
93	0xbd93a348	-0.07208878
94	0xbcead6b2	-0.028666828
95	0x3d51430f	0.051089343
96	0x3e3e1f7d	0.185667
97	0x3e81c9f9	0.25349405
98	0xbdee7e44	-0.11645177
99	0x3e1a56bc	0.15072149
100	0x3d3446e0	0.044012904
101	0x3daf29a0	0.08552861
102	0x3d5f0138	0.05444452
103	0x3de1a674	0.110180765
104	0x3e8555a4	0.260419
105	0x3e6428a5	0.2228113
106	0x3e5a9ee7	0.21349679
107	0x3dfc10cb	0.123078905
108	0xbe45fb9e	-0.19334266
109	0x3e56bd27	0.20970593
110	0x3deae4c5	0.114694156
111	0x3db9d915	0.09074608
112	0x3e8b4e42	0.27208143
113	0x3db428b0	0.08796823
114	0xbbdd7b80	-0.006759107
115	0xbd2a6160	-0.04159677
116	0x3e55f644	0.20894724
117	0x3e947d07	0.29001638
118	0x3e5ea543	0.2174273
119	0x3dacd31c	0.084387034
120	0x3e5c5603	0.21517186
121	0x3d012763	0.031531703
122	0x3cce0436	0.025148492
123	0xbd8e8871	-0.06959618
124	0x3e599977	0.21249948
125	0xbd8b3238	-0.06796688
126	0xbe47280e	-0.19448873
127	0xbe5dd4d3	-0.21663217
128	0xbe276822	-0.16348317
129	0x3d816534	0.06318131
130	0xbe5bed2c	-0.21477193
131	0xbd9c4ab0	-0.07631433
132	0x3d9aec60	0.07564616
133	0xbe1fb5f0	-0.15596747
134	0x3e7dda16	0.24790224
135	0x3d6e97d8	0.05825028
136	0xbe537ca6	-0.20653018
137	0xbd0ffb38	-0.03515169
138	0x3e72d20c	0.23712939
139	0x3d16be60	0.03680265
140	0xbdac2234	-0.08404961
141	0x3dd10b00	0.10207176
142	0x3e24dbac	0.16099423
143	0x3cc78d80	0.024359465
144	0x3e7b0c1b	0.24516337
145	0xbe2a0c3c	-0.1660623
146	0xbe1fb060	-0.15594625
147	0xbdf08688	-0.1174441
148	0x3e49a612	0.19692257
149	0xbe5d8d37	-0.216359
150	0xbd42077e	-0.047370426
151	0x3e794d74	0.24345952
152	0x3c9bd556	0.019022625
153	0x3cfc1ee0	0.030776441
154	0x3dee4a71	0.11635292
155	0xbe37e0ec	-0.17956895
156	0x3e06fbfc	0.13182062
157	0x3d2412c9	0.040056977
158	0xbe13a078	-0.14416683
159	0xbe045f72	-0.12927034
160	0xbe103cfe	-0.14085767
161	0xbc06c9c0	-0.008226812
162	0xbe5761e8	-0.21033442
163	0xbd842b98	-0.06453627
164	0x3d0f1800	0.034934998
165	0xbe1972ea	-0.14985242
166	0xbdf39bbc	-0.11894938
167	0x3e76a8c6	0.2408782
168	0x3dba885c	0.0910804
169	0x3d9541fc	0.07287976
170	0xbd936084	-0.07196143
171	0xbe02c532	-0.12770537
172	0x3de20150	0.110354066
173	0x3e593cf0	0.21214652
174	0xbe5f4bf6	-0.2180632
175	0x3dfc2f18	0.1231367
176	0x3db8bf0e	0.09020816
177	0x3dd1dd52	0.102472916
178	0xbdc9b644	-0.098492175
179	0x3e1a4f26	0.15069255
180	0x3c428d20	0.011874467
181	0xbe1cde52	-0.15319183
182	0x3d3bf3f4	0.04588695
183	0x3ded4d68	0.1158703
184	0x3e8a24cb	0.26981196
185	0x3dc5bf77	0.0965566
186	0xbe41ab34	-0.18912965
187	0xbd799a3e	-0.060938112
188	0xbce0f673	-0.027461266
189	0x3e1cbbcb	0.15306012
190	0x3bb7eebe	0.005613177
191	0x3e5c1b86	0.21494874
192	0x3d7bc298	0.061464876
193	0xbe6f1826	-0.23349056
194	0xbd38ecd0	-0.045147717
195	0x3d87328c	0.06601438
196	0x3d8d4438	0.06897777
197	0xbe4130b8	-0.18866241
198	0x3e57f6a2	0.21090177
199	0x3d658638	0.056036204
200	0xbd8ee3f8	-0.06977075
201	0xbdd17ad4	-0.10228506
202	0xbc954ee0	-0.018226087
203	0x3e4521fc	0.19251245
204	0xbdea33b8	-0.11435646
205	0x3e3a54ae	0.18196365
206	0xbdfa5028	-0.1222232
207	0xbe4e664c	-0.2015621
208	0x3e88b841	0.26703075
209	0xbdbe80ed	-0.093019344
210	0xbda6ce80	-0.081448555
211	0x3d3f6cf8	0.04673478
212	0xbdc42fb0	-0.09579408
213	0x3e3e0a84	0.18558699
214	0x3e921478	0.2853124
215	0xbe43b37a	-0.19111434
216	0x3daf1775	0.08549396
217	0xbe105dc8	-0.14098275
218	0xbe1970ca	-0.14984432
219	0x3e72e431	0.2371986
220	0x3acf9239	0.0015836424
221	0xbd8dac31	-0.069176085
222	0xbdd3b606	-0.103374526
223	0x3e852732	0.26006466
224	0x3d13f0b0	0.03611821
225	0x3e576260	0.21033621
226	0x3ddb9458	0.10721654
227	0x3e27846c	0.16359109
228	0xbde803f8	-0.11328882
229	0x3e5ee555	0.2176717
230	0xbd83ed04	-0.064416915
231	0x3d987828	0.07444793
232	0x3e3e212b	0.1856734
233	0x3ea5189b	0.32245335
234	0xbe18ee02	-0.14934543
235	0xbe078736	-0.13235173
236	0x3dda5438	0.10660595
237	0x3e5c5e45	0.21520336
238	0x3d404c2b	0.04694764
239	0x3e71477a	0.23562422
240	0x3d956050	0.07293761
241	0xbde6b890	-0.11265671
242	0x3d055ca8	0.032559067
243	0xbcc85020	-0.02445227
244	0x3dc60a1c	0.09669897
245	0x3e5674a7	0.20942937
246	0xbd1eb5a3	-0.03874744
247	0x3d374480	0.04474306
248	0x3e29dfd9	0.16589297
249	0x3e2d3765	0.16915663
250	0x3e2b82df	0.16749142
251	0x3ad34858	0.0016119583
252	0xbe22eb70	-0.15910125
253	0x3e5802fa	0.21094885
254	0x3b8b8eda	0.0042589726
255	0x3e61d9f7	0.22055803

fc1.bias f4 [128]
0	0x3920c000	0.00015330315
1	0xbdf7e166	-0.12103538
2	0x3dc03bac	0.093863815
3	0x3d90f130	0.07077253
4	0xbe5cd344	-0.21564966
5	0x3e1d004b	0.15332143
6	0x3e2e652e	0.17030784
7	0x3e82c4c3	0.25540742
8	0xbe17b010	-0.14813256
9	0xbe315d4f	-0.1732075
10	0xbe64dae0	-0.22349119
11	0x3dda71bb	0.106662236
12	0xbe301d98	-0.17198789
13	0x3e886191	0.26636937
14	0x3d44b679	0.048025582
15	0x3e95ace4	0.29233468
16	0xbca9a22d	-0.020707214
17	0x3dcf9fc4	0.10137895
18	0x3e79644f	0.24354671
19	0x3e3e82d4	0.18604594
20	0xbd8b3aa0	-0.06798291
21	0x3dcf0fe2	0.10110451
22	0x3e0b625a	0.13611737
23	0xbddd5c90	-0.108086705
24	0x3c951edf	0.018203197
25	0x3e3c5086	0.18390092
26	0x3d56dd50	0.052457154
27	0x3d8a63ea	0.06757338
28	0x3e7b8fc0	0.24566555
29	0x3daa29a2	0.08308722
30	0x3e86cebf	0.2632961
31	0x3e67e4e6	0.22645912
32	0x3e81a6f5	0.2532269
33	0x3e682579	0.22670545
34	0x3e1634aa	0.14668527
35	0xbd3badb9	-0.04581997
36	0x3e0de537	0.1385697
37	0x3da463e0	0.08026862
38	0x3df1a39e	0.117987856
39	0x3e1a9ab1	0.15098073
40	0xbe081be3	-0.13291888
41	0xbd77cd09	-0.06049827
42	0xbe62d516	-0.22151598
43	0xbc245377	-0.010029665
44	0x3e755bf0	0.23960853
45	0xbde766f0	-0.11298931
46	0x3c14e4fd	0.009087798
47	0x3ea267c1	0.31719783
48	0xbe045c86	-0.1292592
49	0x3ea4aaab	0.3216146
50	0x3e4b6f44	0.19866663
51	0xbe3ef5a2	-0.18648389
52	0x3e564675	0.20925315
53	0x3dce0431	0.10059393
54	0x3e3b7c4a	0.18309131
55	0xbdc6d356	-0.09708278
56	0xbe405b10	-0.18784738
57	0xbdc6ea54	-0.09712663
58	0xbe47e3d4	-0.19520503
59	0x3ea2b299	0.31776884
60	0x3de03a20	0.109485865
61	0xbd4a9908	-0.04946235
62	0xbd7cf730	-0.061759174
63	0xbe15edc3	-0.1464148
64	0x3e87a682	0.26494223
65	0xbd78e3dc	-0.06076418
66	0xbd30c4e5	-0.043156523
67	0xbdaa4fb1	-0.08315981
68	0x3d2d8337	0.042361464
69	0xbe525074	-0.20538503
70	0x3e592bba	0.21208087
71	0x3e524726	0.20534953
72	0x3e9f47d0	0.31109476
73	0x3e9badcf	0.30406043
74	0x3d84f92d	0.06492839
75	0x3cfdf099	0.030998515
76	0xbe183728	-0.1486479
77	0xbd92497a	-0.07142921
78	0xbd9096a6	-0.07059984
79	0x3d82a680	0.063794136
80	0xbe1cafd9	-0.15301456
81	0x3c5ce68d	0.013482702
82	0x3e0957b7	0.13412367
83	0x3e37cdc3	0.17949586
84	0xbde266f4	-0.11054793
85	0xbcdde46b	-0.027086457
86	0xbda88431	-0.082283385
87	0x3e9d184a	0.30682594
88	0xbdc78a6b	-0.09743198
89	0x3d0138b8	0.03154823
90	0x3e9a3d4c	0.3012489
91	0x3d861af6	0.06548111
92	0x3c9eb906	0.019375335
93	0x3e799f2e	0.24377128
94	0xbcc40570	-0.023928374
95	0x3e61324a	0.2199184
96	0xbd9be3dd	-0.07611821
97	0xbdb6c9b6	-0.08925192
98	0x3e07c4bd	0.13258643
99	0x3decdf94	0.11566082
100	0xbd7435a8	-0.059621483
101	0x3e817651	0.2528558
102	0xbd88132c	-0.06644282
103	0x3db289ee	0.08717714
104	0xbd803ae8	-0.062612355
105	0xbbf51b80	-0.007480085
106	0xbd704748	-0.05866173
107	0xbd09b5e6	-0.033620737
108	0x3d9496d1	0.072553284
109	0x3d9ef28d	0.07761107
110	0x3ea4232f	0.32058093
111	0x39bea400	0.00036361814
112	0x3dd78af8	0.10524553
113	0x3e6c8ef7	0.23101412
114	0xbcb3625c	-0.021897487
115	0x3d908bf0	0.07057941
116	0x3e06a352	0.1314824
117	0xbdb9d514	-0.090738446
118	0x3e0984db	0.13429587
119	0xbe61bcac	-0.22044629
120	0x3e482afc	0.19547647
121	0x3e5f0bf4	0.21781904
122	0x3d471b94	0.048610285
123	0x3e6c11bb	0.23053639
124	0xbde900ee	-0.113771304
125	0xbe5a8de2	-0.21343186
126	0x3e7212f2	0.2364004
127	0x3c16b607	0.009198672

fc2.weight f4 [64, 128]
0	0xb9877e6a	-0.00025843392
1	0x3db852e7	0.09000187
2	0x3d495d9d	0.049161542
3	0x3d7d3524	0.061818257
4	0x3cebd368	0.02878733
5	0x3d969c8e	0.07354079
6	0x3dda62c6	0.10663371
7	0x3d93ab7f	0.07210445
8	0xbdb29067	-0.08718949
9	0xbdaa3f38	-0.08312839
10	0xbc1b7650	-0.009488657
11	0x3d53432e	0.05157774
12	0xbbeedf09	-0.0072897715
13	0x3d213cda	0.039364673
14	0x3e162efa	0.14666358
15	0x3da376f6	0.079816744
16	0x3d0a85aa	0.03381888
17	0xbd2d8b9b	-0.042369466
18	0x3db31ffb	0.08746334
19	0xbcc6e6a1	-0.024279894
20	0x3df95646	0.121746585
21	0x3be9e45e	0.007137819
22	0x3e0bd0ff	0.13653944
23	0xbd4efd25	-0.050534386
24	0x3dcbf107	0.09958082
25	0x3ccc9733	0.024974441
26	0xbc2efea4	-0.010680828
27	0x3cac8bb3	0.021062708
28	0x3c8e30b5	0.01735721
29	0xbc052820	-0.008127242
30	0x3d515d17	0.051114168
31	0x3d041332	0.03224487
32	0x3d615436	0.05501195
33	0x3d8e8efc	0.06960866
34	0xbc14993d	-0.009069738
35	0x3dc2006f	0.09472739
36	0x3d4706ee	0.048590593
37	0x3d5d6720	0.054053426
38	0x3d49bb02	0.04925061
39	0x3d578e2f	0.05262583
40	0x3dcfa324	0.101385385
41	0x3dee2ba2	0.11629416
42	0xbda9bf30	-0.08288419
43	0x3cbfd784	0.023418196
44	0x3d7ab407	0.061206844
45	0xbc27e82e	-0.010248227
46	0x3e09ee7e	0.13469884
47	0x3d52bbfd	0.05144881
48	0x3d3da64b	0.046301167
49	0xbba64f97	-0.005075406
50	0x3c9c3a57	0.019070787
51	0x3d6f189f	0.05837309
52	0x3db415cc	0.0879322
53	0xbc610d11	-0.013736025
54	0x3e10cc7b	0.14140503
55	0x3ddc1f2f	0.10748135
56	0x3c1e479b	0.009660627
57	0x3e21785a	0.15768567
58	0xbd78d014	-0.060745314
59	0xbc70fd5b	-0.014708842
60	0x3d8bd4e6	0.068277165
61	0x3d860019	0.065429874
62	0x3d7fc3e6	0.062442683
63	0x3c7482d3	0.014923769
64	0xbc9c148e	-0.01905277
65	0x3db2aa29	0.08723862
66	0x3dceccea	0.10097678
67	0x3d29e866	0.041481398
68	0x3db744d0	0.08948672
69	0x3d468ad3	0.048472237
70	0x3d87226e	0.06598364
71	0xbd2e0fe7	-0.042495634
72	0x3dce0f18	0.10061473
73	0x3df14e54	0.11782518
74	0x3bcbc2a8	0.006218273
75	0xbda610d2	-0.08108677
76	0x3d8d1da8	0.06890422
77	0x3d32cc73	0.04365201
78	0x3c087110	0.008327737
79	0x3cfe4bb1	0.031041952
80	0x3d172ced	0.03690808
81	0x3dd826be	0.105542645
82	0x3c7854d3	0.015156942
83	0x3c814a4f	0.015782503
84	0xbbe81443	-0.0070824935
85	0x3df30b37	0.118673734
86	0x3d938e6c	0.07204899
87	0x3dbf76b4	0.09348813
88	0x3dc8e44f	0.098091714
89	0xbd6c664c	-0.057714745
90	0x3dc973a6	0.09836511
91	0x3cf134a2	0.029444043
92	0xbc260b2c	-0.0101344995
93	0x3cb2a1ac	0.021805607
94	0x3d6f00c1	0.05835033
95	0x3df7c2eb	0.120977245
96	0x3dc6e9a0	0.09712529
97	0xbbbfd891	-0.005854674
98	0x3d6ec1ce	0.058290295
99	0x3d53178c	0.051536128
100	0xbc4d5e8a	-0.012534747
101	0x3c37781d	0.011198071
102	0xbd070145	-0.032960195
103	0x3d4c3980	0.049859524
104	0x3da542b3	0.080693625
105	0x3c95c9ea	0.018284757
106	0x3cfc7d33	0.030821418
107	0x3dc29670	0.0950135
108	0x3b611e2e	0.0034350264
109	0xbcce5404	-0.025186546
110	0xbbac387b	-0.0052557564
111	0xbd00efb6	-0.031478606
112	0x3d9665eb	0.07343658
113	0xbc7ff098	-0.015621327
114	0xbc5a2ed4	-0.013316829
115	0x3e02c7da	0.1277155
116	0xbc1c8fab	-0.0095557375
117	0x3d94a6f2	0.07258405
118	0x3d7a08e7	0.061043646
119	0x3a89763b	0.0010487506
120	0x3d5ff6d0	0.054678738
121	0xbcb0a6fe	-0.021564003
122	0x3e018aef	0.12650655
123	0x3d32aa32	0.043619342
124	0x3c85623d	0.016282195
125	0x3da5377b	0.08067223
126	0x3cbbbd25	0.02291734
127	0xbd05ebc0	-0.03269553
128	0xbd109bec	-0.03530495
129	0x3d143bf9	0.036190007
130	0x3da4f049	0.08053643
131	0x3db174f7	0.086648874
132	0x3d5be993	0.05368955
133	0x3d7068f3	0.058693837
134	0x3d1a339a	0.037646867
135	0x3e029672	0.12752703
136	0x3d90070e	0.070325956
137	0xbdb03a83	-0.0860491
138	0xbcb6722b	-0.022271236
139	0x3dfb2164	0.12262228
140	0xbd74fd17	-0.059811678
141	0x3da4d435	0.08048288
142	0x3e05d6b9	0.13070191
143	0xbbc9d9bf	-0.0061599906
144	0x3e139924	0.14413887
145	0x3ce70a30	0.0282031
146	0x3ced4975	0.028965691
147	0x3d9c88df	0.076432936
148	0xbd0d27c2	-0.034461744
149	0x3e01a610	0.12661004
150	0x3d6851e0	0.056718707
151	0xbd2270ba	-0.039658286
152	0x3db858d4	0.090013176
153	0x3da6979f	0.08134388
154	0x3db82de9	0.08993132
155	0xbbc24655	-0.0059287944
156	0x3d0337b4	0.032035545
157	0x3ae067b4	0.001712075
158	0x3e1036fc	0.14083475
159	0xbd0f4eb1	-0.034987155
160	0x3d359628	0.044332653
161	0xba1293d6	-0.0005591487
162	0xbd311703	-0.043234836
163	0x3d5cdcaa	0.05392138
164	0x3e124f98	0.14288175
165	0x3d17c4b9	0.037052844
166	0x3da3c7c5	0.079970874
167	0x3e173f41	0.14770223
168	0x3d5726e4	0.052527323
169	0x3db51acb	0.08843001
170	0xbd644e46	-0.05573871
171	0xbd2384aa	-0.03992144
172	0x3cdc8fa6	0.026923966
173	0x3b962708	0.0045822896
174	0x3db08a1e	0.08620094
175	0x3dcdf311	0.10056127
176	0x3df67976	0.120348856
177	0x3d9ddd40	0.07708216
178	0xbc01cb03	-0.007921937
179	0x3d90be5f	0.070675604
180	0xbcd7127f	-0.026253937
181	0x3d852124	0.06500462
182	0xbb98f6dc	-0.0046681
183	0xb9531ba9	-0.00020132832
184	0x3d70980a	0.058738746
185	0x3d03b52c	0.0321552
186	0xbd8e0ca4	-0.06936005
187	0x3d9980fa	0.074953035
188	0xbd222185	-0.039582748
189	0xbd12da48	-0.0358527
190	0x3cabe80d	0.020984674
191	0x3d5c3bce	0.05376797
192	0x3db864a7	0.09003573
193	0xbc73d8a8	-0.014883198
194	0x3dc094a9	0.09403355
195	0x3d8d4b6e	0.06899153
196	0xbcbcc1cd	-0.02304163
197	0x3da422d5	0.08014456
198	0x3d2ee31a	0.04269705
199	0x3cc57c74	0.024107195
200	0x3d857a04	0.06517413
201	0x3e1541c3	0.14575867
202	0xbca513a9	-0.020150976
203	0x3d963c71	0.07335747
204	0xbcb7c75a	-0.022433925
205	0x3e032bd6	0.12809691
206	0x3d8cada7	0.06869059
207	0x3c81df97	0.015853686
208	0xbba0160d	-0.004885441
209	0xbc670fa5	-0.014102851
210	0x3e066ca5	0.13127382
211	0xbc9e23f3	-0.019304251
212	0x3d475462	0.048664458
213	0x3dd30ec2	0.10305549
214	0x3d212ae3	0.03934754
215	0xbc02e11f	-0.007988243
216	0x3d5fccc0	0.054638624
217	0x3d2b6928	0.04184833
218	0x3ddb80a0	0.10717893
219	0xbc7bbfdf	-0.01536557
220	0x3cb19c88	0.021681085
221	0x3dd8f2d9	0.105931945
222	0x3c27da9d	0.010244993
223	0xbcac9108	-0.02106525
224	0xbca8d4aa	-0.020609219
225	0x3cdc35f3	0.026881194
226	0x3caaafe4	0.020835824
227	0xbc8bcdcc	-0.017065905
228	0x3cf4eff9	0.029899584
229	0x3c8b2b71	0.016988488
230	0x3da38be7	0.07985669
231	0x3d59d11f	0.05317795
232	0x3d76b4e6	0.060231112
233	0xbcc1e6d4	-0.023669638
234	0xbd8a8c0e	-0.067649946
235	0xbc99f82a	-0.018795092
236	0x3d93f981	0.072253235
237	0xbd4ec8cc	-0.050484464
238	0x3e0071f3	0.12543468
239	0x3c98bb9a	0.018644143
240	0x3d1fe638	0.039037913
241	0x3d29f9b6	0.04149791
242	0x3ba439eb	0.005011787
243	0x3c060097	0.008178852
244	0x3daca062	0.08429028
245	0x3d9fd86a	0.078049496
246	0xbbac4d08	-0.0052582063
247	0x3d7efff1	0.062255803
248	0xbd772992	-0.06034238
249	0xbca49fb2	-0.02009568
250	0x3e126cd0	0.14299321
251	0x3dba66f7	0.0910167
252	0x3c47c1c4	0.012192193
253	0xbda1a28d	-0.07892332
254	0x3c3797c1	0.011205615
255	0x3da8f426	0.082496926

fc2.bias f4 [64]
0	0x3ba5dd93	0.005061814
1	0x3d46bda3	0.048520695
2	0xbc44eaec	-0.0120189
3	0x3dda1f55	0.10650507
4	0x3ca45004	0.020057686
5	0x3ccbbbdb	0.02486985
6	0x3cdc9e19	0.026930856
7	0xbd0d7a43	-0.034540426
8	0x3ce7a84e	0.028278496
9	0xbd739b25	-0.05947413
10	0xbd604edc	-0.054762706
11	0xbbf00249	-0.007324491
12	0x3dd45ca6	0.10369234
13	0xbb3dcfc7	-0.0028962956
14	0x3d16eec8	0.036848813
15	0xbcdf3629	-0.027247505
16	0xbcc93696	-0.024562161
17	0x3d6c7213	0.057725977
18	0xbc072464	-0.008248422
19	0x3d727bef	0.059200224
20	0x3c057936	0.008146575
21	0x3da54348	0.080694735
22	0x3d6cdb5f	0.057826396
23	0x3d508901	0.050911907
24	0x3dbedd08	0.09319502
25	0x3bbb531d	0.005716695
26	0xbd324459	-0.043522213
27	0xbc93a117	-0.01802115
28	0x3e1b2ed2	0.1515458
29	0xbd87a4c3	-0.06623223
30	0xbc364c94	-0.011126656
31	0x3d0288d6	0.03186878
32	0xbcee9656	-0.02912442
33	0x3e100e35	0.1406792
34	0x3b84574d	0.0040387274
35	0xbd37a311	-0.044833247
36	0x3d813b46	0.06310134
37	0x3bfd33c5	0.0077271187
38	0x3d1b2895	0.0378805
39	0x3c4dc48a	0.012559066
40	0xbd769a6d	-0.060205866
41	0x3df6e2c0	0.12054968
42	0xbd845442	-0.064613834
43	0x3ccf09b7	0.025273187
44	0x3c885b25	0.016645024
45	0x3d01de71	0.031706277
46	0x3da1176c	0.078657955
47	0x3c3cab3f	0.011515438
48	0xbd517ea0	-0.05114615
49	0x3dfd0aa1	0.12355543
50	0x3dac9f95	0.08428875
51	0x3d8664e2	0.065622106
52	0xbda86451	-0.08222259
53	0x3d73c97f	0.059518334
54	0x3da25dea	0.07928069
55	0x3de19b56	0.11015956
56	0xbcf8dada	-0.030377794
57	0x3d8ab455	0.06772677
58	0x3d8c779e	0.06858753
59	0x3da08cdf	0.07839369
60	0x3d4e463f	0.05035996
61	0xbdc124dd	-0.09430859
62	0x3db237e7	0.08702069
63	0xbcf07b7d	-0.029355759

fc3.weight f4 [6, 64]
0	0x3cfafe6c	0.030638896
1	0x3d52c5bf	0.051458117
2	0xbde10a9b	-0.10988351
3	0x3aaa87f3	0.0013010487
4	0x3bcff680	0.0063465238
5	0x3dd3c35b	0.103399955
6	0xbd83ee20	-0.06441903
7	0xbdf7e340	-0.121038914
8	0xbdfb7c55	-0.12279574
9	0xbc4f0899	-0.012636327
10	0x3deea122	0.116518274
11	0x3d978eb5	0.07400266
12	0xbd3f3b89	-0.046687637
13	0xbe124328	-0.1428343
14	0xbd04ac43	-0.032390844
15	0xbc8ee8d8	-0.017445013
16	0x3d1ea88c	0.038734958
17	0x3cbb17fb	0.022838583
18	0xbd270894	-0.040779665
19	0xbba8f08e	-0.0051556295
20	0x3d9b2368	0.075751126
21	0xbe0f657f	-0.14003561
22	0x3d28b2b6	0.041186057
23	0xbdfe6bc4	-0.124228984
24	0xbd48c798	-0.049018472
25	0xbde75741	-0.11295939
26	0x3a05d7c1	0.0005105697
27	0xbc032e40	-0.008006632
28	0xbdea690f	-0.114458196
29	0xbc9f4b8e	-0.019445207
30	0x3cdb71db	0.026787689
31	0xbc6a92a9	-0.014317193
32	0x3d292f77	0.04130503
33	0xbe066bc8	-0.13127053
34	0x3cdf174c	0.027232789
35	0xbb23f0c0	-0.0025015324
36	0xbd7ac04c	-0.061218545
37	0x3dd170a2	0.10226561
38	0xbdf3ab66	-0.11897926
39	0x3db8432e	0.089971885
40	0xbcd8b950	-0.026455551
41	0xbd2112b8	-0.039324492
42	0x3d00c6fa	0.03143976
43	0xbda458f2	-0.080247775
44	0xbda27bc8	-0.07933766
45	0xbcb5ea01	-0.022206308
46	0xbd42dec5	-0.04757573
47	0xbce3bb12	-0.027799163
48	0xbce4d757	-0.027934713
49	0xbde6663f	-0.11249971
50	0xbe18ffc4	-0.14941317
51	0xbe0179bc	-0.12644094
52	0xbd6f4244	-0.058412805
53	0x3df743be	0.12073468
54	0xbc612cb0	-0.0137435645
55	0xbdaa2b63	-0.083090566
56	0xbdfca1da	-0.12335558
57	0xbe354e93	-0.17705755
58	0xbe0d171d	-0.13778348
59	0xbbc1bccf	-0.0059124003
60	0x3c9c31c8	0.019066706
61	0xbd40e7ec	-0.047096178
62	0xbd9196a0	-0.071088076
63	0xbdefad4e	-0.11702977
64	0xbe15a017	-0.1461185
65	0xbc4f9d3f	-0.012671768
66	0xbb95a5d0	-0.0045668855
67	0xbca19909	-0.019726293
68	0x3dadb354	0.0848147
69	0xbcd27fa4	-0.02569563
70	0xbcfc14a8	-0.030771568
71	0x3d29a274	0.041414693
72	0xbd88311b	-0.06649991
73	0xbcedba7d	-0.029019589
74	0xbd3ad694	-0.045614794
75	0xbe2b3e02	-0.16722873
76	0xbd8268d7	-0.06367653
77	0xbdbb7a39	-0.091541715
78	0xbe10c1a2	-0.14136365
79	0x3cb138f8	0.02163361
80	0xbd70f8e4	-0.05883111
81	0xbdb62cf1	-0.08895291
82	0x3ce98db8	0.02850996
83	0x3d2fdc82	0.042934902
84	0xbde0a68a	-0.10969265
85	0xbdeb2a63	-0.11482694
86	0x3c86ea58	0.016469166
87	0x3c902078	0.017593607
88	0xbdc8e2ec	-0.09808907
89	0x3c80ddfc	0.01573085
90	0x3d03ec3f	0.032207724
91	0xbd3505f0	-0.044195116
92	0x3d0ab40b	0.03386311
93	0xbd6a8cb2	-0.057263084
94	0x3c5a71d3	0.013332802
95	0xbdfeaaff	-0.12434959
96	0x3d94fd6a	0.072748974
97	0xbe1e7b62	-0.15476754
98	0xbdc2bcbf	-0.09508657
99	0x3d7db260	0.06193769
100	0xbd19f31e	-0.03758537
101	0xbd48b44c	-0.04900007
102	0xbd39637a	-0.045260884
103	0xbd83c5fe	-0.064342484
104	0x3d427470	0.047474325
105	0xbddabcfc	-0.10680577
106	0x3cede9be	0.029042121
107	0xbdeb26b7	-0.11481994
108	0x3aa04180	0.0012226552
109	0xbe0658f4	-0.1311987
110	0x3b80e0ea	0.003933062
111	0x3de024f6	0.1094455
112	0x3d4cf43c	0.050037608
113	0x3cbdb101	0.023155691
114	0x3d9e49e3	0.077289365
115	0xbd056c6e	-0.03257411
116	0xbc9e8a00	-0.019352913
117	0x3cb34718	0.021884486
118	0x3dce09c8	0.100604594
119	0xbd0732ad	-0.033007313
120	0xbdc9001a	-0.098144725
121	0xbe213d2e	-0.15745994
122	0x3da917be	0.082564816
123	0xbdcf77c3	-0.101302646
124	0x3df0ec04	0.117637664
125	0xbd16bb26	-0.036799572
126	0x3de2497e	0.11049174
127	0xbc7f88e6	-0.015596604
128	0xbdc30ea4	-0.09524277
129	0xbe2bdde1	-0.16783859
130	0x3be0ffeb	0.0068664453
131	0xbd58f2a6	-0.052965783
132	0xbdcfe19c	-0.101504534
133	0x3de7c29e	0.11316417
134	0x3bbb7f80	0.0057219863
135	0x3d4d6f14	0.05015476
136	0x3d892a42	0.06697513
137	0xbdc5e4f5	-0.09662811
138	0x3de65ed8	0.11248559
139	0xbd97f6bf	-0.0742011
140	0xbe0215f8	-0.12703693
141	0x3d98952b	0.074503265
142	0xbe2165ea	-0.15761533
143	0x3d80d054	0.062897354
144	0xbd6b3f38	-0.057433337
145	0xbd7eeb37	-0.062236037
146	0x3d64be24	0.055845395
147	0xbe1732eb	-0.14765517
148	0x3da95cc2	0.08269645
149	0xbd3b696d	-0.04575484
150	0xbe0d0e48	-0.13774979
151	0x3d436b60	0.047709823
152	0xbb5030c0	-0.0031767339
153	0x3dd50290	0.104008794
154	0x3daf4614	0.08558288
155	0x3ccaf860	0.024776638
156	0xbdad5d1b	-0.08465024
157	0xbdfd3742	-0.12364055
158	0x3dac1b06	0.08403592
159	0xbcb45389	-0.022012489
160	0xbdaf221f	-0.0855143
161	0xbbccad8c	-0.0062462743
162	0x3d9edac8	0.07756573
163	0x3d996c78	0.07491392
164	0x3c98a991	0.018635543
165	0xbceab2a8	-0.028649643
166	0x3d23eb0f	0.04001909
167	0x3d3edda0	0.046598077
168	0xbcad8388	-0.021180883
169	0xbcef3237	-0.029198749
170	0xbc2ea0ed	-0.010658485
171	0x3d1b8218	0.037965864
172	0xbc4a6a10	-0.012354389
173	0x3db0c310	0.08630955
174	0xbdc0c0b5	-0.09411756
175	0xbd15df8c	-0.036590144
176	0xbcd418b2	-0.025890682
177	0xbd7347f0	-0.059394777
178	0x3c335f29	0.010947981
179	0xbc25029a	-0.010071421
180	0x3de59986	0.11210923
181	0x3dc04a64	0.09389189
182	0xbda57eda	-0.08080836
183	0xbc6b7b1f	-0.014372616
184	0x3d8e333a	0.069433644
185	0x3ca157ec	0.019695245
186	0xbd36b217	-0.044603433
187	0xbe012c73	-0.12614612
188	0xbdd2d754	-0.10294977
189	0xbcab3a3e	-0.020901795
190	0xbde88ed8	-0.1135537
191	0x3cd1c175	0.025604943
192	0xbe40b64c	-0.1881954
193	0xbdc7acdf	-0.097497694
194	0x3deec7b4	0.11659184
195	0x3d2db11c	0.042405233
196	0xbd2317d8	-0.03981766
197	0x3d0406be	0.032232992
198	0xbdd66a3e	-0.10469483
199	0xbd832db0	-0.064051986
200	0xbd56f913	-0.05248363
201	0x3d174092	0.036926813
202	0x3dd92da4	0.106044084
203	0xbc7da003	-0.015480044
204	0xbe1d60e9	-0.15369
205	0xbc797895	-0.015226503
206	0xbd2b9da8	-0.0418984
207	0xbd5594a0	-0.052143693
208	0xbd535ca4	-0.05160202
209	0x3d054414	0.032535627
210	0x3d6bed7c	0.05759953
211	0xbdd6da51	-0.10490859
212	0x3c9c1dc0	0.019057155
213	0xbc5124c1	-0.0127651105
214	0xbd01bfba	-0.031676985
215	0x3df1d682	0.11808492
216	0xbdfd56ee	-0.12370096
217	0x3c534c97	0.012896678
218	0xbded280b	-0.11579903
219	0x3d353214	0.04423721
220	0xbca82698	-0.020526215
221	0x3d5dc199	0.054139707
222	0xbce80225	-0.028321335
223	0x3cf5d0d3	0.030006802
224	0x3d02cbae	0.031932525
225	0xbd5102c7	-0.05102804
226	0xbd340303	-0.043948185
227	0x3d0f8924	0.035042897
228	0xbdea5fc2	-0.114440456
229	0x3da68c6c	0.08132252
230	0xbe1bb0ba	-0.15204135
231	0xbd356400	-0.04428482
232	0x3d0e0060	0.034668326
233	0xbcdda4ba	-0.027056087
234	0x3c155a7c	0.009115811
235	0xbe0e1332	-0.1387451
236	0x3dbdb396	0.09262769
237	0x3d460186	0.048341297
238	0xbdd52503	-0.1040745
239	0xbce94fe4	-0.028480478
240	0x3d3c7c1f	0.04601681
241	0xbc50e64c	-0.01275022
242	0xbdbdb917	-0.09263819
243	0x3c16827e	0.009186385
244	0x3dfb7434	0.12278023
245	0x3d30d5f4	0.04317279
246	0x3d0d3880	0.03447771
247	0xbe1ebbe8	-0.15501368
248	0x3d6ce6c8	0.057837278
249	0xbc8c5421	-0.01712996
250	0x3d2de103	0.042450916
251	0xbb6f85a0	-0.0036548153
252	0x3cbfc4e0	0.023409307
253	0x3ddbab4e	0.10726033
254	0x3cbcbf30	0.023040384
255	0xbce34f17	-0.027747674

fc3.bias f4 [6]
0	0xbda24156	-0.07922618
1	0xbd1ecdf8	-0.038770646
2	0xbe1e390b	-0.15451448
3	0x3c4962b9	0.012291604
4	0xbe119b44	-0.14219385
5	0x3d3b5777	0.04573771
