dqn_taxi_light128.pth (torch, 45932 bytes, 6 tensors)

fc1.weight f4 [128, 16]
000000 03 af 3e 3e eb 12 9d 3d 4c 3f ea bd 2e 49 18 3e
       0.18621449 0.07669624 -0.11437854 0.14871666
000010 72 7c 33 3e fb 06 94 3e 83 b1 b0 3e 80 ca 8a 3d
       0.17527941 0.28911576 0.3451043 0.06776905
000020 cd 68 91 3e d1 3e 95 3d 59 6c c9 3d 95 85 1e 3e
       0.2840027 0.07287372 0.09835119 0.15480645
000030 1c 84 05 3a 0b 1f 9d 3e 6d 2f a9 bc 4e ee ad bd
       0.0005093233 0.30687746 -0.020652497 -0.08492719
000040 76 9d 23 be 99 cc 75 3d 08 f1 70 3d d0 e2 ed 3d
       -0.15978035 0.060009573 0.058823615 0.11615527
000050 0e 49 56 be 88 c5 75 3e 2f d7 86 3e b0 3f 99 bd
       -0.20926306 0.24001133 0.26336047 -0.074828506
000060 77 68 8b 3e 8a f5 a7 3d cd 66 0e 3d 67 ae 11 be
       0.27228138 0.0820113 0.034766007 -0.14226685
000070 8a c5 78 3d 93 6a c6 bd e8 60 af bc a2 6d 54 3d
       0.060735263 -0.09688296 -0.021408513 0.051862366
000080 f3 44 8b bd 6e 2e ac 3e f0 34 6a bd 60 17 12 3d
       -0.068002604 0.33629173 -0.05717939 0.035666823
000090 cc 07 86 bd b2 66 38 3e 5d b1 be 3d 74 c0 a1 3d
       -0.06544456 0.18007925 0.09311173 0.07898036
0000a0 ff 9e 9b bd ff 68 29 3e d9 2c 30 3d 93 68 2f 3d
       -0.075986855 0.16543959 0.04301152 0.04282434
0000b0 b5 14 12 3e 49 d0 9a bc 76 8f 79 3c 52 9a 89 3e
       0.14265712 -0.018898146 0.015231958 0.2687555
0000c0 27 06 b0 3e c9 60 2c 3e 9e e3 45 be d0 25 88 bc
       0.34379694 0.16833796 -0.1932511 -0.016619593
0000d0 a2 71 58 3e a1 a9 62 3e 41 37 4c 3e 76 42 0c 3e
       0.21137097 0.22135021 0.19942953 0.13697228
0000e0 ba aa b1 bd 81 73 0e bd 83 43 92 3e 21 ac 31 3e
       -0.08675142 -0.03477812 0.28567132 0.17350818
0000f0 ee a4 82 bd 36 6f 34 3e 7e 00 6f 3e 32 0d 19 3e
       -0.06379114 0.17620549 0.23340032 0.1494644
000100 c1 6d b6 3c 0f 31 de 3c 08 83 1a 3d 00 b0 f5 b9
       0.022269132 0.027123002 0.037722617 -0.00046861172
000110 a0 ba 3b 3d 63 fd b0 3e 27 3c dc 3d 48 54 3b bd
       0.045832276 0.3456832 0.10753661 -0.045734674
000120 c3 35 ef 3d 8f e7 1f 3d ed 71 b5 3d f1 fa 18 3e
       0.11680176 0.03903919 0.0885962 0.14939477
000130 92 47 98 3d bd 0b ac 3e b5 f8 96 3d 69 84 19 3e
       0.07435526 0.33602706 0.07371656 0.14991917
000140 3a c2 93 3d c2 cc f8 3d 70 21 05 3e 88 18 e6 bd
       0.0721478 0.121484295 0.13001037 -0.11235148
000150 40 5d 3f 3c f6 70 a2 3e 07 ad f4 3d b4 7e db bd
       0.011679947 0.31726807 0.11947065 -0.10717526
000160 57 95 2b 3d eb fe aa bc c4 9d 90 3e 83 74 c2 3e
       0.04189047 -0.020873507 0.28245366 0.37979516
000170 ed 73 b8 3e d7 7d c4 3e 61 0a 85 3e f5 57 1a 3e
       0.36025944 0.38377258 0.2598448 0.15072615
000180 28 cb 4b bc b1 f8 0e 3e 1a f2 17 be a6 6a 23 be
       -0.012438573 0.13962056 -0.14838448 -0.15958652
000190 c0 5b b9 bb 7b 03 c0 3c c3 80 89 3e f6 f5 1d be
       -0.0056566894 0.02343916 0.2685605 -0.15425858
0001a0 34 9e 08 3e 56 78 68 3e 64 c1 6e 3e a5 1d b4 bd
       0.133416 0.22702155 0.2331596 -0.08794717
0001b0 ad eb a9 bd 19 ae 8b 3e ce b9 a8 3c e5 48 2c bd
       -0.08296905 0.27281263 0.020596411 -0.042061705
0001c0 7a 7b 83 3e 70 92 29 bd 8c 99 20 3e 90 98 e7 3d
       0.25680143 -0.04139942 0.15683573 0.11308396
0001d0 20 6b 7a 3c 03 60 1a 3e c8 a3 82 3e 60 a0 a1 3c
       0.01528433 0.15075688 0.2551558 0.019729793
0001e0 7d 14 fd bd be 29 8b 3e 1b da bc bc 0d 8b 8d 3d
       -0.123574235 0.27180284 -0.02305322 0.069112875
0001f0 e0 84 69 bb 20 b9 ad 3d da 64 7c 3e 53 98 c8 bd
       -0.0035632178 0.084825754 0.24647847 -0.097946785
000200 b0 25 97 3d 34 ec bb 3e fc ce 09 3e e2 7f 40 be
       0.07380235 0.36703646 0.13457865 -0.18798783
000210 64 af b3 3d 84 3f 3f bd 36 0f 68 3d b8 35 63 3e
       0.087736875 -0.046691433 0.05665513 0.22188461
000220 7b f1 3b 3d 76 f6 9e 3e 1c 2f 76 3e 18 87 59 3e
       0.04588459 0.3104741 0.24041408 0.2124294
000230 3b eb 49 3e 4e 07 c8 3e 19 ba 7b bd 7b 1a 5c 3e
       0.1971864 0.39068073 -0.061456773 0.21494476
000240 4c cc af 3d f6 ce 3e 3e f0 e4 8d 3c 90 4c 00 bd
       0.085838884 0.18633637 0.01732108 -0.031323016
000250 cc 6f c9 bd 4a 4d 0e 3e 31 44 e4 3d b0 8c b7 3c
       -0.09835777 0.13896671 0.11145819 0.022405952
000260 02 5f 43 3e b4 53 64 3e 19 f8 38 3e 7d d0 9b 3d
       0.19079211 0.22297555 0.18063392 0.07608125
000270 17 b2 34 3d ed b0 49 3e ba 5c 23 3e 13 23 58 3e
       0.044115152 0.19696398 0.15953341 0.2110713
000280 56 c6 dd bd 44 47 17 3e ca 8f 47 3e a0 a3 13 be
       -0.10828845 0.1477328 0.19488445 -0.14417887
000290 c8 d9 8a bd dc e8 b0 3e f7 05 6c 3e 58 ab 23 bd
       -0.0677982 0.34552658 0.2304915 -0.039958328
0002a0 45 f5 9f 3d 75 e9 4c bb b5 2b 0f 3e 54 07 65 bd
       0.07810453 -0.003126708 0.13981517 -0.05591519
0002b0 15 a9 2c 3d d4 c0 c2 3d f0 87 96 bc 5f 5c 83 3d
       0.042153437 0.09509435 -0.018375367 0.06414103
0002c0 31 ae 28 3d ad 37 a6 3c ae de 68 3e a6 cc 29 be
       0.041181747 0.02029022 0.22741196 -0.16581973
0002d0 08 9a ae 3d c5 01 4e 3d 83 2b 21 3e b8 08 f1 3d
       0.08525473 0.050294656 0.15739255 0.11769241
0002e0 71 85 2c 3d ba bd d8 3d d3 92 ba 3e 89 35 83 3e
       0.042119447 0.105830625 0.36440143 0.25626782
0002f0 a8 8e a6 3e fe bb 8e 3d 60 0c fa bd 20 0e 6a 3e
       0.32530713 0.069694504 -0.122093916 0.22856951
000300 9c d6 42 3e f8 a4 8d 3e ea 98 0e 3e ac 5a 99 bd
       0.1902718 0.27664924 0.1392552 -0.074879974
000310 22 27 5c be dd 19 61 3d b7 97 f1 bd 98 0e dd bd
       -0.21499303 0.054956306 -0.117965154 -0.10793799
000320 1a b6 8b 3e 30 7d 92 3e 76 7e 82 bc 6b ab db 3d
       0.2728737 0.28611135 -0.015929442 0.10726055
000330 f5 a3 dd 3d d9 10 77 3e a6 c6 90 3d 1f c6 a3 3e
       0.10822288 0.2412752 0.07069139 0.31987092
000340 80 cb 3d 3d 19 17 17 bd 4a 05 78 3e 00 ff 10 be
       0.04633665 -0.036887262 0.24220768 -0.14159775
000350 54 c6 dc 3d 17 03 8b 3e ca 77 8b bd da b6 02 3e
       0.107800156 0.27150795 -0.06809957 0.12765065
000360 67 2c 9f 3e b9 b6 0c 3e ae bf 85 bd a6 91 f9 3d
       0.31088564 0.13741578 -0.065307006 0.12185983
000370 ec 34 56 bd b0 ab b1 bd 9c 34 c4 bd 8c 0e eb 3d
       -0.052296564 -0.08675325 -0.09580347 0.11477384
000380 01 2c 88 3e f9 46 22 3e 10 b6 f5 bc a0 9a 4c 3c
       0.26596072 0.15847386 -0.02999404 0.012488037
000390 30 96 e5 3c e4 fd dd 3d ef 4e ea 3d 80 b9 08 3d
       0.028025717 0.108394414 0.11440837 0.03338003
0003a0 87 b5 44 3e 27 5c 61 3e 2a dd 62 3e 61 95 a5 3e
       0.19209872 0.2200781 0.2215468 0.3234053
0003b0 1c dc dc 3e 45 02 a4 3e dc 58 19 3e 2a c0 94 3e
       0.4313668 0.32032982 0.14975303 0.2905286
0003c0 3c cf ad 3e ec bf d2 3d 98 22 47 3e cc af 68 3e
       0.3394717 0.102905124 0.1944679 0.22723311
0003d0 34 a4 54 3e 34 6f 8f 3d 20 89 52 3b b4 0a c0 bd
       0.20765764 0.07003632 0.003212519 -0.093770415
0003e0 82 37 21 3e fb 23 38 3e da a0 b1 3e 12 7e c0 3c
       0.15743831 0.17982475 0.34693033 0.023497615
0003f0 86 f5 6c bd 89 21 38 3e 8a 28 e6 3d 8a 93 99 3e
       -0.057851337 0.17981543 0.11238201 0.29995376

fc1.bias f4 [128]
000000 2a 82 ee 3d 43 f1 8d 3e 77 74 59 3e 4c 51 3c 3c
       0.116459206 0.2772313 0.21235834 0.011493992
000010 83 16 82 3c 26 a2 21 3e 77 7f f9 bb 70 ef 74 3e
       0.015879875 0.15784511 -0.007614072 0.23919463
000020 68 16 a9 3d 9f c5 e5 3d fc 5e b5 3b e2 bc 36 3e
       0.08256227 0.11219334 0.0055350047 0.1784549
000030 b3 82 20 3e b1 89 b0 3e fc db 02 3e 71 47 ca bc
       0.15674858 0.3448005 0.1277923 -0.024692269
000040 53 b3 58 3e 03 8b 86 3d af c0 67 3e d7 3d 82 3d
       0.21162157 0.06569483 0.22632097 0.06359451
000050 70 5f 28 3e 5c 0d c7 3e f9 02 93 3c 54 9d 3a 3d
       0.16442657 0.3887738 0.017945753 0.045560196
000060 11 46 62 bd 6c b7 cd 3e e8 44 a6 3e e1 3c fd 3d
       -0.0552426 0.40179002 0.32474446 0.12365127
000070 e6 0d 63 3b cb 20 72 3e 6b e4 91 3d ad 33 2d 3e
       0.0034645735 0.23645322 0.071236454 0.16914244
000080 0f fa ce 3e a5 a7 a7 3e a9 6f 5c 3e d7 7a e3 bb
       0.40425155 0.3274509 0.2152697 -0.006942134
000090 07 2c 3e 3e 76 a5 f4 bd 43 22 fd 3d 68 c6 00 be
       0.18571483 -0.11945622 0.123600505 -0.12575686
0000a0 df 90 00 bd 8a 9a 0f 3e 41 09 86 3d e2 7d 5a bd
       -0.03138816 0.14023796 0.06544734 -0.053342707
0000b0 9a f2 78 bd 21 3d 67 3e 1b 00 ac bc 5d 73 85 bc
       -0.060778238 0.22581913 -0.020996144 -0.016290361
0000c0 d3 78 01 be 0c e7 89 3e 1b d3 8c 3d 43 bd de 3d
       -0.12643747 0.26934087 0.06876203 0.108759426
0000d0 8d b6 65 3d fa e2 45 3d b7 ec 7a 3e 2d bf 93 3e
       0.056082297 0.048312165 0.24504362 0.28856793
0000e0 fe de 17 3e 6d 3b 87 3e b6 a8 9d 3e 13 d5 89 3e
       0.14831159 0.26412526 0.3079278 0.26920375
0000f0 67 f7 e8 3e 06 ec ac 3e 8b 13 4a bd 37 94 80 3d
       0.45501253 0.33773822 -0.049335044 0.0627827
000100 0d a2 c4 3d 16 2b 89 3e 79 d3 42 3e 85 48 49 3e
       0.09601221 0.26790684 0.19025983 0.1965657
000110 67 ee 03 bd 60 30 f1 3c 7e fd 1f 3d 0c fa 3d 3e
       -0.03220978 0.029442012 0.03906011 0.18552417
000120 33 87 0b 3d a9 cf 9a bc 70 ad b1 3d c3 31 36 3e
       0.034064483 -0.018897848 0.08675659 0.1779242
000130 82 25 82 3e f0 2a a2 3d 24 35 82 3e 7b a4 28 3d
       0.2541924 0.07918346 0.25431168 0.041172486
000140 e8 35 a7 bb 64 53 7f 3d b0 b8 4b 3e 77 52 62 3d
       -0.0051028617 0.062335387 0.19894671 0.055254426
000150 c9 c4 6e 3e d8 d8 5a 3e 3c 87 ae 3c 81 b8 58 3e
       0.23317255 0.21371782 0.02130472 0.21164133
000160 54 aa b8 3e da 5e 13 3e 56 ec 35 3e ae e7 a6 3d
       0.3606745 0.14391652 0.17765936 0.08149658
000170 17 98 8e 3e 1e 90 a6 3e 5a 45 93 3d ef 1c 2f bc
       0.2785041 0.32531828 0.07190962 -0.010688051
000180 6a 42 a2 3e ce 9a 0e 3e 54 dc 78 3e 79 54 bd bd
       0.31691295 0.13926241 0.24302799 -0.092446275
000190 f8 dd a2 3d 63 38 01 3e 85 1e 9e 3c 76 33 07 be
       0.079524934 0.12619166 0.019301662 -0.13203225
0001a0 07 e9 a3 bd 4b 4e b7 3e 27 ee 74 bd 1f 17 b2 bd
       -0.08003431 0.3580192 -0.059797432 -0.08695816
0001b0 85 8d 88 3e 92 c0 81 3e c1 dd 7d bd 00 07 4a 3e
       0.2667047 0.25342232 -0.06197906 0.19729233
0001c0 64 a4 6c 3e 73 80 e8 3b b1 4a 98 3e 8f be 45 3e
       0.23109585 0.0070953905 0.29744485 0.19310974
0001d0 22 8f b7 3e 3d 66 86 3e a9 44 9f 3e 50 66 70 3e
       0.3585139 0.26249877 0.3110707 0.23476529
0001e0 d7 e6 dd 3e e1 4d 5b 3e 02 c9 d0 3e 34 3d b0 3e
       0.4334018 0.21416427 0.40778357 0.34421694
0001f0 30 d8 49 3d f1 8f ed bd 7b b2 36 bd 4e 99 e2 3e
       0.049278438 -0.1159972 -0.044603806 0.44257587

fc2.weight f4 [64, 128]
000000 9a 66 29 3d 17 fe b2 3d 2c 3a e4 3d 8a 41 53 3e
       0.041357614 0.0873987 0.11143908 0.2063047
000010 cc 43 88 3e 76 30 4e 3e e8 6e 0b 3e 3c 13 d3 3d
       0.26614225 0.20135674 0.13616526 0.10306403
000020 51 3b 51 3e 86 f6 2f 3e 33 2c 32 3e f8 38 0b 3e
       0.20432784 0.17183885 0.17399673 0.1359595
000030 db 82 96 3c c4 49 03 3e 13 e2 7f 3e ff 04 1b 3e
       0.018372944 0.12821108 0.24988584 0.15138625
000040 33 35 ab 3c ff 4e 9d 3d 40 46 e5 3d 96 d6 42 3e
       0.02089939 0.07681083 0.1119504 0.1902717
000050 e8 09 21 3e 47 6d 36 3e be c7 00 3e f2 31 90 3d
       0.15726435 0.17815123 0.12576196 0.07040776
000060 71 6e 22 3e bc 16 60 3e a6 09 52 3e 11 e6 04 3e
       0.15862443 0.21883672 0.20511493 0.12978388
000070 03 05 38 3e 69 ce 3c 3e 88 75 00 3d 4b fb 83 3d
       0.17970662 0.18438114 0.031362087 0.06444415
000080 dd 4a 64 3e 64 69 52 3d 87 1b 25 3e f6 a9 89 3d
       0.22294183 0.05137004 0.16123782 0.067218706
000090 4f 89 3a 3e 1d c7 4b 3d 2a 00 d3 3d 1b af d4 3d
       0.18216442 0.049750436 0.10302766 0.10384961
0000a0 aa ae d0 3c 06 ed 18 3c 6e bc a5 3d 44 2b 40 3e
       0.025473911 0.009333855 0.08092581 0.18766505
0000b0 33 47 63 3e ce ff e5 3c 61 d3 2c 3e cf b6 e7 3d
       0.22195129 0.028076079 0.1687751 0.11314165
0000c0 30 a6 47 3d 12 0e 1b 3e ce 8f 44 3d 06 46 ad 3e
       0.048742473 0.15142086 0.047988705 0.33842486
0000d0 d2 af 2a 3d 6a ee 0d 3e e2 c1 bb 3d 1a b6 21 3e
       0.04167158 0.13860479 0.091678396 0.15792122
0000e0 2c 54 0b 3f cc 7d 68 3e 47 94 8a 3d 8d 07 36 3e
       0.5442531 0.22704238 0.06766563 0.17776318
0000f0 f7 a1 de 3d 2e 63 2d 3e a2 31 39 3e d6 f3 a6 3d
       0.10870736 0.16932365 0.1808534 0.08151977
000100 46 be b8 3d e0 4c a5 3e 97 7e b6 3d b3 50 69 3d
       0.09020667 0.32285213 0.08910864 0.056961726
000110 54 16 2a 3e 53 f6 bc 3c 23 9b 29 3d 77 4c aa 3d
       0.1661008 0.023066675 0.041407716 0.08315366
000120 68 89 3b 3d cf b7 81 3c 4e 76 24 3e 6c 88 05 3e
       0.045785338 0.015834717 0.16060755 0.13040322
000130 83 ab 38 3e fa 7a 78 3d b5 67 33 3e a3 dc 11 3e
       0.18034177 0.060664155 0.1752003 0.14244322
000140 cc 47 4f 3d 95 d0 77 3e 7c 65 5e 3e 4f ad c4 3d
       0.05060558 0.24200661 0.217184 0.096033685
000150 4d 4f 33 3e b8 d6 e2 3d 42 51 6f 3d 87 90 1d 3d
       0.1751072 0.110761106 0.058427103 0.03846791
000160 89 32 ff 3d 00 66 34 3e 0b 35 c1 3d e4 a3 2e 3e
       0.12460811 0.17617035 0.09433945 0.17054707
000170 52 f4 73 3d 65 96 24 3e b8 e0 ea 3d 25 bc 69 3d
       0.059559174 0.16072996 0.11468643 0.057064194
000180 60 4f 66 3e 3a 6b 04 3e 9c fc 35 3e 30 d4 9a 3d
       0.22491217 0.12931529 0.17772144 0.07560003
000190 4b 2c 93 3d c7 63 29 3d 9a 63 07 3e be fa cf 3d
       0.071861826 0.04135492 0.13221589 0.10155247
0001a0 c3 91 e3 3d 6e 89 13 3e fe 08 f7 3d 83 7a 17 3e
       0.11111786 0.14407894 0.12062262 0.14792828
0001b0 68 8d 01 3e 3f 6d bf 3d 71 ac 9f 3d f0 4d 34 3e
       0.12651598 0.09347009 0.077965625 0.17607856
0001c0 16 6f c6 3d 25 34 d9 3d c1 fb e1 3d dc c8 23 3d
       0.09689157 0.10605649 0.11034346 0.039986476
0001d0 e6 9b 88 3c 9c d3 17 3e fe 8b 81 3e cf 74 72 3d
       0.0166759 0.14826816 0.25302118 0.05919343
0001e0 a9 a0 00 3e 88 c9 0f 3d 70 84 e3 3d f5 6f 8e 3d
       0.12561287 0.035104305 0.11109245 0.06954948
0001f0 ca 9e 23 3d 57 4a 7b 3d 73 37 c5 3d 3f 46 26 3e
       0.039946355 0.061350193 0.09629717 0.16237734
000200 5b 62 cb 3d da 06 69 3d d7 dc df 3d 93 a8 51 3e
       0.09930869 0.0568913 0.10930794 0.20474462
000210 c5 78 de 3d 03 5b 5f 3e 36 2d 90 3d ca 56 14 3e
       0.10862879 0.21812062 0.07039873 0.14486232
000220 d0 1b 44 3e 08 5c 86 3e bb 25 6b 3d 3c 9a bc 3d
       0.19151235 0.2624209 0.05740903 0.09209105
000230 96 1e 1f 3e e2 c3 a3 3d 10 72 b9 3e 9d 22 37 3e
       0.15539011 0.07996346 0.36219835 0.17884298
000240 2e 33 01 3e 34 39 dc 3d d2 23 13 3b 9b a6 4d 3e
       0.1261718 0.10753098 0.002245177 0.20083086
000250 60 41 c6 3d 49 9f de 3d ec 7b 06 3e bc 0a c0 3b
       0.09680438 0.10870225 0.1313321 0.0058606546
000260 57 79 10 3d 6c af 32 3e 92 ac 53 3e cf 89 07 3e
       0.03527197 0.1744973 0.20671299 0.13236164
000270 c9 a4 06 3d 8c 4f 22 3e 85 39 25 3d 9c 39 10 3d
       0.032871995 0.15850657 0.040338058 0.03521119
000280 fa 12 93 3e 03 15 13 3e 16 53 ff 3d bc fc 02 3d
       0.28725415 0.14363484 0.12467019 0.031979308
000290 64 59 dd 3d 95 70 07 3e 61 69 bf 3d cf 5a 34 3d
       0.108080655 0.1322654 0.09346271 0.044031914
0002a0 9c c0 ff 3d 0c c1 a6 3d 56 f0 f9 3d 5f fd 81 3e
       0.12487909 0.081422895 0.122040436 0.2538862
0002b0 37 ba 32 3e e1 5a 0c 3e 69 d7 48 3c 3b c1 1a 3e
       0.17453848 0.13706543 0.012258389 0.15112774
0002c0 69 27 8c 3d 95 92 30 3e 3c 09 31 3d 9a d6 00 3f
       0.068434544 0.17243417 0.043221697 0.50327456
0002d0 52 65 db 3d 80 6c 66 3d 26 4d 23 3e 05 80 02 3d
       0.10712685 0.056255817 0.15947399 0.03186037
0002e0 16 1b 0d 3f 33 b7 fb 3d 6b 02 01 3e 54 97 f7 3d
       0.55119455 0.12290802 0.12598579 0.120894104
0002f0 a3 fd 18 3e 75 75 bd 3d 6b fb 2e 3e 25 fa a6 3d
       0.14940505 0.09250919 0.17088096 0.0815318
000300 5e d3 ff 3d ff 3b 03 3f 8c 48 70 3d 0e 6b a9 3d
       0.12491487 0.5126342 0.058662936 0.08272372
000310 5c b4 f9 3c e5 cb 8c 3d 0c e8 06 3e b5 0a 01 3e
       0.03048151 0.06874827 0.13174456 0.1260174
000320 d2 b9 d4 3d ea 3b a1 3c ca 3a 2d 3e de d3 de 3c
       0.10387005 0.01968189 0.16916957 0.027200636
000330 1b e5 39 3e b8 94 c8 3d 03 e7 99 3e 93 25 88 3e
       0.18153803 0.09793991 0.3005906 0.26591167
000340 88 23 c0 3c 09 04 41 3e 43 31 65 3e 12 2e f2 3d
       0.023454443 0.18849196 0.22382073 0.118251935
000350 59 79 d5 3d 3e d4 c8 3d d1 13 e8 3c 4b 67 51 3d
       0.10423536 0.09806107 0.028329762 0.0511239
000360 59 39 b3 3d b7 d7 83 3d 50 65 8e 3d 89 03 30 3e
       0.087511726 0.06437629 0.069529176 0.17188849
000370 f0 df cb 3d ac 98 80 3d ef 02 27 3e b7 36 25 3e
       0.09954822 0.0627912 0.16309713 0.16134153
000380 f3 b2 e0 3e 68 15 f4 3d 25 cd 18 3e ea dd 90 3c
       0.43886527 0.119181454 0.14922006 0.017683942
000390 56 82 f6 3d d3 71 d8 3c 79 2d 01 3e 1e 88 d2 3d
       0.12036578 0.026421463 0.12615003 0.102798685
0003a0 df 4c a6 3d bb 3c 81 3d fc 5f 09 3e 64 f8 90 3d
       0.08120131 0.063104115 0.13415521 0.07078627
0003b0 fe cb ac 3d 12 b1 44 3e e3 d0 ce 3d 24 b3 17 3e
       0.08437346 0.19208172 0.10098436 0.1481443
0003c0 85 19 a5 3d 73 5a 12 3e 1e 7b ab 3d 82 3f 21 3e
       0.08061508 0.14292316 0.08373092 0.15746883
0003d0 48 72 18 3e 82 04 cb bb 88 63 40 3e cf 0b 89 3d
       0.14887345 -0.0061956057 0.18787968 0.066917054
0003e0 22 54 83 3e 13 39 00 3e bf 2f 46 3e 6c b3 07 3e
       0.25650126 0.12521772 0.19354151 0.13252038
0003f0 46 0e 12 bc 60 35 7d 3d e1 9e 21 3d 71 a8 c2 3d
       -0.008914536 0.06181848 0.03945816 0.09504784

fc2.bias f4 [64]
000000 d9 13 d6 3d bf e9 14 3e fe fd bd 3d 4e a5 42 3c
       0.104530044 0.14542292 0.09276961 0.011880232
000010 02 8f 5b 3d 3d 73 17 3e 39 a4 1f 3e a7 cb db 3d
       0.05360318 0.14790054 0.1558999 0.10732203
000020 73 e4 18 3e 4a 25 e4 3d 84 ef bf 3c 92 94 9b 3d
       0.14930896 0.11139925 0.02342964 0.07596697
000030 b5 90 91 3c 65 ae 7e 3b fc 93 8b 3b ab 99 26 3d
       0.017769197 0.0038861271 0.0042595845 0.040673893
000040 42 52 83 3d 32 73 24 3e 50 1c 05 3c b1 e5 52 3d
       0.06412174 0.16059569 0.008124426 0.051488582
000050 64 e1 a8 3d 00 19 15 3e 80 bb c3 3c 5b f2 12 3d
       0.08246115 0.14560318 0.023893118 0.03587566
000060 b2 eb f6 3d 0f 04 ec 3d e3 dd da 3d fe da ea 3b
       0.12056674 0.115242116 0.10686853 0.007167219
000070 f1 0f 5c 3d 8c 07 08 3e 71 ea e2 3d 30 cc 9c 3d
       0.05372614 0.13284129 0.110798724 0.07656133
000080 a5 50 a0 3d a2 94 08 3d 90 8d 29 3c 92 fe a1 3d
       0.07827882 0.033344872 0.010348693 0.079098836
000090 dd 03 de 3c fd 4a f3 3c a7 ef 3b 3d 8f 04 9d 3d
       0.027101452 0.029698843 0.045882847 0.07666885
0000a0 2e fd 05 3e b7 4b 15 3d e7 63 a3 3d bd 16 fa 3d
       0.13084862 0.03644916 0.07978039 0.12211368
0000b0 bc 03 0b 3e 4f 7c c5 3d 51 13 19 3e e0 33 23 bc
       0.13575643 0.096428506 0.14948775 -0.009961098
0000c0 89 7b 3e 3d 97 a3 cc 3d 2a 88 6d 3c 2a 34 d6 3d
       0.04650453 0.0999214 0.014497796 0.10459168
0000d0 05 0e cb 3c 8a c8 d5 3c 4c fe da 3d 33 73 5f 3d
       0.024786958 0.026096601 0.106930345 0.054553222
0000e0 3e 44 72 3c 2d 2b c4 3c 67 16 0a bc 56 ce cf 3c
       0.014786778 0.023946369 -0.008428193 0.025366943
0000f0 d4 9c b7 bb 91 f8 22 3d ad 7a b7 3d c7 c7 13 3e
       -0.005603412 0.039787833 0.089589454 0.14431678

fc3.weight f4 [6, 64]
000000 6d 7a 2d c0 06 6a 2a c0 fd ee 34 c0 e8 5b 29 c0
       -2.7105973 -2.6627212 -2.8270867 -2.6462345
000010 4e b8 cd bf 67 aa 2a c0 1b 85 27 c0 eb d5 33 c0
       -1.607187 -2.6666505 -2.617499 -2.8099315
000020 0b c2 2a c0 55 07 28 c0 2a 94 24 c0 39 e5 28 c0
       -2.6680934 -2.6254475 -2.5715432 -2.6389906
000030 ae c5 2e c0 10 d0 25 c0 d7 c1 9e bf 30 a4 db bf
       -2.7308154 -2.5908241 -1.2402905 -1.7159481
000040 e7 65 ee bf 7d fd 2e c0 ca 5b 25 c0 15 57 dd bf
       -1.8624848 -2.7342217 -2.5837274 -1.72922
000050 26 8f 2f c0 20 40 30 c0 ed d7 29 c0 07 66 28 c0
       -2.743112 -2.7539139 -2.653804 -2.6312273
000060 b0 8a 2c c0 a1 9a 2f c0 ff 34 2e c0 03 c6 25 c0
       -2.6959648 -2.7438128 -2.7219846 -2.5902107
000070 c0 a6 28 c0 d2 d4 28 c0 15 0b 29 c0 6d 09 31 c0
       -2.6351776 -2.6379895 -2.6413014 -2.7662003
000080 ea 4d 2b c0 56 66 b5 bf af 1a 33 be a7 73 28 c0
       -2.6766305 -1.4171855 -0.17490648 -2.6320589
000090 27 1a 2b c0 ef 9d 27 c0 b2 38 25 c0 08 05 28 c0
       -2.6734712 -2.6190145 -2.5815854 -2.625307
0000a0 92 22 2d c0 b6 48 2b c0 d2 9d 32 c0 f0 4d 96 bf
       -2.705235 -2.676313 -2.7908826 -1.1742535
0000b0 aa 0c 2e c0 22 8f 30 c0 56 ad 2f c0 f2 c5 24 c0
       -2.719523 -2.7587361 -2.7449546 -2.5745816
0000c0 08 f0 2e c0 5e 47 2e c0 79 c4 25 c0 6a 7a 30 c0
       -2.7334003 -2.723106 -2.5901167 -2.7574716
0000d0 ba 1a 33 c0 47 66 2d c0 d1 22 27 c0 75 36 2c c0
       -2.7985063 -2.7093675 -2.6115 -2.6908238
0000e0 c1 ab 2b c0 b5 e0 32 c0 ab 88 2e c0 78 1c 34 c0
       -2.682358 -2.794965 -2.7270916 -2.8142376
0000f0 3d 2e 9d bf 3c 24 29 c0 da 41 28 c0 ce 4d 27 c0
       -1.2279736 -2.6428366 -2.6290193 -2.6141238
000100 39 10 30 c0 cb c9 27 c0 4e 78 32 c0 58 55 33 c0
       -2.7509902 -2.6216915 -2.7885928 -2.802084
000110 c5 ee cf bf c2 3b 24 c0 81 64 31 c0 65 0f 2b c0
       -1.6244742 -2.5661473 -2.7717593 -2.6728146
000120 85 c9 29 c0 96 c9 30 c0 29 a6 2e c0 47 89 23 c0
       -2.6529248 -2.7623038 -2.7288916 -2.5552537
000130 54 4a 2e c0 2f 02 2c c0 eb 32 9d bf bb 95 e7 bf
       -2.7232866 -2.6876333 -1.2281164 -1.8092569
000140 37 d4 e5 bf 2f 18 26 c0 f3 5f 28 c0 88 81 d6 bf
       -1.7955388 -2.595226 -2.6308563 -1.675828
000150 9f 5d 30 c0 d1 b1 2e c0 a1 9c 2f c0 99 05 26 c0
       -2.7557142 -2.729603 -2.7439349 -2.5940917
000160 5b 97 2e c0 dd cd 31 c0 68 f8 29 c0 2e 2e 24 c0
       -2.727988 -2.77819 -2.6557865 -2.5653186
000170 b0 39 26 c0 21 46 33 c0 e5 d7 29 c0 fd 95 25 c0
       -2.597271 -2.8011553 -2.6538022 -2.5872796
000180 b7 a2 2f c0 2b 9e ac bf 13 41 91 be 79 45 25 c0
       -2.7443063 -1.3485769 -0.2836996 -2.5823653
000190 1f ee 29 c0 db 97 28 c0 cb 7a 2f c0 26 6b 30 c0
       -2.6551588 -2.6342685 -2.7418697 -2.7565398
0001a0 49 69 25 c0 92 5e 2d c0 a9 a7 31 c0 39 8e 95 bf
       -2.584551 -2.708897 -2.7758582 -1.1684028
0001b0 00 61 29 c0 07 c9 2d c0 e0 28 33 c0 af b3 2b c0
       -2.6465454 -2.7153947 -2.7993698 -2.682842
0001c0 e3 80 2a c0 34 c4 28 c0 84 9a 2c c0 13 29 2b c0
       -2.6641166 -2.6369753 -2.696931 -2.674382
0001d0 a3 f4 2d c0 37 07 33 c0 c7 a6 31 c0 76 3a 2e c0
       -2.7180564 -2.7973154 -2.7758043 -2.7223182
0001e0 e3 3f 2d c0 8f e3 25 c0 1d 30 29 c0 89 03 25 c0
       -2.7070243 -2.592014 -2.6435616 -2.5783408
0001f0 3d 09 a9 bf 11 ea 31 c0 73 1b 28 c0 a1 51 26 c0
       -1.3205944 -2.7799113 -2.6266754 -2.5987322
000200 ca e8 2d c0 20 6a 29 c0 4e 3c 2c c0 f8 81 25 c0
       -2.7173333 -2.6471024 -2.6911807 -2.5860577
000210 9c d1 bb bf 06 fa 30 c0 fc 09 2b c0 36 86 29 c0
       -1.4673343 -2.7652602 -2.6724844 -2.6488166
000220 c4 44 26 c0 d2 e6 32 c0 b4 8e 2d c0 19 ec 1e c0
       -2.5979471 -2.7953382 -2.711835 -2.4831603
000230 f9 f2 28 c0 8d d1 2e c0 96 07 98 bf a0 f7 c9 bf
       -2.6398299 -2.73154 -1.1877315 -1.5778694
000240 12 1c e6 bf fb 26 2c c0 69 ea 28 c0 6f 2c cf bf
       -1.7977316 -2.6898792 -2.6393073 -1.6185435
000250 75 bc 2b c0 cd 47 34 c0 18 ae 26 c0 40 f1 2d c0
       -2.6833775 -2.8168824 -2.6043758 -2.7178497
000260 3c 51 23 c0 37 0a 33 c0 68 5b 2f c0 10 af 24 c0
       -2.5518332 -2.7974985 -2.739954 -2.573185
000270 76 af 33 c0 b0 61 2e c0 82 35 2f c0 9e 4f 25 c0
       -2.8075843 -2.7247124 -2.7376409 -2.5829844
000280 37 a4 30 c0 c3 08 a7 bf ec be eb bd 48 55 28 c0
       -2.7600229 -1.3049549 -0.11511025 -2.6302052
000290 cf e3 31 c0 a7 4a 29 c0 f9 02 2b c0 8c 62 30 c0
       -2.7795293 -2.6451814 -2.6720564 -2.7560148
0002a0 49 83 30 c0 ab ba 33 c0 4d ec 2e c0 c9 17 ad bf
       -2.758013 -2.8082683 -2.7331727 -1.3522884
0002b0 13 10 2d c0 38 be 32 c0 53 84 27 c0 dd 58 25 c0
       -2.704106 -2.79286 -2.6174514 -2.5835488
0002c0 88 4e 28 c0 89 2e 32 c0 be 0f 25 c0 e0 a6 29 c0
       -2.6297932 -2.7840903 -2.5790858 -2.6508102
0002d0 90 fa 31 c0 cd 68 2e c0 92 8d 28 c0 9f 46 29 c0
       -2.7809181 -2.7251465 -2.6336408 -2.6449354
0002e0 cd d4 2a c0 47 be 2a c0 37 da 31 c0 58 49 2b c0
       -2.6692383 -2.6678636 -2.7789438 -2.6763515
0002f0 63 48 a5 bf 77 65 32 c0 a8 ee 30 c0 d2 e3 29 c0
       -1.2912716 -2.787443 -2.7645664 -2.65453
000300 e1 c4 32 c0 57 3d 2d c0 fd b6 2c c0 cf ec 32 c0
       -2.7932665 -2.706869 -2.6986687 -2.7957036
000310 3f 58 d0 bf e9 b3 2c c0 37 91 32 c0 d5 c6 28 c0
       -1.627693 -2.6984808 -2.7901132 -2.6371357
000320 bc 6c 26 c0 b9 b7 28 c0 af 7a 2f c0 f1 07 29 c0
       -2.6003866 -2.6362135 -2.741863 -2.6411097
000330 02 0f 2e c0 e7 12 28 c0 df 74 9c bf 3d bf ed bf
       -2.719666 -2.6261537 -1.2223166 -1.8573986
000340 59 85 f4 bf bf 95 26 c0 65 f7 25 c0 d3 9d d6 bf
       -1.9103194 -2.6028898 -2.5932248 -1.6766914
000350 46 c4 30 c0 28 65 24 c0 bf c5 31 c0 41 41 32 c0
       -2.7619796 -2.568674 -2.7776945 -2.7852328
000360 11 83 2b c0 e5 bb 2a c0 b0 0b 24 c0 8b 1a 27 c0
       -2.6798747 -2.6677182 -2.5632133 -2.610995
000370 6a 8e 2a c0 41 c7 29 c0 e5 6d 24 c0 1e 35 2c c0
       -2.6649423 -2.6527865 -2.5692074 -2.690742
000380 a2 a1 2b c0 39 49 b7 bf 27 8e ed bd 01 2c 2d c0
       -2.6817403 -1.4319221 -0.11599379 -2.7058108
000390 b7 55 2d c0 77 d4 2e c0 38 dd 25 c0 67 4a 28 c0
       -2.7083566 -2.7317178 -2.5916271 -2.6295412
0003a0 ff 75 2a c0 a1 93 26 c0 2b 96 2f c0 9a d8 ab bf
       -2.663452 -2.6027606 -2.7435405 -1.3425477
0003b0 72 34 2f c0 62 c0 26 c0 d7 d0 2c c0 4c f2 26 c0
       -2.737576 -2.605492 -2.7002466 -2.6085386
0003c0 2c 9a 2b c0 2e e1 28 c0 d6 ce 30 c0 80 fd 27 c0
       -2.681285 -2.6387439 -2.7626243 -2.6248474
0003d0 ba e0 2b c0 63 1e 27 c0 10 19 2c c0 2f 19 2b c0
       -2.6855912 -2.6112297 -2.6890297 -2.673412
0003e0 c6 ac 26 c0 cd 0a 32 c0 75 79 2a c0 0c d0 2f c0
       -2.6042953 -2.7819092 -2.6636631 -2.7470732
0003f0 e7 10 b3 bf ff fc 27 c0 b9 e2 2d c0 fd 94 2f c0
       -1.3989533 -2.6248167 -2.716963 -2.7434685

fc3.bias f4 [6]
000000 da ca 2e c0 30 fa 28 c0 6a cd 2c c0 af c1 27 c0
       -2.731131 -2.6402702 -2.7000375 -2.6211965
000010 e9 16 21 c0 2c 1c 23 c0
       -2.5170233 -2.5485945
