dqn_taxi_light64.pth (torch, 45922 bytes, 6 tensors)

fc1.weight f4 [128, 16]
0.5697461 0.28739148 0.07658464 0.11390594 0.14888412 1.092519 1.0592202 -0.2342276
0.73469514 1.0643709 1.0154948 0.6025112 0.6213525 1.0693412 0.22758655 0.7886751
0.43499944 0.6001105 0.11191732 -0.21655506 -0.07463819 1.0902725 1.1189166 -0.033395737
0.8673513 0.844867 1.1349212 0.73021543 0.8793614 1.4610583 0.155864 0.6699512
0.24605998 0.5495463 -0.04416305 -0.18054095 -0.18339905 1.155091 0.96866363 -0.1270448
1.1114762 0.96897143 1.2798008 0.38921657 0.5242401 1.0821031 0.4461357 0.5129946
-0.0844616 -0.19071832 0.20384136 0.105490535 -0.01264596 0.010051876 -0.11296034 0.036167383
0.11214778 -0.23197675 0.028704405 -0.21699983 -0.04926148 -0.072058946 -0.20194665 0.18833968
0.2842606 0.24932742 0.064055204 -0.22314876 -0.21724638 0.7564227 0.9652726 0.09960252
0.8849476 1.116814 1.4623986 0.56886715 0.5080179 1.4156092 0.39066154 0.8584977
0.034990218 0.15311304 0.19720349 -0.015102118 -0.00045338273 0.02894115 -0.067052215 -0.2409662
-0.23523521 0.06959628 0.026394606 0.023308108 0.009487734 -0.18223688 0.009428985 -0.15462472
0.01924938 -0.105240464 -0.14713997 0.13060498 -0.18480328 -0.17569545 -0.09639794 -0.017012924
-0.24290273 -0.049352676 -0.24381036 0.09317213 0.09349808 0.0991486 -0.09084502 0.21435961
0.18119192 0.2968879 0.17200011 -0.09849855 -0.12855005 0.7255855 1.1664782 0.23189688
0.81829673 1.1439658 1.1188601 0.5209119 0.4540345 1.1080928 0.25251052 0.8566381
0.5221073 0.57262444 -0.09208998 0.070076674 0.16866085 1.0767387 1.0587066 -0.10056397
1.157387 1.0059673 1.3611587 0.46668226 0.70909035 1.156381 0.42456207 0.9099762
0.28024408 0.20237382 0.12661144 -0.015567064 0.06371057 1.1587926 1.0839212 0.1557652
0.816322 0.96592635 1.2193768 0.5327436 0.68027484 1.1397578 0.34764647 0.91581684
0.18689615 0.58085376 -0.08368114 0.18348503 -0.07899487 0.9971786 0.9156322 -0.22044176
0.87323695 0.9599644 1.307494 0.43294796 0.67152286 1.0697308 0.37090388 0.67493474
0.0037081242 -0.17292726 0.11413255 0.027752787 0.14903179 -0.06796229 -0.24345806 0.18174404
-0.22443861 0.22558698 -0.033045977 0.24425131 -0.020871758 -0.10646394 0.18635395 -0.095983714
0.19103523 0.36372682 -0.17375958 -0.21869794 0.07650471 1.0064354 1.0310049 0.13931453
0.99029 0.8487192 1.3679413 0.38448226 0.81881714 1.105207 0.48341554 0.99524117
0.48103452 0.5610026 -0.12536955 0.18619642 -0.07250923 0.6937423 0.92760503 -0.20024309
0.9965074 0.9513124 1.2373482 0.6282808 0.533964 1.1712155 0.2002306 0.55646825
0.53086495 0.34770602 0.18205604 -0.09183368 -0.110298425 0.7685426 1.0771434 0.020911366
1.1357249 0.7881828 1.5185091 0.41389385 0.49318236 1.1223388 0.39920133 0.5422872
0.26683018 0.49249202 0.08610895 -0.044912577 0.21711934 1.156759 0.77723503 0.22743022
1.1775358 0.95249176 1.3428897 0.63340837 0.45674086 1.4249877 0.34075728 0.5484352
00000000: e1da 113f fa24 933e 68d8 9c3d 8447 e93d
00000010: 1475 183e aad7 8b3f 8794 873f 5cd9 6fbe
00000020: fb14 3c3f 4e3d 883f bcfb 813f 2d3e 1a3f
00000030: f510 1f3f 2ce0 883f 730c 693e 9de6 493f
00000040: 3fb8 de3e d7a0 193f e834 e53d 9cc0 5dbe
00000050: e8db 98bd 0d8e 8b3f a938 8f3f f8c9 08bd
00000060: bc0a 5e3f 3449 583f 1945 913f 66ef 3a3f
00000070: d41d 613f f503 bb3f d09a 1f3e ec81 2b3f
00000080: 26f7 7b3e 11af 0c3f 50e4 34bd badf 38be
00000090: f6cc 3bbe 06da 933f 57fa 773f 0818 02be
000000a0: da44 8e3f 830e 783f 83d0 a33f 6547 c73e
000000b0: 9934 063f 5b82 8a3f e66b e43e 9d53 033f
000000c0: 34fa acbd aa4b 43be cabb 503e 6c0b d83d
000000d0: 0031 4fbc a0b0 243c c057 e7bd 4024 143d
000000e0: bcad e53d 508b 6dbe 8025 eb3c 3435 5ebe
000000f0: 68c6 49bd a493 93bd 1acb 4ebe 1edc 403e
00000100: 9b8a 913e b04f 7f3e 602f 833d 1c81 64be
00000110: d675 5ebe eba4 413f 1b1c 773f 68fc cb3d
00000120: ed8b 623f c3f3 8e3f e12f bb3f 47a1 113f
00000130: 760d 023f af32 b53f ca04 c83e 81c6 5b3f
00000140: e751 0f3d aac9 1c3e b6ef 493e e06e 77bc
00000150: 00b4 edb9 fe15 ed3c ac52 89bd d8bf 76be
00000160: 80e1 70be 7f88 8e3d 8039 d83c a5f0 be3c
00000170: 7172 1b3c 4e9c 3abe 087c 1a3c f155 1ebe
00000180: e0b0 9d3c 5088 d7bd dcab 16be 50bd 053e
00000190: 123d 3dbe 82e9 33be 486c c5bd b05e 8bbc
000001a0: 7ebb 78be 0826 4abd 6ca9 79be 08d1 be3d
000001b0: ec7b bf3d 6c0e cb3d f40c babd 1681 5b3e
000001c0: 608a 393e b101 983e cc20 303e 9cb9 c9bd
000001d0: a0a2 03be f9bf 393f 284f 953f 6076 6d3e
000001e0: e57b 513f 796d 923f cf36 8f3f 7b5a 053f
000001f0: 3677 e83e fcd5 8d3f 0f49 813e a24c 5b3f
00000200: d3a8 053f 8497 123f ac99 bcbd 5c84 8f3d
00000210: 6eb5 2c3e 93d2 893f b383 873f 7cf4 cdbd
00000220: 4225 943f 89c3 803f 733a ae3f faf0 ee3e
00000230: f286 353f 4b04 943f 3360 d93e 33f4 683f
00000240: 277c 8f3e 153b 4f3e 6ea6 013e 000d 7fbc
00000250: b07a 823d 5153 943f eebd 8a3f ea80 1f3e
00000260: 7bfa 503f f346 773f 8a14 9c3f e261 083f
00000270: 7e26 2e3f 95e3 913f b8fe b13e f972 6a3f
00000280: b461 3f3e d5b2 143f 0461 abbd 80e3 3b3e
00000290: 10c8 a1bd 1947 7f3f df66 6a3f 7cbb 61be
000002a0: 758c 5f3f 3ac0 753f f75b a73f 5bab dd3e
000002b0: ece8 2b3f f0ec 883f 1de7 bd3e 86c8 2c3f
000002c0: 0004 733b d813 31be 54be e93d d059 e33c
000002d0: ca9b 183e d02f 8bbd 124d 79be 1c1b 3a3e
000002e0: 3cd3 65be 4600 673e 385b 07bd 041d 7a3e
000002f0: 40fb aabc c409 dabd 92d3 3e3e 1c93 c4bd
00000300: bd9e 433e 673a ba3e 08ee 31be 5af2 5fbe
00000310: 80ae 9c3d e0d2 803f f8f7 833f 78a8 0e3e
00000320: a583 7d3f a945 593f b318 af3f dcda c43e
00000330: 009e 513f 6c77 8d3f 3e82 f73e 20c8 7e3f
00000340: 284a f63e de9d 0f3f e060 00be 46aa 3e3e
00000350: b87f 94bd 1899 313f 8677 6d3f 860c 4dbe
00000360: 1c1b 7f3f 3689 733f 6d61 9e3f 03d7 203f
00000370: ddb1 083f 64ea 953f 4009 4d3e b474 0e3f
00000380: c4e6 073f 8606 b23e e66c 3a3e 4c13 bcbd
00000390: 24e4 e1bd 35bf 443f d6df 893f 504e ab3c
000003a0: 6f5f 913f 59c6 493f 825e c23f e5e9 d33e
000003b0: 6682 fc3e cca8 8f3f 1e64 cc3e 55d3 0a3f
000003c0: f79d 883e ea27 fc3e e459 b03d 40f6 37bd
000003d0: 8854 5e3e ae10 943f e0f8 463f 78e3 683e
000003e0: 7eb9 963f 80d6 733f cfe3 ab3f 0d27 223f
000003f0: f0d9 e93e ff65 b63f bd77 ae3e 4066 0c3f

fc1.bias f4 [128]
1.3406744 1.4920226 1.5406729 0.08882356 1.6190299 -0.11113768 -0.08890766 1.518033
1.682448 1.3292302 1.4549328 -0.1762271 1.6436669 1.2304492 1.6247576 1.6210138
1.5493042 0.15503468 -0.19092068 1.4113603 1.705122 1.3601774 1.6837572 1.5631704
0.084311366 -0.2431637 -0.04611805 -0.15318069 1.4151703 1.3405815 1.2446856 1.6045276
1.3038329 0.23861215 1.4170698 1.2205532 1.4068133 1.1974437 -0.14355552 1.2729964
1.4384481 1.4787866 1.474845 1.3435491 1.5081754 1.6468507 -0.1526464 -0.1759809
1.5500522 1.6829466 1.4219272 1.6713045 1.1999749 0.07008445 1.6880542 1.3294713
-0.15772411 1.6515106 1.2284698 -0.17545632 1.3741888 -0.19239601 1.6064807 -0.16038784
1.630274 1.4413645 1.6362073 1.394157 0.23158923 -0.16813108 1.2355692 1.5043687
1.2229367 1.2812545 0.032462656 1.6902564 1.3179563 -0.1320185 1.6065522 1.5719136
-0.16947237 1.3324219 1.6898745 -0.14347747 1.6090522 1.3405927 1.4497178 1.6292018
1.3158958 1.6070619 1.700928 1.5598258 -0.23922035 1.6320198 1.6125603 1.6653559
1.3550658 1.6849449 0.089532346 1.4962751 -0.2430574 1.401999 1.327207 0.059609383
1.3468468 -0.19522282 1.5968511 1.4641088 1.2632679 1.4164542 1.4179792 0.14668053
1.541276 0.23900601 1.279912 1.193863 1.4162207 1.5983547 0.16247281 1.6884077
1.6282533 1.5497735 1.3106042 1.6257181 0.11633214 1.2504921 1.6294848 1.5980871
00000000: 389b ab3f 99fa be3f c534 c53f 20e9 b53d
00000010: 5f3c cf3f 279c e3bd 3815 b6bd e84e c23f
00000020: 755a d73f 3724 aa3f 3d3b ba3f e074 34be
00000030: ad63 d23f 5c7f 9d3f 0ff8 cf3f 617d cf3f
00000040: 9a4f c63f 69c1 1e3e b680 43be 74a7 b43f
00000050: 7041 da3f 4b1a ae3f 5b85 d73f f815 c83f
00000060: 70ab ac3d e8ff 78be 48e6 3cbd 66db 1cbe
00000070: 4d24 b53f 2d98 ab3f dc51 9f3f 2961 cd3f
00000080: ffe3 a63f be56 743e 8b62 b53f 163b 9c3f
00000090: 7512 b43f d645 993f 3800 13be 8cf1 a23f
000000a0: 111f b83f e148 bd3f b9c7 bc3f 6bf9 ab3f
000000b0: e40b c13f 01cc d23f 564f 1cbe 5634 34be
000000c0: 1c68 c63f cb6a d73f b601 b63f 4eed d53f
000000d0: c798 993f 7088 8f3d 2912 d83f 1e2c aa3f
000000e0: 6e82 21be b364 d33f 803e 9d3f d2aa 33be
000000f0: 6be5 af3f 7603 45be 29a1 cd3f b63c 24be
00000100: d2ac d03f a27e b83f 3e6f d13f bd73 b23f
00000110: ba25 6d3e 8e2a 2cbe 2227 9e3f 278f c03f
00000120: 3189 9c3f 2600 a43f 90f7 043d 525a d83f
00000130: cbb2 a83f dc2f 07be 81a3 cd3f 7734 c93f
00000140: 2a8a 2dbe cd8c aa3f cf4d d83f c2eb 12be
00000150: 6cf5 cd3f 8b98 ab3f 5a90 b93f af89 d03f
00000160: 466f a83f 34b4 cd3f 02b8 d93f 5fa8 c73f
00000170: 2ef6 74be 06e6 d03f 6068 ce3f 622a d53f
00000180: cc72 ad3f 46ac d73f bc5c b73d f185 bf3f
00000190: 0ae4 78be b474 b33f ebe1 a93f f828 743d
000001a0: 7a65 ac3f 7ee8 47be 9e65 cc3f eb67 bb3f
000001b0: c3b2 a13f 5f4e b53f 5880 b53f 6c33 163e
000001c0: 8848 c53f febd 743e 28d4 a33f 81d0 983f
000001d0: b846 b53f e396 cc3f 465f 263e be1d d83f
000001e0: 9b6a d03f fa5e c63f e1c1 a73f 8817 d03f
000001f0: 8c3f ee3d 2010 a03f f592 d03f 1e8e cc3f

fc2.weight f4 [64, 128]
-0.031535536 0.013502221 0.03478507 0.014981044 -0.08632964 -0.08680027 -0.025384657 0.019765573
0.039058276 -0.036724567 -0.0053445827 0.0762828 -0.014741121 -0.082125254 -0.04800087 0.056589488
0.04246891 0.0660326 -0.08183801 0.055820864 -0.017403778 -0.09235059 0.00059564033 0.07099072
0.07339273 -0.07097844 0.012209457 0.018226288 0.006010802 0.013599521 -0.02103171 -0.0017898818
-0.005786803 0.045090195 0.073516324 0.02073907 0.059097867 0.058357578 -0.015937377 -0.08142993
0.025350703 0.0683532 -0.07919214 -0.06441425 0.009865495 0.056927733 0.023259223 -0.072614424
-0.04170932 0.014211023 -0.013395617 -0.052287396 -0.014483891 -0.019014781 0.021601181 0.07728081
-0.07543477 -0.054861713 -0.034568634 0.0040752525 -0.015913473 -0.0065381774 -0.07544696 -0.08179276
-0.01809277 0.050461963 -0.017230382 -0.055571485 0.008734291 -0.021253044 0.061644003 -0.075732745
0.051149476 -0.071011364 0.035611324 -0.025889436 0.07796472 -0.0554552 -0.07465067 -0.01763923
-0.048144132 0.016921893 -0.0083510885 -0.060243733 0.020225594 0.07634424 0.013954953 -0.060794413
0.005468128 -0.013322004 0.044506334 -0.06338074 0.014177736 -0.047886048 -0.04730376 -0.009069295
0.014658639 0.0054343627 0.009135751 -0.0014177003 0.025976399 0.06028152 -0.087197416 0.049739875
-0.025641058 -0.022809284 0.05809873 0.0053657247 -0.06231536 0.04930745 -0.079773515 0.056359332
0.017593596 -0.038241193 -0.06949921 -0.031240385 0.030878158 -0.007323186 -0.07954914 -0.012589604
-0.0037675384 -0.0024070882 -0.08028296 -0.040147863 0.06401525 -0.029539216 0.012747168 -0.063659854
-0.012752078 -0.024662528 -0.07102975 -0.014324449 0.0127369985 -0.027341746 0.059067585 -0.07378805
0.050407343 0.054734673 -0.018932996 0.08440801 0.055638332 -0.062087316 0.08002794 0.060900148
0.013593739 -0.078233615 0.055996206 0.024200367 -0.05090929 0.005922222 0.057399064 -0.018801969
-0.011599655 0.054770347 -0.017668812 -0.05164267 -0.046208333 0.00092591357 -0.019057704 0.030268371
-0.056338713 -0.038190704 -0.069850214 0.025462665 0.0034591174 0.06452125 -0.061468754 0.029300623
-0.009053385 -0.008961433 0.077538654 -0.06191032 -0.047324244 0.002335557 -0.036683742 -0.042042524
-0.049797475 -0.06706994 0.008922013 -0.034284096 -0.022370404 0.007559522 -0.089917034 -0.07475003
0.00029848397 -0.01736049 -0.02750603 0.008812927 0.044011664 0.07349961 0.04484583 0.051886164
-0.063384145 0.02828241 0.0012614629 -0.066935994 -0.033646945 -0.07302143 0.0076511176 0.009296046
-0.07239113 0.017461454 0.08250853 0.047741827 0.040405747 -0.048821993 -0.047804456 -0.02959388
0.068511315 0.075436644 -0.016535413 -0.060711976 -0.00541449 0.05787881 0.05628341 0.010996955
-0.05195313 0.030701296 -0.0029776872 0.0063283704 0.017203985 0.08639399 -0.079723425 -0.04645603
0.023960793 0.058789402 0.06954445 -0.01013676 0.023989964 0.042469457 -0.04444231 0.016885208
0.014016784 -0.066444024 -0.04519248 -0.04441569 -0.05581556 0.08108417 0.0208848 -0.035393964
-0.030748902 0.007457895 0.023990601 -0.078354344 -0.023366472 -0.023491941 0.08568682 0.07094208
0.009129481 0.047298968 0.07459518 0.025069708 -0.07552883 0.019045139 -0.03216603 0.02673913
00000000: 682b 01bd 6b38 5d3c ca7a 0e3d 0e73 753c
00000010: 98cd b0bd 57c4 b1bd 7cf3 cfbc 69eb a13c
00000020: 92fb 1f3d 806c 16bd 9c21 afbb 283a 9c3d
00000030: be84 71bc 4931 a8bd 8f9c 44bd 61ca 673d
00000040: e1f3 2d3d 1a3c 873d b09a a7bd 6ba4 643d
00000050: 5e92 8ebc 4e22 bdbd bf24 1c3a 9563 913d
00000060: ed4e 963d 255d 91bd 2d0a 483c 4c4f 953c
00000070: 43f6 c43b 86d0 5e3c b14a acbc 789a eaba
00000080: 399f bdbb 7fb0 383d ba8f 963d fbe4 a93c
00000090: 9b10 723d 5b08 6f3d 1a8f 82bc bcc4 a6bd
000000a0: 47ac cf3c c3fc 8b3d 7d2f a2bd 9eeb 83bd
000000b0: e3a2 213c 0e2d 693d 208a be3c dfb6 94bd
000000c0: 64d7 2abd 5ad5 683c 4a79 5bbc 4f2b 56bd
000000d0: d84d 6dbc e3c4 9bbc f6f4 b03c 6745 9e3d
000000e0: 8b7d 9abd adb6 60bd d797 0dbd b289 853b
000000f0: f95c 82bc 353e d6bb f083 9abd f682 a7bd
00000100: 4a37 94bc 34b1 4e3d bb26 8dbc ed9e 63bd
00000110: 461a 0f3c dd1a aebc 6c7e 7c3d c519 9bbd
00000120: 1d82 513d 686e 91bd 2edd 113d 1516 d4bc
00000130: f8ab 9f3d fe24 63bd 73e2 98bd 2580 90bc
00000140: c832 45bd c89f 8a3c 01d3 08bc 22c2 76bd
00000150: 25b0 a53c 5e5a 9c3d 51a3 643c 9003 79bd
00000160: fb2d b33b 8944 5abc 464c 363d c3cd 81bd
00000170: bc49 683c 2924 44bd 96c1 41bd 6197 14bc
00000180: ca2a 703c bd12 b23b 1eae 153c 21d2 b9ba
00000190: 75cc d43c c1e9 763d 8f94 b2bd 0abc 4b3d
000001a0: 320d d2bc 89da babc eff8 6d3d f6d2 af3b
000001b0: 643e 7fbd 9cf6 493d 4c60 a3bd 0bd9 663d
000001c0: 7220 903c cca2 1cbd 9a55 8ebd d6eb ffbc
000001d0: 31f4 fc3c 56f7 efbb a9ea a2bd a044 4ebc
000001e0: cee8 76bb 3dc0 1dbb 646b a4bd 1672 24bd
000001f0: 6d1a 833d 3afc f1bc 7fd9 503c 1960 82bd
00000200: 17ee 50bc 1209 cabc 0c78 91bd 18b1 6abc
00000210: d8ae 503c ccfb dfbc daf0 713d 301e 97bd
00000220: ee77 4e3d 7731 603d 5f19 9bbc 1bde ac3d
00000230: 05e5 633d 454f 7ebd b0e5 a33d 6f72 793d
00000240: 46b8 5e3c f238 a0bd 475c 653d d93f c63c
00000250: 4286 50bd 330f c23b 481b 6b3d 9606 9abc
00000260: 7b0c 3ebc df56 603d 2fbe 90bc 4487 53bd
00000270: f344 3dbd 02b9 723a e71e 9cbc 60f5 f73c
00000280: 6cc3 66bd db6d 1cbd a10d 8fbd 1497 d03c
00000290: 5cb2 623b b823 843d a9c6 7bbd dc07 f03c
000002a0: a654 14bc f9d2 12bc 96cc 9e3d ad95 7dbd
000002b0: 11d7 41bd 2510 193b b141 16bd c834 2cbd
000002c0: 70f8 4bbd f75b 89bd a32d 123c 7b6d 0cbd
000002d0: 2342 b7bc deb5 f73b 6c26 b8bd 8b16 99bd
000002e0: d77d 9c39 9637 8ebc 5354 e1bc 1864 103c
000002f0: 9345 343d f786 963d 43b0 373d 9686 543d
00000300: 8ccf 81bd 83b0 e73c ac57 a53a bd15 89bd
00000310: 61d1 09bd 428c 95bd 3ab6 fa3b 714e 183c
00000320: cd41 94bd 530b 8f3c 3bfa a83d ef8c 433d
00000330: 7f80 253d 92f9 47bd 9bce 43bd dd6e f2bc
00000340: a94f 8c3d 877e 9a3d 4675 87bc 1fad 78bd
00000350: 096c b1bb 5512 6d3d 6f89 663d 932c 343c
00000360: cecc 54bd 4981 fb3c 4d25 43bb 385e cf3b
00000370: 5fef 8c3c 55ef b03d 0946 a3bd ae48 3ebd
00000380: 6d49 c43c 28cd 703d 526d 8e3d a714 26bc
00000390: 9a86 c43c 74f4 2d3d 2409 36bd d952 8a3c
000003a0: a7a6 653c ce13 88bd c01b 39bd 3aed 35bd
000003b0: db9e 64bd 750f a63d 9a16 ab3c 43f9 10bd
000003c0: 1fe5 fbbc 5c61 f43b f087 c43c 3e78 a0bd
000003d0: 0b6b bfbc 2c72 c0bc 927c af3d 154a 913d
000003e0: d293 153c 90bc 413d 5cc5 983d fd5e cd3c
000003f0: dcae 9abd 8d04 9c3c 87c0 03bd 050c db3c

fc2.bias f4 [64]
-0.009071693 0.018151768 1.1289108 1.0486889 -0.0068870494 1.1253775 0.0044503487 1.2523354
1.2900726 0.021689316 1.1641665 -0.0412655 -0.09274443 1.1743934 0.03283628 0.031648543
1.1447097 1.2015322 -0.04213169 0.022258403 -0.07562864 1.1387576 1.1388652 1.037704
0.025247194 0.052802306 -0.08009208 1.1922262 -0.006676096 0.064809725 0.07992057 0.029612783
0.013352901 -0.08367918 1.0960716 1.2357962 0.020223677 -0.028495235 0.051318657 0.0424225
1.0892484 -0.05170333 -0.010363786 -0.031658858 0.06343336 1.1559725 -0.04832109 -0.02752775
-0.024717767 0.0780912 0.058643702 1.1582283 -0.039003503 -0.05279254 -0.078237884 0.08155211
1.2253193 -0.0958753 0.045862157 1.2797167 1.2235273 0.06661919 -0.066143624 -0.08593874
00000000: 70a1 14bc 04b3 943c 2680 903f 703b 863f
00000010: c2ac e1bb 5f0c 903f 3bd4 913b 874c a03f
00000020: 1921 a53f cbad b13c 6803 953f 0306 29bd
00000030: cbf0 bdbd 8652 963f 567f 063d e7a1 013d
00000040: d985 923f cfcb 993f 4792 2cbd 4157 b63c
00000050: 30e3 9abd cfc2 913f 56c6 913f 7cd3 843f
00000060: 34d3 ce3c 3b47 583d 5107 a4bd de9a 983f
00000070: 27c3 dabb f6ba 843d 65ad a33d 8296 f23c
00000080: 20c6 5a3c fd5f abbd 134c 8c3f 922e 9e3f
00000090: 20ac a53c d76e e9bc 8333 523d 37c3 2d3d
000000a0: 7e6c 8b3f dfc6 53bd decc 29bc b8ac 01bd
000000b0: 59e9 813d e8f6 933f 56ec 45bd e081 e1bc
000000c0: ea7c cabc 47ee 9f3d 6134 703d d340 943f
000000d0: 23c2 1fbd fe3c 58bd 2f3b a0bd cb04 a73d
000000e0: 43d7 9c3f 455a c4bd f5d9 3b3d c2cd a33f
000000f0: 8b9c 9c3f a46f 883d 4f76 87bd a600 b0bd

fc3.weight f4 [6, 64]
0.109591104 0.0657687 -0.551984 -0.45095676 0.07887269 -0.4750882 0.10801068 -0.47044793
-0.67710483 0.053153023 -0.68494636 -0.033281967 -0.046775848 -0.67558795 -0.11490159 0.033900622
-0.67332196 -0.5531422 -0.119126804 -0.036584422 -0.10313837 -0.6262066 -0.6112647 -0.5755536
-0.0002554362 -0.09909389 -0.089984536 -0.54743236 0.027953506 -0.0014626735 0.07377258 0.08751374
0.07210554 -0.08225189 -0.6756029 -0.4611195 0.031436697 0.1246307 -0.019513682 0.040252704
-0.47643965 0.04882157 0.11849435 -0.092829004 0.11161047 -0.54506963 0.013852441 -0.0070688725
-0.014018659 0.080823824 -0.12079451 -0.5671824 0.116811894 0.011600604 -0.011372694 0.08763623
-0.48744726 -0.13064663 -0.08015987 -0.5805343 -0.45491248 -0.00021660888 0.073790915 -0.061770324
-0.037206743 0.10808413 -0.53664464 -0.63112444 0.103946775 -0.6173063 0.049125522 -0.4568339
-0.6117671 -0.078765765 -0.5616957 0.1103539 0.0676412 -0.6178168 -0.09249203 -0.06822441
-0.5115747 -0.6192257 0.007050985 0.073583126 0.10257538 -0.6531187 -0.4648541 -0.48779204
-0.1007486 -0.12921493 0.07011692 -0.62156343 0.11302895 0.11499222 0.039719254 -0.12040103
-0.08689302 -0.10630484 -0.45431682 -0.50146824 0.075378425 -0.038437266 -0.02585411 -0.011008854
-0.6411194 -0.103366524 -0.022085778 0.01771526 -0.09482013 -0.41132975 -0.06851643 -0.08771099
0.03309494 0.054582004 0.05374208 -0.5972167 0.022413032 0.10963673 0.052147254 0.06008552
-0.6213187 -0.07412167 -0.024193697 -0.55453074 -0.6422963 -0.020634204 -0.056031544 -0.084038995
0.005623571 0.004115686 -0.48864838 -0.46111616 -0.13846532 -0.50598305 -0.124237314 -0.580071
-0.52039844 0.05298783 -0.5405182 -0.025454272 0.015473274 -0.5302843 -0.04767163 -0.122430615
-0.6081179 -0.6591296 0.041599877 0.06992364 -0.006190002 -0.5677525 -0.678329 -0.6596526
0.08389829 0.07168109 0.04332383 -0.5927137 0.07165262 -0.09951268 -0.04496506 -0.11074491
0.0014296025 -0.09678447 -0.59399205 -0.5169051 0.06459424 0.060582604 0.046734303 0.120780975
-0.49558458 -0.023397982 0.028186982 -0.06719561 -0.055257246 -0.5103508 0.100332215 -0.11081448
0.094345495 0.0037060287 0.04791458 -0.62594223 -0.12622672 -0.05049921 -0.06401957 0.022726173
-0.6028477 0.053023554 0.10497306 -0.5888611 -0.4903244 0.020885676 0.02638898 -0.05829007
0.04992905 -0.07769874 -0.5314379 -0.519672 0.05743776 -0.55818504 0.054749236 -0.64361924
-0.6189213 0.05146548 -0.58168674 0.10780773 0.04512409 -0.5666003 0.039469883 0.054859243
-0.5364644 -0.53824466 -0.05075376 0.042188123 -0.05811724 -0.6110669 -0.6116499 -0.44876835
-0.033077545 0.03138742 -0.079120204 -0.571241 -0.036620796 0.062861495 0.10357132 -0.059504624
-0.10051821 0.011556029 -0.41003725 -0.5511512 -0.05015579 0.09138132 0.008511484 -0.10368046
-0.457727 -0.115409866 0.081310235 -0.09198481 0.115287736 -0.66233957 -0.09074868 0.008716747
-0.013458138 -0.020035347 -0.06550901 -0.6251842 0.10799108 -0.08246803 -0.085358314 -0.049220562
-0.47247997 0.09124825 0.1058472 -0.67172253 -0.6145803 0.11389254 0.10644566 0.04466403
00000000: 4d71 e03d bdb1 863d d34e 0dbf cee3 e6be
00000010: 0188 a13d c33e f3be b434 dd3d 8dde f0be
00000020: be56 2dbf fcb6 593d a558 2fbf ac52 08bd
00000030: 0898 3fbd 55f3 2cbf 8651 ebbd 61db 0a3d
00000040: d45e 2cbf ba9a 0dbf c1f8 f3bd 8cd9 15bd
00000050: 363a d3bd 134f 20bf d87b 1cbf 7b57 13bf
00000060: 11ec 85b9 bdf1 cabd d049 b8bd 8724 0cbf
00000070: c0fe e43c 2eb7 bfba 1416 973d 673a b33d
00000080: 12ac 933d ae73 a8bd 50f4 2cbf db17 ecbe
00000090: c4c3 003d 613e ff3d 28db 9fbc 05e0 243d
000000a0: e6ef f3be 20f9 473d 2aad f23d 221d bebd
000000b0: 0894 e43d af89 0bbf 59f5 623c 00a2 e7bb
000000c0: 84ae 65bc f686 a53d 1d63 f7bd de32 11bf
000000d0: 133b ef3d 7610 3e3c 8954 3abc a07a b33d
000000e0: b092 f9be 3bc8 05be dc2a a4bd e59d 14bf
000000f0: 4aea e8be 8121 63b9 b11f 973d e102 7dbd
00000100: 1966 18bd 365b dd3d 8b61 09bf 5f91 21bf
00000110: 0ce2 d43d c907 1ebf d837 493d 22e6 e9be
00000120: c59c 1cbf f24f a1bd 4acb 0fbf 3a01 e23d
00000130: 7887 8a3d 3e29 1ebf 766c bdbd 3db9 8bbd
00000140: 8ff6 02bf 9385 1ebf f30b e73b c0b2 963d
00000150: 0a13 d23d ca32 27bf 5b01 eebe e1bf f9be
00000160: 4855 cebd eb50 04be 7699 8f3d c81e 1fbf
00000170: b97b e73d 0b81 eb3d a8b0 223d d194 f6bd
00000180: f8f4 b1bd 5ab6 d9bd 379c e8be 3960 00bf
00000190: 0160 9a3d 6570 1dbd 00cc d3bc 7b5e 34bc
000001a0: 6720 24bf d4b1 d3bd 3ced b4bc 981f 913c
000001b0: 0e31 c2bd d099 d2be 5852 8cbd d2a1 b3bd
000001c0: 8f8e 073d 6191 5f3d a820 5c3d 32e3 18bf
000001d0: 899b b73c 3989 e03d 5c98 553d 3c1c 763d
000001e0: be0e 1fbf 1acd 97bd dc31 c6bc baf5 0dbf
000001f0: 886d 24bf 1009 a9bc 5581 65bd a31c acbd
00000200: ef45 b83b e0dc 863b 1f30 fabe 6b17 ecbe
00000210: dac9 0dbe 1b88 01bf 2270 febd 887f 14bf
00000220: d538 05bf c409 593d 675f 0abf 7a85 d0bc
00000230: 9d83 7d3c b6c0 07bf 5443 43bd e7bc fabd
00000240: 9dad 1bbf b8bc 28bf a264 2a3d 2034 8f3d
00000250: 80d5 cabb 3a58 11bf f8a6 2dbf fede 28bf
00000260: ded2 ab3d 89cd 923d 5474 313d 16bc 17bf
00000270: 9cbe 923d 4ecd cbbd 482d 38bd 3ace e2bd
00000280: 8061 bb3a f036 c6bd dd0f 18bf e553 04bf
00000290: fc49 843d 7725 783d 786c 3f3d 045c f73d
000002a0: 43bd fdbe 20ad bfbc 63e8 e63c da9d 89bd
000002b0: 6c55 62bd 5aa6 02bf fa7a cd3d b4f2 e2bd
000002c0: 3638 c13d d8e0 723b 1442 443d c03d 20bf
000002d0: 9441 01be 42d8 4ebd b11c 83bd 3d2c ba3c
000002e0: 3a54 1abf 3a2f 593d 1efc d63d 9abf 16bf
000002f0: cd0b fbbe 7018 ab3c b42d d83c 92c1 6ebd
00000300: 6782 4c3d 8420 9fbd 500c 08bf 3909 05bf
00000310: db43 6b3d 37e5 0ebf bc40 603d 3bc4 24bf
00000320: a071 1ebf 78cd 523d 6ce9 14bf 4dca dc3d
00000330: 0ad4 383d b80c 11bf 2cab 213d 16b4 603d
00000340: bb55 09bf 67ca 09bf 2de3 4fbd 74cd 2c3d
00000350: 580c 6ebd e16e 1cbf 1695 1cbf f7c4 e5be
00000360: 527c 07bd 1890 003d c609 a2bd da3c 12bf
00000370: b0ff 15bd 87bd 803d 331d d43d 1fbb 73bd
00000380: 7edc cdbd 8055 3d3c 67f0 d1be 3f18 0dbf
00000390: 2870 4dbd 2126 bb3d c073 0b3c 6c56 d4bd
000003a0: 315b eabe 025c ecbd fb85 a63d 8862 bcbd
000003b0: fa1b ec3d 168f 29bf 72da b9bd b0d0 0e3c
000003c0: 867f 5cbc 2b21 a4bc 9629 86bd 120c 20bf
000003d0: 6d2a dd3d 00e5 a8bd 57d0 aebd 809b 49bd
000003e0: e5e8 f1be 5de0 ba3d 6bc6 d83d 02f6 2bbf
000003f0: 2255 1dbf 7e40 e93d 2f00 da3d a1f1 363d

fc3.bias f4 [6]
-0.42848778 -0.6389049 -0.3291643 -0.62237215 -0.5789097 -0.41601467
00000000: c062 dbbe 468f 23bf 3988 a8be c853 1fbf
00000010: 6d33 14bf e0ff d4be
