dqn_taxi_light64.pth (torch, 45922 bytes, 6 tensors)

fc1.weight f4 [128, 16]
00000000: 6a52 0c3f 0188 733e 68d8 9c3d 8447 e93d
00000010: 1475 183e 4d5c 913f 2a19 8d3f 5cd9 6fbe
00000020: 491e 473f f1c1 8d3f 93a9 873f f75e 1d3f
00000030: 491e 193f 98e9 953f 4e81 943e 332c 4a3f
00000040: db12 d43e f392 0d3f e834 e53d 9cc0 5dbe
00000050: e8db 98bd 9910 913f 35bb 943f f8c9 08bd
00000060: 1110 693f 894e 633f cbd8 963f 5058 3e3f
00000070: e4c2 5b3f 4eb1 c73f 5674 5f3e 79b4 2b3f
00000080: de28 663e e849 003f 50e4 34bd badf 38be
00000090: f6cc 3bbe a860 993f d283 813f 0818 02be
000000a0: 7ccb 933f e98d 813f f674 a93f 64c9 cd3e
000000b0: 3e85 003f 7b62 973f c439 023f 6590 033f
000000c0: 34fa acbd aa4b 43be cabb 503e 6c0b d83d
000000d0: 0031 4fbc a0b0 243c c057 e7bd 4024 143d
000000e0: bcad e53d 508b 6dbe 8025 eb3c 3435 5ebe
000000f0: 68c6 49bd a493 93bd 1acb 4ebe 1edc 403e
00000100: f14f 863e 7c09 4d3e 602f 833d 1c81 64be
00000110: d675 5ebe 5db0 4c3f ca13 813f 68fc cb3d
00000120: 5f97 6d3f 8079 943f 73eb c03f 82b4 143f
00000130: 1b56 f83e 6d28 c23f 6d09 e83e 9508 5c3f
00000140: e751 0f3d aac9 1c3e b6ef 493e e06e 77bc
00000150: 00b4 edb9 fe15 ed3c ac52 89bd d8bf 76be
00000160: 80e1 70be 7f88 8e3d 8039 d83c a5f0 be3c
00000170: 7172 1b3c 4e9c 3abe 087c 1a3c f155 1ebe
00000180: e0b0 9d3c 5088 d7bd dcab 16be 50bd 053e
00000190: 123d 3dbe 82e9 33be 486c c5bd b05e 8bbc
000001a0: 7ebb 78be 0826 4abd 6ca9 79be 08d1 be3d
000001b0: ec7b bf3d 6c0e cb3d f40c babd 1681 5b3e
000001c0: 7680 233e 5872 7e3e cc20 303e 9cb9 c9bd
000001d0: a0a2 03be cdc9 443f 22d4 9a3f 6076 6d3e
000001e0: b985 5c3f 73f2 973f 4fe3 943f a489 083f
000001f0: 3510 dd3e 40b3 9a3f 4949 a13e 3189 5b3f
00000200: 876b 003f 886f 063f ac99 bcbd 5c84 8f3d
00000210: 6eb5 2c3e f257 8f3f 1209 8d3f 7cf4 cdbd
00000220: a1aa 993f e848 863f c2c0 b33f d2e6 f53e
00000230: 8717 303f d3c2 a03f ba69 f93e 9a28 693f
00000240: babd 843e 11ec 1c3e 6ea6 013e 000d 7fbc
00000250: b07a 823d c0d7 993f 5d42 903f ea80 1f3e
00000260: 4f03 5c3f e327 813f 34ad a13f 5cb1 0b3f
00000270: 4f4b 283f 91da 9e3f 86f9 d13e 91b4 6a3f
00000280: a067 293e 8282 083f 0461 abbd 80e3 3b3e
00000290: 10c8 a1bd 4426 853f 396c 753f 7cbb 61be
000002a0: cf91 6a3f d062 803f c30a ad3f d631 e43e
000002b0: 9e5f 263f e4a8 953f 00c6 dd3e 7300 2d3f
000002c0: 0004 733b d813 31be 54be e93d d059 e33c
000002d0: ca9b 183e d02f 8bbd 124d 79be 1c1b 3a3e
000002e0: 3cd3 65be 4600 673e 385b 07bd 041d 7a3e
000002f0: 40fb aabc c409 dabd 92d3 3e3e 1c93 c4bd
00000300: 3fea 2c3e f631 a13e 08ee 31be 5af2 5fbe
00000310: 80ae 9c3d 5b58 863f 737d 893f 78a8 0e3e
00000320: 4c47 843f 9850 643f cfde b43f bae8 ca3e
00000330: e9cd 4b3f 5768 9a3f 29bc 0b3f f609 7f3f
00000340: cc10 eb3e 8864 033f e060 00be 46aa 3e3e
00000350: b87f 94bd 8d9b 3c3f fb79 783f 860c 4dbe
00000360: d20e 853f ab8b 7e3f 3320 a43f 8cfb 233f
00000370: 111a 033f 65a8 a23f ce52 863e b4ae 0e3f
00000380: 2f98 023f d8f9 983e e66c 3a3e 4c13 bcbd
00000390: 24e4 e1bd 48c7 4f3f db63 8f3f 504e ab3c
000003a0: 74e3 963f 6cce 543f ceed c73f a4af da3e
000003b0: 5ddc f03e 9895 9c3f fb57 ec3e 9713 0b3f
000003c0: 2564 7a3e 0e85 e33e e459 b03d 40f6 37bd
000003d0: 8854 5e3e ad96 993f eb04 523f 78e3 683e
000003e0: 7d3f 9c3f 8be2 7e3f 4cb3 b13f 3e37 253f
000003f0: 2d85 de3e 9237 c33f 756e ce3e 8ea2 0c3f
0.54813254 0.2378235 0.07658464 0.11390594 0.14888412 1.1356293 1.1023304 -0.2342276
0.77780586 1.1074811 1.0598625 0.6147303 0.59811836 1.1711912 0.29004902 0.7897369
0.41420636 0.5530235 0.11191732 -0.21655506 -0.07463819 1.133319 1.1619631 -0.033395737
0.9104014 0.8879171 1.178491 0.74353504 0.85844254 1.5600984 0.21821722 0.67072254
0.22476527 0.5011277 -0.04416305 -0.18054095 -0.18339905 1.1982622 1.0118353 -0.1270448
1.1546474 1.0121433 1.3238819 0.4019271 0.5020331 1.1826929 0.50869393 0.51392204
-0.0844616 -0.19071832 0.20384136 0.105490535 -0.01264596 0.010051876 -0.11296034 0.036167383
0.11214778 -0.23197675 0.028704405 -0.21699983 -0.04926148 -0.072058946 -0.20194665 0.18833968
0.26232865 0.20023149 0.064055204 -0.22314876 -0.21724638 0.7995661 1.0084164 0.09960252
0.928091 1.1599579 1.5071853 0.58087933 0.48503193 1.5168587 0.4531969 0.85950595
0.034990218 0.15311304 0.19720349 -0.015102118 -0.00045338273 0.02894115 -0.067052215 -0.2409662
-0.23523521 0.06959628 0.026394606 0.023308108 0.009487734 -0.18223688 0.009428985 -0.15462472
0.01924938 -0.105240464 -0.14713997 0.13060498 -0.18480328 -0.17569545 -0.09639794 -0.017012924
-0.24290273 -0.049352676 -0.24381036 0.09317213 0.09349808 0.0991486 -0.09084502 0.21435961
0.15966973 0.24848306 0.17200011 -0.09849855 -0.12855005 0.76870424 1.2095988 0.23189688
0.86141545 1.1870865 1.1631869 0.5333502 0.43176427 1.2085953 0.31501225 0.8575621
0.50164074 0.52513933 -0.09208998 0.070076674 0.16866085 1.1198714 1.1018393 -0.10056397
1.2005197 1.0490999 1.40432 0.48027664 0.687859 1.2559456 0.48713475 0.9107758
0.25926 0.15324427 0.12661144 -0.015567064 0.06371057 1.2018967 1.1270252 0.1557652
0.8594255 1.0090297 1.2630982 0.54567504 0.6573991 1.2410451 0.41010684 0.9168177
0.16543436 0.5332414 -0.08368114 0.18348503 -0.07899487 1.0402303 0.9586826 -0.22044176
0.91628736 1.0030155 1.3518909 0.44569272 0.6498965 1.1692166 0.43315125 0.6757881
0.0037081242 -0.17292726 0.11413255 0.027752787 0.14903179 -0.06796229 -0.24345806 0.18174404
-0.22443861 0.22558698 -0.033045977 0.24425131 -0.020871758 -0.10646394 0.18635395 -0.095983714
0.16886233 0.3148343 -0.17375958 -0.21869794 0.07650471 1.0495714 1.0741409 0.13931453
1.0334258 0.89185476 1.4130496 0.3963068 0.7961107 1.2063092 0.54583985 0.99624574
0.45911252 0.51325274 -0.12536955 0.18619642 -0.07250923 0.7367485 0.9706113 -0.20024309
1.0395148 0.99431866 1.2822326 0.64055705 0.5121165 1.270764 0.2623505 0.55735326
0.51013464 0.29878116 0.18205604 -0.09183368 -0.110298425 0.81163454 1.1202348 0.020911366
1.1788163 0.83127475 1.5619447 0.42712128 0.47043124 1.2233152 0.46160874 0.54326767
0.24452265 0.4443745 0.08610895 -0.044912577 0.21711934 1.1999108 0.82038754 0.22743022
1.2206875 0.9956443 1.3882842 0.6453742 0.4346098 1.5251334 0.40318647 0.5493554

fc1.bias f4 [128]
00000000: 75e2 c73f 2845 db3f c089 e13f 20e9 b53d
00000010: b985 eb3f 279c e3bd 3815 b6bd 1299 de3f
00000020: 26b2 f33f 0f6d c63f 807f d63f e074 34be
00000030: 28ae ee3f 6bba b93f 1b40 ec3f 9fcd eb3f
00000040: b39a e23f 69c1 1e3e b680 43be f8e5 d03f
00000050: 3e97 f63f 9760 ca3f 2ec5 f33f ac65 e43f
00000060: 70ab ac3d e8ff 78be 48e6 3cbd 66db 1cbe
00000070: 0878 d13f 99dc c73f ac95 bb3f 4fa5 e93f
00000080: 4a20 c33f be56 743e 47b0 d13f 2881 b83f
00000090: 315f d03f 4e84 b53f 3800 13be 1731 bf3f
000000a0: aa67 d43f 0294 d93f 0312 d93f eb39 c83f
000000b0: fb53 dd3f 9a0d ef3f 564f 1cbe 5634 34be
000000c0: b5b2 e23f f3bb f33f ef48 d23f 5f38 f23f
000000d0: 9edd b53f 7088 8f3d 415c f43f 436d c63f
000000e0: 6e82 21be 42ac ef3f 3b88 b93f d2aa 33be
000000f0: 2328 cc3f 7603 45be d2ee e93f b63c 24be
00000100: 48f9 ec3f 26c5 d43f 77b8 ed3f 2ebb ce3f
00000110: ba25 6d3e 8e2a 2cbe 496e ba3f f4d3 dc3f
00000120: b7d2 b83f 6453 c03f 90f7 043d b8a3 f43f
00000130: c2f2 c43f dc2f 07be 97f2 e93f ea83 e53f
00000140: 2a8a 2dbe 9fd6 c63f 7f8d f43f c2eb 12be
00000150: 7d47 ea3f cbdb c73f 4cd6 d53f eadc ec3f
00000160: d0b6 c43f c1fc e93f fc03 f63f 79fc e33f
00000170: 2ef6 74be 2a30 ed3f bcb5 ea3f 2373 f13f
00000180: 25b9 c93f 94fc f33f bc5c b73d 12d3 db3f
00000190: 0ae4 78be 6fb2 cf3f f420 c63f f828 743d
000001a0: 81ad c83f 7ee8 47be 2bb5 e83f c2ad d73f
000001b0: 2bfe bd3f 8e97 d13f f5c3 d13f 6c33 163e
000001c0: 4798 e13f febd 743e 2520 c03f ea16 b53f
000001d0: a790 d13f 63ea e83f 465f 263e 216b f43f
000001e0: ebbb ec3f 0ea3 e23f ac10 c43f 6e68 ec3f
000001f0: 8c3f ee3d 3052 bc3f 88df ec3f 4fd0 e83f
1.5615984 1.713048 1.7620163 0.08882356 1.8400184 -0.11113768 -0.08890766 1.7390463
1.9038742 1.5502032 1.675766 -0.1762271 1.8646898 1.4510015 1.8457063 1.8422126
1.770346 0.15503468 -0.19092068 1.6320181 1.9264905 1.5810727 1.904455 1.7843528
0.084311366 -0.2431637 -0.04611805 -0.15318069 1.6364756 1.5614196 1.4655051 1.8253573
1.5244229 0.23861215 1.638192 1.4414415 1.627905 1.4181001 -0.14355552 1.4936856
1.6594136 1.6998293 1.6958622 1.5642675 1.7291254 1.8676026 -0.1526464 -0.1759809
1.7710787 1.9041733 1.6428508 1.8923453 1.4208257 0.07008445 1.9090654 1.5502094
-0.15772411 1.8724444 1.4494699 -0.17545632 1.5949749 -0.19239601 1.8276007 -0.16038784
1.8513575 1.6622665 1.8571919 1.6150873 0.23158923 -0.16813108 1.4564906 1.7252183
1.4439305 1.5025449 0.032462656 1.9112463 1.5386584 -0.1320185 1.8277158 1.7930882
-0.16947237 1.5534247 1.9105681 -0.14347747 1.8303066 1.561395 1.6706023 1.8504918
1.536829 1.8280259 1.9219966 1.7811424 -0.23922035 1.8530324 1.8336711 1.8863262
1.5759627 1.9061456 0.089532346 1.7173789 -0.2430574 1.6226329 1.5478806 0.059609383
1.5677949 -0.19522282 1.8180288 1.6849902 1.4843191 1.6374376 1.6387926 0.14668053
1.7624596 0.23900601 1.500981 1.4147618 1.6372269 1.8196529 0.16247281 1.9095193
1.8494848 1.770601 1.5317588 1.846937 0.11633214 1.4712582 1.8505716 1.8188571

fc2.weight f4 [64, 128]
00000000: 682b 01bd 6b38 5d3c ca7a 0e3d 0e73 753c
00000010: 98cd b0bd 57c4 b1bd 7cf3 cfbc 69eb a13c
00000020: 92fb 1f3d 806c 16bd 9c21 afbb 283a 9c3d
00000030: be84 71bc 4931 a8bd 8f9c 44bd 61ca 673d
00000040: e1f3 2d3d 1a3c 873d b09a a7bd 6ba4 643d
00000050: 5e92 8ebc 4e22 bdbd bf24 1c3a 9563 913d
00000060: ed4e 963d 255d 91bd 2d0a 483c 4c4f 953c
00000070: 43f6 c43b 86d0 5e3c b14a acbc 789a eaba
00000080: 399f bdbb 7fb0 383d ba8f 963d fbe4 a93c
00000090: 9b10 723d 5b08 6f3d 1a8f 82bc bcc4 a6bd
000000a0: 47ac cf3c c3fc 8b3d 7d2f a2bd 9eeb 83bd
000000b0: e3a2 213c 0e2d 693d 208a be3c dfb6 94bd
000000c0: 64d7 2abd 5ad5 683c 4a79 5bbc 4f2b 56bd
000000d0: d84d 6dbc e3c4 9bbc f6f4 b03c 6745 9e3d
000000e0: 8b7d 9abd adb6 60bd d797 0dbd b289 853b
000000f0: f95c 82bc 353e d6bb f083 9abd f682 a7bd
00000100: 4a37 94bc 34b1 4e3d bb26 8dbc ed9e 63bd
00000110: 461a 0f3c dd1a aebc 6c7e 7c3d c519 9bbd
00000120: 1d82 513d 686e 91bd 2edd 113d 1516 d4bc
00000130: f8ab 9f3d fe24 63bd 73e2 98bd 2580 90bc
00000140: c832 45bd c89f 8a3c 01d3 08bc 22c2 76bd
00000150: 25b0 a53c 5e5a 9c3d 51a3 643c 9003 79bd
00000160: fb2d b33b 8944 5abc 464c 363d c3cd 81bd
00000170: bc49 683c 2924 44bd 96c1 41bd 6197 14bc
00000180: ca2a 703c bd12 b23b 1eae 153c 21d2 b9ba
00000190: 75cc d43c c1e9 763d 8f94 b2bd 0abc 4b3d
000001a0: 320d d2bc 89da babc eff8 6d3d f6d2 af3b
000001b0: 643e 7fbd 9cf6 493d 4c60 a3bd 0bd9 663d
000001c0: 7220 903c cca2 1cbd 9a55 8ebd d6eb ffbc
000001d0: 31f4 fc3c 56f7 efbb a9ea a2bd a044 4ebc
000001e0: cee8 76bb 3dc0 1dbb 646b a4bd 1672 24bd
000001f0: 6d1a 833d 3afc f1bc 7fd9 503c 1960 82bd
00000200: 17ee 50bc 1209 cabc 0c78 91bd 18b1 6abc
00000210: d8ae 503c ccfb dfbc daf0 713d 301e 97bd
00000220: ee77 4e3d 7731 603d 5f19 9bbc 1bde ac3d
00000230: 05e5 633d 454f 7ebd b0e5 a33d 6f72 793d
00000240: 46b8 5e3c f238 a0bd 475c 653d d93f c63c
00000250: 4286 50bd 330f c23b 481b 6b3d 9606 9abc
00000260: 7b0c 3ebc df56 603d 2fbe 90bc 4487 53bd
00000270: f344 3dbd 02b9 723a e71e 9cbc 60f5 f73c
00000280: 6cc3 66bd db6d 1cbd a10d 8fbd 1497 d03c
00000290: 5cb2 623b b823 843d a9c6 7bbd dc07 f03c
000002a0: a654 14bc f9d2 12bc 96cc 9e3d ad95 7dbd
000002b0: 11d7 41bd 2510 193b b141 16bd c834 2cbd
000002c0: 70f8 4bbd f75b 89bd a32d 123c 7b6d 0cbd
000002d0: 2342 b7bc deb5 f73b 6c26 b8bd 8b16 99bd
000002e0: d77d 9c39 9637 8ebc 5354 e1bc 1864 103c
000002f0: 9345 343d f786 963d 43b0 373d 9686 543d
00000300: 8ccf 81bd 83b0 e73c ac57 a53a bd15 89bd
00000310: 61d1 09bd 428c 95bd 3ab6 fa3b 714e 183c
00000320: cd41 94bd 530b 8f3c 3bfa a83d ef8c 433d
00000330: 7f80 253d 92f9 47bd 9bce 43bd dd6e f2bc
00000340: a94f 8c3d 877e 9a3d 4675 87bc 1fad 78bd
00000350: 096c b1bb 5512 6d3d 6f89 663d 932c 343c
00000360: cecc 54bd 4981 fb3c 4d25 43bb 385e cf3b
00000370: 5fef 8c3c 55ef b03d 0946 a3bd ae48 3ebd
00000380: 6d49 c43c 28cd 703d 526d 8e3d a714 26bc
00000390: 9a86 c43c 74f4 2d3d 2409 36bd d952 8a3c
000003a0: a7a6 653c ce13 88bd c01b 39bd 3aed 35bd
000003b0: db9e 64bd 750f a63d 9a16 ab3c 43f9 10bd
000003c0: 1fe5 fbbc 5c61 f43b f087 c43c 3e78 a0bd
000003d0: 0b6b bfbc 2c72 c0bc 927c af3d 154a 913d
000003e0: d293 153c 90bc 413d 5cc5 983d fd5e cd3c
000003f0: dcae 9abd 8d04 9c3c 87c0 03bd 050c db3c
-0.031535536 0.013502221 0.03478507 0.014981044 -0.08632964 -0.08680027 -0.025384657 0.019765573
0.039058276 -0.036724567 -0.0053445827 0.0762828 -0.014741121 -0.082125254 -0.04800087 0.056589488
0.04246891 0.0660326 -0.08183801 0.055820864 -0.017403778 -0.09235059 0.00059564033 0.07099072
0.07339273 -0.07097844 0.012209457 0.018226288 0.006010802 0.013599521 -0.02103171 -0.0017898818
-0.005786803 0.045090195 0.073516324 0.02073907 0.059097867 0.058357578 -0.015937377 -0.08142993
0.025350703 0.0683532 -0.07919214 -0.06441425 0.009865495 0.056927733 0.023259223 -0.072614424
-0.04170932 0.014211023 -0.013395617 -0.052287396 -0.014483891 -0.019014781 0.021601181 0.07728081
-0.07543477 -0.054861713 -0.034568634 0.0040752525 -0.015913473 -0.0065381774 -0.07544696 -0.08179276
-0.01809277 0.050461963 -0.017230382 -0.055571485 0.008734291 -0.021253044 0.061644003 -0.075732745
0.051149476 -0.071011364 0.035611324 -0.025889436 0.07796472 -0.0554552 -0.07465067 -0.01763923
-0.048144132 0.016921893 -0.0083510885 -0.060243733 0.020225594 0.07634424 0.013954953 -0.060794413
0.005468128 -0.013322004 0.044506334 -0.06338074 0.014177736 -0.047886048 -0.04730376 -0.009069295
0.014658639 0.0054343627 0.009135751 -0.0014177003 0.025976399 0.06028152 -0.087197416 0.049739875
-0.025641058 -0.022809284 0.05809873 0.0053657247 -0.06231536 0.04930745 -0.079773515 0.056359332
0.017593596 -0.038241193 -0.06949921 -0.031240385 0.030878158 -0.007323186 -0.07954914 -0.012589604
-0.0037675384 -0.0024070882 -0.08028296 -0.040147863 0.06401525 -0.029539216 0.012747168 -0.063659854
-0.012752078 -0.024662528 -0.07102975 -0.014324449 0.0127369985 -0.027341746 0.059067585 -0.07378805
0.050407343 0.054734673 -0.018932996 0.08440801 0.055638332 -0.062087316 0.08002794 0.060900148
0.013593739 -0.078233615 0.055996206 0.024200367 -0.05090929 0.005922222 0.057399064 -0.018801969
-0.011599655 0.054770347 -0.017668812 -0.05164267 -0.046208333 0.00092591357 -0.019057704 0.030268371
-0.056338713 -0.038190704 -0.069850214 0.025462665 0.0034591174 0.06452125 -0.061468754 0.029300623
-0.009053385 -0.008961433 0.077538654 -0.06191032 -0.047324244 0.002335557 -0.036683742 -0.042042524
-0.049797475 -0.06706994 0.008922013 -0.034284096 -0.022370404 0.007559522 -0.089917034 -0.07475003
0.00029848397 -0.01736049 -0.02750603 0.008812927 0.044011664 0.07349961 0.04484583 0.051886164
-0.063384145 0.02828241 0.0012614629 -0.066935994 -0.033646945 -0.07302143 0.0076511176 0.009296046
-0.07239113 0.017461454 0.08250853 0.047741827 0.040405747 -0.048821993 -0.047804456 -0.02959388
0.068511315 0.075436644 -0.016535413 -0.060711976 -0.00541449 0.05787881 0.05628341 0.010996955
-0.05195313 0.030701296 -0.0029776872 0.0063283704 0.017203985 0.08639399 -0.079723425 -0.04645603
0.023960793 0.058789402 0.06954445 -0.01013676 0.023989964 0.042469457 -0.04444231 0.016885208
0.014016784 -0.066444024 -0.04519248 -0.04441569 -0.05581556 0.08108417 0.0208848 -0.035393964
-0.030748902 0.007457895 0.023990601 -0.078354344 -0.023366472 -0.023491941 0.08568682 0.07094208
0.009129481 0.047298968 0.07459518 0.025069708 -0.07552883 0.019045139 -0.03216603 0.02673913

fc2.bias f4 [64]
00000000: 70a1 14bc 04b3 943c edb2 ab3f 30b6 a03f
00000010: c2ac e1bb 70c1 aa3f 3bd4 913b 6e5d bb3f
00000020: 770b c03f cbad b13c 8b01 b03f 0306 29bd
00000030: cbf0 bdbd 8446 b13f 567f 063d e7a1 013d
00000040: a53f ad3f 236f b43f 4792 2cbd 4157 b63c
00000050: 30e3 9abd 34bd ac3f 7091 ac3f 5f21 9f3f
00000060: 34d3 ce3c 3b47 583d 5107 a4bd 7685 b33f
00000070: 27c3 dabb f6ba 843d 65ad a33d 8296 f23c
00000080: 20c6 5a3c fd5f abbd 7c03 a63f 526b b93f
00000090: 20ac a53c d76e e9bc 8333 523d 37c3 2d3d
000000a0: 71c2 a53f dfc6 53bd decc 29bc b8ac 01bd
000000b0: 59e9 813d 18a7 ae3f 56ec 45bd e081 e1bc
000000c0: ea7c cabc 47ee 9f3d 6134 703d f24b af3f
000000d0: 23c2 1fbd fe3c 58bd 2f3b a0bd cb04 a73d
000000e0: 2b2f b73f 455a c4bd f5d9 3b3d 02e4 be3f
000000f0: 2813 b73f a46f 883d 4f76 87bd a600 b0bd
-0.009071693 0.018151768 1.3413979 1.2555599 -0.0068870494 1.3340282 0.0044503487 1.4637887
1.5003499 0.021689316 1.3750471 -0.0412655 -0.09274443 1.3849645 0.03283628 0.031648543
1.3535048 1.4096416 -0.04213169 0.022258403 -0.07562864 1.349524 1.3481884 1.2432059
0.025247194 0.052802306 -0.08009208 1.4025104 -0.006676096 0.064809725 0.07992057 0.029612783
0.013352901 -0.08367918 1.2969813 1.4485877 0.020223677 -0.028495235 0.051318657 0.0424225
1.2949964 -0.05170333 -0.010363786 -0.031658858 0.06343336 1.3644743 -0.04832109 -0.02752775
-0.024717767 0.0780912 0.058643702 1.3695052 -0.039003503 -0.05279254 -0.078237884 0.08155211
1.431127 -0.0958753 0.045862157 1.4913332 1.4302721 0.06661919 -0.066143624 -0.08593874

fc3.weight f4 [6, 64]
00000000: 4d71 e03d bdb1 863d 9b5d 11bf 86fa eebe
00000010: 0188 a13d 895f fbbe b434 dd3d 6cfd f8be
00000020: 9b64 31bf fcb6 593d dd6c 33bf ac52 08bd
00000030: 0898 3fbd e200 31bf 8651 ebbd 61db 0a3d
00000040: c471 30bf d4a4 11bf c1f8 f3bd 8cd9 15bd
00000050: 363a d3bd 4258 24bf 548e 20bf 7f6b 17bf
00000060: 11ec 85b9 bdf1 cabd d049 b8bd 4b2f 10bf
00000070: c0fe e43c 2eb7 bfba 1416 973d 673a b33d
00000080: 12ac 933d ae73 a8bd 990f 31bf 0e37 f4be
00000090: c4c3 003d 613e ff3d 28db 9fbc 05e0 243d
000000a0: e406 fcbe 20f9 473d 2aad f23d 221d bebd
000000b0: 0894 e43d 9d9e 0fbf 59f5 623c 00a2 e7bb
000000c0: 84ae 65bc f686 a53d 1d63 f7bd 3940 15bf
000000d0: 133b ef3d 7610 3e3c 8954 3abc a07a b33d
000000e0: 56d8 00bf 3bc8 05be dc2a a4bd 7dac 18bf
000000f0: d1f9 f0be 8121 63b9 b11f 973d e102 7dbd
00000100: 1966 18bd 365b dd3d 40c5 0cbf 2ff7 24bf
00000110: 0ce2 d43d e369 21bf d837 493d 57b0 f0be
00000120: dc00 20bf f24f a1bd b32b 13bf 3a01 e23d
00000130: 7887 8a3d c48e 21bf 766c bdbd 3db9 8bbd
00000140: 3257 06bf e2ec 21bf f30b e73b c0b2 963d
00000150: 0a13 d23d 359b 2abf b5c5 f4be 4541 00bf
00000160: 4855 cebd eb50 04be 7699 8f3d bd86 22bf
00000170: b97b e73d 0b81 eb3d a8b0 223d d194 f6bd
00000180: f8f4 b1bd 5ab6 d9bd a24f efbe 0fc5 03bf
00000190: 0160 9a3d 6570 1dbd 00cc d3bc 7b5e 34bc
000001a0: 6786 27bf d4b1 d3bd 3ced b4bc 981f 913c
000001b0: 0e31 c2bd 3158 d9be 5852 8cbd d2a1 b3bd
000001c0: 8f8e 073d 6191 5f3d a820 5c3d c648 1cbf
000001d0: 899b b73c 3989 e03d 5c98 553d 3c1c 763d
000001e0: bb72 22bf 1acd 97bd dc31 c6bc b25a 11bf
000001f0: 68d6 27bf 1009 a9bc 5581 65bd a31c acbd
00000200: ef45 b83b e0dc 863b cd36 01bf 2952 f4be
00000210: dac9 0dbe 98a4 05bf 2270 febd 989b 18bf
00000220: 5054 09bf c409 593d f381 0ebf 7a85 d0bc
00000230: 9d83 7d3c f7df 0bbf 5443 43bd e7bc fabd
00000240: d8cd 1fbf e6de 2cbf a264 2a3d 2034 8f3d
00000250: 80d5 cabb 0776 15bf f6c9 31bf a706 2dbf
00000260: ded2 ab3d 89cd 923d 5474 313d b8da 1bbf
00000270: 9cbe 923d 4ecd cbbd 482d 38bd 3ace e2bd
00000280: 8061 bb3a f036 c6bd 493a 1cbf 8972 08bf
00000290: fc49 843d 7725 783d 786c 3f3d 045c f73d
000002a0: 8dfb 02bf 20ad bfbc 63e8 e63c da9d 89bd
000002b0: 6c55 62bd 39c2 06bf fa7a cd3d b4f2 e2bd
000002c0: 3638 c13d d8e0 723b 1442 443d 715b 24bf
000002d0: 9441 01be 42d8 4ebd b11c 83bd 3d2c ba3c
000002e0: 007a 1ebf 3a2f 593d 1efc d63d 00db 1abf
000002f0: 84a0 01bf 7018 ab3c b42d d83c 92c1 6ebd
00000300: 6782 4c3d 8420 9fbd 6478 0cbf d475 09bf
00000310: db43 6b3d 2e53 13bf bc40 603d 3e32 29bf
00000320: 7ce0 22bf 78cd 523d 3255 19bf 4dca dc3d
00000330: 0ad4 383d 4f7a 15bf 2cab 213d 16b4 603d
00000340: adc0 0dbf 6630 0ebf 2de3 4fbd 74cd 2c3d
00000350: 580c 6ebd b6db 20bf 34fc 20bf 928d eebe
00000360: 527c 07bd 1890 003d c609 a2bd a9a8 16bf
00000370: b0ff 15bd 87bd 803d 331d d43d 1fbb 73bd
00000380: 7edc cdbd 8055 3d3c e5b5 dabe 7f85 11bf
00000390: 2870 4dbd 2126 bb3d c073 0b3c 6c56 d4bd
000003a0: 8a36 f3be 025c ecbd fb85 a63d 8862 bcbd
000003b0: fa1b ec3d 39fd 2dbf 72da b9bd b0d0 0e3c
000003c0: 867f 5cbc 2b21 a4bc 9629 86bd 7078 24bf
000003d0: 6d2a dd3d 00e5 a8bd 57d0 aebd 809b 49bd
000003e0: 57b2 fabe 5de0 ba3d 6bc6 d83d 1165 30bf
000003f0: f8c2 21bf 7e40 e93d 2f00 da3d a1f1 363d
0.109591104 0.0657687 -0.56783456 -0.4667551 0.07887269 -0.49096325 0.10801068 -0.48630846
-0.69294137 0.053153023 -0.7008799 -0.033281967 -0.046775848 -0.6914197 -0.11490159 0.033900622
-0.6892359 -0.5689213 -0.119126804 -0.036584422 -0.10313837 -0.6419717 -0.62717175 -0.591484
-0.0002554362 -0.09909389 -0.089984536 -0.56322163 0.027953506 -0.0014626735 0.07377258 0.08751374
0.07210554 -0.08225189 -0.69164425 -0.47698253 0.031436697 0.1246307 -0.019513682 0.040252704
-0.49224007 0.04882157 0.11849435 -0.092829004 0.11161047 -0.561014 0.013852441 -0.0070688725
-0.014018659 0.080823824 -0.12079451 -0.5830112 0.116811894 0.011600604 -0.011372694 0.08763623
-0.503301 -0.13064663 -0.08015987 -0.59638196 -0.47065595 -0.00021660888 0.073790915 -0.061770324
-0.037206743 0.10808413 -0.5498848 -0.6443967 0.103946775 -0.63052195 0.049125522 -0.47009537
-0.6250131 -0.078765765 -0.57488555 0.1103539 0.0676412 -0.6310847 -0.09249203 -0.06822441
-0.524768 -0.6325208 0.007050985 0.073583126 0.10257538 -0.6664308 -0.47807088 -0.50099593
-0.1007486 -0.12921493 0.07011692 -0.63486844 0.11302895 0.11499222 0.039719254 -0.12040103
-0.08689302 -0.10630484 -0.46740443 -0.5147256 0.075378425 -0.038437266 -0.02585411 -0.011008854
-0.65439457 -0.103366524 -0.022085778 0.01771526 -0.09482013 -0.42450097 -0.06851643 -0.08771099
0.03309494 0.054582004 0.05374208 -0.61048543 0.022413032 0.10963673 0.052147254 0.06008552
-0.63456315 -0.07412167 -0.024193697 -0.56779015 -0.6556153 -0.020634204 -0.056031544 -0.084038995
0.005623571 0.004115686 -0.50474244 -0.47718933 -0.13846532 -0.52204275 -0.124237314 -0.5961242
-0.53644276 0.05298783 -0.55667037 -0.025454272 0.015473274 -0.5463862 -0.04767163 -0.122430615
-0.6242347 -0.67527616 0.041599877 0.06992364 -0.006190002 -0.5838322 -0.6944879 -0.67588276
0.08389829 0.07168109 0.04332383 -0.60880613 0.07165262 -0.09951268 -0.04496506 -0.11074491
0.0014296025 -0.09678447 -0.61026436 -0.53299767 0.06459424 0.060582604 0.046734303 0.120780975
-0.51165086 -0.023397982 0.028186982 -0.06719561 -0.055257246 -0.5264011 0.100332215 -0.11081448
0.094345495 0.0037060287 0.04791458 -0.6420203 -0.12622672 -0.05049921 -0.06401957 0.022726173
-0.6190491 0.053023554 0.10497306 -0.6049042 -0.5063555 0.020885676 0.02638898 -0.05829007
0.04992905 -0.07769874 -0.548712 -0.53695416 0.05743776 -0.575488 0.054749236 -0.6609229
-0.63623786 0.05146548 -0.5989562 0.10780773 0.04512409 -0.58389753 0.039469883 0.054859243
-0.55372125 -0.555426 -0.05075376 0.042188123 -0.05811724 -0.6283525 -0.6288483 -0.46592385
-0.033077545 0.03138742 -0.079120204 -0.58851105 -0.036620796 0.062861495 0.10357132 -0.059504624
-0.10051821 0.011556029 -0.427169 -0.56844324 -0.05015579 0.09138132 0.008511484 -0.10368046
-0.47502548 -0.115409866 0.081310235 -0.09198481 0.115287736 -0.6796451 -0.09074868 0.008716747
-0.013458138 -0.020035347 -0.06550901 -0.64246273 0.10799108 -0.08246803 -0.085358314 -0.049220562
-0.48964188 0.09124825 0.1058472 -0.68904215 -0.63188124 0.11389254 0.10644566 0.04466403

fc3.bias f4 [6]
00000000: e2b1 f2be 7926 35bf 25c0 bebe 4eec 34bf
00000010: 2c22 2fbf 9ddb 06bf
-0.4740134 -0.7076183 -0.3725597 -0.7067307 -0.6841152 -0.52678853
