dqn_taxi_light64.pth (torch, 25186 bytes, 6 tensors)

fc1.weight f4 [64, 16]
0	0x3e365195	0.17804559
1	0x3ea54938	0.32282424
2	0x3e21f934	0.1581772
3	0xbe126d98	-0.14299619
4	0x3e4b00a8	0.19824469
5	0x3e8ebdbd	0.27879134
6	0x3e9d3999	0.30708006
7	0xbdb46104	-0.08807567
8	0x3e2d9379	0.16950788
9	0x3dc97c26	0.098381326
10	0xbde70947	-0.112810664
11	0x3e249d75	0.1607569
12	0xbdfda04b	-0.12384089
13	0x3e7b6acb	0.24552457
14	0xbe0b314c	-0.13593024
15	0xbde8196d	-0.113329746
16	0x3e5906fe	0.21194074
17	0x3dece66d	0.11567388
18	0xbe1bca5c	-0.15213913
19	0x3d2a1818	0.041526884
20	0xbd847648	-0.06467873
21	0x3e992fc7	0.29919264
22	0x3e93fc66	0.28903502
23	0x3dad6300	0.084661484
24	0xbc87b7d4	-0.016567148
25	0x3e956bdf	0.29183862
26	0x3e4a5aeb	0.19761245
27	0xbe3041fc	-0.17212671
28	0xbd099777	-0.033591714
29	0x3e3205ef	0.17385076
30	0xbe4699ac	-0.19394559
31	0xbe4d0643	-0.2002192
32	0xbc3aee5e	-0.01140937
33	0x3cd9e24f	0.02659717
34	0xbe484e0e	-0.19561026
35	0x3c99fce0	0.018797338
36	0x3dc9a4d8	0.098458946
37	0x3ece19b8	0.40253997
38	0x3ee5de8f	0.4489636
39	0xbe3dbf86	-0.18530092
40	0xbcde368f	-0.027125625
41	0x3e51d13d	0.20489974
42	0x3da16abb	0.07881685
43	0x3bb1dd37	0.005427982
44	0x3e3b9796	0.18319544
45	0xbddd57e3	-0.10807779
46	0x3e458ec2	0.19292739
47	0xbe24ea6a	-0.16105047
48	0x3e93bcde	0.28855032
49	0x3d4ef8ed	0.050530363
50	0x3dbfd5a8	0.093669236
51	0xbcd20840	-0.0256387
52	0x3e6f7010	0.23382592
53	0x3e07d2a5	0.13263948
54	0x3e8f8166	0.2802841
55	0x3e399d92	0.18126515
56	0x3df76560	0.120798826
57	0x3e95c8a5	0.29254642
58	0x3e79af3f	0.24383257
59	0xbdd6eeb2	-0.10494746
60	0x3e02d8d8	0.12778032
61	0x3cb004d4	0.021486677
62	0xbd8f743f	-0.07004594
63	0xbe12ced8	-0.14336717
64	0xbd7f5da1	-0.06234515
65	0xbe14a43c	-0.14515775
66	0xbd0e20f8	-0.03469941
67	0xbc95d4b0	-0.018289894
68	0x3db0c874	0.086319834
69	0x3e965f2d	0.29369488
70	0x3da667cb	0.08125266
71	0x3d623ed0	0.055235684
72	0x3e797599	0.24361266
73	0xbcffeab0	-0.031239837
74	0xbe3eb0ff	-0.18622206
75	0x3d650b71	0.055919115
76	0xbe4e18d6	-0.20126662
77	0x3e4d255f	0.20033787
78	0x3d928a76	0.071553156
79	0xbd5593da	-0.052142955
80	0xbe3b0e86	-0.18267259
81	0xbdd10520	-0.10206056
82	0x3e5f95d6	0.21834502
83	0x3d378070	0.044800222
84	0xbdcb47ac	-0.0992578
85	0xbe30a396	-0.17249903
86	0xbe9085e1	-0.28227141
87	0x3ca79120	0.020454943
88	0x3dbceb7d	0.09224603
89	0xbe4b9cfc	-0.19884104
90	0xbe020c6c	-0.12700051
91	0xbdea6321	-0.114446886
92	0x3de78b97	0.113059215
93	0xbc644384	-0.013932113
94	0xbe1b9ef9	-0.15197362
95	0x3e1dfb94	0.15428
96	0xbded1a92	-0.115773335
97	0x3b89012c	0.004181048
98	0x3e4b3afa	0.19846717
99	0x3e6da7ce	0.23208544
100	0x3d931a40	0.07182741
101	0x3ed6a10c	0.41919744
102	0x3ea3e2b8	0.3200891
103	0xbe0ead66	-0.13933334
104	0x3eb33f0f	0.35009047
105	0x3c1bb941	0.009504617
106	0x3bcd9b19	0.0062745926
107	0x3ce3423f	0.02774155
108	0xbe52b94f	-0.20578502
109	0xbdbbeddd	-0.09176228
110	0x3e6a3996	0.2287353
111	0x3d7582c8	0.059939176
112	0xbde864a2	-0.11347319
113	0x3ea2a96b	0.3176988
114	0x3e08dfd4	0.13366634
115	0xbd2fbd98	-0.04290542
116	0x3d57d390	0.052691996
117	0x3e1b2e92	0.15154484
118	0x3e76ad58	0.24089563
119	0x3e794e44	0.24346262
120	0x3dc0a519	0.0940649
121	0x3eaafdca	0.3339675
122	0x3e7b62c6	0.24549398
123	0x3e4aff08	0.19823849
124	0x3d7c820e	0.061647467
125	0x3e0ce8ec	0.13760728
126	0xbe2505b5	-0.16115458
127	0x3ca16655	0.019702116
128	0xbc0cbd99	-0.0085901255
129	0x3e0aee14	0.13567382
130	0x3dcbab54	0.099447876
131	0x3e28c59c	0.16481632
132	0xbbbc3040	-0.0057430565
133	0x3e355c7d	0.17711063
134	0x3e4e5220	0.20148516
135	0xbe23aa0c	-0.15982836
136	0x3ed59464	0.41714776
137	0x3e21276d	0.15737696
138	0xbd9cb2bc	-0.076512784
139	0x3d82ef4f	0.06393301
140	0xbe1955fd	-0.14974208
141	0x3e7d9e13	0.24767332
142	0xbdfe96ae	-0.124310836
143	0x3c0ca803	0.008584979
144	0x3d26d696	0.04073199
145	0x3e3ff1e6	0.1874462
146	0xbdc9134c	-0.09818134
147	0xbe4788ac	-0.1948573
148	0xbcaa3f90	-0.020782262
149	0x3cbfcc8f	0.02341297
150	0x3d915f58	0.070982635
151	0xbe46e040	-0.19421482
152	0x3e65d2b9	0.22443666
153	0x3ecf09c7	0.40437147
154	0x3e06d70c	0.13167971
155	0x3e4740d4	0.19458324
156	0x3d1f84f6	0.03894516
157	0x3e85cf12	0.26134545
158	0x3ca13e26	0.019682955
159	0x3df22cb0	0.1182493
160	0x3dd59bd3	0.10430112
161	0xbde18b04	-0.11012843
162	0x3de27cb8	0.110589445
163	0x3d74e4a8	0.059788376
164	0x3e5b4664	0.2141357
165	0x3e0cc623	0.13747458
166	0x3ebf5b4c	0.3737434
167	0x3d4f6498	0.050633043
168	0x3dce96e0	0.10087371
169	0x3ebc0cc9	0.36728504
170	0x3d879113	0.066194676
171	0xbe336265	-0.17518003
172	0x3da1bd27	0.07897406
173	0x3d946c5c	0.072472304
174	0xbe6959ec	-0.22788209
175	0xbdb196de	-0.08671354
176	0x3c2a9557	0.010411582
177	0x3ea73abf	0.32662007
178	0xbe5f32ba	-0.21796694
179	0xbdfe5a7c	-0.12419602
180	0xbe3d5154	-0.18488055
181	0x3eaa8ff9	0.33312967
182	0x3e56228a	0.20911613
183	0x3e79266c	0.24331063
184	0x3da097a4	0.07841423
185	0x3deccbdc	0.115623206
186	0x3e832572	0.25614506
187	0xbe30ab23	-0.17252783
188	0x3e557e9b	0.20849077
189	0xbc8dc26d	-0.017304623
190	0x3e56712a	0.20941606
191	0x3e145369	0.14484943
192	0x3e74f68c	0.23922175
193	0x3e418b1c	0.18900722
194	0x3e7c84d4	0.24660045
195	0xbe43d954	-0.19125873
196	0xbe217edc	-0.1577105
197	0x3d73ffb0	0.059570014
198	0x3ec0bfdf	0.37646386
199	0x3d19af60	0.037520766
200	0x3df76956	0.12080638
201	0x3e88a7eb	0.2669061
202	0xbe28c79e	-0.16482398
203	0xbd155721	-0.036460046
204	0xbe4c7099	-0.19964828
205	0x3cf02317	0.029313607
206	0x3e18b63b	0.14913265
207	0x3dcc6f4c	0.09982166
208	0x3e8ba099	0.27270964
209	0x3e7c2d7f	0.2462673
210	0x3dccb188	0.09994799
211	0xbe6cea9c	-0.23136371
212	0xbe5218a8	-0.20517218
213	0x3e11d93e	0.14243028
214	0x3d818d7a	0.06325813
215	0xbe27c5b6	-0.16384014
216	0x3d942010	0.07232678
217	0x3e491d05	0.19639976
218	0x3e802c71	0.25033906
219	0xbe6c9546	-0.23103818
220	0xbe3532a7	-0.17695104
221	0xbe386931	-0.18008877
222	0x3e57e6e2	0.21084169
223	0x3dc3b06e	0.09555136
224	0x3e2c0087	0.16797076
225	0x3d477efe	0.048705094
226	0xbe75ed00	-0.2401619
227	0x3e0657da	0.1311945
228	0xbcbfebd0	-0.023427874
229	0x3ec4eecd	0.3846344
230	0xbc296895	-0.010339876
231	0x3dd41f74	0.10357562
232	0x3eb54800	0.35406494
233	0x3e61ec58	0.22062814
234	0x3e4d58aa	0.20053354
235	0x3d8041cc	0.0626255
236	0x3e00cc6f	0.12577985
237	0x3e491783	0.19637875
238	0xbe3efb31	-0.1865051
239	0x3dca4f09	0.09878356
240	0xbd9d201d	-0.07672141
241	0xbd55b3d3	-0.052173447
242	0x3d332178	0.04373309
243	0x3e71927e	0.23591039
244	0x3e044728	0.12917769
245	0x3e82a246	0.2551443
246	0x3e97271f	0.29522035
247	0x3e0ca23a	0.1373376
248	0x3e372f2b	0.17889087
249	0x3ec053dc	0.3756398
250	0x3de141b3	0.10998859
251	0xbd89c06e	-0.06726156
252	0xbe5344ef	-0.20631765
253	0x3e823f0c	0.25438726
254	0xbd9965c3	-0.07490113
255	0xbda8668c	-0.08222684

fc1.bias f4 [64]
0	0xbe451fed	-0.1925046
1	0xbd254829	-0.04035202
2	0xbd886507	-0.066598944
3	0xbdb37c66	-0.087639615
4	0x3d94fd99	0.072749324
5	0x3d80438b	0.06262883
6	0x3d91b154	0.07113901
7	0xbdabd232	-0.08389701
8	0xbdbad2c3	-0.09122231
9	0x3e76472b	0.24050586
10	0x3e741199	0.23834838
11	0xbdd950dc	-0.10611126
12	0xbc1a643c	-0.009423312
13	0xbd4945a1	-0.04913867
14	0xbe3f23ef	-0.18666051
15	0x3e25715f	0.16156529
16	0xbc0f598b	-0.008749376
17	0xbcdf40ee	-0.02725264
18	0x3e547a35	0.20749743
19	0x3e8ac62a	0.27104312
20	0x3d7d6bda	0.061870433
21	0xbe34b01c	-0.17645305
22	0xbd6e72a8	-0.058214813
23	0xbd6876fb	-0.056754094
24	0xbd953be7	-0.07286816
25	0xbe29de61	-0.16588737
26	0x3e536cb8	0.20646942
27	0x3e30011d	0.17187925
28	0x3d0d0394	0.03442724
29	0x3ce31142	0.02771819
30	0xbc118bd8	-0.008883439
31	0x3e90d2a8	0.28285718
32	0x3e1dce2e	0.15410683
33	0x3d0b4fc8	0.034011632
34	0x3d330164	0.043702498
35	0xbe37a467	-0.17933808
36	0xbc33e753	-0.010980445
37	0xbdbf297e	-0.09334086
38	0xbdd21b45	-0.102591075
39	0xbb8b68c2	-0.0042544315
40	0xbe184d3f	-0.14873217
41	0x3d3520bc	0.04422067
42	0x3e3a00ef	0.18164419
43	0x3cbeea94	0.023305215
44	0xbe3aec9c	-0.18254322
45	0x3e3c2874	0.18374807
46	0xbdd67750	-0.10471976
47	0x3da2a94c	0.07942447
48	0xbc9a06f1	-0.018802138
49	0xbd8a325d	-0.06747887
50	0xbe149452	-0.14509705
51	0x3df973a7	0.12180262
52	0x3e8af21e	0.27137846
53	0xbd35b5f5	-0.04436298
54	0x3bf5d308	0.0075019635
55	0x3d3f9ff3	0.0467834
56	0xbe36b646	-0.1784297
57	0x3e86b591	0.263104
58	0xbe47a7ec	-0.19497651
59	0xbe15f787	-0.14645205
60	0xbe4fe8b8	-0.20303619
61	0xbe1e2df5	-0.15447219
62	0xbd86b801	-0.06578065
63	0x3e85d271	0.26137117

fc2.weight f4 [64, 64]
0	0x3e1766b4	0.14785272
1	0x3e9971bf	0.29969594
2	0x3e828c11	0.25497487
3	0x3e47ea63	0.19523005
4	0x3e021824	0.12704521
5	0x3c9a47ca	0.01883306
6	0x3ebcbddf	0.3686361
7	0x3db5292e	0.08845745
8	0x3e8ca798	0.27471614
9	0x3e19b6d3	0.15011148
10	0x3e88a64e	0.2668938
11	0x3e40bfba	0.18823138
12	0x3e3c311b	0.18378107
13	0xba4f8d53	-0.0007917482
14	0x3e9af6d7	0.3026645
15	0x3e6739dc	0.22580665
16	0x3ec2b845	0.38031211
17	0x3eb61886	0.35565585
18	0x3da94bed	0.08266435
19	0x3e9cbaf6	0.3061139
20	0x3e9a29a4	0.30109894
21	0x3e28e8a0	0.1649499
22	0x3e3e3b94	0.18577415
23	0x3df2ef99	0.11862106
24	0x3e329833	0.17440872
25	0x3e7760a4	0.24157959
26	0x3e7da378	0.2476939
27	0x39f0da5b	0.00045939055
28	0x3eb08305	0.3447496
29	0x3e8dd1ea	0.27699214
30	0x3ea37128	0.3192227
31	0x3e6aae41	0.22918035
32	0x3e1d0923	0.15335517
33	0x3ea53298	0.32265162
34	0x3ea47081	0.32117084
35	0x3e8d4f3c	0.27599514
36	0x3d496a2c	0.04917352
37	0x3db0f7fb	0.086410485
38	0x3e0806fb	0.13283913
39	0x3e4e8ec6	0.20171651
40	0xbd251504	-0.040303245
41	0x3e877714	0.26458037
42	0x3eb3993b	0.35077843
43	0x3e1c716c	0.15277642
44	0xbd02af3d	-0.0319054
45	0x3e978c84	0.29599392
46	0x3ec6c3a4	0.38821137
47	0xbd34d93d	-0.044152487
48	0x3ea8af94	0.32946455
49	0x3e406a21	0.18790485
50	0x3e9c773e	0.30559725
51	0x3e9295d2	0.2862993
52	0x3e92025e	0.2851743
53	0x3e030456	0.12794623
54	0x3e2e6626	0.17031154
55	0x3e5bf2ea	0.21479383
56	0x3e9874ff	0.2977676
57	0x3ec02847	0.3753073
58	0x3e8319d2	0.25605637
59	0x3e2938d3	0.16525583
60	0x3e3f8217	0.18701969
61	0x3eab41ee	0.33448738
62	0x3e3b43ac	0.18287534
63	0x3e91b083	0.2845498
64	0x3ebc9837	0.3683488
65	0x3ec64d68	0.3873093
66	0x3e247103	0.16058736
67	0x3e742274	0.23841268
68	0xbb3f9668	-0.0029233936
69	0xbd963d04	-0.073358566
70	0x3e91d215	0.28480592
71	0x3e8261ad	0.25465146
72	0x3e80e870	0.25177336
73	0x3dc50c76	0.09621517
74	0x3e8c6a02	0.27424628
75	0x3e719c03	0.2359467
76	0x3ea95cb9	0.33078554
77	0x3c0cb26b	0.00858746
78	0x3e3cf93d	0.18454452
79	0x3ecfb16e	0.40565056
80	0x3e9aad9e	0.30210584
81	0x3e4d3baa	0.20042291
82	0x3dd18409	0.10230262
83	0x3e76fcbd	0.2411985
84	0x3e4698be	0.19394204
85	0x3e9c67c7	0.30547926
86	0x3e93e466	0.28885192
87	0x3e34084f	0.17581294
88	0x3e46bc2e	0.19407722
89	0x3e8f5790	0.27996492
90	0x3e2d75df	0.16939496
91	0x3e0bd61e	0.13655898
92	0x3e25d727	0.16195355
93	0x3e86b407	0.26309225
94	0x3e3a0d8c	0.1816923
95	0x3e54e9ce	0.20792314
96	0x3e31da43	0.17368416
97	0x3ebc0dee	0.36729378
98	0x3e82d094	0.25549757
99	0x3e79d7f2	0.24398783
100	0x3de8c440	0.11365557
101	0x3e05f759	0.13082637
102	0x3ea61d50	0.3244424
103	0x3ebc795c	0.3681134
104	0x3dc76820	0.09736657
105	0x3e42d312	0.1902583
106	0x3e2ee9f9	0.17081441
107	0x3e6491e2	0.22321275
108	0x3d8c3d48	0.06847626
109	0x3e63751f	0.22212647
110	0x3ec6b223	0.38807783
111	0x3d7d4af5	0.061839063
112	0x3e59aff7	0.21258532
113	0x3ddb0b13	0.106954716
114	0x3e75dada	0.24009266
115	0x3e817bba	0.25289708
116	0x3ebc38e2	0.36762148
117	0xbda55767	-0.08073311
118	0x3e8e118e	0.27747768
119	0x3da2d880	0.0795145
120	0x3ec39f85	0.3820764
121	0x3e47e7d5	0.1952203
122	0x3e85d68a	0.26140243
123	0x3e688fb2	0.22711065
124	0x3e8251cc	0.2545303
125	0x3e3a2251	0.18177153
126	0x3e00335a	0.12519589
127	0x3ec01af2	0.37520558
128	0x3ea71da7	0.3263981
129	0x3e64887a	0.22317687
130	0x3e8e5b7c	0.27804172
131	0x3e0a8136	0.13525853
132	0xbc927783	-0.017879253
133	0xbdd6e38e	-0.10492621
134	0x3eaf6dfb	0.34263596
135	0x3e84c17c	0.25928867
136	0x3e14b112	0.14520672
137	0x3e72153f	0.23640917
138	0x3e8955f2	0.26823384
139	0x3e83edad	0.2576727
140	0x3e317446	0.17329511
141	0x3dddf950	0.10838568
142	0x3e89705c	0.26843536
143	0x3ebe23c3	0.3713666
144	0x3e0be9a4	0.13663346
145	0x3e37004f	0.17871211
146	0x3e5c4711	0.21511485
147	0x3e98d5f8	0.29850745
148	0x3e419737	0.1890534
149	0x3e7e3c16	0.24827608
150	0x3e6a2ac3	0.22867875
151	0x3e017460	0.1264205
152	0x3e84e1fb	0.2595366
153	0x3e8169fc	0.25276172
154	0x3e8f0863	0.27936086
155	0x3e3aa502	0.18227008
156	0x3eab132b	0.33413061
157	0x3e77c6f7	0.24196993
158	0x3ebb4c58	0.36581683
159	0x3df16d20	0.11788392
160	0x3e9b36b2	0.30315167
161	0x3e17f4d1	0.14839484
162	0x3e5f63fc	0.21815485
163	0x3e6300b0	0.22168231
164	0x3d9285ab	0.071544014
165	0xbce5e941	-0.028065326
166	0x3ea4fbb3	0.3222328
167	0x3e30ed4b	0.1727802
168	0xbda7e1aa	-0.08197339
169	0x3e483525	0.19551523
170	0x3eb59896	0.35467976
171	0x3da7efa8	0.08200008
172	0xbd33e51e	-0.043919675
173	0x3e9ca647	0.3059561
174	0x3ea2387b	0.31683716
175	0x3be8bb40	0.0071024
176	0x3e9e3115	0.30896822
177	0x3e54fdbf	0.20799921
178	0x3e359bf8	0.17735279
179	0x3e3849d3	0.17996912
180	0x3e8fbfad	0.28075925
181	0xbde167f8	-0.110061586
182	0x3ebf2760	0.37334728
183	0x3e4dfe8d	0.20116635
184	0x3e21ec92	0.158129
185	0x3e953495	0.2914168
186	0x3ebd1831	0.3693252
187	0x3e2d88c2	0.169467
188	0x3eaf005d	0.34179965
189	0x3ea54df9	0.3228605
190	0x3e4ad675	0.19808371
191	0x3e9c911d	0.30579463
192	0x3e8cb224	0.2747966
193	0x3e997e25	0.29979053
194	0x3ec4da50	0.3844781
195	0x3e0f459f	0.13991402
196	0x3e17b822	0.14816335
197	0xbdde49fb	-0.108539544
198	0x3e42242d	0.18959112
199	0x3e7b0279	0.24512662
200	0x3eb2b3af	0.34902713
201	0x3e669f45	0.22521694
202	0x3ea346f2	0.31890064
203	0x3e3074f9	0.17232122
204	0x3e131c8f	0.14366363
205	0x3e5d21f0	0.21594977
206	0x3e695de3	0.22789721
207	0x3e8600f5	0.26172605
208	0x3ea0cd44	0.31406605
209	0x3e2f3104	0.17108542
210	0x3dc0d81c	0.094162196
211	0x3e20f19b	0.15717165
212	0x3e7e403e	0.24829194
213	0x3e5e588c	0.21713465
214	0x3e240c1a	0.16020241
215	0x3e995ba9	0.29952744
216	0x3e81c1e0	0.25343227
217	0x3e82f64a	0.2557853
218	0x3e96e6c4	0.29472935
219	0x3e454a5b	0.19266646
220	0x3e8d695e	0.2761945
221	0x3e55ae91	0.20867373
222	0x3ec62a0f	0.38703963
223	0x3e64ee81	0.22356607
224	0x3e82c9ee	0.25544685
225	0x3e66f41c	0.22554058
226	0x3ead4470	0.33841276
227	0x3e3cc7c8	0.18435585
228	0xbbd54079	-0.00650793
229	0x3e0f152f	0.13972925
230	0x3e8909f9	0.2676542
231	0x3eb497a9	0.35271958
232	0xbda33449	-0.07968957
233	0x3e11acfa	0.14226142
234	0x3e4f7a27	0.20261441
235	0x3da108dc	0.07863018
236	0xbccb6852	-0.024830017
237	0x3e886b0c	0.2664417
238	0x3ead15a9	0.33805588
239	0x3d233662	0.039846785
240	0x3ec98121	0.3935633
241	0x3ad5bb8f	0.0016306507
242	0x3e916cd4	0.28403342
243	0x3e41108f	0.18853973
244	0x3e8d21b9	0.2756479
245	0x3d1784a4	0.03699173
246	0x3e8d8aca	0.2764495
247	0x3e2506c1	0.16115858
248	0x3e8e7c8e	0.27829403
249	0x3ea144e1	0.31497863
250	0x3e54ef0d	0.20794316
251	0x3da83195	0.08212582
252	0x3eb9ec43	0.36313066
253	0x3e3d0252	0.18457916
254	0x3e8538ee	0.26019996
255	0x3e7ec042	0.24878028

fc2.bias f4 [64]
0	0x3e73cab5	0.23807795
1	0x3eabbf0c	0.33544195
2	0x3e9ac53a	0.30228597
3	0x3e50566e	0.2034547
4	0x3e6196c4	0.22030169
5	0x3e8dc427	0.27688715
6	0x3e2f825c	0.17139572
7	0x3e6edd40	0.23326588
8	0x3e5cdaa1	0.21567775
9	0x3e2cace6	0.1686283
10	0x3ea1bdfb	0.31590256
11	0x3e9eed2a	0.31040317
12	0x3e79a16c	0.24377984
13	0x3ec1d750	0.37859583
14	0x3e148080	0.14502144
15	0x3e92a512	0.28641564
16	0x3e8927e2	0.2678824
17	0x3eafab72	0.3431049
18	0x3e7d6375	0.24744971
19	0x3eca0cf6	0.39463013
20	0x3ebc5032	0.36779934
21	0x3eb27113	0.34851894
22	0x3e665f03	0.22497182
23	0x3ec67572	0.3876148
24	0x3e3ad8cd	0.18246765
25	0x3e972c0c	0.29525793
26	0x3e56326e	0.20917675
27	0x3e1ef0ad	0.15521498
28	0x3e848e72	0.25889927
29	0x3e7868f1	0.24258782
30	0x3e606753	0.21914415
31	0x3ebd8ce1	0.37021545
32	0x3e5c24c9	0.21498407
33	0x3e86e23c	0.26344478
34	0x3e76476b	0.24050681
35	0x3eaf712e	0.34266037
36	0x3e335798	0.17513883
37	0x3e61285d	0.21988054
38	0x3e9cb109	0.30603817
39	0x3ea43105	0.3206865
40	0x3e7c3f23	0.2463346
41	0x3e9fcd4e	0.31211323
42	0x3e2a1820	0.16610765
43	0x3e9e70ad	0.3094534
44	0x3e25d3df	0.16194104
45	0x3e73ba75	0.23801596
46	0x3e4540a2	0.19262937
47	0x3ea04631	0.31303552
48	0x3e70cbac	0.23515195
49	0x3ea1207c	0.31470096
50	0x3e88125c	0.26576507
51	0x3e940928	0.28913236
52	0x3e9687a6	0.29400367
53	0x3e2df609	0.16988386
54	0x3e9e81f3	0.30958518
55	0x3e8c2c92	0.27377754
56	0x3e7c7e84	0.24657637
57	0x3e7e2fcc	0.2482292
58	0x3e96567f	0.29362866
59	0x3e25e666	0.16201171
60	0x3e4d6ea4	0.20061737
61	0x3e90409b	0.2817429
62	0x3e673071	0.22577073
63	0x3e73fb58	0.23826349

fc3.weight f4 [6, 64]
0	0xc292577b	-73.17086
1	0xc2921bf4	-73.054596
2	0xc29230ff	-73.095695
3	0xc2920a29	-73.019844
4	0xc2923f93	-73.12417
5	0xc29208f9	-73.017525
6	0xc29269d5	-73.2067
7	0xc2926aa7	-73.208305
8	0xc2923c54	-73.11783
9	0xc2922b5d	-73.084694
10	0xc29241f4	-73.128815
11	0xc2922de8	-73.08966
12	0xc291f286	-72.97368
13	0xc292657b	-73.198204
14	0xc2925a1f	-73.17602
15	0xc292171b	-73.04513
16	0xc292128a	-73.03621
17	0xc29274e6	-73.22832
18	0xc291dfdc	-72.937225
19	0xc29226bb	-73.075645
20	0xc2926497	-73.196465
21	0xc29255e6	-73.16777
22	0xc2925bff	-73.17968
23	0xc29240c8	-73.126526
24	0xc291fbf4	-72.992096
25	0xc2923247	-73.0982
26	0xc292453d	-73.13523
27	0xc2921529	-73.04133
28	0xc29219a8	-73.05011
29	0xc292309c	-73.09494
30	0xc292873d	-73.26414
31	0xc2928751	-73.26429
32	0xc2922761	-73.07691
33	0xc2927504	-73.228546
34	0xc292119c	-73.03439
35	0xc29212f4	-73.03702
36	0xc291fde4	-72.99588
37	0xc292266a	-73.07503
38	0xc2923446	-73.1021
39	0xc29235e0	-73.105225
40	0xc2925b3e	-73.17821
41	0xc292434e	-73.131454
42	0xc2920d4b	-73.02596
43	0xc2928517	-73.25994
44	0xc29243c9	-73.13239
45	0xc292225e	-73.06712
46	0xc292536b	-73.162926
47	0xc29284fc	-73.259735
48	0xc29281f8	-73.253845
49	0xc2921080	-73.03223
50	0xc2922679	-73.07514
51	0xc2927458	-73.227234
52	0xc2924cd3	-73.15005
53	0xc2924399	-73.13203
54	0xc2923c70	-73.11804
55	0xc292456a	-73.135574
56	0xc2921af4	-73.05264
57	0xc29256ea	-73.169754
58	0xc292368f	-73.10656
59	0xc2925927	-73.174126
60	0xc292088f	-73.016716
61	0xc29203bf	-73.00732
62	0xc2927cf2	-73.24403
63	0xc2922790	-73.07727
64	0xc2921a28	-73.05109
65	0xc292620f	-73.19152
66	0xc29237ef	-73.109245
67	0xc29228d3	-73.079735
68	0xc292113b	-73.03365
69	0xc2925240	-73.160645
70	0xc29289f3	-73.26943
71	0xc2927213	-73.2228
72	0xc292a075	-73.31339
73	0xc2923b40	-73.11572
74	0xc2927bad	-73.241554
75	0xc29213f1	-73.03895
76	0xc2923578	-73.10443
77	0xc29231a3	-73.09695
78	0xc2927aa3	-73.239525
79	0xc29217c7	-73.04644
80	0xc2925d91	-73.18275
81	0xc2928453	-73.258446
82	0xc2925588	-73.16705
83	0xc291edad	-72.96421
84	0xc2923855	-73.11002
85	0xc292406a	-73.12581
86	0xc2928392	-73.25697
87	0xc2929d0f	-73.306755
88	0xc2924935	-73.14298
89	0xc2927123	-73.22097
90	0xc2921a11	-73.05091
91	0xc292a923	-73.330345
92	0xc291f8fe	-72.98631
93	0xc29265d6	-73.1989
94	0xc292416b	-73.12777
95	0xc29252ba	-73.161575
96	0xc2921f7f	-73.061516
97	0xc2927610	-73.23059
98	0xc2921dee	-73.05846
99	0xc2923a73	-73.11416
100	0xc29271ab	-73.22201
101	0xc2929066	-73.28203
102	0xc29275eb	-73.23031
103	0xc2924df3	-73.152245
104	0xc2920b7d	-73.02244
105	0xc2926e6c	-73.21567
106	0xc29271b4	-73.22208
107	0xc29291dc	-73.28488
108	0xc292701f	-73.21899
109	0xc29210b7	-73.032646
110	0xc2925d8b	-73.1827
111	0xc2924a71	-73.14539
112	0xc292731a	-73.22481
113	0xc2925ec8	-73.18512
114	0xc292172a	-73.04524
115	0xc292458d	-73.13584
116	0xc29246eb	-73.13851
117	0xc292752d	-73.22886
118	0xc29263e8	-73.19513
119	0xc2926632	-73.1996
120	0xc2922b7a	-73.084915
121	0xc2924e92	-73.15346
122	0xc2920add	-73.02122
123	0xc29243b8	-73.13226
124	0xc29223f1	-73.0702
125	0xc2920f54	-73.02994
126	0xc29284c2	-73.25929
127	0xc2922ad9	-73.08369
128	0xc291fa4a	-72.988846
129	0xc291fb6f	-72.99108
130	0xc2925e4f	-73.1842
131	0xc2922842	-73.07863
132	0xc2921a89	-73.05183
133	0xc292507a	-73.15718
134	0xc2924935	-73.14298
135	0xc2925025	-73.15653
136	0xc2920ce6	-73.02519
137	0xc291fdf3	-72.995995
138	0xc291e7af	-72.95251
139	0xc2924e05	-73.15238
140	0xc2921260	-73.03589
141	0xc2920b30	-73.02185
142	0xc292546b	-73.16488
143	0xc2926b44	-73.2095
144	0xc2925293	-73.16128
145	0xc2922098	-73.06366
146	0xc292337b	-73.10055
147	0xc291efae	-72.968124
148	0xc29229c4	-73.08157
149	0xc2923311	-73.09974
150	0xc2926edc	-73.21652
151	0xc2923920	-73.11157
152	0xc2923a5c	-73.11398
153	0xc292559f	-73.16723
154	0xc2920a01	-73.01954
155	0xc2921dad	-73.05796
156	0xc291fd44	-72.99466
157	0xc2926ebd	-73.216286
158	0xc2925329	-73.16242
159	0xc292561e	-73.1682
160	0xc291f5c3	-72.98
161	0xc2925c65	-73.18046
162	0xc2924b99	-73.14765
163	0xc2922785	-73.07719
164	0xc291e9ae	-72.956406
165	0xc292450c	-73.13486
166	0xc2922882	-73.07912
167	0xc2920ec7	-73.02886
168	0xc29216de	-73.04466
169	0xc2922c4a	-73.0865
170	0xc29215b3	-73.04238
171	0xc2922160	-73.065186
172	0xc2920c10	-73.02356
173	0xc2923806	-73.10942
174	0xc292387c	-73.11032
175	0xc2927a78	-73.2392
176	0xc29229ef	-73.0819
177	0xc2923272	-73.098526
178	0xc2923e1d	-73.121315
179	0xc2924a2f	-73.14489
180	0xc2923c0b	-73.11727
181	0xc29226eb	-73.07601
182	0xc2921d9e	-73.057846
183	0xc291ef86	-72.96782
184	0xc2926f3e	-73.21727
185	0xc2924799	-73.13984
186	0xc291faeb	-72.990074
187	0xc291e8b4	-72.9545
188	0xc2921fd0	-73.06213
189	0xc2923fc7	-73.124565
190	0xc2923c38	-73.117615
191	0xc291e0fc	-72.93942
192	0xc291e17c	-72.9404
193	0xc291f35f	-72.975334
194	0xc2921d20	-73.056885
195	0xc291d331	-72.91248
196	0xc291f84d	-72.98496
197	0xc291d4d6	-72.915695
198	0xc2921f38	-73.060974
199	0xc291d697	-72.91912
200	0xc29208cc	-73.01718
201	0xc29209bd	-73.01902
202	0xc291eeb0	-72.96619
203	0xc291c028	-72.875305
204	0xc291d695	-72.919106
205	0xc291c05f	-72.875725
206	0xc2921ad5	-73.05241
207	0xc2923c61	-73.11793
208	0xc29221dc	-73.06613
209	0xc29205f1	-73.011604
210	0xc291c643	-72.88723
211	0xc291ee40	-72.96533
212	0xc291f8e6	-72.98613
213	0xc2920243	-73.00442
214	0xc2921420	-73.03931
215	0xc29244ea	-73.1346
216	0xc2921a20	-73.051025
217	0xc292212f	-73.06481
218	0xc291fc06	-72.99223
219	0xc291f222	-72.972916
220	0xc2920065	-73.00077
221	0xc29235dd	-73.1052
222	0xc2923b21	-73.115486
223	0xc292471f	-73.13891
224	0xc291c884	-72.89163
225	0xc29238ee	-73.11119
226	0xc2923360	-73.10034
227	0xc29206c6	-73.01323
228	0xc291bd6c	-72.869965
229	0xc2922b96	-73.08513
230	0xc2922af7	-73.083916
231	0xc291d4cc	-72.91562
232	0xc291c10c	-72.877045
233	0xc292331d	-73.09983
234	0xc291cef9	-72.90424
235	0xc292342a	-73.10188
236	0xc291f488	-72.9776
237	0xc291c6a1	-72.88795
238	0xc291e5a5	-72.948524
239	0xc2924ea4	-73.153595
240	0xc2923fc8	-73.12457
241	0xc291c7e5	-72.89042
242	0xc2921ab4	-73.052155
243	0xc2923e97	-73.122246
244	0xc2923b0e	-73.11534
245	0xc29237db	-73.10909
246	0xc29237bb	-73.10885
247	0xc291e743	-72.95168
248	0xc291e252	-72.94203
249	0xc291efbe	-72.96825
250	0xc291d4b2	-72.91542
251	0xc291eb93	-72.960106
252	0xc292087c	-73.01657
253	0xc291da11	-72.92591
254	0xc292331c	-73.09982
255	0xc291bcb1	-72.86854

fc3.bias f4 [6]
0	0xc292ae1b	-73.34005
1	0xc292a1e9	-73.31623
2	0xc29279f6	-73.238205
3	0xc2923dc9	-73.120674
4	0xc293698e	-73.70616
5	0xc29307ab	-73.51498
