dqn_taxi_light64.pth (torch, 25186 bytes, 6 tensors)

fc1.weight f4 [64, 16]
000000 11 fb 36 3e 48 a4 a5 3e 34 f9 21 3e 98 6d 12 be
       0.17869212 0.323519 0.1581772 -0.14299619
000010 a8 00 4b 3e 2b c0 8f 3e 07 3c 9e 3e 04 61 b4 bd
       0.19824469 0.280763 0.30905172 -0.08807567
000020 55 98 2f 3e e3 85 cd 3d 2a 85 e6 bd 5d bb 24 3e
       0.17147954 0.100353025 -0.11255868 0.16087098
000030 8e 5f fd bd c3 a2 7b 3e 7c 23 0b be 15 00 e8 bd
       -0.12371741 0.24573807 -0.13587755 -0.11328141
000040 d4 cf 59 3e df e7 ee 3d 5c ca 1b be 18 18 2a 3d
       0.21270686 0.1166532 -0.15213913 0.041526884
000050 48 76 84 bd 97 3a 9a 3e 36 07 95 3e 00 63 ad 3d
       -0.06467873 0.30122826 0.29107064 0.084661484
000060 f7 15 6e bc af 76 96 3e cb 97 4a 3e 3e 1a 30 be
       -0.014531604 0.29387423 0.19784467 -0.1719751
000070 06 f0 08 bd 17 33 32 3e eb 8a 46 be 7c f6 4c be
       -0.03343203 0.17402302 -0.1938893 -0.20015901
000080 a5 95 2a bc 7c 7f e1 3c 0e 4e 48 be e0 fc 99 3c
       -0.010411655 0.02752661 -0.19561026 0.018797338
000090 d8 a4 c9 3d 55 17 cf 3e 2c dc e6 3e 86 bf 3d be
       0.098458946 0.40447488 0.45089853 -0.18530092
0000a0 13 5d ce bc 6f cc 53 3e 54 c9 a1 3d 79 b3 b7 3b
       -0.025190866 0.20683454 0.078997284 0.0056061116
0000b0 72 bc 3b 3e 59 f9 dc bd 08 99 45 3e ce dc 24 be
       0.18333605 -0.10789747 0.19296658 -0.16099855
0000c0 d4 18 94 3e 6d 60 53 3d a8 d5 bf 3d 40 08 d2 bc
       0.28925192 0.05160563 0.093669236 -0.0256387
0000d0 10 70 6f 3e 83 11 0a 3e ca a0 90 3e 92 9d 39 3e
       0.23382592 0.13483243 0.28247672 0.18126515
0000e0 27 e3 fb 3d 09 e8 96 3e 8d f5 79 3e aa a5 d6 bd
       0.12299185 0.29473904 0.24410076 -0.10480817
0000f0 7b 04 03 3e 13 8f b1 3c a3 58 8f bd f2 bd 12 be
       0.12794678 0.021674668 -0.06999328 -0.14330271
000100 9e b1 71 bd 35 26 10 be f8 20 0e bd b0 d4 95 bc
       -0.05900728 -0.14077075 -0.03469941 -0.018289894
000110 74 c8 b0 3d fc b7 99 3e 12 cb b3 3d d0 3e 62 3d
       0.086319834 0.3002318 0.08778967 0.055235684
000120 9f 13 80 3e 9a 5d ca bc 15 29 3e be 4f 15 67 3d
       0.2501497 -0.024702836 -0.18570359 0.056416806
000130 ac 6e 4d be 8b 73 4d 3e a0 c8 92 3d 43 e2 54 bd
       -0.20061749 0.20063607 0.071671724 -0.051973592
000140 40 39 3b be 6c 75 d1 bd d6 95 5f 3e 70 80 37 3d
       -0.18283558 -0.102274746 0.21834502 0.044800222
000150 ac 47 cb bd ac 1c 31 be 68 c2 90 be 20 91 a7 3c
       -0.0992578 -0.17296094 -0.2827332 0.020454943
000160 55 f9 bb 3d 12 16 4c be 36 19 02 be d6 70 ea bd
       0.09178416 -0.19930294 -0.1270493 -0.11447303
000170 a9 79 e7 3d 37 e7 64 bc 2c a1 1b be 42 f8 1d 3e
       0.11302502 -0.013971142 -0.15198201 0.15426734
000180 fe d7 ea bd 30 90 aa 3b fa 3a 4b 3e ce a7 6d 3e
       -0.114669785 0.005205177 0.19846717 0.23208544
000190 40 1a 93 3d a8 99 d7 3e 54 db a4 3e 66 ad 0e be
       0.07182741 0.42109418 0.32198584 -0.13933334
0001a0 ab 37 b4 3e 87 cd 3a 3c 54 ae d2 3b 78 d1 e4 3c
       0.3519872 0.011401541 0.006429473 0.027931914
0001b0 24 8b 52 be f7 99 bb bd aa 43 6a 3e 1c b1 75 3d
       -0.2056089 -0.09160226 0.22877374 0.059983358
0001c0 10 52 e5 bd fb 0c a3 3e d4 df 08 3e 98 bd 2f bd
       -0.11197293 0.3184584 0.13366634 -0.04290542
0001d0 90 d3 57 3d 29 bc 1d 3e ef 3a 79 3e 44 4e 79 3e
       0.052691996 0.15403809 0.24338888 0.24346262
0001e0 43 c0 c5 3d 95 44 ac 3e d2 8d 7b 3e b1 3c 4b 3e
       0.09655812 0.33646074 0.24565819 0.1984737
0001f0 d1 03 7d 3d 75 33 0d 3e eb f3 24 be 2f c3 a1 3c
       0.061771218 0.1378916 -0.16108672 0.019746391
000200 15 b8 f8 bb af f1 0b 3e 54 ab cb 3d 9c c5 28 3e
       -0.0075903037 0.13666414 0.099447876 0.16481632
000210 40 30 bc bb b7 77 37 3e 5a 6d 50 3e 0c aa 23 be
       -0.0057430565 0.17916761 0.20354214 -0.15982836
000220 01 a2 d6 3e a7 42 23 3e ef 46 9c bd d2 4b 83 3d
       0.41920474 0.15943395 -0.07630717 0.06410946
000230 7c 2a 19 be 3d cb 7d 3e 68 79 fe bd c6 71 0d 3c
       -0.14957613 0.2478456 -0.124255 0.008633083
000240 93 30 2b 3d ff ea 40 3e 4c 13 c9 bd ac 88 47 be
       0.04179437 0.18839644 -0.09818134 -0.1948573
000250 90 3f aa bc 02 a4 d2 3c 37 15 96 3d 40 e0 46 be
       -0.020782262 0.02571297 0.07328265 -0.19421482
000260 a5 2d 68 3e 43 37 d0 3e eb 0e 07 3e 21 6d 47 3e
       0.22673662 0.4066716 0.13189285 0.19475223
000270 44 20 20 3d 97 ea 85 3e af ab a1 3c 47 44 f2 3d
       0.03909327 0.2615554 0.019735185 0.11829429
000280 33 69 d7 3d 78 03 df bd b8 7c e2 3d a8 e4 74 3d
       0.10518112 -0.108893335 0.110589445 0.059788376
000290 64 46 5b 3e 38 d3 0e 3e ce 61 c0 3e 98 64 4f 3d
       0.2141357 0.13947761 0.3757462 0.050633043
0002a0 0c b1 d2 3d 4b 13 bd 3e 97 00 88 3d aa 35 33 be
       0.10287675 0.36928782 0.066407375 -0.1750094
0002b0 02 23 a2 3d 2d af 94 3d 24 4b 69 be 64 77 b1 bd
       0.079168335 0.07259975 -0.2278257 -0.0866535
0002c0 bb cc 43 3c a1 9e a7 3e ba 32 5f be 7c 5a fe bd
       0.011950667 0.32738212 -0.21796694 -0.12419602
0002d0 54 51 3d be 7e fb ab 3e 8a f9 58 3e 6c 26 79 3e
       -0.18488055 0.3359031 0.21188942 0.24331063
0002e0 ad 45 a6 3d e5 79 f2 3d a9 40 83 3e 43 66 30 be
       0.08118758 0.11839656 0.2563527 -0.1722651
0002f0 ad 9c 55 3e 66 fe 8a bc 9d 7f 56 3e b8 5f 14 3e
       0.20860548 -0.01696701 0.20947118 0.14489639
000300 b2 a2 75 3e fb 7f 42 3e d4 84 7c 3e 54 d9 43 be
       0.23987845 0.18994133 0.24660045 -0.19125873
000310 dc 7e 21 be 4e 08 7d 3d f1 e0 c1 3e 60 af 19 3d
       -0.1577105 0.061775498 0.3786693 0.037520766
000320 a6 ed fb 3d fd c8 89 3e 3a 79 28 be e8 ce 14 bd
       0.12301187 0.26911154 -0.16452494 -0.036330134
000330 d1 45 4c be 40 ed f1 3c 0a c2 18 3e c4 8a cc 3d
       -0.19948508 0.029532075 0.1491777 0.09987405
000340 cd 63 8c 3e 36 aa 7d 3e 88 b1 cc 3d 9c ea 6c be
       0.27419892 0.24771962 0.09994799 -0.23136371
000350 a8 18 52 be 64 48 16 3e cc 6b 8a 3d b6 c5 27 be
       -0.20517218 0.14676052 0.06758842 -0.16384014
000360 62 fe 9c 3d 2b 8c 4d 3e 32 67 80 3e ca 50 6c be
       0.07665707 0.20073001 0.25078732 -0.23077694
000370 a9 f1 34 be e0 ed 37 be 1f fb 57 3e f6 e0 c3 3d
       -0.17670311 -0.17961836 0.21091889 0.09564392
000380 e9 b7 2c 3e 6b 3f 4b 3d 00 ed 75 be da 57 06 3e
       0.16867031 0.049621027 -0.2401619 0.1311945
000390 d0 eb bf bc 45 db c5 3e 3c da 0b bc 74 1f d4 3d
       -0.023427874 0.38643852 -0.008535918 0.10357562
0003a0 78 34 b6 3e 36 c5 63 3e 89 8d 4d 3e 05 84 80 3d
       0.35586905 0.22243199 0.20073523 0.06275181
0003b0 0a f2 00 3e 97 3d 49 3e cf ed 3e be c9 64 ca 3d
       0.1259233 0.19652401 -0.18645404 0.098825045
0003c0 aa 0a 9b bd e0 28 51 bd 78 21 33 3d 7e 92 71 3e
       -0.075703934 -0.051064372 0.04373309 0.23591039
0003d0 28 47 04 3e b8 8a 83 3e 91 0f 98 3e 3a a2 0c 3e
       0.12917769 0.25691772 0.29699376 0.1373376
0003e0 00 00 39 3e 4e 3c c1 3e 1c 8d e1 3d 95 60 89 bd
       0.18066406 0.3774132 0.110132426 -0.06707875
0003f0 90 13 53 be f5 4c 82 3e 0e 4d 99 bd 31 4c a8 bd
       -0.20612931 0.2544934 -0.074854 -0.08217657

fc1.bias f4 [64]
000000 27 ad 44 be 94 6f 23 bd fc 82 87 bd 24 80 b2 bd
       -0.19206677 -0.03990133 -0.0661678 -0.08715847
000010 48 97 97 3d d4 11 80 3d cb 8e 92 3d 75 ba aa bd
       0.074019015 0.062534004 0.07156142 -0.08336345
000020 29 e3 b9 bd f9 c7 76 3e 7e 85 74 3e 2c 1b d8 bd
       -0.090765305 0.24099721 0.23879048 -0.105520576
000030 74 68 12 bc 9c ab 45 bd 7a ba 3e be b4 d8 25 3e
       -0.008936036 -0.048259363 -0.18625823 0.16195947
000040 54 33 08 bc 87 f2 db bc af 15 55 3e 9b fd 8a 3e
       -0.008313019 -0.026849044 0.20809053 0.2714661
000050 b6 49 7f 3d 67 36 34 be f6 4c 6c bd 5a 62 66 bd
       0.062326156 -0.17598878 -0.057690583 -0.05624614
000060 b1 48 94 bd 6e 69 29 be d1 e6 53 3e 59 c2 30 3e
       -0.07240427 -0.16544124 0.20693518 0.17261638
000070 a3 da 0e 3d 1d e4 e6 3c fe 5c 0a bc 00 0f 91 3e
       0.034876477 0.028184945 -0.008445023 0.28331757
000080 7f 34 1e 3e 03 28 0d 3d dd e2 34 3d e1 31 37 be
       0.15449713 0.034461986 0.044161666 -0.17890121
000090 f0 04 2d bc 24 72 bc bd 91 31 d1 bd aa c9 7a bb
       -0.010560259 -0.09201458 -0.10214532 -0.0038267174
0000a0 7b 56 18 be c6 19 37 3d 47 82 3a 3e a7 a6 c3 3c
       -0.1487674 0.044702314 0.1821376 0.023883177
0000b0 68 a5 3a be 1a a1 3c 3e 3a ba d5 bd 5f 69 a3 3d
       -0.1822716 0.1842083 -0.104359105 0.07979082
0000c0 15 e9 96 bc 5c 71 88 bd dd 13 14 be 43 42 fa 3d
       -0.018421689 -0.066622466 -0.14460702 0.1221967
0000d0 cd 2b 8b 3e 6d f8 35 bd 64 f3 01 3c c3 9e 43 3d
       0.27181855 -0.04442637 0.007931564 0.04775883
0000e0 c5 48 36 be 19 ec 86 3e 51 36 47 be 61 5d 15 be
       -0.17801197 0.26352003 -0.19454314 -0.14586402
0000f0 e7 7b 4f be 5b bc 1d be 2c a2 85 bd c7 0e 86 3e
       -0.20262109 -0.15403883 -0.065250725 0.2618315

fc2.weight f4 [64, 64]
000000 b0 b4 1c 3e 6d 18 9c 3e 15 33 85 3e 76 36 4d 3e
       0.15303302 0.30487385 0.26015535 0.20040306
000010 4a 19 07 3e 80 44 9b 3c e5 64 bf 3e fd bc bf 3d
       0.13193241 0.018953562 0.37381664 0.093622185
000020 0b 4e 8f 3e 7a 01 1f 3e ff 4c 8b 3e fb 06 46 3e
       0.2798923 0.15527907 0.2720718 0.193386
000030 48 7d 41 3e 0d 7f 8c 3b 27 9e 9d 3e b7 88 6c 3e
       0.18895447 0.0042876066 0.30784723 0.23099028
000040 42 5f c5 3e b1 bf b8 3e eb d8 b3 3d fa 61 9f 3e
       0.38549238 0.3608375 0.08781608 0.31129438
000050 f8 cf 9c 3e 3a 36 2e 3e 98 86 43 3e fb 84 fd 3d
       0.30627418 0.17012873 0.19094312 0.1237888
000060 44 e5 37 3e 38 ae 7c 3e 2c 78 81 3e 36 9a b6 3b
       0.17958552 0.24675834 0.25286996 0.0055725826
000070 c4 29 b3 3e 91 78 90 3e 01 18 a6 3e 79 fa 6f 3e
       0.34992802 0.28216985 0.3244019 0.23435391
000080 a8 57 22 3e 4c d9 a7 3e 3c 17 a7 3e 25 f6 8f 3e
       0.1585375 0.32782972 0.32634914 0.2811748
000090 e5 13 4b 3d a0 f1 ba 3d 6e 54 0d 3e d4 dc 53 3e
       0.04957952 0.091281176 0.13801739 0.20689708
0000a0 21 81 24 bd 37 1d 8a 3e 3e 3f b6 3e 46 b9 21 3e
       -0.04016221 0.26975414 0.35595125 0.15793332
0000b0 dd 69 00 bd f1 32 9a 3e 38 6b c9 3e c6 6d 32 bd
       -0.03135096 0.3011699 0.39339614 -0.04356172
0000c0 02 57 ab 3e 17 9f 45 3e ff 1c 9f 3e 30 3d 95 3e
       0.3346482 0.19298969 0.3107681 0.29148245
0000d0 4d a9 94 3e db 3a 03 3e 12 b4 33 3e 0a 20 61 3e
       0.29035416 0.1281542 0.1754916 0.21984878
0000e0 1a 1c 9b 3e 2c cf c2 3e c5 c0 85 3e 8c 7f 2e 3e
       0.30294877 0.38048685 0.26123634 0.17040843
0000f0 90 d0 44 3e e6 e8 ad 3e c4 8d 40 3e dd 56 94 3e
       0.19220185 0.3396675 0.1880408 0.2897252
000100 8c 3f bf 3e 6a f4 c8 3e b3 bf 29 3e 35 6f 79 3e
       0.3735317 0.39248973 0.16577034 0.24358828
000110 e7 01 01 3b 47 fe 95 bd 7c 79 94 3e f1 06 85 3e
       0.0019684972 -0.0732389 0.28998935 0.25981858
000120 3d 8f 83 3e 12 a3 cf 3d 10 11 8f 3e f1 e3 76 3e
       0.2569522 0.10138525 0.27942705 0.2411039
000130 1f 03 ac 3e fc f6 5f 3c 7d 48 42 3e 34 59 d2 3e
       0.3359613 0.0136697255 0.18972965 0.41083682
000140 ea 54 9d 3e ab 8a 52 3e 78 12 dc 3d 6e 4b 7c 3e
       0.30728847 0.2056071 0.1074571 0.24638149
000150 0b e6 4b 3e ed 0e 9f 3e 44 8a 96 3e b2 53 39 3e
       0.19911973 0.31066075 0.29402363 0.18098333
000160 eb 09 4c 3e b3 fe 91 3e 5e c3 32 3e 47 13 11 3e
       0.19925658 0.28514633 0.17457339 0.1416751
000170 53 25 2b 3e 01 5b 89 3e e0 5b 3f 3e b2 36 5a 3e
       0.16713457 0.26827243 0.18687391 0.21309927
000180 66 29 37 3e fe b4 be 3e a1 77 85 3e 78 26 7f 3e
       0.17886886 0.3724746 0.26067832 0.24917018
000190 04 98 e9 3d 44 f5 0a 3e 58 c4 a8 3e b8 20 bf 3e
       0.11405948 0.13570124 0.32962298 0.3732965
0001a0 9b b1 c7 3d fa 1f 48 3e b0 36 34 3e 65 da 69 3e
       0.097506724 0.19543448 0.17598987 0.22837217
0001b0 87 5e 8d 3d 9a c2 68 3e 05 5a c9 3e 71 b3 7f 3d
       0.06902795 0.22730485 0.39326492 0.062426988
0001c0 73 ff 5e 3e a4 76 e5 3d 06 27 7b 3e 70 23 84 3e
       0.21777134 0.112042695 0.24526605 0.25808287
0001d0 23 e0 be 3e 0d eb a4 bd d3 b8 90 3e 69 34 ad 3d
       0.37280378 -0.08052645 0.2826601 0.08457262
0001e0 fd 46 c6 3e 55 36 4d 3e da 7d 88 3e 22 d7 6d 3e
       0.38726035 0.20040257 0.26658517 0.23226598
0001f0 62 f9 84 3e f9 70 3f 3e 18 7e 05 3e a0 c1 c2 3e
       0.25971514 0.1869544 0.13036382 0.3803835
000200 6d cb a9 3e 75 e3 69 3e 49 09 91 3e d9 da 0f 3e
       0.33163014 0.22840674 0.28327397 0.14048328
000210 19 0d 54 bc 7a a3 d6 bd d1 1b b2 3e 31 6d 87 3e
       -0.012942576 -0.104803994 0.34786847 0.26450494
000220 99 0b 1a 3e 74 6d 77 3e 6e 03 8c 3e 03 98 86 3e
       0.15043487 0.24162847 0.27346367 0.2628785
000230 f8 cd 36 3e 80 7a e8 3d 7b 1e 8c 3e 03 d2 c0 3e
       0.17852008 0.1135149 0.27367005 0.37660226
000240 31 45 11 3e 41 5c 3c 3e 16 9b 61 3e cd 83 9b 3e
       0.1418655 0.18394567 0.22031817 0.30373994
000250 75 f1 46 3e a8 cb 81 3e 52 83 6f 3e a4 cc 06 3e
       0.19428046 0.2535069 0.23389938 0.13164002
000260 4e 8f 87 3e 8f 17 84 3e 9d b5 91 3e d4 ee 3f 3e
       0.2647652 0.25799224 0.28458872 0.1874345
000270 bb c0 ad 3e d1 21 7d 3e 02 fa bd 3e bc 20 fc 3d
       0.33936104 0.24719931 0.37104803 0.12310931
000280 c3 e4 9d 3e dd 4f 1d 3e 04 bf 64 3e 27 5c 68 3e
       0.30838594 0.15362497 0.22338492 0.22691403
000290 e0 5c 93 3d db 9c bd bc 38 a9 a7 3e f1 48 36 3e
       0.07195449 -0.023146084 0.3274629 0.17801262
0002a0 81 96 a7 bd ee 8e 4d 3e 5d 45 b8 3e 43 9a b2 3d
       -0.08183003 0.20074055 0.3599042 0.08720829
0002b0 eb 99 31 bd 78 53 9f 3e dd e6 a4 3e cc 4d fc 3b
       -0.04335968 0.3111837 0.32207385 0.007699704
0002c0 4f df a0 3e f6 3f 5a 3e 06 f5 3a 3e 31 a6 3d 3e
       0.3142037 0.21313462 0.18257532 0.18520428
0002d0 68 6d 92 3e 6e f9 e0 bd 1e d5 c1 3e d7 38 53 3e
       0.28599095 -0.10985075 0.37857908 0.20627151
0002e0 63 48 27 3e 51 e2 97 3e ed c5 bf 3e 03 dd 32 3e
       0.16336207 0.29664853 0.37455693 0.17467122
0002f0 69 ae b1 3e c5 fb a7 3e 0a 2e 50 3e 44 3e 9f 3e
       0.34703377 0.32809272 0.20330063 0.31102192
000300 bb 53 8f 3e 70 1f 9c 3e f0 7b c7 3e df 86 14 3e
       0.2799357 0.30492735 0.38961744 0.14504574
000310 b7 ae 1c 3e 8c 0a de bd 7b 67 47 3e c6 20 80 3e
       0.15301023 -0.108418554 0.19473068 0.25025004
000320 c0 54 b5 3e 1b df 6b 3e 35 e8 a5 3e 5c b1 35 3e
       0.35416222 0.23034327 0.32403722 0.17743438
000330 d6 5d 18 3e 73 4a 62 3e aa a1 6e 3e fe a2 88 3e
       0.14879546 0.22098713 0.23303857 0.26686853
000340 d4 6e a3 3e 80 74 34 3e 7d 4f cb 3d cd 34 26 3e
       0.31920493 0.17622566 0.099272706 0.1623108
000350 03 c1 81 3e 4a 9b 63 3e 46 4c 29 3e 9a fb 9b 3e
       0.2534257 0.22227207 0.16533002 0.30465394
000360 f8 62 84 3e a9 97 85 3e d2 87 99 3e ea 7b 4a 3e
       0.25856757 0.2609227 0.29986435 0.19773832
000370 bd 0a 90 3e 0f f1 5a 3e 81 cb c8 3e dd 2f 6a 3e
       0.28133193 0.21381019 0.3921776 0.22869821
000380 c5 6b 85 3e b4 36 6c 3e c8 e5 af 3e ca 0a 42 3e
       0.26058784 0.23067743 0.34354997 0.18949428
000390 12 f7 c7 bb 1d 07 14 3e 43 ab 8b 3e 50 39 b7 3e
       -0.006102451 0.14455839 0.272791 0.35785913
0003a0 0b ea a2 bd 5c ee 16 3e 5e bb 54 3e e4 82 ab 3d
       -0.079547964 0.14739364 0.207746 0.08374575
0003b0 66 e4 c6 bc 0b 0c 8b 3e d1 b7 af 3e ad a0 25 3d
       -0.02427883 0.27157626 0.34319928 0.040436435
0003c0 1b 23 cc 3e f4 b4 da 3b 22 0d 94 3e 86 54 46 3e
       0.39870533 0.0066744033 0.2891627 0.1936818
0003d0 3f c3 8f 3e 8e 5e 18 3d 4e 2c 90 3e ea 28 2a 3e
       0.28078648 0.03719955 0.28158802 0.1661717
0003e0 44 1e 91 3e 67 e6 a3 3e 20 32 5a 3e 5e a9 b2 3d
       0.28343403 0.3201172 0.21308184 0.087237105
0003f0 1c 8e bc 3e 7d 45 42 3e 93 d8 87 3e 11 01 82 3e
       0.3682717 0.1897182 0.2653242 0.2539144

fc2.bias f4 [64]
000000 41 1f 79 3e 96 69 ae 3e 53 76 9d 3e 2d a0 55 3e
       0.24328329 0.3406493 0.30754337 0.20861883
000010 60 f4 66 3e c6 6d 90 3e 1b de 34 3e 1d 44 74 3e
       0.22554159 0.2820875 0.17662852 0.23854108
000020 20 2d 62 3e ae f2 31 3e e0 64 a4 3e 78 a1 a1 3e
       0.22087526 0.17377731 0.32108212 0.31568503
000030 0d 03 7f 3e 08 80 c4 3e 3d de 19 3e 38 4f 95 3e
       0.24903508 0.3837893 0.15026183 0.29162002
000040 18 d4 8b 3e 21 5c b2 3e 12 66 81 3e f3 b7 cc 3e
       0.27310252 0.34835914 0.25273186 0.39984092
000050 b8 fa be 3e ca 21 b5 3e 85 a8 6b 3e b7 27 c9 3e
       0.37300658 0.35377342 0.23013504 0.39288113
000060 b0 3b 40 3e 98 d6 99 3e fb 91 5b 3e 36 3e 24 3e
       0.18772769 0.30046535 0.21442406 0.16039357
000070 87 3a 87 3e a3 c4 7d 3e 9b b5 65 3e 53 3a c0 3e
       0.2641184 0.24782042 0.22432558 0.37544498
000080 09 79 61 3e c4 8c 89 3e 2d 91 7b 3e 71 24 b2 3e
       0.22018827 0.26865208 0.24567099 0.34793428
000090 49 b1 38 3e 20 88 66 3e d1 5d 9f 3e e5 d5 a6 3e
       0.18036379 0.22512865 0.31126264 0.32585064
0000a0 ea d1 80 3e 9e 76 a2 3e e6 6b 2f 3e 31 15 a1 3e
       0.25160152 0.31731123 0.17131004 0.3146148
0000b0 f8 37 2b 3e 18 10 79 3e 30 87 4a 3e 11 f8 a2 3e
       0.16720569 0.24322546 0.19778132 0.31829885
0000c0 e7 21 76 3e e7 d2 a3 3e 92 bb 8a 3e d9 b8 96 3e
       0.2403637 0.31996843 0.2709623 0.29437903
0000d0 cb 35 99 3e 48 4f 33 3e 9a 33 a1 3e f7 d8 8e 3e
       0.29923853 0.17510712 0.3148468 0.27899906
0000e0 24 e9 80 3e c6 c5 81 3e ce fb 98 3e b2 32 2b 3e
       0.25177872 0.25346202 0.29879612 0.16718557
0000f0 f2 c8 52 3e cf ec 92 3e c6 8a 6c 3e 6b 59 79 3e
       0.20584467 0.28696296 0.23099813 0.24350516

fc3.weight f4 [6, 64]
000000 b1 d0 aa c2 2a 95 aa c2 35 aa aa c2 5f 83 aa c2
       -85.4076 -85.291336 -85.332436 -85.256584
000010 c9 b8 aa c2 2f 82 aa c2 0b e3 aa c2 dd e3 aa c2
       -85.36091 -85.254265 -85.44344 -85.445045
000020 8a b5 aa c2 93 a4 aa c2 2a bb aa c2 1e a7 aa c2
       -85.35457 -85.321434 -85.365555 -85.3264
000030 bc 6b aa c2 b1 de aa c2 55 d3 aa c2 51 90 aa c2
       -85.21042 -85.434944 -85.41276 -85.28187
000040 c0 8b aa c2 1c ee aa c2 12 59 aa c2 f1 9f aa c2
       -85.27295 -85.46506 -85.173965 -85.312386
000050 cd dd aa c2 1c cf aa c2 35 d5 aa c2 fe b9 aa c2
       -85.433205 -85.40451 -85.41642 -85.363266
000060 2a 75 aa c2 7d ab aa c2 73 be aa c2 5f 8e aa c2
       -85.228836 -85.33494 -85.37197 -85.27807
000070 de 92 aa c2 d2 a9 aa c2 73 00 ab c2 87 00 ab c2
       -85.28685 -85.33168 -85.50088 -85.50103
000080 97 a0 aa c2 3a ee aa c2 d2 8a aa c2 2a 8c aa c2
       -85.31365 -85.46529 -85.27113 -85.27376
000090 1a 77 aa c2 a0 9f aa c2 7c ad aa c2 16 af aa c2
       -85.23262 -85.31177 -85.33884 -85.341965
0000a0 74 d4 aa c2 84 bc aa c2 81 86 aa c2 4d fe aa c2
       -85.41495 -85.368195 -85.2627 -85.49668
0000b0 ff bc aa c2 94 9b aa c2 a1 cc aa c2 32 fe aa c2
       -85.36913 -85.30386 -85.399666 -85.496475
0000c0 2e fb aa c2 b6 89 aa c2 af 9f aa c2 8e ed aa c2
       -85.490585 -85.26897 -85.31188 -85.463974
0000d0 09 c6 aa c2 cf bc aa c2 a6 b5 aa c2 a0 be aa c2
       -85.38679 -85.36877 -85.35478 -85.372314
0000e0 2a 94 aa c2 20 d0 aa c2 c5 af aa c2 5d d2 aa c2
       -85.28938 -85.406494 -85.3433 -85.410866
0000f0 c5 81 aa c2 f5 7c aa c2 28 f6 aa c2 c6 a0 aa c2
       -85.253456 -85.24406 -85.480774 -85.31401
000100 96 0d aa c2 7d 55 aa c2 5d 2b aa c2 41 1c aa c2
       -85.026535 -85.16697 -85.084694 -85.05518
000110 a9 04 aa c2 ae 45 aa c2 61 7d aa c2 81 65 aa c2
       -85.0091 -85.13609 -85.24488 -85.19825
000120 e3 93 aa c2 ae 2e aa c2 1b 6f aa c2 5f 07 aa c2
       -85.28884 -85.09117 -85.217 -85.0144
000130 e6 28 aa c2 11 25 aa c2 11 6e aa c2 35 0b aa c2
       -85.07988 -85.072395 -85.21497 -85.02189
000140 ff 50 aa c2 c1 77 aa c2 f6 48 aa c2 1b e1 a9 c2
       -85.158195 -85.233894 -85.1425 -84.93966
000150 c3 2b aa c2 d8 33 aa c2 00 77 aa c2 7d 90 aa c2
       -85.08547 -85.10126 -85.23242 -85.2822
000160 a3 3c aa c2 91 64 aa c2 7f 0d aa c2 91 9c aa c2
       -85.11843 -85.19642 -85.02636 -85.30579
000170 6c ec a9 c2 44 59 aa c2 d9 34 aa c2 28 46 aa c2
       -84.96176 -85.17435 -85.10322 -85.137024
000180 ed 12 aa c2 7e 69 aa c2 5c 11 aa c2 e1 2d aa c2
       -85.036964 -85.20604 -85.033905 -85.08961
000190 19 65 aa c2 d4 83 aa c2 59 69 aa c2 61 41 aa c2
       -85.19746 -85.25748 -85.20576 -85.12769
0001a0 eb fe a9 c2 da 61 aa c2 22 65 aa c2 4a 85 aa c2
       -84.99789 -85.19112 -85.197525 -85.26033
0001b0 8d 63 aa c2 25 04 aa c2 f9 50 aa c2 df 3d aa c2
       -85.194435 -85.008095 -85.15815 -85.12084
0001c0 88 66 aa c2 36 52 aa c2 98 0a aa c2 fb 38 aa c2
       -85.20026 -85.16057 -85.02069 -85.11129
0001d0 59 3a aa c2 9b 68 aa c2 56 57 aa c2 a0 59 aa c2
       -85.11396 -85.20431 -85.17058 -85.17505
0001e0 e8 1e aa c2 00 42 aa c2 4b fe a9 c2 26 37 aa c2
       -85.06036 -85.12891 -84.996666 -85.10771
0001f0 5f 17 aa c2 c2 02 aa c2 30 78 aa c2 47 1e aa c2
       -85.04565 -85.00539 -85.23474 -85.059135
000200 08 5e aa c2 2d 5f aa c2 0d c2 aa c2 00 8c aa c2
       -85.183655 -85.18589 -85.379005 -85.27344
000210 47 7e aa c2 38 b4 aa c2 f3 ac aa c2 e3 b3 aa c2
       -85.246635 -85.35199 -85.33779 -85.35134
000220 a4 70 aa c2 b1 61 aa c2 6d 4b aa c2 c3 b1 aa c2
       -85.22 -85.1908 -85.147316 -85.34719
000230 1e 76 aa c2 ee 6e aa c2 29 b8 aa c2 02 cf aa c2
       -85.2307 -85.21666 -85.35969 -85.40431
000240 51 b6 aa c2 56 84 aa c2 39 97 aa c2 6c 53 aa c2
       -85.35609 -85.25847 -85.29536 -85.16293
000250 82 8d aa c2 cf 96 aa c2 9a d2 aa c2 de 9c aa c2
       -85.27638 -85.29455 -85.41133 -85.30638
000260 1a 9e aa c2 5d b9 aa c2 bf 6d aa c2 6b 81 aa c2
       -85.30879 -85.36204 -85.21435 -85.25277
000270 02 61 aa c2 7b d2 aa c2 e7 b6 aa c2 dc b9 aa c2
       -85.18947 -85.411095 -85.35723 -85.36301
000280 81 59 aa c2 23 c0 aa c2 57 af aa c2 43 8b aa c2
       -85.17481 -85.37527 -85.34246 -85.271996
000290 6c 4d aa c2 ca a8 aa c2 40 8c aa c2 85 72 aa c2
       -85.151215 -85.329666 -85.273926 -85.22367
0002a0 9c 7a aa c2 08 90 aa c2 71 79 aa c2 1e 85 aa c2
       -85.23947 -85.28131 -85.23719 -85.259995
0002b0 ce 6f aa c2 c4 9b aa c2 3a 9c aa c2 36 de aa c2
       -85.21837 -85.30423 -85.30513 -85.434006
0002c0 ad 8d aa c2 30 96 aa c2 db a1 aa c2 ed ad aa c2
       -85.27671 -85.293335 -85.316124 -85.3397
0002d0 c9 9f aa c2 a9 8a aa c2 5c 81 aa c2 44 53 aa c2
       -85.31208 -85.27082 -85.252655 -85.16263
0002e0 fc d2 aa c2 57 ab aa c2 a9 5e aa c2 72 4c aa c2
       -85.41208 -85.33465 -85.18488 -85.14931
0002f0 8e 83 aa c2 85 a3 aa c2 f6 9f aa c2 ba 44 aa c2
       -85.25694 -85.319374 -85.31242 -85.13423
000300 c2 06 aa c2 a5 18 aa c2 66 42 aa c2 77 f8 a9 c2
       -85.0132 -85.048134 -85.129684 -84.98528
000310 93 1d aa c2 1c fa a9 c2 7e 44 aa c2 dd fb a9 c2
       -85.05776 -84.988495 -85.13377 -84.99192
000320 12 2e aa c2 03 2f aa c2 f6 13 aa c2 6e e5 a9 c2
       -85.08998 -85.09182 -85.03899 -84.948105
000330 db fb a9 c2 a5 e5 a9 c2 1b 40 aa c2 a7 61 aa c2
       -84.991905 -84.948524 -85.125206 -85.19073
000340 22 47 aa c2 37 2b aa c2 89 eb a9 c2 86 13 aa c2
       -85.13893 -85.084404 -84.96003 -85.03813
000350 2c 1e aa c2 89 27 aa c2 66 39 aa c2 30 6a aa c2
       -85.05893 -85.07722 -85.11211 -85.2074
000360 66 3f aa c2 75 46 aa c2 4c 21 aa c2 68 17 aa c2
       -85.123825 -85.13761 -85.06503 -85.045715
000370 ab 25 aa c2 23 5b aa c2 67 60 aa c2 65 6c aa c2
       -85.07357 -85.178 -85.188286 -85.21171
000380 ca ed a9 c2 34 5e aa c2 a6 58 aa c2 0c 2c aa c2
       -84.96443 -85.18399 -85.17314 -85.08603
000390 b2 e2 a9 c2 dc 50 aa c2 3d 50 aa c2 12 fa a9 c2
       -84.942764 -85.15793 -85.156715 -84.98842
0003a0 52 e6 a9 c2 63 58 aa c2 3f f4 a9 c2 70 59 aa c2
       -84.949844 -85.17263 -84.97704 -85.17468
0003b0 ce 19 aa c2 e7 eb a9 c2 eb 0a aa c2 ea 73 aa c2
       -85.0504 -84.96075 -85.021324 -85.226395
0003c0 0e 65 aa c2 2b ed a9 c2 fa 3f aa c2 dd 63 aa c2
       -85.19737 -84.96322 -85.124954 -85.195045
0003d0 54 60 aa c2 21 5d aa c2 01 5d aa c2 89 0c aa c2
       -85.18814 -85.18189 -85.18165 -85.02448
0003e0 98 07 aa c2 04 15 aa c2 f8 f9 a9 c2 d9 10 aa c2
       -85.01483 -85.041046 -84.98822 -85.032906
0003f0 c2 2d aa c2 57 ff a9 c2 62 58 aa c2 f7 e1 a9 c2
       -85.08937 -84.99871 -85.17262 -84.94134

fc3.bias f4 [6]
000000 52 27 ab c2 57 95 aa c2 b7 dd aa c2 10 63 aa c2
       -85.5768 -85.29168 -85.43304 -85.19348
000010 5b 37 ab c2 83 5b ab c2
       -85.608116 -85.678734
