dqn_taxi_light64.pth (torch, 45922 bytes, 6 tensors)

fc1.weight f4 [128, 16]
000000 b1 27 13 3f cf eb 8c 3e 68 d8 9c 3d 84 47 e9 3d
       0.5748244 0.27523658 0.07658464 0.11390594
000010 14 75 18 3e 0e cc 8e 3f eb 88 8a 3f 5c d9 6f be
       0.14888412 1.1156023 1.0823034 -0.2342276
000020 c1 fd 41 3f b2 31 8b 3f ab 93 82 3f 3d 6e 1f 3f
       0.7577782 1.0874541 1.0201315 0.62277585
000030 22 b5 1e 3f 96 4e 8e 3f 24 81 76 3e 11 91 4c 3f
       0.61995137 1.1117733 0.240727 0.79908854
000040 76 83 e1 3e f5 cb 16 3f e8 34 e5 3d 9c c0 5d be
       0.4404561 0.58904964 0.11191732 -0.21655506
000050 e8 db 98 bd c9 81 8e 3f 65 2c 92 3f f8 c9 08 bd
       -0.07463819 1.1133357 1.1419798 -0.033395737
000060 44 f2 63 3f bc 30 5e 3f cc d2 91 3f d7 3e 40 3f
       0.89041543 0.8679311 1.1392455 0.75095886
000070 20 02 61 3f ed 4a c0 3f 25 17 2d 3e 68 29 2e 3f
       0.8789387 1.5022866 0.1690336 0.6803193
000080 61 ae 80 3e 6d b4 09 3f 50 e4 34 bd ba df 38 be
       0.2513304 0.5379093 -0.04416305 -0.18054095
000090 f6 cc 3b be ea cf 96 3f 23 e6 7d 3f 08 18 02 be
       -0.18339905 1.17822 0.99179286 -0.1270448
0000a0 be 3a 91 3f 4f fa 7d 3f 51 63 a4 3f c2 c8 d1 3e
       1.1346052 0.99210066 1.2842809 0.4097348
0000b0 b6 f5 05 3f 52 df 8f 3f e8 2b eb 3e bd fc 05 3f
       0.5232805 1.1240027 0.45931935 0.52338773
0000c0 34 fa ac bd aa 4b 43 be ca bb 50 3e 6c 0b d8 3d
       -0.0844616 -0.19071832 0.20384136 0.105490535
0000d0 00 31 4f bc a0 b0 24 3c c0 57 e7 bd 40 24 14 3d
       -0.01264596 0.010051876 -0.11296034 0.036167383
0000e0 bc ad e5 3d 50 8b 6d be 80 25 eb 3c 34 35 5e be
       0.11214778 -0.23197675 0.028704405 -0.21699983
0000f0 68 c6 49 bd a4 93 93 bd 1a cb 4e be 1e dc 40 3e
       -0.04926148 -0.072058946 -0.20194665 0.18833968
000100 da 15 94 3e 94 18 73 3e 60 2f 83 3d 1c 81 64 be
       0.2892292 0.23739845 0.064055204 -0.22314876
000110 d6 75 5e be 7e 8e 47 3f ae 05 7d 3f 68 fc cb 3d
       -0.21724638 0.779518 0.9883679 0.09960252
000120 80 75 68 3f 96 e8 91 3f 94 cc bb 3f ad cc 16 3f
       0.9080429 1.1399105 1.4671807 0.5890606
000130 9e b8 01 3f e9 97 ba 3f 3d c0 ce 3e 32 6f 5e 3f
       0.5067233 1.4577609 0.4038104 0.8688842
000140 e7 51 0f 3d aa c9 1c 3e b6 ef 49 3e e0 6e 77 bc
       0.034990218 0.15311304 0.19720349 -0.015102118
000150 00 b4 ed b9 fe 15 ed 3c ac 52 89 bd d8 bf 76 be
       -0.00045338273 0.02894115 -0.067052215 -0.2409662
000160 80 e1 70 be 7f 88 8e 3d 80 39 d8 3c a5 f0 be 3c
       -0.23523521 0.06959628 0.026394606 0.023308108
000170 71 72 1b 3c 4e 9c 3a be 08 7c 1a 3c f1 55 1e be
       0.009487734 -0.18223688 0.009428985 -0.15462472
000180 e0 b0 9d 3c 50 88 d7 bd dc ab 16 be 50 bd 05 3e
       0.01924938 -0.105240464 -0.14713997 0.13060498
000190 12 3d 3d be 82 e9 33 be 48 6c c5 bd b0 5e 8b bc
       -0.18480328 -0.17569545 -0.09639794 -0.017012924
0001a0 7e bb 78 be 08 26 4a bd 6c a9 79 be 08 d1 be 3d
       -0.24290273 -0.049352676 -0.24381036 0.09317213
0001b0 ec 7b bf 3d 6c 0e cb 3d f4 0c ba bd 16 81 5b 3e
       0.09349808 0.0991486 -0.09084502 0.21435961
0001c0 4c d1 3e 3e e0 0d 92 3e cc 20 30 3e 9c b9 c9 bd
       0.18634528 0.2852621 0.17200011 -0.09849855
0001d0 a0 a2 03 be 08 a9 3f 3f b9 43 98 3f 60 76 6d 3e
       -0.12855005 0.74867296 1.1895667 0.23189688
0001e0 f4 64 57 3f 0a 62 95 3f 3c cd 8f 3f 09 92 0a 3f
       0.8413842 1.1670544 1.1234508 0.5412908
0001f0 bc f5 e7 3e cd 30 93 3f 52 06 88 3e 4e f4 5d 3f
       0.45304668 1.1499268 0.26567322 0.86700904
000200 64 19 07 3f fb b7 0f 3f ac 99 bc bd 5c 84 8f 3d
       0.5277312 0.56140107 -0.09208998 0.070076674
000210 6e b5 2c 3e 13 c8 8c 3f 33 79 8a 3f 7c f4 cd bd
       0.16866085 1.0998558 1.0818237 -0.10056397
000220 c2 1a 97 3f 09 b9 83 3f 7f c1 ae 3f c4 a2 f9 3e
       1.1805041 1.0290843 1.36528 0.48756993
000230 84 63 35 3f e0 52 99 3f 94 27 e0 3e 59 9c 6b 3f
       0.70854974 1.1978416 0.43780196 0.9203544
000240 7d 3c 92 3e 4c 00 43 3e 6e a6 01 3e 00 0d 7f bc
       0.28561774 0.19043082 0.12661144 -0.015567064
000250 b0 7a 82 3d 97 47 97 3f 34 b2 8d 3f ea 80 1f 3e
       0.06371057 1.1818722 1.1070008 0.1557652
000260 03 e3 56 3f 7b 2f 7d 3f 49 a3 9c 3f 7e a6 0d 3f
       0.8394014 0.98900574 1.2237331 0.5533217
000270 c8 d5 2d 3f 95 49 97 3f 60 bc b8 3e f3 1c 6d 3f
       0.6790433 1.181933 0.3608122 0.926223
000280 ae ac 44 3e b2 ce 11 3f 04 61 ab bd 80 e3 3b 3e
       0.19206497 0.56956017 -0.08368114 0.18348503
000290 10 c8 a1 bd 1f 97 82 3f fc 4d 70 3f 7c bb 61 be
       -0.07899487 1.0202368 0.93868995 -0.22044176
0002a0 92 73 65 3f 57 a7 7b 3f 04 f5 a7 3f c9 29 e8 3e
       0.8962947 0.98302215 1.3121648 0.4534438
0002b0 02 b9 2b 3f 1b 3a 8e 3f 3e 9c c4 3e 01 71 2f 3f
       0.67079175 1.1111482 0.38400453 0.68531805
0002c0 00 04 73 3b d8 13 31 be 54 be e9 3d d0 59 e3 3c
       0.0037081242 -0.17292726 0.11413255 0.027752787
0002d0 ca 9b 18 3e d0 2f 8b bd 12 4d 79 be 1c 1b 3a 3e
       0.14903179 -0.06796229 -0.24345806 0.18174404
0002e0 3c d3 65 be 46 00 67 3e 38 5b 07 bd 04 1d 7a 3e
       -0.22443861 0.22558698 -0.033045977 0.24425131
0002f0 40 fb aa bc c4 09 da bd 92 d3 3e 3e 1c 93 c4 bd
       -0.020871758 -0.10646394 0.18635395 -0.095983714
000300 6a 9a 48 3e b1 28 b4 3e 08 ee 31 be 5a f2 5f be
       0.19590154 0.35187295 -0.17375958 -0.21869794
000310 80 ae 9c 3d a3 c7 83 3f bb ec 86 3f 78 a8 0e 3e
       0.07650471 1.0295299 1.0540994 0.13931453
000320 94 b6 81 3f 2b 2f 5f 3f da b9 af 3f 16 28 cf 3e
       1.0133843 0.8718135 1.3728592 0.4046027
000330 87 50 51 3f 2b db 92 3f 11 39 fe 3e fb b8 80 3f
       0.817635 1.1473135 0.49652913 1.0056452
000340 45 d1 f8 3e 27 b5 0c 3f e0 60 00 be 46 aa 3e 3e
       0.4859716 0.54963917 -0.12536955 0.18619642
000350 b8 7f 94 bd 87 7e 37 3f f5 5c 73 3f 86 0c 4d be
       -0.07250923 0.7167744 0.95063716 -0.20024309
000360 4e 80 82 3f a5 6e 79 3f 60 02 9f 3f 44 07 26 3f
       1.0195405 0.97434455 1.24226 0.64854836
000370 b9 7a 08 3f 42 38 9b 3f 60 61 5a 3e e4 1c 11 3f
       0.5331226 1.2126544 0.21326208 0.5668471
000380 b1 4d 09 3f 1a f5 ab 3e e6 6c 3a 3e 4c 13 bc bd
       0.5363417 0.33585435 0.18205604 -0.09183368
000390 24 e4 e1 bd 9a a7 4a 3f fe d3 8c 3f 50 4e ab 3c
       -0.110298425 0.7916199 1.1002195 0.020911366
0003a0 97 53 94 3f be ae 4f 3f 01 ea c2 3f 42 82 de 3e
       1.158801 0.8112601 1.5227662 0.43458754
0003b0 80 e7 fb 3e 5e 0a 95 3f cc 1e d3 3e 1f 7d 0d 3f
       0.49200058 1.1643789 0.41234434 0.55269045
0003c0 56 15 8b 3e 80 43 f6 3e e4 59 b0 3d 40 f6 37 bd
       0.27164716 0.48098373 0.08610895 -0.044912577
0003d0 88 54 5e 3e ff 05 97 3f 7c e3 4c 3f 78 e3 68 3e
       0.21711934 1.1798705 0.80034614 0.22743022
0003e0 cf ae 99 3f 1c c1 79 3f b9 89 ac 3f 32 52 27 3f
       1.2006472 0.97560287 1.347953 0.65359795
0003f0 dc 5d e9 3e 7f bc bb 3f 9e 2f b5 3e 4a 10 0f 3f
       0.45579422 1.46669 0.35387892 0.5588423

fc1.bias f4 [128]
000000 21 fe b6 3f 46 60 ca 3f fb 9e d0 3f 20 e9 b5 3d
       1.4296304 1.581063 1.6298517 0.08882356
000010 49 9f da 3f 27 9c e3 bd 38 15 b6 bd b3 b2 cd 3f
       1.707986 -0.11113768 -0.08890766 1.607016
000020 73 c6 e2 3f 89 87 b5 3f 9a 9d c5 3f e0 74 34 be
       1.7716812 1.4181987 1.5438721 -0.1762271
000030 bc c7 dd 3f 91 dd a8 3f 42 5b db 3f cb e4 da 3f
       1.7326579 1.3192617 1.7137225 1.7101072
000040 eb b3 d1 3f 69 c1 1e 3e b6 80 43 be 98 07 c0 3f
       1.6383032 0.15503468 -0.19092068 1.5002317
000050 c8 ab e5 3f 0c 7c b9 3f c6 e5 e2 3f fd 7d d3 3f
       1.7943048 1.4490981 1.7726371 1.6522824
000060 70 ab ac 3d e8 ff 78 be 48 e6 3c bd 66 db 1c be
       0.084311366 -0.2431637 -0.04611805 -0.15318069
000070 bb 8c c0 3f 95 f9 b6 3f bf b4 aa 3f 25 c3 d8 3f
       1.5042948 1.4294916 1.3336409 1.6934553
000080 38 41 b2 3f be 56 74 3e 5b c8 c0 3f c7 9d a7 3f
       1.3926153 0.23861215 1.5061144 1.3095025
000090 8b 79 bf 3f 94 a6 a4 3f 38 00 13 be e5 50 ae 3f
       1.4958967 1.2863336 -0.14355552 1.3618437
0000a0 ee 81 c3 3f 22 ae c8 3f 3b 2b c8 3f 66 5a b7 3f
       1.5274026 1.5678141 1.5638193 1.4324462
0000b0 69 70 cc 3f 17 2c de 3f 56 4f 1c be 56 34 34 be
       1.5971805 1.7357205 -0.1526464 -0.1759809
0000c0 48 cc d1 3f f8 d1 e2 3f 06 66 c1 3f 84 52 e1 3f
       1.6390467 1.7720327 1.510926 1.7603307
0000d0 19 fc a4 3f 70 88 8f 3d 88 77 e3 3f 43 8c b5 3f
       1.2889434 0.07008445 1.7770853 1.418343
0000e0 6e 82 21 be b7 c7 de 3f b6 a2 a8 3f d2 aa 33 be
       -0.15772411 1.7404698 1.3174655 -0.17545632
0000f0 da 46 bb 3f 76 03 45 be 45 07 d9 3f b6 3c 24 be
       1.4630997 -0.19239601 1.6955343 -0.16038784
000100 65 11 dc 3f 21 e0 c3 3f ee d2 dc 3f 1c d6 bd 3f
       1.7192808 1.5302774 1.7251871 1.4830966
000110 ba 25 6d 3e 8e 2a 2c be 03 8a a9 3f 20 f1 cb 3f
       0.23158923 -0.16813108 1.3245243 1.593296
000120 79 ed a7 3f 18 6a af 3f 90 f7 04 3d ae be e3 3f
       1.3119346 1.3704252 0.032462656 1.7792566
000130 c8 12 b4 3f dc 2f 07 be bb 0a d9 3f 63 9b d4 3f
       1.4068232 -0.1320185 1.69564 1.660992
000140 2a 8a 2d be 5d f1 b5 3f d3 ad e3 3f c2 eb 12 be
       -0.16947237 1.4214283 1.7787422 -0.14347747
000150 51 5d d9 3f 9b f9 b6 3f ac f3 c4 3f b0 f1 db 3f
       1.6981603 1.4294924 1.5386863 1.7183132
000160 52 d2 b3 3f 82 18 d9 3f 5b 1d e5 3f 94 10 d3 3f
       1.404856 1.6960604 1.7899584 1.6489434
000170 2e f6 74 be 27 4a dc 3f 64 ce d9 3f c3 8d e0 3f
       -0.23922035 1.721013 1.701611 1.7543262
000180 b3 d5 b8 3f 81 14 e3 3f bc 5c b7 3d 39 ec ca 3f
       1.4440216 1.7740632 0.089532346 1.585334
000190 0a e4 78 be 04 d3 be 3f de 41 b5 3f f8 28 74 3d
       -0.2430574 1.4908147 1.4160726 0.059609383
0001a0 ae c9 b7 3f 7e e8 47 be dc cc d7 3f 3d ca c6 3f
       1.4358423 -0.19522282 1.6859393 1.5530468
0001b0 7d 18 ad 3f 57 b2 c0 3f 70 e2 c0 3f 6c 33 16 3e
       1.3523098 1.5054425 1.5069103 0.14668053
0001c0 6d b0 d0 3f fe bd 74 3e 61 39 af 3f 27 33 a4 3f
       1.6303841 0.23900601 1.3689386 1.282811
0001d0 01 ab c0 3f 44 00 d8 3f 46 5f 26 3e af 83 e3 3f
       1.5052186 1.6875081 0.16247281 1.7774562
0001e0 33 d1 db 3f 3d c1 d1 3f b0 28 b3 3f 64 7e db 3f
       1.7173218 1.6387097 1.3996792 1.7147946
0001f0 8c 3f ee 3d a5 6f ab 3f fd f7 db 3f 79 ed d7 3f
       0.11633214 1.3393446 1.7185055 1.6869346

fc2.weight f4 [64, 128]
000000 68 2b 01 bd 6b 38 5d 3c ca 7a 0e 3d 0e 73 75 3c
       -0.031535536 0.013502221 0.03478507 0.014981044
000010 98 cd b0 bd 57 c4 b1 bd 7c f3 cf bc 69 eb a1 3c
       -0.08632964 -0.08680027 -0.025384657 0.019765573
000020 92 fb 1f 3d 80 6c 16 bd 9c 21 af bb 28 3a 9c 3d
       0.039058276 -0.036724567 -0.0053445827 0.0762828
000030 be 84 71 bc 49 31 a8 bd 8f 9c 44 bd 61 ca 67 3d
       -0.014741121 -0.082125254 -0.04800087 0.056589488
000040 e1 f3 2d 3d 1a 3c 87 3d b0 9a a7 bd 6b a4 64 3d
       0.04246891 0.0660326 -0.08183801 0.055820864
000050 5e 92 8e bc 4e 22 bd bd bf 24 1c 3a 95 63 91 3d
       -0.017403778 -0.09235059 0.00059564033 0.07099072
000060 ed 4e 96 3d 25 5d 91 bd 2d 0a 48 3c 4c 4f 95 3c
       0.07339273 -0.07097844 0.012209457 0.018226288
000070 43 f6 c4 3b 86 d0 5e 3c b1 4a ac bc 78 9a ea ba
       0.006010802 0.013599521 -0.02103171 -0.0017898818
000080 39 9f bd bb 7f b0 38 3d ba 8f 96 3d fb e4 a9 3c
       -0.005786803 0.045090195 0.073516324 0.02073907
000090 9b 10 72 3d 5b 08 6f 3d 1a 8f 82 bc bc c4 a6 bd
       0.059097867 0.058357578 -0.015937377 -0.08142993
0000a0 47 ac cf 3c c3 fc 8b 3d 7d 2f a2 bd 9e eb 83 bd
       0.025350703 0.0683532 -0.07919214 -0.06441425
0000b0 e3 a2 21 3c 0e 2d 69 3d 20 8a be 3c df b6 94 bd
       0.009865495 0.056927733 0.023259223 -0.072614424
0000c0 64 d7 2a bd 5a d5 68 3c 4a 79 5b bc 4f 2b 56 bd
       -0.04170932 0.014211023 -0.013395617 -0.052287396
0000d0 d8 4d 6d bc e3 c4 9b bc f6 f4 b0 3c 67 45 9e 3d
       -0.014483891 -0.019014781 0.021601181 0.07728081
0000e0 8b 7d 9a bd ad b6 60 bd d7 97 0d bd b2 89 85 3b
       -0.07543477 -0.054861713 -0.034568634 0.0040752525
0000f0 f9 5c 82 bc 35 3e d6 bb f0 83 9a bd f6 82 a7 bd
       -0.015913473 -0.0065381774 -0.07544696 -0.08179276
000100 4a 37 94 bc 34 b1 4e 3d bb 26 8d bc ed 9e 63 bd
       -0.01809277 0.050461963 -0.017230382 -0.055571485
000110 46 1a 0f 3c dd 1a ae bc 6c 7e 7c 3d c5 19 9b bd
       0.008734291 -0.021253044 0.061644003 -0.075732745
000120 1d 82 51 3d 68 6e 91 bd 2e dd 11 3d 15 16 d4 bc
       0.051149476 -0.071011364 0.035611324 -0.025889436
000130 f8 ab 9f 3d fe 24 63 bd 73 e2 98 bd 25 80 90 bc
       0.07796472 -0.0554552 -0.07465067 -0.01763923
000140 c8 32 45 bd c8 9f 8a 3c 01 d3 08 bc 22 c2 76 bd
       -0.048144132 0.016921893 -0.0083510885 -0.060243733
000150 25 b0 a5 3c 5e 5a 9c 3d 51 a3 64 3c 90 03 79 bd
       0.020225594 0.07634424 0.013954953 -0.060794413
000160 fb 2d b3 3b 89 44 5a bc 46 4c 36 3d c3 cd 81 bd
       0.005468128 -0.013322004 0.044506334 -0.06338074
000170 bc 49 68 3c 29 24 44 bd 96 c1 41 bd 61 97 14 bc
       0.014177736 -0.047886048 -0.04730376 -0.009069295
000180 ca 2a 70 3c bd 12 b2 3b 1e ae 15 3c 21 d2 b9 ba
       0.014658639 0.0054343627 0.009135751 -0.0014177003
000190 75 cc d4 3c c1 e9 76 3d 8f 94 b2 bd 0a bc 4b 3d
       0.025976399 0.06028152 -0.087197416 0.049739875
0001a0 32 0d d2 bc 89 da ba bc ef f8 6d 3d f6 d2 af 3b
       -0.025641058 -0.022809284 0.05809873 0.0053657247
0001b0 64 3e 7f bd 9c f6 49 3d 4c 60 a3 bd 0b d9 66 3d
       -0.06231536 0.04930745 -0.079773515 0.056359332
0001c0 72 20 90 3c cc a2 1c bd 9a 55 8e bd d6 eb ff bc
       0.017593596 -0.038241193 -0.06949921 -0.031240385
0001d0 31 f4 fc 3c 56 f7 ef bb a9 ea a2 bd a0 44 4e bc
       0.030878158 -0.007323186 -0.07954914 -0.012589604
0001e0 ce e8 76 bb 3d c0 1d bb 64 6b a4 bd 16 72 24 bd
       -0.0037675384 -0.0024070882 -0.08028296 -0.040147863
0001f0 6d 1a 83 3d 3a fc f1 bc 7f d9 50 3c 19 60 82 bd
       0.06401525 -0.029539216 0.012747168 -0.063659854
000200 17 ee 50 bc 12 09 ca bc 0c 78 91 bd 18 b1 6a bc
       -0.012752078 -0.024662528 -0.07102975 -0.014324449
000210 d8 ae 50 3c cc fb df bc da f0 71 3d 30 1e 97 bd
       0.0127369985 -0.027341746 0.059067585 -0.07378805
000220 ee 77 4e 3d 77 31 60 3d 5f 19 9b bc 1b de ac 3d
       0.050407343 0.054734673 -0.018932996 0.08440801
000230 05 e5 63 3d 45 4f 7e bd b0 e5 a3 3d 6f 72 79 3d
       0.055638332 -0.062087316 0.08002794 0.060900148
000240 46 b8 5e 3c f2 38 a0 bd 47 5c 65 3d d9 3f c6 3c
       0.013593739 -0.078233615 0.055996206 0.024200367
000250 42 86 50 bd 33 0f c2 3b 48 1b 6b 3d 96 06 9a bc
       -0.05090929 0.005922222 0.057399064 -0.018801969
000260 7b 0c 3e bc df 56 60 3d 2f be 90 bc 44 87 53 bd
       -0.011599655 0.054770347 -0.017668812 -0.05164267
000270 f3 44 3d bd 02 b9 72 3a e7 1e 9c bc 60 f5 f7 3c
       -0.046208333 0.00092591357 -0.019057704 0.030268371
000280 6c c3 66 bd db 6d 1c bd a1 0d 8f bd 14 97 d0 3c
       -0.056338713 -0.038190704 -0.069850214 0.025462665
000290 5c b2 62 3b b8 23 84 3d a9 c6 7b bd dc 07 f0 3c
       0.0034591174 0.06452125 -0.061468754 0.029300623
0002a0 a6 54 14 bc f9 d2 12 bc 96 cc 9e 3d ad 95 7d bd
       -0.009053385 -0.008961433 0.077538654 -0.06191032
0002b0 11 d7 41 bd 25 10 19 3b b1 41 16 bd c8 34 2c bd
       -0.047324244 0.002335557 -0.036683742 -0.042042524
0002c0 70 f8 4b bd f7 5b 89 bd a3 2d 12 3c 7b 6d 0c bd
       -0.049797475 -0.06706994 0.008922013 -0.034284096
0002d0 23 42 b7 bc de b5 f7 3b 6c 26 b8 bd 8b 16 99 bd
       -0.022370404 0.007559522 -0.089917034 -0.07475003
0002e0 d7 7d 9c 39 96 37 8e bc 53 54 e1 bc 18 64 10 3c
       0.00029848397 -0.01736049 -0.02750603 0.008812927
0002f0 93 45 34 3d f7 86 96 3d 43 b0 37 3d 96 86 54 3d
       0.044011664 0.07349961 0.04484583 0.051886164
000300 8c cf 81 bd 83 b0 e7 3c ac 57 a5 3a bd 15 89 bd
       -0.063384145 0.02828241 0.0012614629 -0.066935994
000310 61 d1 09 bd 42 8c 95 bd 3a b6 fa 3b 71 4e 18 3c
       -0.033646945 -0.07302143 0.0076511176 0.009296046
000320 cd 41 94 bd 53 0b 8f 3c 3b fa a8 3d ef 8c 43 3d
       -0.07239113 0.017461454 0.08250853 0.047741827
000330 7f 80 25 3d 92 f9 47 bd 9b ce 43 bd dd 6e f2 bc
       0.040405747 -0.048821993 -0.047804456 -0.02959388
000340 a9 4f 8c 3d 87 7e 9a 3d 46 75 87 bc 1f ad 78 bd
       0.068511315 0.075436644 -0.016535413 -0.060711976
000350 09 6c b1 bb 55 12 6d 3d 6f 89 66 3d 93 2c 34 3c
       -0.00541449 0.05787881 0.05628341 0.010996955
000360 ce cc 54 bd 49 81 fb 3c 4d 25 43 bb 38 5e cf 3b
       -0.05195313 0.030701296 -0.0029776872 0.0063283704
000370 5f ef 8c 3c 55 ef b0 3d 09 46 a3 bd ae 48 3e bd
       0.017203985 0.08639399 -0.079723425 -0.04645603
000380 6d 49 c4 3c 28 cd 70 3d 52 6d 8e 3d a7 14 26 bc
       0.023960793 0.058789402 0.06954445 -0.01013676
000390 9a 86 c4 3c 74 f4 2d 3d 24 09 36 bd d9 52 8a 3c
       0.023989964 0.042469457 -0.04444231 0.016885208
0003a0 a7 a6 65 3c ce 13 88 bd c0 1b 39 bd 3a ed 35 bd
       0.014016784 -0.066444024 -0.04519248 -0.04441569
0003b0 db 9e 64 bd 75 0f a6 3d 9a 16 ab 3c 43 f9 10 bd
       -0.05581556 0.08108417 0.0208848 -0.035393964
0003c0 1f e5 fb bc 5c 61 f4 3b f0 87 c4 3c 3e 78 a0 bd
       -0.030748902 0.007457895 0.023990601 -0.078354344
0003d0 0b 6b bf bc 2c 72 c0 bc 92 7c af 3d 15 4a 91 3d
       -0.023366472 -0.023491941 0.08568682 0.07094208
0003e0 d2 93 15 3c 90 bc 41 3d 5c c5 98 3d fd 5e cd 3c
       0.009129481 0.047298968 0.07459518 0.025069708
0003f0 dc ae 9a bd 8d 04 9c 3c 87 c0 03 bd 05 0c db 3c
       -0.07552883 0.019045139 -0.03216603 0.02673913

fc2.bias f4 [64]
000000 70 a1 14 bc 04 b3 94 3c 91 5d 9b 3f de c0 90 3f
       -0.009071693 0.018151768 1.2137929 1.1308858
000010 c2 ac e1 bb 20 a9 9a 3f 3b d4 91 3b 79 12 ab 3f
       -0.0068870494 1.2082863 0.0044503487 1.3365012
000020 16 e0 af 3f cb ad b1 3c 49 d1 9f 3f 03 06 29 bd
       1.3740261 0.021689316 1.2485744 -0.0412655
000030 cb f0 bd bd 7f 1c a1 3f 56 7f 06 3d e7 a1 01 3d
       -0.09274443 1.2586821 0.03283628 0.031648543
000040 d6 38 9d 3f 4a 67 a4 3f 47 92 2c bd 41 57 b6 3c
       1.228297 1.2844021 -0.04213169 0.022258403
000050 30 e3 9a bd 5f 86 9c 3f c4 77 9c 3f 29 55 8f 3f
       -0.07562864 1.2228507 1.222405 1.1197864
000060 34 d3 ce 3c 3b 47 58 3d 51 07 a4 bd 00 53 a3 3f
       0.025247194 0.052802306 -0.08009208 1.2759705
000070 27 c3 da bb f6 ba 84 3d 65 ad a3 3d 82 96 f2 3c
       -0.006676096 0.064809725 0.07992057 0.029612783
000080 20 c6 5a 3c fd 5f ab bd 59 98 96 3f 34 0b a9 3f
       0.013352901 -0.08367918 1.1765243 1.3206544
000090 20 ac a5 3c d7 6e e9 bc 83 33 52 3d 37 c3 2d 3d
       0.020223677 -0.028495235 0.051318657 0.0424225
0000a0 e3 e7 95 3f df c6 53 bd de cc 29 bc b8 ac 01 bd
       1.1711391 -0.05170333 -0.010363786 -0.031658858
0000b0 59 e9 81 3d 5f 94 9e 3f 56 ec 45 bd e0 81 e1 bc
       0.06343336 1.2389029 -0.04832109 -0.02752775
0000c0 ea 7c ca bc 47 ee 9f 3d 61 34 70 3d e0 08 9f 3f
       -0.024717767 0.0780912 0.058643702 1.2424583
0000d0 23 c2 1f bd fe 3c 58 bd 2f 3b a0 bd cb 04 a7 3d
       -0.039003503 -0.05279254 -0.078237884 0.08155211
0000e0 d9 52 a7 3f 45 5a c4 bd f5 d9 3b 3d 50 97 ae 3f
       1.3072158 -0.0958753 0.045862157 1.3639927
0000f0 07 1b a7 3f a4 6f 88 3d 4f 76 87 bd a6 00 b0 bd
       1.3055123 0.06661919 -0.066143624 -0.08593874

fc3.weight f4 [6, 64]
000000 4d 71 e0 3d bd b1 86 3d 9a 74 0f bf 95 2c eb be
       0.109591104 0.0657687 -0.56037295 -0.4593245
000010 01 88 a1 3d b1 8b f7 be b4 34 dd 3d 9e 2a f5 be
       0.07887269 -0.48348764 0.10801068 -0.47884077
000020 fb 7b 2f bf fc b6 59 3d f9 80 31 bf ac 52 08 bd
       -0.68548554 0.053153023 -0.6933742 -0.033281967
000030 08 98 3f bd a3 18 2f bf 86 51 eb bd 61 db 0a 3d
       -0.046775848 -0.6839697 -0.11490159 0.033900622
000040 43 86 2e bf 5d be 0f bf c1 f8 f3 bd 8c d9 15 bd
       -0.6817362 -0.56149846 -0.119126804 -0.036584422
000050 36 3a d3 bd 75 72 22 bf 3a a3 1e bf 99 7f 15 bf
       -0.10313837 -0.634559 -0.61967814 -0.58397824
000060 11 ec 85 b9 bd f1 ca bd d0 49 b8 bd 9e 48 0e bf
       -0.0002554362 -0.09909389 -0.089984536 -0.55579555
000070 c0 fe e4 3c 2e b7 bf ba 14 16 97 3d 67 3a b3 3d
       0.027953506 -0.0014626735 0.07377258 0.08751374
000080 12 ac 93 3d ae 73 a8 bd 7e 1f 2f bf 50 64 f0 be
       0.07210554 -0.08225189 -0.6840743 -0.46951532
000090 c4 c3 00 3d 61 3e ff 3d 28 db 9f bc 05 e0 24 3d
       0.031436697 0.1246307 -0.019513682 0.040252704
0000a0 95 38 f8 be 20 f9 47 3d 2a ad f2 3d 22 1d be bd
       -0.4848067 0.04882157 0.11849435 -0.092829004
0000b0 08 94 e4 3d f5 b1 0d bf 59 f5 62 3c 00 a2 e7 bb
       0.11161047 -0.55349666 0.013852441 -0.0070688725
0000c0 84 ae 65 bc f6 86 a5 3d 1d 63 f7 bd 03 58 13 bf
       -0.014018659 0.080823824 -0.12079451 -0.5755617
0000d0 13 3b ef 3d 76 10 3e 3c 89 54 3a bc a0 7a b3 3d
       0.116811894 0.011600604 -0.011372694 0.08763623
0000e0 8b de fd be 3b c8 05 be dc 2a a4 bd 83 c3 16 bf
       -0.4958385 -0.13064663 -0.08015987 -0.5889208
0000f0 a9 2f ed be 81 21 63 b9 b1 1f 97 3d e1 02 7d bd
       -0.46325424 -0.00021660888 0.073790915 -0.061770324
000100 19 66 18 bd 36 5b dd 3d 75 6a 0b bf 00 9b 23 bf
       -0.037206743 0.10808413 -0.54459316 -0.63908386
000110 0c e2 d4 3d fb 0f 20 bf d8 37 49 3d f5 f8 ed be
       0.103946775 -0.62524384 0.049125522 -0.46479002
000120 cb a5 1e bf f2 4f a1 bd 5c d3 11 bf 3a 01 e2 3d
       -0.6197173 -0.078765765 -0.56963134 0.1103539
000130 78 87 8a 3d 21 33 20 bf 76 6c bd bd 3d b9 8b bd
       0.0676412 -0.62578017 -0.09249203 -0.06822441
000140 76 fe 04 bf b3 8f 20 bf f3 0b e7 3b c0 b2 96 3d
       -0.51950777 -0.6271927 0.007050985 0.073583126
000150 0a 13 d2 3d 8a 3d 29 bf 32 12 f2 be 66 d0 fd be
       0.10257538 -0.66109526 -0.47279507 -0.49573058
000160 48 55 ce bd eb 50 04 be 76 99 8f 3d 4f 29 21 bf
       -0.1007486 -0.12921493 0.07011692 -0.62953657
000170 b9 7b e7 3d 0b 81 eb 3d a8 b0 22 3d d1 94 f6 bd
       0.11302895 0.11499222 0.039719254 -0.12040103
000180 f8 f4 b1 bd 5a b6 d9 bd 27 a7 ec be a7 69 02 bf
       -0.08689302 -0.10630484 -0.46221277 -0.5094246
000190 01 60 9a 3d 65 70 1d bd 00 cc d3 bc 7b 5e 34 bc
       0.075378425 -0.038437266 -0.02585411 -0.011008854
0001a0 1b 2a 26 bf d4 b1 d3 bd 3c ed b4 bc 98 1f 91 3c
       -0.64908 -0.103366524 -0.022085778 0.01771526
0001b0 0e 31 c2 bd 25 a8 d6 be 58 52 8c bd d2 a1 b3 bd
       -0.09482013 -0.4192516 -0.06851643 -0.08771099
0001c0 8f 8e 07 3d 61 91 5f 3d a8 20 5c 3d cd ec 1a bf
       0.03309494 0.054582004 0.05374208 -0.6051758
0001d0 89 9b b7 3c 39 89 e0 3d 5c 98 55 3d 3c 1c 76 3d
       0.022413032 0.10963673 0.052147254 0.06008552
0001e0 b5 17 21 bf 1a cd 97 bd dc 31 c6 bc 0f ff 0f bf
       -0.629268 -0.07412167 -0.024193697 -0.56248564
0001f0 1f 78 26 bf 10 09 a9 bc 55 81 65 bd a3 1c ac bd
       -0.6502704 -0.020634204 -0.056031544 -0.084038995
000200 ef 45 b8 3b e0 dc 86 3b 54 30 fe be 10 16 f0 be
       0.005623571 0.004115686 -0.49646246 -0.46891832
000210 da c9 0d be 31 87 03 bf 22 70 fe bd 8c 7e 16 bf
       -0.13846532 -0.5137816 -0.124237314 -0.58786845
000220 8f 37 07 bf c4 09 59 3d 6a 61 0c bf 7a 85 d0 bc
       -0.5281915 0.05298783 -0.5483614 -0.025454272
000230 9d 83 7d 3c 19 c1 09 bf 54 43 43 bd e7 bc fa bd
       0.015473274 -0.5381027 -0.04767163 -0.122430615
000240 7d ae 1d bf 04 be 2a bf a2 64 2a 3d 20 34 8f 3d
       -0.61594373 -0.6669619 0.041599877 0.06992364
000250 80 d5 ca bb ce 57 13 bf 09 a9 2f bf e5 e2 2a bf
       -0.006190002 -0.57555854 -0.686173 -0.66752464
000260 de d2 ab 3d 89 cd 92 3d 54 74 31 3d 09 bc 19 bf
       0.08389829 0.07168109 0.04332383 -0.60052544
000270 9c be 92 3d 4e cd cb bd 48 2d 38 bd 3a ce e2 bd
       0.07165262 -0.09951268 -0.04496506 -0.11074491
000280 80 61 bb 3a f0 36 c6 bd 47 15 1a bf f7 53 06 bf
       0.0014296025 -0.09678447 -0.60188717 -0.5247187
000290 fc 49 84 3d 77 25 78 3d 78 6c 3f 3d 04 5c f7 3d
       0.06459424 0.060582604 0.046734303 0.120780975
0002a0 c0 dd 00 bf 20 ad bf bc 63 e8 e6 3c da 9d 89 bd
       -0.50338364 -0.023397982 0.028186982 -0.06719561
0002b0 6c 55 62 bd 6a a5 04 bf fa 7a cd 3d b4 f2 e2 bd
       -0.055257246 -0.518149 0.100332215 -0.11081448
0002c0 36 38 c1 3d d8 e0 72 3b 14 42 44 3d 5c 3d 22 bf
       0.094345495 0.0037060287 0.04791458 -0.63374877
0002d0 94 41 01 be 42 d8 4e bd b1 1c 83 bd 3d 2c ba 3c
       -0.12622672 -0.05049921 -0.06401957 0.022726173
0002e0 2a 57 1c bf 3a 2f 59 3d 1e fc d6 3d 51 be 18 bf
       -0.610705 0.053023554 0.10497306 -0.596654
0002f0 e8 07 ff be 70 18 ab 3c b4 2d d8 3c 92 c1 6e bd
       -0.4981072 0.020885676 0.02638898 -0.05829007
000300 67 82 4c 3d 84 20 9f bd 69 2f 0a bf 67 2c 07 bf
       0.04992905 -0.07769874 -0.5397859 -0.5280213
000310 db 43 6b 3d 14 09 11 bf bc 40 60 3d 20 e8 26 bf
       0.05743776 -0.5665448 0.054749236 -0.65197945
000320 d7 95 20 bf 78 cd 52 3d ad 0c 17 bf 4d ca dc 3d
       -0.6272864 0.05146548 -0.59003717 0.10780773
000330 0a d4 38 3d 96 30 13 bf 2c ab 21 3d 16 b4 60 3d
       0.04512409 -0.5749601 0.039469883 0.054859243
000340 9f 78 0b bf fb ea 0b bf 2d e3 4f bd 74 cd 2c 3d
       -0.5448093 -0.54655427 -0.05075376 0.042188123
000350 58 0c 6e bd 3d 92 1e bf 56 b6 1e bf a5 05 ea be
       -0.05811724 -0.6194189 -0.6199697 -0.4570743
000360 52 7c 07 bd 18 90 00 3d c6 09 a2 bd c9 5f 14 bf
       -0.033077545 0.03138742 -0.079120204 -0.57958657
000370 b0 ff 15 bd 87 bd 80 3d 33 1d d4 3d 1f bb 73 bd
       -0.036620796 0.062861495 0.10357132 -0.059504624
000380 7e dc cd bd 80 55 3d 3c 2c 30 d6 be d9 3b 0f bf
       -0.10051821 0.011556029 -0.41833627 -0.55950695
000390 28 70 4d bd 21 26 bb 3d c0 73 0b 3c 6c 56 d4 bd
       -0.05015579 0.09138132 0.008511484 -0.10368046
0003a0 74 a2 ee be 02 5c ec bd fb 85 a6 3d 88 62 bc bd
       -0.46608317 -0.115409866 0.081310235 -0.09198481
0003b0 fa 1b ec 3d 15 b3 2b bf 72 da b9 bd b0 d0 0e 3c
       0.115287736 -0.6707013 -0.09074868 0.008716747
0003c0 86 7f 5c bc 2b 21 a4 bc 96 29 86 bd 49 2f 22 bf
       -0.013458138 -0.020035347 -0.06550901 -0.633534
0003d0 6d 2a dd 3d 00 e5 a8 bd 57 d0 ae bd 80 9b 49 bd
       0.10799108 -0.08246803 -0.085358314 -0.049220562
0003e0 13 29 f6 be 5d e0 ba 3d 6b c6 d8 3d 5b 1a 2e bf
       -0.48078212 0.09124825 0.1058472 -0.68008965
0003f0 8c 78 1f bf 7e 40 e9 3d 2f 00 da 3d a1 f1 36 3d
       -0.62293315 0.11389254 0.10644566 0.04466403

fc3.bias f4 [6]
000000 34 7d e4 be 78 81 2a bf 79 ec b0 be 7b 11 27 bf
       -0.44626772 -0.66603804 -0.34555414 -0.6526105
000010 62 51 1f bf b2 bd ed be
       -0.62233555 -0.4643379
