dqn_taxi_light64.pth (torch, 43362 bytes, 6 tensors)

fc1.weight f4 [64, 16]
0.3174876 0.025761427 0.17397004 -0.11039961 -0.035898156 0.9634977 0.72038084 -0.12798162
0.82696766 0.7487191 1.6739793 0.49235985 0.3254012 1.4529821 -0.48770475 0.7307617
0.0029321664 -0.21765864 -0.09656805 0.043819018 -0.13825938 -0.09767219 -0.2317662 -0.0708168
0.11716384 -0.08454088 0.19333713 -0.10732476 -0.0008317827 -0.21927802 0.11356263 0.0207535
0.04651431 -0.010287595 0.017763225 -0.09175781 0.1837878 -0.069071025 -0.06912075 0.08410019
0.018590895 -0.07834768 -0.02959027 0.0800531 -0.09764335 0.13232793 0.12766987 -0.10268108
0.32005167 0.31314003 0.20877737 0.16268346 0.014966322 1.0719163 1.1404433 -0.18460476
1.222354 0.9294325 1.520003 0.4658584 0.6615599 1.5284959 -0.2762561 0.4852597
-0.113371134 -0.2195391 -0.22918049 0.12548295 -0.026529565 0.18508913 0.079031385 -0.15144745
-0.23744527 -0.1331228 -0.16703075 -0.18371952 -0.0015521937 -0.20623808 -0.10244003 0.12448567
-0.07474651 0.16326709 -0.10445425 0.17116393 -0.21904568 -0.04001468 0.03115952 0.19819659
-0.13229537 -0.21969058 -0.09285026 -0.021540627 0.21930246 -0.08683407 -0.1138317 -0.04151865
-0.16718367 0.20050953 0.15369017 -0.07892814 0.12671661 -0.2238056 -0.06055563 0.15968716
0.14367348 -0.19096196 -0.18553099 -0.13768615 -0.19945365 -0.026800135 -0.16524386 -0.04285548
0.008973723 -0.06002941 -0.020700037 0.070207074 0.14738023 0.0150448335 -0.024560666 -0.061852794
0.019494662 -0.078631476 0.010086945 0.2079273 0.10302797 -0.22455865 -0.016541885 -0.02946224
0.09831547 -0.15695655 0.10306196 -0.038547996 0.1698723 -0.13041356 -0.1238075 0.15225178
-0.05471446 0.093916446 0.09976213 0.14291638 -0.13719836 -0.21255316 0.02515092 -0.16290373
0.124356434 0.47485843 0.16384798 0.048970904 -0.089212075 0.9062783 1.125432 -0.035207115
0.79517806 0.9718417 1.3927525 0.5097308 0.8025152 1.3979105 0.09092759 0.7729767
0.12168498 -0.04813618 -0.19276752 -0.096491486 -0.12630077 -0.12596579 0.0028195935 0.09835608
-0.23859145 -0.12986733 -0.10346056 0.18317181 -0.13823517 0.03376398 0.23202017 0.2107697
0.37224445 0.23326923 0.08402333 0.19427806 0.15889183 0.8287967 1.2102464 0.19410965
0.76158655 1.2149917 1.4039234 0.632823 0.6567043 1.2405899 -0.07235381 0.7619573
-0.08294365 0.22804026 0.043770794 0.08056889 0.23304656 -0.018522482 -0.18521532 0.043425005
-0.19051953 0.0039336113 0.094433114 0.17105523 0.15164725 -0.098356806 -0.069937676 0.22727273
-0.20511104 -0.12248276 -0.047381748 -0.0044321297 0.110190615 0.08131164 -0.075128615 -0.05484124
-0.2108339 0.1666886 -0.04842404 -0.15760565 0.07563111 -0.22309159 -0.053533465 -0.17099848
0.3545842 0.1341766 -0.15135446 -0.18936776 -0.18229733 1.1568605 0.9731737 0.10480763
0.94839936 1.1087077 1.3861849 0.63854766 0.67007715 1.6014645 -0.09867744 0.5894973
0.0860854 0.49841803 -0.06698281 -0.07251005 -0.21885498 0.82756215 1.162969 0.20375869
1.0392597 1.0008845 1.5783651 0.83629847 0.5576574 1.4284459 -0.37374857 0.4082872
00000000: bc8d a23e a109 d33c 3425 323e 3119 e2bd
00000010: f209 13bd c9a7 763f e16a 383f 9d0d 03be
00000020: 27b4 533f 0eac 3f3f f444 d63f 9716 fc3e
00000030: fc9a a63e 51fb b93f 70b4 f9be 3313 3b3f
00000040: 9729 403b e8e1 5ebe 78c5 c5bd 927b 333d
00000050: de93 0dbe 5b08 c8bd 1e54 6dbe 6608 91bd
00000060: 98f3 ef3d c523 adbd 2bfa 453e 15cd dbbd
00000070: fe0b 5aba 6b8a 60be 8693 e83d 3e03 aa3c
00000080: ca85 3e3d 4d8d 28bc 2f84 913c 85eb bbbd
00000090: de32 3c3e 1c75 8dbd 2e8f 8dbd b83c ac3d
000000a0: ef4b 983c c074 a0bd 4b67 f2bc e1f2 a33d
000000b0: 3df9 c7bd f980 073e e4bb 023e 754a d2bd
000000c0: d0dd a33e e453 a03e bcc9 553e 7e96 263e
000000d0: 4e35 753c 8e34 893f 0cfa 913f 0809 3dbe
000000e0: 1976 9c3f 4aef 6d3f 758f c23f fe84 ee3e
000000f0: fd5b 293f c1a5 c33f 7171 8dbe f673 f83e
00000100: 202f e8bd dcce 60be 4aae 6abe 9a7e 003e
00000110: 8854 d9bc 0188 3d3e 35db a13d 0a15 1bbe
00000120: da24 73be 5851 08be 1c0a 2bbe f820 3cbe
00000130: fa72 cbba 1330 53be 14cc d1bd 58f2 fe3d
00000140: b314 99bd 7d2f 273e 1cec d5bd 9945 2f3e
00000150: 834d 60be 6fe6 23bd 4042 ff3c 0cf4 4a3e
00000160: 7078 07be 91f6 60be 4728 bebd f875 b0bc
00000170: d390 603e 10d6 b1bd 9820 e9bd 760f 2abd
00000180: 3232 2bbe 5f52 4d3e f560 1d3e 14a5 a1bd
00000190: 00c2 013e 4c2d 65be 2e09 78bd 0885 233e
000001a0: 241f 133e 888b 43be d6fb 3dbe 99fd 0cbe
000001b0: 943d 4cbe f58b dbbc b035 29be 3a89 2fbd
000001c0: 8606 133c 66e1 75bd 2093 a9bc bac8 8f3d
000001d0: d8ea 163e 9b7e 763c 7333 c9bc 5b59 7dbd
000001e0: 45b3 9f3c 8a09 a1bd b743 253c e5ea 543e
000001f0: 5400 d33d b4f2 65be d982 87bc cc5a f1bc
00000200: 9f59 c93d 38b9 20be 2612 d33d 81e4 1dbd
00000210: 01f3 2d3e 228b 05be c98e fdbd e4e7 1b3e
00000220: 451c 60bd 4457 c03d 1650 cc3d ac58 123e
00000230: ba7d 0cbe 89a7 59be 4d09 ce3c 3cd0 26be
00000240: 96ae fe3d a520 f33e c4c7 273e b795 483d
00000250: d2b4 b6bd db01 683f 280e 903f 5635 10bd
00000260: ca90 4b3f 9eca 783f b745 b23f b87d 023f
00000270: a371 4d3f bbee b23f 3f38 ba3d cde1 453f
00000280: fa35 f93d 712a 45bd d964 45be 549d c5bd
00000290: fd54 01be 2dfd 00be eec8 383b ea6e c93d
000002a0: 5151 74be f1fb 04be 21e3 d3bd 6491 3b3e
000002b0: 858d 0dbe 194c 0a3d b296 6d3e 03d4 573e
000002c0: d396 be3e 21de 6e3e 6c14 ac3d d4f0 463e
000002d0: 8ab4 223e 052c 543f 5be9 9a3f aec4 463e
000002e0: 56f7 423f d984 9b3f c3b3 b33f b000 223f
000002f0: c61d 283f a6cb 9e3f 3c2e 94bd a20f 433f
00000300: 5cde a9bd 6383 693e 0149 333d 4d01 a53d
00000310: c2a3 6e3e 76bc 97bc 16a9 3dbe 6bde 313d
00000320: 8d17 43be 86e5 803b 2666 c13d 1a29 2f3e
00000330: 6b49 1b3e 4b6f c9bd 7c3b 8fbd 2fba 683e
00000340: a108 52be 3ed8 fabd 5d13 42bd 663b 91bb
00000350: 9eab e13d b886 a63d 08dd 99bd 35a1 60bd
00000360: d8e4 57be 6bb0 2a3e 4958 46bd 6063 21be
00000370: 7ce4 9a3d 1f72 64be e845 5bbd 3a1a 2fbe
00000380: 0f8c b53e 9765 093e aafc 1abe 9fe9 41be
00000390: 27ac 3abe 0114 943f e921 793f 62a5 d63d
000003a0: 4dca 723f 22ea 8d3f 826e b13f dc77 233f
000003b0: 2d8a 2b3f cafc cc3f 6617 cabd 4ce9 163f
000003c0: 8b4d b03d a630 ff3e 492e 89bd 2680 94bd
000003d0: 851b 60be 1ddb 533f 2bdc 943f 1ea6 503e
000003e0: 7606 853f fc1c 803f de07 ca3f a817 563f
000003f0: a3c2 0e3f 51d7 b63f f95b bfbe 050b d13e

fc1.bias f4 [64]
1.4745942 0.13352378 0.045328677 1.6146526 0.0800168 -0.19098319 -0.081811726 -0.13172239
0.10601428 1.6276215 -0.15372756 1.4019852 -0.14876555 0.23200037 1.2594916 1.5906651
1.2171847 0.11968781 1.3708978 1.2922521 -0.18685763 1.4693178 1.5622798 0.08157325
1.1946054 1.4101377 1.349838 1.5055785 1.5888171 1.5808325 1.3561724 -0.09929019
-0.07695399 1.5802621 1.2204697 1.5947233 1.2917593 -0.22625509 0.026494894 1.4534858
1.3784748 -0.0016182584 -0.100973465 1.3775334 1.1929679 1.5834373 0.03597612 1.2463301
1.5834349 -0.035947993 1.2845633 1.1971596 1.4525152 1.3049742 1.5178266 -0.020647608
-0.009312985 1.2415211 -0.03770238 1.4714267 1.4905453 1.3978686 1.2252454 1.1936871
00000000: 81bf bc3f 75ba 083e 90aa 393d f0ac ce3f
00000010: d9df a33d 1991 43be e88c a7bd 3ce2 06be
00000020: 041e d93d e755 d03f c26a 1dbe 4074 b33f
00000030: ff55 18be 8191 6d3e 0537 a13f ea9a cb3f
00000040: b5cc 9b3f e21e f53d 9479 af3f 8468 a53f
00000050: 9b57 3fbe 9b12 bc3f c9f8 c73f e00f a73d
00000060: d4e8 983f 647f b43f 7ec7 ac3f ccb6 c03f
00000070: 5c5e cb3f b858 ca3f 0f97 ad3f a858 cbbd
00000080: 0e9a 9dbd 0746 ca3f 5a38 9c3f e51f cc3f
00000090: 5e58 a53f 6aaf 67be d20b d93c d30b ba3f
000000a0: dd71 b03f be1b d4ba 2dcb cebd 0453 b03f
000000b0: 2cb3 983f 13ae ca3f b25b 133d bf87 9f3f
000000c0: ffad ca3f 343e 13bd 926c a43f 873c 993f
000000d0: 05ec b93f 6509 a73f 2448 c23f 2c25 a9bc
000000e0: 7e95 18bc 2aea 9e3f d06d 1abd b657 bc3f
000000f0: 30ca be3f 5ced b23f d7d4 9c3f bdca 983f

fc2.weight f4 [128, 64]
0.073157445 0.03192364 -0.026591843 0.045600273 -0.06201877 0.10253364 0.033781487 -0.010400618
-0.026861086 -0.07461251 0.011293538 -0.050241984 0.09740617 -0.019482423 -0.11943086 0.059359238
-0.029695949 0.058177833 0.048284747 0.0023171706 -0.016394008 0.114382036 0.029793486 0.025573194
-0.05729983 -0.055851266 0.10868844 0.09536364 -0.07742313 -0.051531736 -0.05601087 0.0039206496
-0.08315705 -0.050431017 0.053580187 -0.098078124 0.05777301 -0.02715595 0.07322483 0.07959975
-0.04898538 0.029260855 0.054430712 -0.024167782 0.11567674 0.017518073 -0.027990483 0.049559567
0.0033324664 -0.07545714 -0.093716644 -0.024289351 -0.072857864 -0.02010936 -0.09599994 -0.051485512
0.040513247 0.11340952 0.09698216 0.09590281 -0.016467754 -0.03360706 0.047114905 -0.11644429
0.11541003 -0.016446587 0.055578936 -0.11522769 0.04865412 0.026269434 0.04802121 -0.10454639
-0.03289919 -0.057900947 -0.08594996 0.011134496 -0.07362136 -0.018522808 -0.04167562 -0.0823181
-0.112092145 -0.047055792 -0.080426544 -0.002458843 0.009665052 0.094453566 0.115708336 -0.10313227
-0.11000156 0.044472083 0.08227272 -0.11482407 -0.08179506 0.06560029 0.030546192 -0.049019787
-0.11853017 -0.045158714 -0.118591554 -0.023512876 -0.063738674 -0.041664958 0.059098106 -0.03636791
-0.11312478 -0.12035998 0.011709876 -0.028091662 0.101633586 -0.037620213 0.07684088 0.04056777
-0.011034392 0.11881485 -0.029545994 -0.10388135 0.041263666 -0.06552705 0.05789452 0.09392668
0.027594209 -0.003664993 -0.10408003 -0.011541074 -0.015896523 -0.09991033 0.103094995 0.0019765366
0.041284297 -0.12001368 -0.0067021437 -0.110517174 0.036530852 0.049298525 -0.047954243 0.058601674
-0.09272375 -0.10145618 -0.021045338 -0.02691252 -0.053119 0.10391826 0.04959505 -0.02700186
0.08279011 -0.11564083 -0.048253603 0.116158776 -0.06725489 -0.10823393 -0.05894656 0.088251546
0.06587363 -0.09180584 0.006521936 -0.12194225 -0.09137244 -0.07692433 0.0019490931 0.11541718
-0.07053368 -0.024771173 -0.07871476 0.061965205 0.10434906 0.036084905 -0.09189895 0.10397792
-0.07528549 -0.029395055 -0.08713936 -0.0964717 0.0816854 0.016451113 0.006714561 -0.06476031
0.031176928 -0.090426475 0.08314223 0.10685797 0.011267414 0.051189605 -0.051368684 0.040702134
0.08340603 -0.03946422 -0.07922706 -0.004429479 0.033455793 -0.004414869 0.075304285 -0.070789285
0.925561 0.050976492 0.022257514 0.83246297 -0.012260702 0.041019723 -0.0070770285 -0.06539722
0.0034210046 1.0712141 -0.011570968 0.91780853 -0.08244986 0.10517656 1.0057123 0.9470688
0.81087077 0.029867368 0.8336067 0.9682696 -0.032213997 0.9023442 1.0237031 0.064367175
0.8684283 0.9536163 1.0366116 1.0384878 1.0659688 0.98522943 0.9980036 0.054847915
0.10900988 0.80924785 0.92548585 0.8884016 0.96327066 0.013848243 0.043312147 0.88089174
1.0362371 -0.05577549 0.035415348 0.9702813 1.034118 0.88961744 -0.008752547 0.8652637
0.85869956 -0.11111825 1.0404806 0.9620199 0.84946585 0.82524985 1.0445385 0.075455636
-0.09797136 0.95821536 0.0062223617 0.9263009 0.8352071 0.99002594 1.0207044 1.0286559
00000000: 92d3 953d 5dc2 023d 23d7 d9bc 5ac7 3a3d
00000010: 6507 7ebd 28fd d13d 755e 0a3d 5b67 2abc
00000020: c80b dcbc 72ce 98bd 8808 393c 8aca 4dbd
00000030: e37c c73d 9a99 9fbc 2b98 f4bd ac22 733d
00000040: eb44 f3bc e14b 6e3d 3ac6 453d acdb 173b
00000050: ba4c 86bc 2141 ea3d 7811 f43c e07e d13c
00000060: 3ab3 6abd 4cc4 64bd 0b98 de3d 034e c33d
00000070: 0590 9ebd f112 53bd a76b 65bd cb78 803b
00000080: 3e4e aabd c190 4ebd e676 5b3d 2fdd c8bd
00000090: 64a3 6c3d 2876 debc e6f6 953d 3205 a33d
000000a0: e5a4 48bd 76b4 ef3c bdf2 5e3d 83fb c5bc
000000b0: ede7 ec3d 1082 8f3c 4c4c e5bc f9fe 4a3d
000000c0: 8265 5a3b 4689 9abd 83ee bfbd 76fa c6bc
000000d0: 8136 95bd 62bc a4bc 9e9b c4bd 79e2 52bd
000000e0: 38f1 253d 4043 e83d 959e c63d b168 c43d
000000f0: 62e7 86bc 8ea7 09bd 8ffb 403d 587a eebd
00000100: 185c ec3d feba 86bc bda6 633d 7ffc ebbd
00000110: 8b49 473d ff32 d73c e3b1 443d 6b1c d6bd
00000120: 4dc1 06bd 8b29 6dbd 8806 b0bd 766d 363c
00000130: ccc6 96bd 25bd 97bc 0eb4 2abd 6496 a8bd
00000140: 9190 e5bd 93bd 40bd acb6 a4bd 8a24 21bb
00000150: 2b5a 1e3c df70 c13d 7ef8 ec3d 0337 d3bd
00000160: 7f48 e1bd 5c28 363d 9a7e a83d e228 ebbd
00000170: 2b84 a7bd 7259 863d 023c fa3c f9c8 48bd
00000180: f2bf f2bd 58f8 38bd 21e0 f2bd 139e c0bc
00000190: 6c89 82bd e0a8 2abd db10 723d 85f6 14bd
000001a0: f7ad e7bd 4b7f f6bd c8da 3f3c 7c20 e6bc
000001b0: 4525 d03d a717 1abd c05e 9d3d 642a 263d
000001c0: 98c9 34bc 3355 f33d 710a f2bc bfbf d4bd
000001d0: 1704 293d 0c33 86bd ce22 6d3d a25c c03d
000001e0: 400d e23c 6130 70bb e927 d5bd c616 3dbc
000001f0: 6d39 82bc c99d ccbd 7823 d33d c888 013b
00000200: b919 293d bbc9 f5bd a89d dbbb d456 e2bd
00000210: 60a1 153d 40ed 493d ab6b 44bd 4f08 703d
00000220: f3e5 bdbd 42c8 cfbd 4667 acbc a577 dcbc
00000230: 4f93 59bd 19d3 d43d 2e24 4b3d 0133 ddbc
00000240: dc8d a93d 19d5 ecbd 92a5 45bd a7e4 ed3d
00000250: efbc 89bd c0a9 ddbd f371 71bd 3abd b43d
00000260: c1e8 863d b304 bcbd f7b5 d53b dcbc f9bd
00000270: 7921 bbbd 818a 9dbd b678 ff3a d85f ec3d
00000280: f673 90bd eaec cabc 3435 a1bd 3acf 7d3d
00000290: f6b4 d53d c4cd 133d 8435 bcbd 60f2 d43d
000002a0: 472f 9abd e6cd f0bc 1f76 b2bd f492 c5bd
000002b0: ad4a a73d 7cc4 863c d205 dc3b 0ea1 84bd
000002c0: c266 ff3c 8431 b9bd 7946 aa3d 5ad8 da3d
000002d0: f69a 383c 31ac 513d f867 52bd 48b7 263d
000002e0: c8d0 aa3d 3ca5 21bd cc41 a2bd 2a25 91bb
000002f0: f108 093d 9baa 90bb 2239 9a3d f9f9 90bd
00000300: 91f1 6c3f bacc 503d 6455 b63c 4b1c 553f
00000310: 1de1 48bc 4c04 283d 6be6 e7bb faee 85bd
00000320: ef32 603b 8b1d 893f 2894 3dbc 80f5 6a3f
00000330: 79db a8bd cf66 d73d 2ebb 803f 1a73 723f
00000340: 3a95 4f3f 69ac f43c 4067 553f 84e0 773f
00000350: d3f2 03bd 0800 673f b408 833f f0d2 833d
00000360: 5151 5e3f 3320 743f b0af 843f 2bed 843f
00000370: aa71 883f ff37 7c3f 2a7d 7f3f 35a8 603d
00000380: 9240 df3d de2a 4f3f a4ec 6c3f 4a6e 633f
00000390: e898 763f bee3 623c 1468 313d 1f82 613f
000003a0: 6ba3 843f d774 64bd af0f 113d 5b64 783f
000003b0: fb5d 843f f8bd 633f d866 0fbc ec81 5d3f
000003c0: bcd3 5b3f f791 e3bd 782e 853f f046 763f
000003d0: 9876 593f 9343 533f 70b3 853f 7c88 9a3d
000003e0: 35a5 c8bd 9a4d 753f f4e4 cb3b 0e22 6d3f
000003f0: 22d0 553f 5772 7d3f 71a6 823f ffaa 833f

fc2.bias f4 [128]
-0.05666048 0.11826463 -0.059892967 1.1359551 1.2967304 1.0685828 1.2413856 -0.05111071
0.06307842 1.2543057 -0.084140874 -0.11245352 1.2264966 1.2805588 1.2279979 1.1486332
1.2062684 -0.06852765 0.014464571 1.1092546 1.2610973 0.0019649926 1.135094 -0.094228
0.08781171 -0.09522831 1.0749865 0.040308453 1.0942867 1.1382276 -0.081407934 -0.034649793
0.02276524 0.057745658 1.302209 -0.031452537 0.025914142 -0.087527454 -0.045121193 -0.11880945
-0.09314346 1.148782 -0.10212579 1.2863464 1.1078633 -0.10736439 1.1791465 1.2905947
-0.024029022 1.2494423 -0.031155583 1.1509316 1.2360296 0.024394378 1.2200352 1.1314921
0.08765539 1.1098307 -0.00969008 0.105820574 1.298819 1.1081 -0.113756634 1.090052
1.2016888 -0.087350935 1.1912333 0.078046195 -0.065582186 0.0014579375 1.1803796 -0.1071451
1.2456299 1.2600664 1.2825054 -0.044874642 1.1657276 0.09342142 0.053351447 0.05839254
-0.061287947 0.0030731226 1.183971 -0.06787725 -0.062179454 1.241841 -0.05402953 -0.052439883
-0.0836468 -0.054767516 1.1147447 1.3196834 0.04113943 1.2282621 0.075699 -0.093384966
1.1426722 1.2444961 1.1917877 -0.04497246 1.1045873 -0.07562506 -0.072908394 -0.05930428
1.2167333 1.2864226 1.162283 -0.06548776 0.022625133 1.2200028 0.0007077111 0.0126158465
-0.0013577407 1.1848584 0.04711404 1.2290374 1.3073562 1.1903539 -0.0033374247 1.1300592
0.021073611 0.015627697 -0.094006754 0.032685462 -0.1310334 1.3048867 1.2418156 1.2838343
00000000: d214 68bd ba34 f23d 5452 75bd fa66 913f
00000010: 43fb a53f 52c7 883f b9e5 9e3f 7759 51bd
00000020: 422f 813d 178d a03f 0d52 acbd 084e e6bd
00000030: d7fd 9c3f 5ae9 a33f 092f 9d3f 6a06 933f
00000040: 0167 9a3f 3958 8cbd cffc 6c3c 0efc 8d3f
00000050: a36b a13f 1bc7 003b c34a 913f 9cfa c0bd
00000060: a0d6 b33d 0f07 c3bd 2899 893f 7a1a 253d
00000070: 9611 8c3f 71b1 913f 34b9 a6bd f1ec 0dbd
00000080: 2b7e ba3c b686 6c3d c9ae a63f 60d4 00bd
00000090: e549 d43c 9841 b3bd 00d1 38bd 5e52 f3bd
000000a0: 00c2 bebd 4a0b 933f 5427 d1bd 00a7 a43f
000000b0: 77ce 8d3f dce1 dbbd 46ee 963f 3532 a53f
000000c0: 83d8 c4bc baed 9f3f fe39 ffbc ba51 933f
000000d0: 3836 9e3f b8d6 c73c 1d2a 9c3f bcd4 903f
000000e0: ab84 b33d ef0e 8e3f 24c3 1ebc 75b8 d83d
000000f0: b33f a63f 39d6 8d3f 3df9 e8bd d386 8b3f
00000100: f0d0 993f 0ce5 b2bd 557a 983f afd6 9f3d
00000110: f44f 86bd 4418 bf3a ae16 973f e46e dbbd
00000120: cd70 9f3f db49 a13f 2329 a43f 79ce 37bd
00000130: 9036 953f bb53 bf3d 0c87 5a3d 042d 6f3d
00000140: 1209 7bbd 7166 493b 5d8c 973f 3a03 8bbd
00000150: e2af 7ebd a5f4 9e3f 124e 5dbd 34cb 56bd
00000160: 034f abbd e753 60bd f4af 8e3f 63eb a83f
00000170: d281 283d b137 9d3f 1408 9b3d 9e40 bfbd
00000180: 1543 923f a64b 9f3f 808c 983f 0b35 38bd
00000190: 1e63 8d3f 50e1 9abd ff50 95bd 0be9 72bd
000001a0: ebbd 9b3f 7fa9 a43f b0c5 943f 721e 86bd
000001b0: 5858 b93c 0d29 9c3f b085 393a b2b2 4e3c
000001c0: 38f6 b1ba 71a9 973f a7fa 403d 1951 9d3f
000001d0: 7357 a73f 845d 983f b2b8 5abb c8a5 903f
000001e0: 91a2 ac3c a805 803c 9d86 c0bd 31e1 053d
000001f0: 9f2d 06be 8706 a73f d0f3 9e3f af54 a43f

fc3.weight f4 [6, 128]
0.047853343 -0.022143386 0.015392768 -0.4616779 -0.5270566 -0.56278664 -0.49049526 0.05500592
-0.06772179 -0.473525 -0.03800264 -0.04431389 -0.6045781 -0.5333935 -0.46667162 -0.5248138
-0.5771673 -0.004080134 -0.037645034 -0.6143025 -0.60088867 -0.050320245 -0.5483148 -0.048131816
0.03264727 0.033198144 -0.58244926 0.014328965 -0.4944863 -0.46210837 -0.00095761986 -0.0045861844
-0.06524366 -0.020200059 -0.51263595 0.051572178 0.059423447 0.010189912 0.060230523 -0.012771758
-0.072712205 -0.51182014 0.06893495 -0.47700232 -0.5746958 0.021642711 -0.46227667 -0.5255131
-0.06371242 -0.4886598 -0.0141013395 -0.51572806 -0.50341725 0.03865106 -0.53230405 -0.6035964
-0.0011694003 -0.49431878 0.030939708 0.06929671 -0.5441895 -0.5030584 -0.041291505 -0.54019207
-0.6036508 0.012982125 -0.5298214 0.03047286 -0.020588074 -0.04402151 -0.52200365 -0.0017159684
-0.5719786 -0.48757476 -0.58768374 0.056680404 -0.50296694 -0.08301993 -0.0035593219 -0.013215637
-0.020867445 -0.016396832 -0.58418924 0.07378982 -0.03819097 -0.52775645 -0.0144117605 0.06250376
0.06736438 -0.0256642 -0.5354025 -0.5189106 0.018473933 -0.48810863 -0.0035363284 -0.04820965
-0.565348 -0.5893604 -0.46378118 -0.01197293 -0.6176159 0.0527514 0.040131018 -0.033191457
-0.49855462 -0.5696644 -0.61805016 -0.063737154 -0.020283516 -0.5351909 -0.07307533 0.03847105
-0.07286615 -0.4629154 0.04759466 -0.57969606 -0.5086232 -0.6118401 -0.014219959 -0.63922405
-0.050010767 0.0064428425 0.037161507 0.01208875 0.015122079 -0.47004306 -0.6259924 -0.6407913
-0.0038473678 -0.0036558667 -0.061012447 -0.51166517 -0.5627716 -0.6005999 -0.61474776 -0.055309027
-0.0340849 -0.52229095 -0.04973216 -0.015207659 -0.5698942 -0.58650446 -0.61743313 -0.5619553
-0.53511477 -0.07445835 -0.011377612 -0.56053805 -0.47973925 0.040783152 -0.45461947 0.062169574
0.014089512 -0.054799456 -0.5331558 0.076592535 -0.60096866 -0.5052941 0.057230283 -0.027826061
0.060945205 0.06664939 -0.45225188 0.03515478 0.0075651477 -0.012535494 -0.08185032 -0.050838742
0.0740053 -0.6053876 -0.06462262 -0.5545438 -0.6167264 0.037973605 -0.5604269 -0.5603934
0.048539802 -0.5572827 -0.06663999 -0.55115217 -0.5147313 -0.018816998 -0.49732408 -0.44677716
0.03246776 -0.59675825 0.036980376 -0.005728288 -0.5931751 -0.4801507 0.04435154 -0.5490943
-0.4714357 0.068790466 -0.5981962 0.06564015 0.019595675 -0.074297056 -0.48597017 -0.02230045
-0.5741834 -0.5382014 -0.44941285 0.011207745 -0.50296724 -0.07816036 0.022314673 0.024816044
-0.044717707 -0.018458107 -0.48462063 0.04466368 0.08139066 -0.594386 0.05723314 0.029298339
-0.027795244 -0.06541289 -0.5169097 -0.53125584 -0.058819782 -0.61529076 -0.048172377 -0.066705376
-0.46171752 -0.5688751 -0.5422572 0.07726164 -0.58331144 -0.059903774 -0.0043014255 -0.06486026
-0.51442915 -0.51419425 -0.530796 0.00232495 0.0109906355 -0.53031194 0.05001967 0.044997603
-0.027961774 -0.60653216 -0.04718213 -0.6027916 -0.4714251 -0.46194577 0.038936306 -0.49556407
-0.017816309 0.039478175 -0.045996554 0.026504837 -0.08581964 -0.5116261 -0.5814169 -0.5779818
00000000: de01 443d 0c66 b5bc f331 7c3c 0c61 ecbe
00000010: 2eed 06bf c912 10bf 3222 fbbe e34d 613d
00000020: b9b1 8abd de71 f2be a8a8 1bbd 7b82 35bd
00000030: a1c5 1abf 7a8c 08bf 95ef eebe 325a 06bf
00000040: 3cc1 13bf a5b2 85bb ae31 1abd ee42 1dbf
00000050: d7d3 19bf 9a1c 4ebd 5c5e 0cbf de25 45bd
00000060: 25b9 053d c7fa 073d 651b 15bf 09c4 6a3c
00000070: 4f2d fdbe 7899 ecbe c808 7bba b447 96bb
00000080: 789e 85bd 987a a5bc 1c3c 03bf 593d 533d
00000090: 0066 733d 97f3 263c 48b4 763d a340 51bc
000000a0: 23ea 94bd a506 03bf c42d 8d3d a639 f4be
000000b0: 441f 13bf 0e4c b13c 87af ecbe 0788 06bf
000000c0: a87b 82bd 9e31 fabe 4e09 67bc c106 04bf
000000d0: f4df 00bf 9350 1e3d 1445 08bf 4b85 1abf
000000e0: 9046 99ba 5a17 fdbe 4575 fd3c 6feb 8d3d
000000f0: 0150 0bbf 6fc8 00bf 4821 29bd 074a 0abf
00000100: dc88 1abf fbb2 543c 60a2 07bf 38a2 f93c
00000110: 52a8 a8bc e64f 34bd 08a2 05bf 58ea e0ba
00000120: 316d 12bf 66a3 f9be 7172 16bf b629 683d
00000130: 71c2 00bf 5a06 aabd 8343 69bb 6686 58bc
00000140: 34f2 aabc a652 86bc 6d8d 15bf 1e1f 973d
00000150: 226e 1cbd 0c1b 07bf 4e1f 6cbc f901 803d
00000160: 56f6 893d ba3d d2bc 2310 09bf 53d7 04bf
00000170: a556 973c 60e9 f9be bfc1 67bb 7b77 45bd
00000180: a6ba 10bf 53e0 16bf ba74 edbe 1c2a 44bc
00000190: 131c 1ebf da11 583d 6c60 243d c4f3 07bd
000001a0: 8d42 ffbe 87d5 11bf 8938 1ebf a088 82bd
000001b0: 9e29 a6bc 4502 09bf 85a8 95bd d293 1d3d
000001c0: d93a 95bd 3f03 edbe 9ef2 423d f666 14bf
000001d0: 2135 02bf 8ea1 1cbf d5fa 68bc 30a4 23bf
000001e0: 17d8 4cbd 7b1e d33b aa36 183d e40f 463c
000001f0: 99c2 773c 7ca9 f0be 0a41 20bf e60a 24bf
00000200: 1f24 7cbb 4497 6fbb 30e8 79bd 7dfc 02bf
00000210: cd11 10bf eac0 19bf 1c60 1dbf b88b 62bd
00000220: 9c9c 0bbd dcb4 05bf f3b3 4bbd 8c29 79bc
00000230: 96e4 11bf 2825 16bf 1910 1ebf 4ddc 0fbf
00000240: 48fd 08bf 9f7d 98bd 2a69 3abc 6c7f 0fbf
00000250: 62a0 f5be 3c0c 273d e2c3 e8be 86a5 7e3d
00000260: b2d7 663c 6575 60bd e67c 08bf 8cdc 9c3d
00000270: 15d9 19bf f45a 01bf 4d6a 6a3d 7bf3 e3bc
00000280: aea1 793d 7a7f 883d 8f8d e7be 75fe 0f3d
00000290: 0fe5 f73b ac61 4dbc 24a1 a7bd 493c 50bd
000002a0: 1790 973d affa 1abf dd58 84bd 95f6 0dbf
000002b0: c8e1 1dbf 368a 1b3d 2378 0fbf f175 0fbf
000002c0: acd1 463d 14aa 0ebf 8c7a 88bd 4f18 0dbf
000002d0: 6ec5 03bf 1b26 9abc 43a1 febe fabf e4be
000002e0: eafc 043d 26c5 18bf bc78 173d 5db4 bbbb
000002f0: 53da 17bf 50d6 f5be f6a9 353d 7291 0cbf
00000300: 0560 f1be 04e2 8c3d 6323 19bf 586e 863d
00000310: 1c87 a03c 0e29 98bd 15d1 f8be 6faf b6bc
00000320: affd 12bf 91c7 09bf 7119 e6be b1a0 373c
00000330: 76c2 00bf 8a12 a0bd 43cd b63c 044b cb3c
00000340: ea29 37bd 7535 97bc 3220 f8be 43f1 363d
00000350: 25b0 a63d ae29 18bf 4c6d 6a3d 1203 f03c
00000360: dab2 e3bc 31f7 85bd 3254 04bf 6200 08bf
00000370: 03ed 70bd b283 1dbf 6650 45bd d49c 88bd
00000380: 3d66 ecbe cca1 11bf 5ed1 0abf 5a3b 9e3d
00000390: e653 15bf a95d 75bd f9f2 8cbb 75d5 84bd
000003a0: a1b1 03bf 3ca2 03bf 3fe2 07bf 305e 183b
000003b0: 1112 343c 86c2 07bf 6de1 4c3d 684f 383d
000003c0: 1710 e5bc b145 1bbf 0d42 41bd 8d50 1abf
000003d0: a15e f1be 2884 ecbe ad7b 1f3d 93ba fdbe
000003e0: 82f3 91bc deb3 213d e266 3cbd ac20 d93c
000003f0: 35c2 afbd eef9 02bf bdd7 14bf 9ef6 13bf

fc3.bias f4 [6]
-0.42301202 -0.62503344 -0.41473764 -0.58498096 -0.4521828 -0.43166044
00000000: 0895 d8be 3102 20bf 7e58 d4be 50c1 15bf
00000010: 8184 e7be 9902 ddbe
