dqn_taxi_light128.pth (torch, 80556 bytes, 6 tensors)

fc1.weight f4 [128, 16]
000000 bf 67 43 3e 5e bd b9 bb 5c 0d ee 3d 10 7a fa bd
       0.19082545 -0.0056683263 0.11623642 -0.12230313
000010 08 80 2f be 4b d3 44 3b e7 c6 9c bc 80 20 9d bb
       -0.17138684 0.0030033167 -0.019137813 -0.004795134
000020 bd f5 e6 3d ca 34 bc 3d 25 d4 09 bd 74 1f 31 3e
       0.112773396 0.09189756 -0.033649582 0.17297155
000030 07 20 08 bd 53 58 e4 3c ea 53 e3 bd ca 25 40 3d
       -0.03323367 0.027874148 -0.1109999 0.04691104
000040 b5 9c 00 3e 5d 78 99 3c 80 e1 2d 3c 78 f6 ff bd
       0.12559779 0.018734151 0.010612845 -0.12498182
000050 48 a3 35 3d 55 ae ea 3d 71 b9 af 3d 4c 26 fa bd
       0.04434517 0.114590324 0.08580292 -0.12214336
000060 2d 77 13 3e 0b 15 6d bd 97 1e 47 3e de cc 69 3e
       0.1440093 -0.057881396 0.19445263 0.22832057
000070 cc ba 86 3e b1 58 e4 3d 48 67 94 bd 38 82 9f 3e
       0.2631439 0.11149729 -0.07246262 0.31154037
000080 31 dc d0 3d 56 11 8d 3e 26 3a 3a be 30 44 43 3e
       0.10198248 0.2755229 -0.18186244 0.1906898
000090 74 c5 f5 3d 1c 09 fc bb 26 44 a3 3e 80 53 4a 3e
       0.12000552 -0.0076915156 0.3188793 0.19758415
0000a0 96 c2 59 3e 4b 71 e7 3d 68 1a da 3d 4e d0 ce bc
       0.21265635 0.11300906 0.10649568 -0.025245812
0000b0 64 ac 4e 3e c5 c2 15 be f3 89 81 bd 37 94 6d 3d
       0.2018295 -0.1462508 -0.0632514 0.058002677
0000c0 ac c8 b1 bd 9c c0 bc bd f8 1d a7 3d 98 49 2c bd
       -0.08680853 -0.09216425 0.08160013 -0.042062372
0000d0 aa f5 09 3e fa bc de bd d5 69 28 bb 18 19 4e 3e
       0.1347262 -0.10875888 -0.0025697846 0.2012676
0000e0 c7 12 a3 3e 95 3b ef 3d 10 cc 64 3d 36 65 94 3e
       0.31850263 0.11681286 0.05585867 0.28983468
0000f0 49 e8 55 3e e8 03 2b 3e f5 41 48 3d ee a3 00 be
       0.20889391 0.16700709 0.048891027 -0.12562534
000100 25 d4 8f 3e 90 d4 8f 3e f6 bb 73 3e 94 3f ba 3d
       0.2809154 0.2809186 0.2380217 0.09094158
000110 68 fc 33 bd c8 b2 97 3d ac 53 59 bd 50 dd 13 3e
       -0.043941885 0.07407147 -0.05305831 0.14439893
000120 2d 5c 9a 3e 39 3e 9b bd 43 eb 2d be 08 82 e4 3d
       0.3014845 -0.075802274 -0.16984276 0.11157614
000130 53 fc 28 3e 4a fb 99 3e 51 ac 91 3e 4b 75 fd bd
       0.16502504 0.3007453 0.2845178 -0.123758875
000140 a7 4a 83 3e bc 51 86 3e 7e 4a 65 be 24 9e fe bd
       0.25642893 0.26234233 -0.22391698 -0.12432507
000150 90 78 ce bd ea 23 b0 bd 9d 86 43 3e 60 02 d2 bd
       -0.10081589 -0.086006 0.1909432 -0.10254359
000160 12 23 94 bc e8 b6 02 3d 8b b3 c2 bd e5 3e f4 bd
       -0.01808313 0.031912714 -0.09506901 -0.11926059
000170 6f 1c 17 3e d6 61 8b 3e a3 1d 84 3d 6c da b7 bc
       0.1475694 0.2722308 0.06450965 -0.022443019
000180 b0 84 2d 3e 1e e7 dd 3b f0 1d a1 bd 68 6f 4d 3e
       0.16945148 0.006771936 -0.07867038 0.2006203
000190 1c ef a8 bd 39 3a d9 bd 1a 2f f3 3d 6a c4 00 3e
       -0.082487315 -0.10606808 0.11874218 0.12574926
0001a0 19 59 df 3d 32 c9 87 3d 2d d2 22 3e 83 3c eb bc
       0.10905666 0.06630172 0.15900488 -0.028715378
0001b0 12 69 3b 3e 44 5a ae 3e 67 50 f6 bd 73 da 63 3e
       0.183018 0.34053242 -0.12027054 0.222513
0001c0 7c 04 52 3e 62 be 69 bd 98 32 47 3e 96 82 52 3e
       0.20509523 -0.05706633 0.19452894 0.20557627
0001d0 fe 5f 17 3e dc cf 46 bd 15 d6 ad 3e 94 1d 38 be
       0.14782712 -0.048538074 0.33952394 -0.17980033
0001e0 04 75 42 3d 36 80 53 bd af 71 3f 3e ac 3a 82 3e
       0.047474876 -0.051635943 0.1869571 0.25435388
0001f0 49 c5 6f bd 59 ed ce 3d 5b 91 72 3d 12 a5 72 3c
       -0.058537755 0.10103864 0.059220653 0.014809864
000200 2a 71 48 3e 46 b1 53 3e f2 b3 0e 3e 42 97 35 3e
       0.19574419 0.20673093 0.13935831 0.17733482
000210 52 a0 44 3e 9d 45 cc bc 34 dc 60 3e ca ae 0d 3e
       0.19201782 -0.024935538 0.21959001 0.13836208
000220 d8 a8 ec bd 22 0f 16 3d 3d 3a f1 3d ec 4e ad bd
       -0.11555642 0.036635526 0.11778686 -0.08462319
000230 8d 83 17 3e b0 f0 72 bd f6 a0 d2 bc 3c 4f 0d bc
       0.14796276 -0.05931157 -0.025711518 -0.008624848
000240 40 5a 1c 3e bb 99 2d bd 90 fe 25 3e 10 5a 85 3d
       0.15268803 -0.042382937 0.16210389 0.06511319
000250 b0 8a fb bc be 03 31 bd 29 35 25 bc c0 a1 fc 3d
       -0.03070578 -0.04321646 -0.010083475 0.12335539
000260 88 28 a5 bd e4 be 85 3e 87 af 01 3d 53 22 9b 3e
       -0.08064371 0.261222 0.031661537 0.30299625
000270 83 cc 23 3e b9 97 c5 3c 72 0b d5 3c 2c 68 01 be
       0.15995984 0.024120199 0.026006434 -0.12637395
000280 f1 4a 35 3e 70 a6 9a 3e d6 00 6b 3e e8 18 3e be
       0.17704369 0.30205107 0.22949538 -0.18564188
000290 00 ed 57 3e 12 36 1d bd cb a5 09 3e 00 44 01 be
       0.21086502 -0.038381644 0.13442151 -0.12623596
0002a0 6c 76 5e 3e c1 ef dc bd 73 60 8c 3e d0 c1 58 3e
       0.21724862 -0.10787917 0.27417335 0.21167684
0002b0 91 4d 84 3e af 08 a6 bb 7f 59 34 be 43 2a e1 bb
       0.25840428 -0.005066953 -0.17612265 -0.006871493
0002c0 7a ee 90 3e f9 36 a3 bd 20 90 a0 3d b2 d2 2c 3e
       0.28306943 -0.079694696 0.0783999 0.16877249
0002d0 60 65 1c 3d 35 29 a7 3e b8 e2 b0 bd e0 5e 9a bc
       0.038182616 0.32648626 -0.08636993 -0.018844068
0002e0 2b 09 c3 3d 9d 84 e6 bd 87 e5 74 3d ca 8f 2b 3e
       0.09523233 -0.11255763 0.059789207 0.1675407
0002f0 7c a9 70 bd 95 3d ff 3c 7b 43 df bd c4 11 cf 3c
       -0.058755383 0.031157294 -0.10901543 0.025277026
000300 be 81 c4 3d 20 dd 2b be 84 4c 21 be 22 93 76 be
       0.09595059 -0.16783571 -0.15751845 -0.24079564
000310 0a f4 5e be 70 5c 39 3d be 8c 02 3e f2 62 64 3e
       -0.21772781 0.04525417 0.12749001 0.2230337
000320 25 e0 0c 3e ac 52 15 3e 69 00 76 bd c4 6e 38 3e
       0.1375738 0.14582318 -0.060058985 0.18011004
000330 5d 8a 29 be 76 61 28 be 25 c8 a6 3d ad 82 dd 3c
       -0.16556688 -0.16443428 0.08143643 0.02703985
000340 46 50 ac 3c b7 64 99 3c 14 9e fe bd 94 46 bd bd
       0.021034371 0.018724782 -0.12432495 -0.09241977
000350 62 23 41 be 7e 34 7b 3e d0 fa 01 3e 94 c4 7b 3e
       -0.18861154 0.24531743 0.12693334 0.24586707
000360 94 66 12 3e b6 33 08 3e a2 1f 92 39 b4 4e 7e 3e
       0.14296943 0.13300976 0.00027870858 0.2483471
000370 ce 17 29 bd c8 c3 2d 3e 11 9d b2 bc 09 b8 48 be
       -0.041282468 0.16969216 -0.02180341 -0.19601454
000380 8c 7c 9a 3e 66 c4 b9 3c 3c eb d6 3d 80 ef cf 3c
       0.30173147 0.022676658 0.10494086 0.025382757
000390 3c 2d 42 be 1c 3d d5 3b 2b 30 33 3e 60 0d 34 bd
       -0.18962568 0.006507529 0.17498843 -0.043958068
0003a0 66 7f 12 bd 46 4a 94 3d a5 ef 21 bd 79 4e 06 3e
       -0.035766028 0.07240729 -0.039535183 0.13115872
0003b0 5d c9 a0 3e 5e 9e 6f 3e e6 72 dd 3d 36 21 fe bd
       0.31403628 0.23400256 0.10812931 -0.12408678
0003c0 ee dd 0d 3e 72 dc 83 3d 9a 86 6b 3e 80 79 2f bc
       0.1385419 0.06438531 0.23000565 -0.01071012
0003d0 c8 77 8e bd 00 c0 9b bd c4 43 8d 3d 9c fb a9 bd
       -0.0695644 -0.076049805 0.06897691 -0.08299944
0003e0 5f 9e 38 3e cb f4 cd bd 03 17 5f 3e d4 95 43 3e
       0.18029164 -0.10056456 0.21786122 0.19100124
0003f0 c8 80 0d 3e 80 ad 02 3e a5 10 45 be ed 9d be bd
       0.13818657 0.12761497 -0.1924463 -0.09307466

fc1.bias f4 [128]
000000 cb 83 70 bd d4 18 48 bd 3f 0b 11 bd 27 0b 45 3e
       -0.058719438 -0.048851803 -0.035411116 0.19242536
000010 d5 16 18 3d 3f 21 cb 3c f2 a8 20 3d 47 1a 86 3c
       0.03713115 0.024796126 0.03922362 0.016369952
000020 fc 8d d1 bd ab 7f b6 3e 59 20 45 3d 43 70 62 3e
       -0.102321595 0.35644278 0.048126552 0.22113137
000030 13 4c 19 be 66 fe aa bd 6b b9 f7 39 bf d8 75 3e
       -0.14970426 -0.08349304 0.00047249658 0.24008463
000040 6d f3 26 3e d5 2d 77 3e 41 e4 a3 bc 09 45 c3 3c
       0.16303797 0.24138577 -0.0200063 0.02383663
000050 c8 c2 d4 bd 49 3d 80 3e 3e 61 a5 3d 94 8c 2e be
       -0.10388714 0.25046757 0.08075188 -0.17045814
000060 37 5f 8f 3e c2 38 82 3e fd 5c ab 3d f3 23 e7 3d
       0.2800233 0.25433928 0.083673455 0.11286154
000070 38 29 0b bd eb 7c b8 3e 43 32 ca bd 6f 02 02 3d
       -0.033974856 0.36032805 -0.09872868 0.031740602
000080 49 9e f8 3c d3 eb c0 bc a7 aa 9f bb eb c3 4d 3d
       0.030348914 -0.02354995 -0.0048726383 0.05023567
000090 e6 a9 4a 3e 25 e1 f8 bc 2f db bd 3d cc 9e ab 3e
       0.19791374 -0.030380795 0.092703216 0.3351959
0000a0 88 1c 22 3e de 5a cf bc 29 4f 02 be dd da 13 3e
       0.15831196 -0.025311884 -0.1272551 0.14438958
0000b0 59 e9 82 3e 9d 06 a3 3d 9b 22 f7 3d e7 ac 0c be
       0.25568655 0.07960246 0.12067147 -0.13737832
0000c0 68 6d 46 3e 50 d4 8f 3e 4b 18 2c 3b 6e 67 64 3e
       0.19377673 0.2809167 0.0026259597 0.2230508
0000d0 47 ae 7a 3d 77 00 0e be 11 71 f0 bd a2 15 05 be
       0.06120136 -0.13867365 -0.11740316 -0.12996534
0000e0 3b 5e ef bc 2a 17 2d be fa 88 e0 bd 86 14 ab 3e
       -0.029219737 -0.16903368 -0.10963626 0.33414096
0000f0 0b 10 b6 bd a2 20 26 bb 54 93 90 3e 83 83 b8 bc
       -0.08889779 -0.002534904 0.28237402 -0.022523647
000100 08 c5 98 3e 0a 0d 3a 3c 1a fc 8e 3c 9d 29 07 3e
       0.29837823 0.011355648 0.017454196 0.13199468
000110 61 6e d9 3d a4 44 c4 3d 05 19 a9 3d 62 f0 53 bd
       0.10616756 0.09583405 0.08256725 -0.05174292
000120 ec 7a 8d 3e ba 5a 06 3d 3a 2a 8a 3e 2e a0 b6 3b
       0.27632844 0.032801367 0.2698534 0.005573294
000130 f2 ed 7e 3e 1d 47 78 bc 1b d4 45 3e 37 1b 0d bd
       0.24895456 -0.0151536735 0.19319193 -0.034449782
000140 27 89 33 3e b1 28 b1 3d 4d ac 5f 3e b5 33 c5 bd
       0.17532788 0.086503394 0.21843071 -0.09629003
000150 65 73 92 3e 17 53 88 3e 82 14 0e bc 6d f0 28 3e
       0.28603664 0.26625893 -0.008671882 0.16497965
000160 e0 a2 2a 3e 49 30 2f 3d 75 ae 04 be f6 4e 8b 3d
       0.16663694 0.042770658 -0.12957175 0.0680217
000170 aa 95 3e 3e 19 bb cf 3e 42 87 7e 3e 91 ec 87 bc
       0.1861178 0.40572432 0.24856284 -0.016592296
000180 28 11 08 3e 1b af b3 bb b6 18 79 3e b0 e4 37 3e
       0.13287795 -0.0054835207 0.24325833 0.17958331
000190 08 47 91 3e e7 00 5e bd e2 d7 77 3d 08 77 96 bd
       0.28374505 -0.05420008 0.060508616 -0.07346922
0001a0 c4 f4 df 3d d9 f0 b7 3c 74 1e 5a 3d 9c 2a 0a be
       0.10935357 0.022453712 0.0532517 -0.13492817
0001b0 a3 54 10 3e 8c 80 ce bd b9 d7 1c bd d5 6b 4f 3d
       0.14094786 -0.10083112 -0.038291667 0.050639946
0001c0 54 45 8b 3e 42 0a 6e 3e 59 da b1 3d 2a 58 49 3d
       0.2720133 0.232461 0.08684225 0.049156345
0001d0 1f fa 92 3e 3d cf 5a 3e c6 4b 7b 3e 15 2c 81 3e
       0.28706452 0.21368118 0.24540624 0.25228944
0001e0 6b 3f 3b 3e 60 f1 47 3e ef fe 18 3e 8e cc 54 3e
       0.18285911 0.19525671 0.14941 0.20781156
0001f0 18 88 89 3e a4 55 96 3e 3a 69 6c bb 93 a5 6e bc
       0.26861644 0.29362214 -0.0036073462 -0.014565843

fc2.weight f4 [128, 128]
000000 b2 64 cc 3c b8 ff 2f 3e 7c 3f 92 bc b6 f2 df 3b
       0.024950359 0.17187393 -0.017852537 0.0068343533
000010 18 dc 09 bd a4 6f e3 3d a4 c4 18 3e d6 4a 2b 3d
       -0.033657163 0.11105278 0.14918762 0.041819416
000020 25 95 9d 3d db ef 88 3c a1 2d fc 3d ec 6c bc 3c
       0.07694463 0.016715935 0.123133905 0.023001157
000030 0d cb bc bb d7 7a 31 3c c1 9f 05 3e e0 b1 01 3d
       -0.00576151 0.01083251 0.13049223 0.031663775
000040 27 d5 0b 3e b3 2a 10 bb 05 af ba 3d f2 a9 98 bb
       0.1365553 -0.0021998107 0.091154136 -0.004658931
000050 f9 95 9f 3d 1c ec d4 3d 2d 88 b4 3c c0 aa 41 3c
       0.07792277 0.10396597 0.02203759 0.011820495
000060 f7 9f 5e 3d 7b e4 ab 3d f8 5e 91 3c b8 ff 8a 3d
       0.054351773 0.083931886 0.01774548 0.06787056
000070 37 ac e8 3c ae 79 36 3e 47 76 34 3d 07 5b 5c bc
       0.028402431 0.17819855 0.04405811 -0.013449437
000080 1e 64 da 3d 95 6d da 3c 72 43 b6 3a 56 ff 0e 3e
       0.10663627 0.02666358 0.0013905598 0.1396459
000090 f7 85 8a 3c 48 2d 0e 3e 0c 9a f6 3d 35 20 03 3e
       0.016909583 0.13884461 0.12041101 0.12805255
0000a0 97 d1 15 bc 46 f5 25 3d bb e6 d9 3d 67 d7 da 3d
       -0.009144208 0.040517114 0.106397115 0.10685616
0000b0 7f 59 10 3d 0e d5 d9 3d b5 4a dd 3d 65 66 47 bc
       0.0352416 0.1063634 0.10805265 -0.012170409
0000c0 39 e9 58 bc ee 65 85 3d 0b fd 07 3e 82 5d af 3d
       -0.013239198 0.06513582 0.13280122 0.08562757
0000d0 a6 54 44 3d 23 26 49 3d f6 a8 ea bc e5 ad 3d bc
       0.04793229 0.049108636 -0.02864502 -0.011577104
0000e0 aa a2 b2 3d 2f fe 3a 3b ab c0 a0 3d d6 ec 42 3d
       0.08722432 0.0028532853 0.078492485 0.047589146
0000f0 4a 7c c1 3d 43 5c 6a 3d 44 8a 06 3c c9 4b df 3d
       0.094475344 0.057216894 0.008211676 0.10903127
000100 53 66 3f 3d 14 e7 bd 3d b1 b5 d5 3d 54 69 93 3d
       0.046728443 0.0927259 0.104350455 0.07197824
000110 14 4b 05 3e 4f aa 0b 3e f5 9f 87 3d a2 ff fe 3d
       0.13016921 0.13639186 0.06622306 0.12451102
000120 95 e9 fe bb b8 e4 ce 3d 69 8b e8 3c 61 29 04 3e
       -0.00777931 0.101022184 0.028386788 0.1290641
000130 9d 7a f6 3d a0 43 df bc c1 7a fa 3d 3d 74 02 3e
       0.120351054 -0.027253926 0.12230445 0.12739654
000140 00 46 a3 3b ac 8b 86 3d c1 9b e0 bc 90 5b f5 3d
       0.00498271 0.06569609 -0.02741802 0.11980355
000150 7b b0 fb 3d e1 0f 9b 3d 26 03 2d 3b 25 89 bd 3d
       0.1228952 0.07571388 0.0026399582 0.09254674
000160 40 9b 68 3c d7 d9 91 3d 30 ce 0d 3e 89 21 a7 3c
       0.014197171 0.07121628 0.13848186 0.020401733
000170 8c 8b ed bc 2a f7 bf 3d 1d 69 00 3d ab 74 d7 3d
       -0.028997205 0.09373315 0.031350244 0.105202995
000180 75 41 03 3e f3 c4 49 bc 69 0d d8 bc de 05 c4 3c
       0.12817939 -0.012315023 -0.026373582 0.023928579
000190 d0 e7 b3 3d 3a 6b 58 3d 80 1e 58 3e 75 a3 b6 3d
       0.08784449 0.052836634 0.21105385 0.08917896
0001a0 d5 3c 8d 3c 1a 65 c6 bc 40 da 05 3d ef dd 46 3c
       0.017240921 -0.02421813 0.032678843 0.012137874
0001b0 83 25 c1 3b f9 53 7c 3c c9 fc bd 3d 59 8d 9d 3d
       0.0058943643 0.01540088 0.092767306 0.076929756
0001c0 5f 5a 12 3e 47 33 54 ba 06 50 5a 3d 83 23 08 3e
       0.14292286 -0.0008094799 0.053298973 0.13294797
0001d0 79 55 9b 3d 91 0c ff 3c d7 ab 0f 3e 39 28 23 3d
       0.07584662 0.031133922 0.14030395 0.03983328
0001e0 a8 d1 05 3e 8e 18 e1 3b 83 28 fe bb 54 58 ed 3d
       0.13068259 0.006869382 -0.007756294 0.11589113
0001f0 6a 1a 96 3d 8c 43 c2 bc 1f 12 ab 3c 9c 8b 02 3e
       0.07329257 -0.02371385 0.020882664 0.12748569
000200 46 44 03 be 53 34 32 be 02 78 9e bd 3e 05 81 3c
       -0.12819013 -0.17402773 -0.077377334 0.01574957
000210 e0 1c b0 bd f1 e4 9b bd 8a aa 0d be bb 17 78 bd
       -0.085992575 -0.076120265 -0.13834587 -0.060569506
000220 93 2a 90 bc 83 7c 70 bd 52 f5 95 bd cc 95 77 bc
       -0.017598426 -0.058712494 -0.07322182 -0.015111398
000230 f0 4a 45 bd bc 7f cc 3c 85 17 7f bd 68 88 15 3c
       -0.04816717 0.024963252 -0.06227829 0.00912676
000240 f5 26 61 3c 09 fc 79 bc cf c7 6e bd 0f 14 e5 bc
       0.013742198 -0.015257844 -0.05829602 -0.027963666
000250 7d 57 f4 bd 76 dc ac 3b f0 7e aa bb 51 62 43 bd
       -0.119307496 0.0052753044 -0.0052031204 -0.047701184
000260 c4 15 bd bd 0e 8e 9c bd fd aa 2f bc 8e 9a f3 3c
       -0.09232667 -0.07644282 -0.010721919 0.029736783
000270 db 75 b4 bb c4 32 9b bd 5f 95 f4 bc 8c 60 bb bd
       -0.0055072135 -0.07578042 -0.029856382 -0.09149274
000280 8b 9e 54 bd 47 5c ca 3c 48 91 2b 3a 71 2b b7 bd
       -0.05190901 0.024702204 0.0006544781 -0.08943833
000290 1e 36 fd bd d9 f0 15 3d 4b 7e 3f 3c ac 58 31 be
       -0.12363838 0.036606643 0.011687825 -0.17318982
0002a0 27 2a 70 bd b9 d2 9a bd b2 b2 16 bd 68 ba 6f bc
       -0.05863395 -0.075597234 -0.03679151 -0.014631845
0002b0 5b f7 22 be fe 44 49 bd 85 49 28 be 07 7a dd bc
       -0.15914671 -0.04913806 -0.16434295 -0.027035726
0002c0 ab 12 cb 3b d8 fb 03 bd cf 08 56 3c 48 a3 72 bc
       0.0061972938 -0.0322226 0.013063624 -0.014809437
0002d0 6a 0a a3 bd 8a d4 86 bd e5 2d 84 bd 68 2a 28 bd
       -0.07960971 -0.06583507 -0.06454066 -0.041056067
0002e0 cf 41 6f bc c4 07 be bd 14 8a e3 bd d4 7b 65 bd
       -0.014603092 -0.09278825 -0.11110321 -0.056026295
0002f0 b2 7b 31 bd 82 a9 36 3d 3b 2b c8 bd 4c 8b db bd
       -0.043330856 0.04459525 -0.097738706 -0.10719928
000300 85 11 72 3c 1f 54 07 bd 56 45 bd 3c 92 78 ff bd
       0.014774685 -0.03303921 0.023104351 -0.12474169
000310 5c 03 0c bd b8 ec 8e bd d4 1b 1c bc da a1 25 bc
       -0.03418289 -0.06978744 -0.009528119 -0.010109389
000320 ed e9 66 bd 91 d9 06 be ae ac ec bd d3 0f 83 bd
       -0.056375433 -0.13168932 -0.115563735 -0.063995026
000330 d7 5d 04 bd 90 06 95 bd 6f c9 81 bc c1 69 5e 3c
       -0.032316055 -0.07276642 -0.015843121 0.013575018
000340 9b e7 d0 bd d1 35 ce 3c 37 bb 2f bd 8e 15 19 be
       -0.10200425 0.025172146 -0.04290315 -0.14949629
000350 64 53 1f bd f7 10 c8 bd 1c a2 ca ba f9 fd 8e bd
       -0.038897887 -0.09768861 -0.0015459689 -0.06982035
000360 7e 2d 3c bd 75 bf 96 bd 4a bf f8 bd e6 8a c6 bd
       -0.045941822 -0.07360736 -0.121458605 -0.096944615
000370 db a2 ef bd e3 2c 24 be cb 09 d0 39 58 2e be bd
       -0.11700984 -0.16032748 0.00039680148 -0.09286183
000380 24 49 d6 bb 4c f6 82 3b 49 c9 61 bd f3 61 f4 bd
       -0.0065394808 0.003996646 -0.0551236 -0.11932745
000390 ca 10 94 bd 1b c5 12 bd 1b d7 91 bd 5b 2c 7e 3c
       -0.07229765 -0.035832506 -0.07121106 0.015513505
0003a0 d2 f5 fc bd 96 15 cb bc 51 40 fb 3c 7c 7c df bd
       -0.12351574 -0.024790566 0.030670317 -0.109124154
0003b0 ae 2c f2 bd d7 e7 65 bc 59 0a 40 bd bd bf cd 3c
       -0.11824928 -0.014032326 -0.04688487 0.025115842
0003c0 9a 94 89 bc 76 03 7d bc c9 43 35 bd d5 12 e9 bd
       -0.016794492 -0.01544272 -0.044254098 -0.11380545
0003d0 d1 bf 19 bc 07 b1 96 3c 30 50 c5 bd 25 7f fd bd
       -0.0093841115 0.01839496 -0.09634435 -0.123777665
0003e0 d8 5c 10 3c cd e2 ab bd 37 bd 05 3d c5 21 92 3c
       0.008811198 -0.08392868 0.032651152 0.017838368
0003f0 95 61 ee bc e5 5e 5d bd 25 d7 82 bc b0 d2 bb bd
       -0.029099265 -0.054045577 -0.01597173 -0.09171045

fc2.bias f4 [128]
000000 cb b8 f1 3d a6 67 d1 3c fa 2d d0 3c be c6 a8 bc
       0.118028246 0.025562119 0.025412548 -0.02060258
000010 f8 2d 44 3d 93 62 6f 3d ff 82 30 bb d5 53 0d 3e
       0.0478954 0.058443617 -0.0026933549 0.1380151
000020 41 ff a2 3d 5c 55 b2 3d 40 57 86 3d fd 0e c9 3d
       0.07958842 0.08707687 0.0655961 0.09817312
000030 a4 91 e1 3d bf 15 85 3c 5b af 61 bd ca 93 ff 3d
       0.11014107 0.01624572 -0.055098873 0.124793604
000040 6c 76 99 3c a8 3a 8b 3d b1 39 d7 3c 01 c6 ff bd
       0.018733226 0.06798297 0.026272627 -0.12488938
000050 e0 41 d4 bc 8e 41 95 bc 8e 9a ea 3d 06 c1 62 3d
       -0.025910318 -0.018219735 0.1145526 0.055359863
000060 84 73 0c 3e 18 a9 f6 3d b3 53 b5 3d 89 e9 cf 3d
       0.1371594 0.12043971 0.08853855 0.10151965
000070 e3 e5 38 3d 08 1e 00 bc 08 6a 5b bc c4 7f 16 bd
       0.045141112 -0.00781966 -0.013391979 -0.03674294
000080 0d 4c 45 bc 04 02 a5 3d 81 8a 0c 3e 0e ff 54 3d
       -0.012042058 0.08057025 0.1372471 0.05200105
000090 2a eb 15 bc 00 d5 93 3d 41 b8 0b 3e 55 14 23 bc
       -0.009150306 0.07218361 0.13644506 -0.009953578
0000a0 10 b5 63 3d 00 bc 14 bd ad ba 33 3c e0 47 1c bd
       0.055592597 -0.036312103 0.0109698 -0.038154483
0000b0 ec 47 c6 3c 7d d9 0a bd 76 dc 1c 3c 9f b2 e1 3d
       0.024204217 -0.03389882 0.009574046 0.110203974
0000c0 60 2c ce 3d 9c 3d db 3c 95 90 ce 3d d0 b0 e7 b9
       0.100670576 0.026762776 0.100861706 -0.0004419149
0000d0 07 60 e0 3d ee e7 01 3e f3 20 86 3d a2 35 f3 3d
       0.10955816 0.1268613 0.06549253 0.11875464
0000e0 2d fc 97 bb 49 61 40 3d ce 31 01 3e d3 74 4a bb
       -0.004638216 0.04696778 0.12616655 -0.0030892387
0000f0 ba 56 bd 3d 0f 11 b9 3c 21 29 35 3d 17 87 d1 3d
       0.092450574 0.022591142 0.044228677 0.102308445
000100 93 e9 b3 bd e3 9f 10 3d f7 bb 0d 3d 19 1a b2 3b
       -0.08784785 0.03530873 0.034603085 0.00543524
000110 dd dc 55 3d 08 a2 43 3d aa 6f 4f 3d 78 3a 9e 3c
       0.052212585 0.047761947 0.0506436 0.01931499
000120 9c b1 54 bc e3 26 98 3d b0 b8 ae 3b 02 88 51 3d
       -0.0129817985 0.07429292 0.005332075 0.051155098
000130 c6 ca 4f 3d 56 2e 5c 3d 7d b2 2c 3c 81 fa 76 bd
       0.05073049 0.053755127 0.010540602 -0.060297493
000140 9a da a8 3d 12 80 47 3d 30 9e 25 3d 99 21 8e 3d
       0.0824482 0.04870612 0.040434062 0.06940002
000150 29 fe c0 3d c0 a6 86 3d 5a 4c bf 3c a5 d5 32 3d
       0.09423477 0.06574774 0.023351837 0.04366078
000160 eb 95 19 3d b6 78 95 3c 76 f7 be 3d 1e 28 7a 3c
       0.03749649 0.018246036 0.09324543 0.015268354
000170 d2 76 a1 3d 9c c8 09 3d 4d f3 04 3d 32 81 0e 3e
       0.07883991 0.03363858 0.032458592 0.13916472
000180 6f 6e 00 3d 2e 6a a3 3d 45 b6 c9 3c d5 0b d5 bc
       0.031355318 0.079792365 0.024623046 -0.026006619
000190 84 8f c0 bc ac 73 9a bc bf 9c 14 bb 01 64 cc 3c
       -0.023505934 -0.018853985 -0.0022676436 0.02495003
0001a0 77 09 82 bc a9 0e be 3d 7e 00 96 3c 10 bb 74 3c
       -0.015873654 0.0928014 0.018310782 0.014937177
0001b0 df 89 d1 3d b5 0d d9 3d c1 17 e4 3c b1 07 07 3e
       0.10231375 0.105983175 0.027843358 0.13186528
0001c0 42 20 c8 3c 56 9c 40 3d 83 02 24 3d a4 c7 2f 3c
       0.024429444 0.047024094 0.040041458 0.01072875
0001d0 d8 89 1e 3d e0 5b 9f bc 77 a0 05 bd a8 40 09 bc
       0.038705677 -0.01945299 -0.032623734 -0.008377232
0001e0 af 68 c5 bc 56 65 0b 3e 8a 8b 2e 3d aa 97 be 3d
       -0.024097769 0.13612875 0.042613544 0.093062714
0001f0 a1 24 03 3d a8 3e da 3c ab ea 47 bd 7c e5 4f 3c
       0.032017354 0.026641205 -0.04880778 0.012688991

fc3.weight f4 [6, 128]
000000 b6 72 f5 bd 39 1c 99 bc 7f 30 3b bd cd 25 82 be
       -0.1198477 -0.018690215 -0.045700546 -0.25419465
000010 cf be 23 be ca 46 80 be 0c bf 89 be 40 27 06 be
       -0.15990756 -0.25054008 -0.2690357 -0.1310091
000020 70 05 cc bd 22 61 fd bd 31 58 1a be 31 bb 26 be
       -0.099619746 -0.12372042 -0.15072705 -0.16282345
000030 93 a7 03 be c0 3a 23 be 32 30 e1 3c 18 3a f8 bd
       -0.12856893 -0.1594038 0.027488802 -0.121204555
000040 f5 eb f1 bd da 5c 07 be c8 56 41 be de ea 05 3d
       -0.11812583 -0.13219014 -0.1888076 0.03269469
000050 1e 87 83 be df 42 45 be d4 72 52 be 91 c7 52 be
       -0.25689024 -0.1926379 -0.20551616 -0.20583941
000060 83 80 89 be a7 0f 64 be e7 94 47 be 9c 89 88 be
       -0.2685586 -0.22271596 -0.19490395 -0.26667488
000070 60 d3 0d be b1 62 17 be 73 05 6e be d0 1d 84 be
       -0.13850164 -0.14783742 -0.23244266 -0.25803995
000080 0f c3 86 be a1 cd ef bd 81 ae 3d be 72 b1 30 be
       -0.26320693 -0.117091425 -0.18523599 -0.1725519
000090 bf 84 7d be df 90 aa bd b0 96 4d be d0 6b 2e be
       -0.2475767 -0.08328413 -0.20077014 -0.17033315
0000a0 4c 65 e6 bd e2 88 60 be b3 41 5c be 32 83 8d 3c
       -0.112497896 -0.21927217 -0.21509437 0.017274473
0000b0 46 c0 70 be 42 35 d9 bd 97 54 4a be c2 47 33 be
       -0.23510846 -0.10605861 -0.19758831 -0.17507842
0000c0 6b 1d 8a be 6d a6 86 be c3 15 38 be 54 51 4d be
       -0.2697557 -0.26298848 -0.17977051 -0.20050555
0000d0 09 e4 59 be 54 1c ce bd 5a 62 8a be 56 bd 8a be
       -0.21278395 -0.10063997 -0.2702816 -0.27097577
0000e0 57 63 77 be 51 ba f8 bd 7b f1 00 be e1 de 8f be
       -0.24158989 -0.12144912 -0.12592117 -0.2809973
0000f0 42 51 61 be 10 a8 83 be 70 64 26 be a4 95 30 be
       -0.22003654 -0.2571416 -0.16249251 -0.17244583
000100 6f b7 25 3c 3c e7 2d be 4b aa 85 be fd 1c 5e be
       0.010114535 -0.1698274 -0.26106486 -0.21690746
000110 2e dc 14 be 3e fb 65 be 37 49 03 be d7 6d 43 be
       -0.14537117 -0.22459123 -0.12820898 -0.1908487
000120 06 85 d1 bd 79 60 05 be dc 97 45 be cd 9e 8c be
       -0.1023045 -0.13025083 -0.19296211 -0.27464905
000130 f1 6f 34 be b2 56 8b bd eb f6 e2 bd 70 35 26 3d
       -0.17620827 -0.06803645 -0.11082252 0.040578306
000140 0f 82 74 be 68 a4 2c be 46 7e d3 bd 2f 57 59 be
       -0.23877738 -0.16859591 -0.10326819 -0.21224664
000150 b4 2f 80 be f0 9a 16 be 9d 03 69 be e6 ac 5e be
       -0.25036395 -0.14707541 -0.22755285 -0.21745643
000160 84 f2 44 be 77 b6 6f be 8c a9 55 be 21 67 08 be
       -0.19233137 -0.23409449 -0.20865458 -0.1332059
000170 46 ec 03 be 81 c0 92 be a7 c8 41 bc 71 53 07 be
       -0.128831 -0.28662494 -0.011827624 -0.13215424
000180 35 87 08 be b2 fd df bd 45 16 38 be 6a ab 4c be
       -0.13332827 -0.109370604 -0.17977245 -0.19987264
000190 73 83 ef bd 0b 9e 56 be a9 f3 46 be 93 d2 39 be
       -0.11694994 -0.20958726 -0.19428886 -0.18146734
0001a0 26 03 47 be 6f 3e 47 be bf 61 6f be 84 29 80 be
       -0.19434795 -0.1945741 -0.23377131 -0.25031674
0001b0 cc fa 25 be 17 d4 71 be e8 95 7b be a8 6c 5f be
       -0.16208953 -0.23616062 -0.24568903 -0.21818793
0001c0 10 60 69 be 57 66 27 be df 1f 3e be bf 38 8a be
       -0.22790551 -0.16347633 -0.18566845 -0.2699642
0001d0 f2 39 40 be 15 d0 86 be 12 fb 6f be e1 c3 0b be
       -0.18772104 -0.2633063 -0.2343562 -0.1364894
0001e0 78 f2 64 be b9 8c 75 be cc c7 02 be 68 19 24 be
       -0.2235812 -0.23979463 -0.12771529 -0.16025317
0001f0 06 dd 15 bd f1 91 81 be d7 b2 49 bd 9b ba 12 be
       -0.036587738 -0.25306657 -0.04924282 -0.14328997
000200 f5 b4 38 be 45 1b da bc 82 26 f4 bd 74 c1 83 be
       -0.1803778 -0.026624331 -0.11921407 -0.2573353
000210 68 63 3e be 88 e1 63 be 31 b7 6a be c5 3d 5c be
       -0.18592608 -0.22254002 -0.22921444 -0.21507938
000220 70 33 3b be 74 83 0e be a7 dd 7c be 4d ec 63 be
       -0.1828134 -0.13917333 -0.24693929 -0.2225811
000230 50 09 3e be 17 7f 28 be ae ca 35 bd 0d 7c 27 be
       -0.1855824 -0.16454731 -0.044382744 -0.16355915
000240 f3 7e a0 bc d7 1a 7a be 82 90 64 be 4c 88 96 bd
       -0.019591784 -0.24424301 -0.2232075 -0.07350215
000250 54 d8 c6 bd cd f9 67 be ea 3d 1f be 50 2e 23 be
       -0.0970923 -0.22653885 -0.15550962 -0.15935636
000260 49 bb c8 bd 3c 9b 5c be ea 78 6f be 12 25 85 be
       -0.09801347 -0.21543592 -0.23385969 -0.26004845
000270 eb 87 72 be 36 65 16 be 39 46 6c be e7 c6 56 be
       -0.23684661 -0.14687046 -0.23073663 -0.20974313
000280 df 2e 58 be b6 45 38 bd f9 4f 3b be 37 1c 7f be
       -0.2111163 -0.044988357 -0.18292226 -0.24913107
000290 60 e9 8a be 5d ca 51 be a5 14 2c be 87 4c 50 be
       -0.27131176 -0.20487352 -0.1680475 -0.20341693
0002a0 ac aa 5c be f2 ef d1 bd 87 06 0d be 7a ef c3 3b
       -0.21549481 -0.10250844 -0.13772021 0.0059794756
0002b0 34 4c 59 be 7c 4d 15 be 74 3b d6 bd e7 ee 4c be
       -0.21220475 -0.14580339 -0.104605585 -0.20013009
0002c0 e6 af 31 be df 6c 05 be cd f0 81 be f2 f4 06 be
       -0.17352256 -0.13029812 -0.2537903 -0.13179377
0002d0 4a e3 38 be 32 e1 3d be 97 08 72 be 69 1b 79 be
       -0.18055454 -0.18542936 -0.2363609 -0.24326862
0002e0 ac 0e 22 be 06 90 cf bd 29 ba 47 be 9d 28 ee bd
       -0.1582591 -0.10134892 -0.19504608 -0.1162884
0002f0 53 a0 8c be 02 41 04 be 9c c5 88 be 95 fe 54 be
       -0.27466068 -0.12915424 -0.26713264 -0.2080024
000300 03 5a 86 bc ca bd 7f be 1d 18 1b be 33 4a 33 be
       -0.016400343 -0.24974743 -0.15145917 -0.17508774
000310 50 a3 66 be 17 19 2b be 3a a5 3f be 84 22 4e be
       -0.22523236 -0.1670879 -0.18715373 -0.20130354
000320 64 fa 87 be 9e 2d 5a be e3 9b 0a be a6 d4 09 be
       -0.2655822 -0.21306464 -0.13536029 -0.13460025
000330 2a 0b 2a be e4 26 3c 3c 3d be 38 be dc 9b 16 3d
       -0.16605821 0.011483882 -0.1804132 0.036769733
000340 15 c6 8a be 51 8f 65 be 69 2d 60 be ce 4f 16 be
       -0.2710425 -0.22417952 -0.21892323 -0.1467888
000350 42 58 1b be fb 41 1e be 9d 63 1f be d7 01 6b be
       -0.15170386 -0.15454857 -0.15565343 -0.2294992
000360 9b 05 56 be 72 43 76 be 98 e1 8b be 45 c6 68 be
       -0.20900576 -0.24049166 -0.27320552 -0.22731884
000370 ac 58 20 be f6 34 09 be 6b 18 73 3c ae 88 86 be
       -0.15658826 -0.13399109 0.014837365 -0.26276153
000380 58 bc 62 be e8 16 85 be 27 ec f4 bd 60 7c f1 bd
       -0.2214216 -0.2599404 -0.11959105 -0.11791301
000390 3b 01 66 be 12 82 5e be e1 d3 3e be 9c f2 57 be
       -0.22461407 -0.21729305 -0.18635513 -0.21088642
0003a0 ad 40 38 be 00 72 3e be ca 4a 81 be 09 95 24 be
       -0.17993422 -0.18598175 -0.25252372 -0.16072477
0003b0 b1 a9 e3 bd f2 1d 09 be 41 a1 48 be 74 7d 84 be
       -0.111163504 -0.1339033 -0.19592763 -0.25876963
0003c0 69 75 89 be 36 71 03 be 5e 07 80 be 14 75 1e be
       -0.2684739 -0.12836155 -0.2500562 -0.1547435
0003d0 9b 7d 13 be 00 db 63 be ed ed 59 be 68 29 88 be
       -0.14403383 -0.2225151 -0.21282168 -0.2659409
0003e0 27 c4 7c be c3 a0 33 be bf d0 36 be 21 3a 0b be
       -0.24684201 -0.17541794 -0.17853068 -0.13596393
0003f0 97 c8 b4 bd 5d cf 26 be 88 71 bc bc ca d8 36 be
       -0.08827322 -0.1629004 -0.023003355 -0.17856136

fc3.bias f4 [6]
000000 fd 7c 1a be 64 42 da bd f2 d6 07 be 02 a9 44 be
       -0.15086742 -0.10657194 -0.13265589 -0.19205096
000010 62 3d d1 bd 80 3e 5e be
       -0.10216786 -0.2170353
