dqn_taxi_light64.pth (torch, 25186 bytes, 6 tensors)

fc1.weight f4 [64, 16]
00000000: 4b2f 3a3e d103 a73e 34f9 213e 986d 12be
00000010: a800 4b3e f965 943e d5e1 a23e 0461 b4bd
00000020: f1e3 383e 1f1d e03d 8751 e4bd e945 253e
00000030: e13f fcbd 04cb 7c3e b1e3 0abe 3445 e7bd
00000040: bf75 5d3e 83a9 f63d 5cca 1bbe 1818 2a3d
00000050: 4876 84bd d5de 9e3e 74ab 993e 0063 ad3d
00000060: 9417 b3bb ed1a 9b3e 468a 4b3e dc67 2fbe
00000070: 5e1f 06bd 1023 333e 134b 46be e494 4cbe
00000080: 766f c0bb dbac fe3c 0e4e 48be e0fc 993c
00000090: d8a4 c93d d184 d33e a849 eb3e 86bf 3dbe
000000a0: e185 87bc 4ba7 5c3e 373a a33d 1f76 d23b
000000b0: db5c 3c3e ae0a dbbd 02c3 453e 757d 24be
000000c0: 4dc3 953e 3756 643d a8d5 bf3d 4008 d2bc
000000d0: 1070 6f3e 4ef3 133e ae91 953e 929d 393e
000000e0: 67d3 073e edd8 9b3e 020b 7b3e ef64 d5bd
000000f0: f8bc 033e df91 b93c 81dc 8ebd de5a 12be
00000100: 4dc1 40bd d27d 00be f820 0ebd b0d4 95bc
00000110: 74c8 b03d 9527 a63e 6789 e53d d03e 623d
00000120: 3883 8c3e 6620 d9b9 bb32 3cbe 1b57 6e3d
00000130: f7ff 4abe 43cc 4e3e cb5b 933d 1247 52bd
00000140: 40fb 3bbe 5832 d3bd d695 5f3e 7080 373d
00000150: ac47 cbbd dc32 33be 98cd 91be 2091 a73c
00000160: f2cc b73d 422c 4ebe a84c 02be ffac eabd
00000170: fd2d e73d b416 68bc 32aa 1bbe cbe5 1d3e
00000180: 4ae6 e0bd 353a 163c fa3a 4b3e cea7 6d3e
00000190: 401a 933d 87d7 db3e 3319 a93e 66ad 0ebe
000001a0: 8a75 b83e 0f45 a13c a286 e63b 02ed eb3c
000001b0: 38c2 51be edf0 b9bd 5e6a 6a3e 30e7 763d
000001c0: 5280 d7bd e887 a43e d4df 083e 98bd 2fbd
000001d0: 90d3 573d 1851 293e e867 823e 444e 793e
000001e0: 15ea dc3d 010f b23e db3f 7c3e eb56 4c3e
000001f0: 743b 7f3d a4b4 0e3e 23a9 24be 56db a43c
00000200: 29a2 4dbb 25d8 0f3e 54ab cb3d 9cc5 283e
00000210: 4030 bcbb ddbc 403e 80b2 593e 0caa 23be
00000220: 8944 db3e cd87 2c3e 4496 9abd 02e7 843d
00000230: b76d 18be 66b5 7e3e 8cff fdbd 73a6 123c
00000240: f58a 3e3d 1aae 443e 4c13 c9bd ac88 47be
00000250: 903f aabc 98f7 123d f9e7 aa3d 40e0 46be
00000260: 2397 723e ff6b d53e 8af0 073e 0431 483e
00000270: 33b4 223d cc75 863e 3181 a33c 6ae4 f23d
00000280: 2415 df3d c55a d5bd b87c e23d a8e4 743d
00000290: 6446 5b3e 4577 173e e6b3 c43e 9864 4f3d
000002a0: 14f9 e33d 6365 c13e a2a6 893d a679 32be
000002b0: 96ca a33d fd03 963d aa10 69be ccd6 b0bd
000002c0: 0f22 9b3c f117 a93e ba32 5fbe 7c5a febd
000002d0: 5451 3dbe 3369 b23e eed4 653e 6c26 793e
000002e0: 6dfc bf3d 5618 063e 90ae 833e c827 2fbe
000002f0: bd21 563e dbae 79bc e0bc 563e 89c8 143e
00000300: 99c7 783e 7724 463e d484 7c3e 54d9 43be
00000310: dc7e 21be 4472 923d 7ddc c63e 60af 193d
00000320: efed 073e 89c4 8e3e c23a 27be d377 12bd
00000330: 0f8d 4bbe 770a fb3c 0bf9 183e d238 cd3d
00000340: c2bf 8f3e ac96 813e 88b1 cc3d 9cea 6cbe
00000350: a818 52be ff0b 293e 14f3 af3d b6c5 27be
00000360: aa85 c23d c64f 603e 724c 813e 4c26 6bbe
00000370: 68e4 33be 69a0 35be 334f 583e 2902 c53d
00000380: 24f5 2f3e 4cea 593d 00ed 75be da57 063e
00000390: d0eb bfbc 67ee c93e 9b4b 17ba 741f d43d
000003a0: 9a47 ba3e 89eb 6b3e 385f 4e3e a6a7 813d
000003b0: 8892 013e 8302 4a3e 99b1 3ebe b2ea ca3d
000003c0: b01d 92bd 7e97 3fbd 7821 333d 7e92 713e
000003d0: 2847 043e c569 873e 9eee 9b3e 3aa2 0c3e
000003e0: 29be 403e 5b1b c53e 86af e23d b3ba 87bd
000003f0: 8541 52be 0895 823e 69f8 98bd 58b6 a7bd
0.18182103 0.326201 0.1581772 -0.14299619 0.19824469 0.2898405 0.3181292 -0.08807567
0.18055703 0.109430544 -0.111483626 0.1613995 -0.123168714 0.2468682 -0.1356342 -0.11292496
0.21626948 0.120440505 -0.15213913 0.041526884 -0.06467873 0.31029382 0.3001362 0.084661484
-0.005465457 0.3029398 0.19876966 -0.17129463 -0.032744758 0.17493844 -0.19364576 -0.19978672
-0.005872662 0.031088283 -0.19561026 0.018797338 0.098458946 0.41312268 0.45954633 -0.18530092
-0.01654333 0.21548192 0.07970088 0.0064227725 0.18394797 -0.10695396 0.19312671 -0.16063483
0.29250565 0.055746283 0.093669236 -0.0256387 0.23382592 0.14448282 0.29212707 0.18126515
0.13264237 0.3043894 0.24515918 -0.10419642 0.12865055 0.022652565 -0.069756515 -0.14292476
-0.047059346 -0.12547997 -0.03469941 -0.018289894 0.086319834 0.32452074 0.11207848 0.055235684
0.27443862 -0.00041413604 -0.18378727 0.05818854 -0.19824205 0.20195107 0.071952425 -0.05133731
-0.18357563 -0.10312337 0.21834502 0.044800222 -0.0992578 -0.1749987 -0.28477168 0.020454943
0.08974637 -0.2013407 -0.12724555 -0.11458778 0.112880684 -0.014165569 -0.15201643 0.1541969
-0.10981424 0.009169151 0.19846717 0.23208544 0.07182741 0.42937872 0.33027038 -0.13933334
0.36027175 0.01968625 0.0070350925 0.028799538 -0.20484245 -0.09079156 0.22892138 0.06027907
-0.10522522 0.32134938 0.13366634 -0.04290542 0.052691996 0.16534841 0.254699 0.24346262
0.10786835 0.34777072 0.24633734 0.19955032 0.06231256 0.13936096 -0.16080146 0.020124119
-0.0031377173 0.14047296 0.099447876 0.16481632 -0.0057430565 0.18822046 0.21259499 -0.15982836
0.42825726 0.16848679 -0.07548192 0.06489374 -0.14885603 0.24873886 -0.12402257 0.008950817
0.04651924 0.1920704 -0.09818134 -0.1948573 -0.020782262 0.035880655 0.083450265 -0.19421482
0.23690467 0.41683957 0.13275352 0.19549948 0.039722633 0.26261747 0.019959064 0.11859973
0.10892704 -0.104177035 0.110589445 0.059788376 0.2141357 0.14791591 0.38418502 0.050633043
0.11131492 0.37772664 0.06721236 -0.17429218 0.079976246 0.073249795 -0.22760263 -0.08634719
0.018937139 0.33026078 -0.21796694 -0.12419602 -0.18488055 0.34845886 0.22444507 0.24331063
0.09374318 0.13095221 0.25719118 -0.17105019 0.20911308 -0.015239443 0.20970488 0.14529623
0.2429489 0.19349848 0.24660045 -0.19125873 -0.1577105 0.07150701 0.38840094 0.037520766
0.13274358 0.2788432 -0.16331008 -0.035758805 -0.19878028 0.030644638 0.14938752 0.10020603
0.28075987 0.25310266 0.09994799 -0.23136371 -0.20517218 0.16508482 0.08591285 -0.16384014
0.09498151 0.21905431 0.25253636 -0.22963828 -0.17567599 -0.17736973 0.21123962 0.09619553
0.17183357 0.05320196 -0.2401619 0.1311945 -0.023427874 0.394397 -0.0005771459 0.10357562
0.36382753 0.23039068 0.2015351 0.063308045 0.12653553 0.1972752 -0.18622436 0.09908046
-0.07134569 -0.046775334 0.04373309 0.23591039 0.12917769 0.26447883 0.30455488 0.1373376
0.1882254 0.38497433 0.11068635 -0.06627407 -0.20532806 0.25504327 -0.074692555 -0.08189076

fc1.bias f4 [64]
00000000: ff93 42be 5914 1bbd f07e 83bd 511a aebd
00000010: 057c a13d a468 7e3d 9768 963d b8a5 a5bd
00000020: 61b3 b5bd cb0a 793e 3375 763e d57c d2bd
00000030: bb70 ddbb 9bf8 35bd f6e3 3cbe 1a9b 273e
00000040: 89ba cebb 4784 cdbc 08aa 573e c2fb 8b3e
00000050: f0ac 833d 072f 32be 8ef0 62bd be62 5dbd
00000060: d2cf 8fbd f24b 27be 9a26 563e bfe1 333e
00000070: a2f8 163d e0eb f83c 7cc4 d6bb 7215 923e
00000080: 89f4 1f3e 3131 153d 3680 3d3d ee39 35be
00000090: 2252 06bc 62c2 b1bd 85fe ccbd 7720 f6ba
000000a0: b97c 18be cc2b 403d a7c7 3c3e f50c d93c
000000b0: 3afe 38be b8c3 3e3e f522 d2bd 79e7 a73d
000000c0: 9095 89bc 77f7 80bd 02cb 11be ddfc fd3d
000000d0: c73c 8c3e affc 36bd 87d9 213c 3feb 533d
000000e0: 2065 34be d5d7 873e 8f3e 45be 24cd 12be
000000f0: 4996 4dbe a8d5 1bbe d0ab 80bd 5a1f 873e
-0.19001769 -0.037861202 -0.06420696 -0.08501113 0.07884983 0.06211151 0.07344168 -0.08088249
-0.088721044 0.24320523 0.24068145 -0.10277716 -0.0067578233 -0.04442654 -0.18446335 0.1636776
-0.006308858 -0.025087489 0.21060956 0.27340513 0.064294696 -0.17400752 -0.055405192 -0.054049246
-0.070220605 -0.16337565 0.20913163 0.17566584 0.03685821 0.030385911 -0.0065541845 0.28531986
0.15620627 0.036423866 0.04626485 -0.1769788 -0.008198293 -0.08679654 -0.10009483 -0.0018777986
-0.14891328 0.046916768 0.18435536 0.026495436 -0.1806573 0.18629348 -0.10260574 0.08198447
-0.01679495 -0.062972 -0.14237598 0.124017455 0.2739012 -0.04467457 0.009878523 0.05173802
-0.17616701 0.26531854 -0.19262145 -0.14336067 -0.2007686 -0.15218222 -0.06282771 0.26391107

fc2.weight f4 [64, 64]
00000000: 116e 353e 5a74 a83e 5b90 913e 52e9 653e
00000010: 92eb 1e3e 15d0 9f3c 96c2 cb3e 620d f13d
00000020: 54a9 9b3e 6aae 373e c5a9 973e e8a3 5e3e
00000030: 5b30 5a3e 96ce e53c e7fc a93e e2a3 823e
00000040: 3ebc d13e 2c1e c53e 9d17 e53d 16bf ab3e
00000050: 2f2b a93e a3f0 463e 1936 5c3e 2371 173e
00000060: 7f9a 503e 14b3 8a3e 55d2 8d3e 9e8a f13c
00000070: 6786 bf3e afd3 9c3e 5975 b23e 7457 843e
00000080: 1a15 3b3e e935 b43e 1d73 b33e 7c53 9c3e
00000090: a1e8 533d ef65 ea3d 090c 263e 6b97 6c3e
000000a0: 42c7 21bd 7476 963e 9098 c23e 505a 3a3e
000000b0: 38fa e9bc bc8d a63e 0bca d53e 62c4 25bd
000000c0: c7b6 b73e 49fd 5d3e e874 ab3e db9b a13e
000000d0: 9205 a13e 6a2c 043e 156e 4c3e 7c68 793e
000000e0: 2e7a a73e b42c cf3e 241e 923e 881f 473e
000000f0: 608d 5d3e e646 ba3e 7337 593e 72b1 a03e
00000100: 9ca6 cb3e be5a d53e f38e 423e 851b 893e
00000110: 5169 cf3c e3dd 94bd 95e1 a03e 6d65 913e
00000120: dff4 8f3e 5a93 003e 4278 9b3e eeca 873e
00000130: 0c67 b83e f2aa 193d a41a 5b3e 31c3 de3e
00000140: 38bc a93e 635c 6b3e a7bd 063e 348d 8a3e
00000150: 3fb1 643e 8576 ab3e 7bec a23e 3317 523e
00000160: f3d3 643e f364 9e3e 6f8c 4b3e 31a5 293e
00000170: 56f3 433e 7dc0 953e 622b 583e 0d00 733e
00000180: a6fb 4f3e 0d1c cb3e e9dd 913e f2fa 8b3e
00000190: 1dfd ed3d 78c6 223e 842a b53e 6588 cb3e
000001a0: 100c c93d 46e7 603e 00fe 4c3e 1d48 813e
000001b0: 9910 933d 7bc6 803e 2bc3 d53e a127 863d
000001c0: b0d3 773e e82e 0b3e d7f5 893e 778c 903e
000001d0: cd46 cb3e 3b0b a3bd 3d20 9d3e f4f0 dd3d
000001e0: 67af d23e 4306 663e 8de5 943e 2546 833e
000001f0: 3262 913e cf41 583e 983c 1e3e 9726 cf3e
00000200: 1a40 b63e aa65 813e 7c7e 9d3e a6bd 283e
00000210: 30f9 2b3c 2c7d d5bd 7f91 be3e 08d9 933e
00000220: 0cf2 323e 1a25 883e 3878 983e 25fe 923e
00000230: 02b1 4f3e 9dc1 0c3e 3d95 983e 9649 cd3e
00000240: 182f 2a3e 4f49 553e 466a 7a3e 03f9 a73e
00000250: ecd7 5f3e e040 8e3e 5d31 843e 43ab 1f3e
00000260: de01 943e 868b 903e aa27 9e3e e69a 583e
00000270: 5535 ba3e f403 8b3e 5a6f ca3e f2f4 163e
00000280: 995b aa3e 3e39 363e a1a6 7d3e 6fa3 803e
00000290: a9d0 973d 444e 5139 e81c b43e 8333 4f3e
000002a0: 2035 a6bd 5671 663e 89b6 c43e 773b e43d
000002b0: da11 26bd 2ac6 ab3e 9c5d b13e cc3b 313c
000002c0: 2757 ad3e b5cc 723e abd4 533e 8c93 563e
000002d0: aae1 9e3e 7210 dfbd 364a ce3e 27b0 6b3e
000002e0: 9d34 403e ec57 a43e 3d3b cc3e daac 4b3e
000002f0: da24 be3e d171 b43e 7b07 693e d0b0 ab3e
00000300: 9d9d 9b3e ae68 a83e 74c6 d33e 4414 2d3e
00000310: f95b 343e c8e6 dcbd 8dfd 5f3e 2662 8c3e
00000320: 519d c13e 4933 823e 5632 b23e e228 4e3e
00000330: 5aeb 303e 747a 7a3e d29c 833e fbef 943e
00000340: 00b9 af3e ee0b 4d3e 6743 fc3d 8bc9 3e3e
00000350: 7709 8e3e 6230 7c3e 4ed6 413e 2f40 a83e
00000360: d4aa 903e e9e0 913e 44cf a53e f1d2 623e
00000370: a954 9c3e d681 733e 2516 d53e 6b5f 813e
00000380: ceb7 913e 3a65 823e f32e bc3e e39f 5a3e
00000390: 196b 81bb 839b 2b3e 48f4 973e ef83 c33e
000003a0: 068c a1bd 507b 2f3e 7f48 6d3e 207a dc3d
000003b0: e320 b0bc 1854 973e f103 bc3e ed43 323d
000003c0: 3e70 d83e 9a73 f83c 4b52 a03e 70ec 5e3e
000003d0: d50c 9c3e 0125 1c3d 9276 9c3e b44b 423e
000003e0: 9069 9d3e 3131 b03e 6cc7 723e a39e e33d
000003f0: d9d9 c83e 10dc 5a3e b31a 943e f148 8e3e
0.17717768 0.3290127 0.28430447 0.22452286 0.1551955 0.019508401 0.39796895 0.11770131
0.30402625 0.17937627 0.2962171 0.21742213 0.21307509 0.02805261 0.33200762 0.25515658
0.4096393 0.38499582 0.111861445 0.33544225 0.3304076 0.19427733 0.21505012 0.14789252
0.20371436 0.2708975 0.27699533 0.029485043 0.37407228 0.30630252 0.34855154 0.2584797
0.18269768 0.3519738 0.35048762 0.30532444 0.051735524 0.114452235 0.16215529 0.23104636
-0.039496668 0.29387248 0.3800702 0.18198514 -0.028561696 0.3253001 0.4175571 -0.04047049
0.35881636 0.21678652 0.3348763 0.3156422 0.31449562 0.12907568 0.19963868 0.24356264
0.32710403 0.40463793 0.2853862 0.19445622 0.21635962 0.36382216 0.21212558 0.3138538
0.3977555 0.41670793 0.18999843 0.26778808 0.025318773 -0.07268884 0.31422105 0.28397694
0.2811651 0.1255621 0.30365187 0.2652201 0.3601612 0.03751654 0.21396881 0.43508294
0.33151412 0.22984461 0.13158284 0.27060854 0.22333239 0.3348886 0.31821045 0.20516662
0.22346477 0.30936393 0.1987779 0.16566922 0.19135794 0.2924842 0.21110299 0.23730488
0.2031084 0.3966984 0.28489617 0.27339894 0.11620543 0.15896022 0.35384 0.39752498
0.09816754 0.21963224 0.20018768 0.2525033 0.071809 0.2515143 0.41750464 0.06550527
0.24201846 0.13592112 0.26945373 0.28232166 0.39702454 -0.079611264 0.30688658 0.10836974
0.41149446 0.22463326 0.29081383 0.25639454 0.2839523 0.21118854 0.15452802 0.4045913
0.3559578 0.25272876 0.30760562 0.16478595 0.010496423 -0.10424265 0.3722038 0.2887652
0.17475146 0.26590806 0.2977922 0.28709522 0.20282367 0.13745733 0.2980136 0.40095204
0.16619527 0.20828746 0.24454603 0.32807168 0.21859711 0.2778387 0.2581891 0.15592675
0.28907675 0.28231448 0.30889636 0.21152839 0.36368814 0.27151453 0.3953808 0.14741877
0.33273008 0.17795274 0.24770595 0.2512469 0.07412846 0.0001996095 0.35178304 0.20234494
-0.081156015 0.22504172 0.38420513 0.111441545 -0.04054437 0.33549625 0.3464173 0.010817479
0.33855554 0.23710902 0.20686595 0.20954722 0.31031543 -0.108918086 0.40290993 0.23016416
0.1877007 0.3209833 0.39888945 0.19890156 0.3713749 0.35243085 0.2275676 0.33533335
0.30393687 0.32892364 0.41362345 0.16902262 0.1761321 -0.107862055 0.21874066 0.2741863
0.37815335 0.25429752 0.34804028 0.20132783 0.1727728 0.24460775 0.25705582 0.2908934
0.3432083 0.20024082 0.123175435 0.1863157 0.27741596 0.24627832 0.18929407 0.32861468
0.28255332 0.28491905 0.32384694 0.2215078 0.3053334 0.23779997 0.41618457 0.2526811
0.28460544 0.25467855 0.3675457 0.21350054 -0.0039495346 0.16758542 0.2967856 0.38186595
-0.078880355 0.17136884 0.23172186 0.10765481 -0.021500057 0.29556346 0.36721757 0.04352181
0.42273134 0.03032856 0.31312785 0.21769881 0.3047854 0.038121227 0.30559212 0.18974191
0.307446 0.3441253 0.23708886 0.11114242 0.39228705 0.2137301 0.2892662 0.27790025

fc2.bias f4 [64]
00000000: 01fb 883e 20df ba3e d1f9 a93e 6b51 6e3e
00000010: 5bdc 7f3e 18db 9c3e 40c6 4d3e 67a7 863e
00000020: 3111 7b3e 8d9b 4a3e 59c1 b03e 2734 ae3e
00000030: bd01 8c3e 9be5 d03e 76c5 323e 08bb a13e
00000040: c53f 983e 6ee9 be3e 6ffc 8d3e 3927 d93e
00000050: 6e60 cb3e 79a1 c13e 242a 823e 03b7 d53e
00000060: 3d53 593e 213f a63e 6f97 743e bd0b 3d3e
00000070: a0af 933e 9f55 8b3e 2879 7e3e 47b9 cc3e
00000080: 075c 7a3e 01f7 953e c81f 8a3e 32a9 be3e
00000090: b99c 513e ee8c 7f3e b0d0 ab3e 8532 b33e
000000a0: c75b 8d3e 46ea ae3e 0a56 483e d76a ad3e
000000b0: a755 443e 4df8 883e 7f2f 633e b184 af3e
000000c0: 9c87 873e 775a b03e 2f1e 973e e12d a33e
000000d0: e4b5 a53e b444 4c3e ebb2 ad3e 2a47 9b3e
000000e0: 314c 8d3e 2037 8e3e 2757 a53e 4aeb 433e
000000f0: a4a1 6b3e 9c5b 9f3e 76c4 823e 2c2e 893e
0.26754 0.36498356 0.33198407 0.23273246 0.24986403 0.30635905 0.20095158 0.26299593
0.24518277 0.197859 0.34522513 0.34024164 0.27345076 0.40800175 0.17458138 0.31588006
0.29736152 0.37287468 0.27731654 0.42412737 0.39722008 0.37818506 0.25422776 0.4174119
0.21223159 0.3247004 0.23885892 0.18461509 0.2884493 0.2721376 0.24850905 0.39985105
0.24449168 0.29290012 0.26977372 0.3723846 0.20469941 0.24956104 0.33557653 0.3499948
0.27609083 0.3416311 0.19564071 0.33870575 0.19173299 0.26751938 0.22186087 0.34280923
0.2647065 0.3444402 0.29515216 0.3187094 0.32365334 0.19948083 0.33925566 0.3032773
0.27597192 0.27776432 0.32293054 0.19132724 0.2301088 0.3112458 0.25540513 0.2679304

fc3.weight f4 [6, 64]
00000000: 3c38 2dc3 791a 2dc3 fe24 2dc3 9311 2dc3
00000010: 482c 2dc3 fb10 2dc3 6a41 2dc3 d341 2dc3
00000020: a92a 2dc3 2d22 2dc3 792d 2dc3 7323 2dc3
00000030: c205 2dc3 3d3f 2dc3 8e39 2dc3 0c18 2dc3
00000040: c415 2dc3 f246 2dc3 6dfc 2cc3 dc1f 2dc3
00000050: cb3e 2dc3 7237 2dc3 7e3a 2dc3 e32c 2dc3
00000060: 790a 2dc3 a225 2dc3 1d2f 2dc3 1317 2dc3
00000070: 5319 2dc3 cd24 2dc3 1e50 2dc3 2850 2dc3
00000080: 2f20 2dc3 0147 2dc3 4d15 2dc3 f915 2dc3
00000090: 710b 2dc3 b41f 2dc3 a226 2dc3 6f27 2dc3
000000a0: 1e3a 2dc3 262e 2dc3 2413 2dc3 0b4f 2dc3
000000b0: 632e 2dc3 ae1d 2dc3 3436 2dc3 fd4e 2dc3
000000c0: 7b4d 2dc3 bf14 2dc3 bb1f 2dc3 ab46 2dc3
000000d0: e832 2dc3 4b2e 2dc3 b72a 2dc3 342f 2dc3
000000e0: f919 2dc3 f437 2dc3 c627 2dc3 1239 2dc3
000000f0: c610 2dc3 5e0e 2dc3 f84a 2dc3 4720 2dc3
00000100: b118 2dc3 a63c 2dc3 9527 2dc3 0720 2dc3
00000110: 3b14 2dc3 be34 2dc3 9850 2dc3 a844 2dc3
00000120: d95b 2dc3 3d29 2dc3 7549 2dc3 9615 2dc3
00000130: 5926 2dc3 6f24 2dc3 f048 2dc3 8117 2dc3
00000140: 673a 2dc3 c84d 2dc3 6236 2dc3 7302 2dc3
00000150: c827 2dc3 d22b 2dc3 674d 2dc3 265a 2dc3
00000160: 3830 2dc3 3044 2dc3 a618 2dc3 3060 2dc3
00000170: 1c08 2dc3 893e 2dc3 532c 2dc3 fb34 2dc3
00000180: 5d1b 2dc3 a646 2dc3 941a 2dc3 d728 2dc3
00000190: 7444 2dc3 d153 2dc3 9446 2dc3 9832 2dc3
000001a0: 5c11 2dc3 d442 2dc3 7844 2dc3 8c54 2dc3
000001b0: ae43 2dc3 f913 2dc3 643a 2dc3 d630 2dc3
000001c0: 2b45 2dc3 023b 2dc3 3217 2dc3 642e 2dc3
000001d0: 132f 2dc3 3546 2dc3 923d 2dc3 b73e 2dc3
000001e0: 5a21 2dc3 e732 2dc3 0c11 2dc3 7a2d 2dc3
000001f0: 961d 2dc3 4713 2dc3 ff4d 2dc3 0a21 2dc3
00000200: c516 2dc3 5817 2dc3 c748 2dc3 c02d 2dc3
00000210: e326 2dc3 dc41 2dc3 393e 2dc3 b141 2dc3
00000220: 1320 2dc3 9918 2dc3 780d 2dc3 a140 2dc3
00000230: ce22 2dc3 361f 2dc3 d443 2dc3 414f 2dc3
00000240: e842 2dc3 ea29 2dc3 5c33 2dc3 7611 2dc3
00000250: 812e 2dc3 2733 2dc3 0d51 2dc3 2f36 2dc3
00000260: cd36 2dc3 6f44 2dc3 a01e 2dc3 7628 2dc3
00000270: 4218 2dc3 fe50 2dc3 3343 2dc3 af44 2dc3
00000280: 8214 2dc3 d247 2dc3 6c3f 2dc3 612d 2dc3
00000290: 760e 2dc3 253c 2dc3 e02d 2dc3 0221 2dc3
000002a0: 0e25 2dc3 c52f 2dc3 7924 2dc3 4f2a 2dc3
000002b0: a61f 2dc3 a235 2dc3 dd35 2dc3 db56 2dc3
000002c0: 972e 2dc3 d732 2dc3 ae38 2dc3 b63e 2dc3
000002d0: a537 2dc3 152d 2dc3 6d28 2dc3 6311 2dc3
000002e0: 3e51 2dc3 6b3d 2dc3 1517 2dc3 fa0d 2dc3
000002f0: 8629 2dc3 8339 2dc3 bb37 2dc3 1e0a 2dc3
00000300: 372d 2dc3 2836 2dc3 094b 2dc3 1126 2dc3
00000310: 9f38 2dc3 e426 2dc3 154c 2dc3 c427 2dc3
00000320: df40 2dc3 5741 2dc3 d133 2dc3 8d1c 2dc3
00000330: c327 2dc3 a81c 2dc3 e349 2dc3 a95a 2dc3
00000340: 674d 2dc3 713f 2dc3 9a1f 2dc3 9933 2dc3
00000350: ec38 2dc3 9a3d 2dc3 8946 2dc3 ee5e 2dc3
00000360: 8949 2dc3 104d 2dc3 7c3a 2dc3 8a35 2dc3
00000370: ab3c 2dc3 6757 2dc3 095a 2dc3 0860 2dc3
00000380: bb20 2dc3 f058 2dc3 2956 2dc3 dc3f 2dc3
00000390: 2f1b 2dc3 4452 2dc3 f451 2dc3 df26 2dc3
000003a0: ff1c 2dc3 0756 2dc3 f523 2dc3 8e56 2dc3
000003b0: bd36 2dc3 c91f 2dc3 4b2f 2dc3 cb63 2dc3
000003c0: 5d5c 2dc3 6b20 2dc3 d349 2dc3 c45b 2dc3
000003d0: 005a 2dc3 6658 2dc3 5658 2dc3 1a30 2dc3
000003e0: a22d 2dc3 5834 2dc3 d226 2dc3 4232 2dc3
000003f0: b740 2dc3 8129 2dc3 0756 2dc3 d11a 2dc3
-173.21967 -173.10341 -173.1445 -173.06865 -173.17297 -173.06633 -173.25552 -173.25713
-173.16664 -173.1335 -173.17763 -173.13847 -173.02249 -173.24702 -173.22482 -173.09393
-173.08502 -173.27713 -172.98604 -173.12445 -173.24529 -173.21658 -173.22849 -173.17534
-173.04091 -173.147 -173.18404 -173.09013 -173.09892 -173.14375 -173.31296 -173.31311
-173.12572 -173.27736 -173.0832 -173.08583 -173.0447 -173.12384 -173.15091 -173.15404
-173.22702 -173.18027 -173.07477 -173.30876 -173.1812 -173.11594 -173.21173 -173.30855
-173.30266 -173.08104 -173.12395 -173.27605 -173.19885 -173.18083 -173.16685 -173.18439
-173.10146 -173.21857 -173.15536 -173.22293 -173.06552 -173.05612 -173.29285 -173.12608
-173.09645 -173.23691 -173.15462 -173.1251 -173.07903 -173.20602 -173.31482 -173.26819
-173.35878 -173.16109 -173.28694 -173.08432 -173.1498 -173.14232 -173.28491 -173.09181
-173.22813 -173.30383 -173.21243 -173.00957 -173.1554 -173.17117 -173.30235 -173.35214
-173.18835 -173.26636 -173.09628 -173.37573 -173.03168 -173.24428 -173.17314 -173.20695
-173.10689 -173.27597 -173.10382 -173.15953 -173.2674 -173.32741 -173.2757 -173.19763
-173.06781 -173.26105 -173.26746 -173.33026 -173.26437 -173.07802 -173.22809 -173.19077
-173.27019 -173.2305 -173.0906 -173.18121 -173.18388 -173.27425 -173.24051 -173.24498
-173.13028 -173.19884 -173.06659 -173.17764 -173.11557 -173.0753 -173.30467 -173.12906
-173.08894 -173.09119 -173.28429 -173.17871 -173.1519 -173.25726 -173.24306 -173.2566
-173.12529 -173.09608 -173.05261 -173.25246 -173.13596 -173.12192 -173.26495 -173.30959
-173.26135 -173.16373 -173.20062 -173.0682 -173.18166 -173.19981 -173.3166 -173.21165
-173.21407 -173.26732 -173.11963 -173.15805 -173.09476 -173.31638 -173.2625 -173.2683
-173.08011 -173.28055 -173.24774 -173.17726 -173.05649 -173.23494 -173.1792 -173.12894
-173.14474 -173.1866 -173.14247 -173.16527 -173.12363 -173.2095 -173.2104 -173.33928
-173.18199 -173.1986 -173.2214 -173.24496 -173.21736 -173.1761 -173.15791 -173.06792
-173.31735 -173.23991 -173.09016 -173.0546 -173.1622 -173.22466 -173.2177 -173.03952
-173.17662 -173.21155 -173.2931 -173.1487 -173.22118 -173.15192 -173.2972 -173.15533
-173.2534 -173.25523 -173.20241 -173.11153 -173.15532 -173.11194 -173.28862 -173.35414
-173.30235 -173.24782 -173.12344 -173.20155 -173.22235 -173.24063 -173.27553 -173.37082
-173.28725 -173.30103 -173.22845 -173.20914 -173.23698 -173.34142 -173.3517 -173.37512
-173.12785 -173.34741 -173.33656 -173.24945 -173.10619 -173.32135 -173.32013 -173.15184
-173.11327 -173.33604 -173.14046 -173.3381 -173.21382 -173.12416 -173.18474 -173.38982
-173.3608 -173.12663 -173.28838 -173.35846 -173.35156 -173.3453 -173.34506 -173.1879
-173.17825 -173.20447 -173.15164 -173.19632 -173.25279 -173.16212 -173.33604 -173.10475

fc3.bias f4 [6]
00000000: 8e63 2dc3 935c 2dc3 9e56 2dc3 625b 2dc3
00000010: 2473 2dc3 358c 2dc3
-173.38889 -173.36162 -173.33835 -173.35696 -173.44977 -173.54768
