dqn_taxi_light64.pth (torch, 43362 bytes, 6 tensors)

fc1.weight f4 [64, 16]
000000 c7 cd bf 3e ca a3 de 3d 6e c3 33 3e 41 25 e4 bd
       0.37461683 0.10871084 0.1755502 -0.11139918
000010 5e 5e 14 bd 97 47 7d 3f 50 7a 3e 3f f5 3b 04 be
       -0.036222808 0.9893736 0.74405384 -0.12913497
000020 d9 02 5a 3f e4 cb 45 3f 6f da d0 3f 97 db eb 3e
       0.85160595 0.7726424 1.6316661 0.4606597
000030 f3 a1 9d 3e 9c a8 b1 3f d2 3b 40 be ac f8 36 3f
       0.3078762 1.387958 -0.1877282 0.71473193
000040 0f e6 41 3b 4d e6 60 be 80 8e c7 bd 6a 1a 35 3d
       0.0029586588 -0.21962853 -0.097439766 0.044214644
000050 94 dd 0e be 6b d8 c9 bd 52 79 6f be e6 59 92 bd
       -0.13951713 -0.098557316 -0.23386124 -0.07146053
000060 10 1f f2 3d 8d b4 ae bd c4 c3 47 3e 46 ca dd bd
       0.11822331 -0.08530531 0.19508272 -0.10829596
000070 3e 06 5c ba bb 92 62 be 06 af ea 3d fe 8c ab 3c
       -0.0008393264 -0.22126286 0.11459164 0.020941254
000080 c2 40 40 3d 4d 14 2a bc af d5 92 3c 75 9f bd bd
       0.046936758 -0.010380817 0.017924158 -0.0925893
000090 ce e6 3d 3e 27 be 8e bd ca d8 8e bd 80 cd ad 3d
       0.18545076 -0.069698624 -0.06974943 0.08486462
0000a0 7f ab 99 3c 68 e9 a1 bd cb 99 f4 bc 91 6e a5 3d
       0.018758534 -0.07905847 -0.02985849 0.080777295
0000b0 4d c9 c9 bd b6 bc 08 3e 3c ea 03 3e 03 31 d4 bd
       -0.09852848 0.13353238 0.12882322 -0.10360911
0000c0 17 ef c0 3e be 01 cc 3e 0c b9 57 3e 36 19 28 3e
       0.3768241 0.3984508 0.21066684 0.16415867
0000d0 70 6e 77 3c 76 a2 8c 3f bd 7c 95 3f 0d be 3e be
       0.015102014 1.0987079 1.1678692 -0.18627186
0000e0 d1 10 a0 3f c5 77 74 3f 02 04 bd 3f 3c 2d de 3e
       1.2505132 0.95495254 1.4766848 0.43393886
0000f0 a0 ac 25 3f 90 72 bb 3f 5f 82 cb 3c 11 36 ef 3e
       0.6471653 1.4644337 0.02484244 0.46720937
000100 4e 49 ea bd 2c d7 62 be b6 cd 6c be ac a6 01 3e
       -0.11439763 -0.22152394 -0.23125347 0.12661237
000110 b6 4c db bc 13 3f 3f 3e 24 51 a3 3d a2 7b 1c be
       -0.026769977 0.18676405 0.07974461 -0.15281537
000120 61 57 75 be c0 8d 09 be a2 95 2c be e8 d4 3d be
       -0.23959114 -0.1343298 -0.16853955 -0.18538249
000130 12 4a cd ba f5 19 55 be 3c b1 d3 bd 7c a0 00 3e
       -0.0015662333 -0.20810683 -0.10336539 0.1256122
000140 14 77 9a bd 35 b2 28 3e e9 db d7 bd 69 dd 30 3e
       -0.075422436 0.1647423 -0.105399914 0.17271961
000150 d3 55 62 be 1f 62 25 bd 70 c8 00 3d 24 cb 4c 3e
       -0.22103052 -0.04037678 0.031441152 0.19999367
000160 fb b3 08 be e1 fe 62 be ee e1 bf bd c8 0d b2 bc
       -0.13349907 -0.22167541 -0.093692645 -0.021735087
000170 23 99 62 3e ed 72 b3 bd f3 3d eb bd 36 99 2b bd
       0.2212873 -0.08762155 -0.11486425 -0.04189416
000180 6f be 2c be 00 2f 4f 3e 95 ce 1e 3e fe 19 a3 bd
       -0.1686952 0.20232773 0.15508492 -0.07963942
000190 58 f0 02 3e 8a 40 67 be a7 48 7a bd b8 00 25 3e
       0.12786996 -0.22583213 -0.061104443 0.16113555
0001a0 01 74 14 3e 75 50 45 be c6 b4 3f be 0a 44 0e be
       0.14497377 -0.19268973 -0.18721303 -0.13893142
0001b0 13 16 4e be 3e 88 dd bc 70 bf 2a be 0a 21 31 bd
       -0.20125608 -0.027042504 -0.1667459 -0.0432444
0001c0 e0 5a 14 3c ee 1a 78 bd e0 1c ab bc e7 14 91 3d
       0.009054869 -0.060572557 -0.020887792 0.07084065
0001d0 68 4a 18 3e 35 b9 78 3c dc 04 cb bc 82 a4 7f bd
       0.14872134 0.015180876 -0.02478259 -0.062412746
0001e0 74 26 a1 3c 32 7e a2 bd 7f c2 26 3c 15 d7 56 3e
       0.019671656 -0.07934226 0.010178207 0.20980485
0001f0 85 e9 d4 3d 94 08 68 be a1 be 88 bc 48 8a f3 bc
       0.10396103 -0.22659522 -0.016692461 -0.029729024
000200 9c 2b cb 3d e0 2d 22 be 99 fb d4 3d 21 52 1f bd
       0.09920427 -0.15837812 0.10399551 -0.038896684
000210 08 85 2f 3e 82 c0 06 be 94 da ff bd 44 50 1d 3e
       0.17140591 -0.13159373 -0.12492862 0.1536265
000220 95 24 62 bd 76 14 c2 3d dc 28 ce 3d 2c aa 13 3e
       -0.05521067 0.09476559 0.10066387 0.14420384
000230 64 c1 0d be e2 a0 5b be 6d e7 cf 3c f4 52 28 be
       -0.13843304 -0.2144809 0.025378907 -0.16437894
000240 b0 16 38 3e eb be 0f 3f 2d 4b 29 3e c7 65 4a 3d
       0.17977405 0.5615069 0.16532584 0.04941347
000250 b2 5a b8 bd da 7a 6e 3f 46 8b 93 3f d3 83 11 bd
       -0.09001674 0.93156207 1.1526878 -0.035526108
000260 b4 c7 51 3f 50 6a 7f 3f c8 84 ac 3f c1 fa f4 3e
       0.8194535 0.99771595 1.3478022 0.4784756
000270 b1 12 4a 3f 76 98 aa 3f 9b 67 ca 3e cc e8 41 3f
       0.7893477 1.3327777 0.3953217 0.75745845
000280 a6 76 fb 3d 79 f3 46 bd e1 2d 47 be 5c 66 c7 bd
       0.1227849 -0.048572037 -0.19451095 -0.097363204
000290 2a 82 02 be 43 28 02 be d6 75 3a 3b 3a 41 cb 3d
       -0.12744966 -0.12710671 0.0028451583 0.0992455
0002a0 99 87 76 be 51 31 06 be 51 cf d5 bd 54 45 3d 3e
       -0.24075164 -0.1310475 -0.10439933 0.18483478
0002b0 17 d7 0e be 70 8d 0b 3d c1 bc 6f 3e 3b c7 59 3e
       -0.13949238 0.034070432 0.23411848 0.21267407
0002c0 75 0e dc 3e 5e b2 a2 3e b3 a4 ad 3d 39 be 48 3e
       0.4297978 0.31776708 0.084786795 0.19603814
0002d0 93 2e 24 3e 71 77 5a 3f 3a 80 9e 3f 65 91 48 3e
       0.16033392 0.85338503 1.2382882 0.19586714
0002e0 5b 1b 49 3f 7f 1c 9f 3f f1 f8 ad 3f 4d 44 1a 3f
       0.78557366 1.2430571 1.3591596 0.6026047
0002f0 80 6c 24 3f 43 47 96 3f 24 fe 6b 3e 54 11 3f 3f
       0.6422806 1.1740497 0.23046166 0.74635816
000300 1c 68 ab bd cb a0 6b 3e d9 e7 34 3d da 7e a6 3d
       -0.08369467 0.23010556 0.04416642 0.08129664
000310 44 cd 70 3e 06 1c 99 bc b0 60 3f be 6c 7b 33 3d
       0.23515803 -0.01869012 -0.18689227 0.043818876
000320 ab da 44 be 0c 10 82 3b a5 27 c3 3d 91 c0 30 3e
       -0.1922404 0.003969198 0.09529046 0.17260958
000330 03 b0 1c 3e 9c 41 cb bd f4 85 90 bd 31 d6 6a 3e
       0.15301518 -0.09924623 -0.070567995 0.2293327
000340 3b ee 53 be 04 1e fd bd 5d d5 43 bd e6 8c 92 bb
       -0.20696346 -0.12359241 -0.0478109 -0.004472363
000350 33 b6 e3 3d 70 09 a8 3d 6a 43 9b bd 85 a9 62 bd
       0.11118736 0.08204925 -0.075812176 -0.055337448
000360 10 d8 59 be 56 3a 2c 3e 55 23 48 bd 08 d8 22 be
       -0.21273828 0.16819128 -0.04886182 -0.15902722
000370 14 4b 9c 3d de 82 66 be 38 41 5d bd 6f b1 30 be
       0.076315075 -0.2251086 -0.054017276 -0.17255186
000380 b5 b5 d2 3e 12 1c 5f 3e 42 63 1c be 9f ab 43 be
       0.41154256 0.21788052 -0.15272239 -0.19108437
000390 eb 5c 3c be 89 9c 97 3f 66 c4 7f 3f d5 97 d8 3d
       -0.1839482 1.1844646 0.99909055 0.10575835
0003a0 ce 5d 79 3f 2d 64 91 3f 6b c0 ab 3f 62 a8 1b 3f
       0.9740876 1.1358696 1.3418096 0.60803807
0003b0 84 e1 27 3f af df c4 3f ca db 50 3e 71 88 12 3f
       0.65578485 1.5380763 0.20396343 0.57239443
0003c0 76 b6 10 3e bd d1 15 3f b1 6a 8a bd ae d8 95 bd
       0.14132103 0.5852316 -0.06758631 -0.07316719
0003d0 d5 23 62 be 0d 27 5a 3f 7d 65 98 3f da 8a 52 3e
       -0.22083981 0.85215837 1.1905972 0.2056078
0003e0 01 6c 88 3f ae 75 83 3f 40 79 c4 3f 0f db 4e 3f
       1.065796 1.0270288 1.5349503 0.80803007
0003f0 e5 c6 0a 3f 94 8b ae 3f d5 c7 95 bd 37 5d c7 3e
       0.5420974 1.3636346 -0.073135056 0.38938305

fc1.bias f4 [64]
000000 70 77 b6 3f dd f6 09 3e 78 57 3b 3d 26 93 c8 3f
       1.42552 0.13473077 0.045737714 1.5669906
000010 89 5b a5 3d 1d 56 45 be a0 0f a9 bd 5d 1a 08 be
       0.080740996 -0.19271131 -0.08254933 -0.13291307
000020 6e 15 db 3d fb 3f ca 3f 62 d8 1e be 77 1c ad 3f
       0.10697447 1.5800775 -0.15512231 1.3524312
000030 8f b5 19 be 7f b7 6f 3e 3c b4 9a 3f 9c 77 c5 3f
       -0.15010665 0.23409842 1.2086253 1.5427127
000040 29 41 95 3f bc 57 f7 3d c1 18 a9 3f 07 f4 9e 3f
       1.166051 0.12077281 1.3210679 1.2418221
000050 93 12 41 be 46 cd b5 3f c5 c9 c1 3f 98 92 a8 3d
       -0.18854742 1.420327 1.51397 0.082310855
000060 18 55 92 3f 1b 29 ae 3f 79 5a a6 3f aa 7c ba 3f
       1.1432219 1.3606294 1.299636 1.4569294
000070 c6 39 c5 3f db 32 c4 3f ff 2e a7 3f c0 2f cd bd
       1.5408256 1.532802 1.3061217 -0.10018873
000080 ae 07 9f bd 32 24 c4 3f 0c a9 95 3f 8e 01 c6 3f
       -0.07765137 1.5323546 1.1692214 1.5469224
000090 51 e1 9e 3f ea c7 69 be fa 02 db 3c 7c c3 b3 3f
       1.2412511 -0.22830167 0.026734818 1.4044032
0000a0 ff 11 aa 3f ee 07 d6 ba 4d a9 d0 bd 87 f6 a9 3f
       1.3286742 -0.0016329268 -0.101885416 1.3278359
0000b0 37 1d 92 3f 3d 8a c4 3f d2 b1 14 3d 66 00 99 3f
       1.1415166 1.5354687 0.036302395 1.1953247
0000c0 ae 8b c4 3f b7 93 14 bd 73 f4 9d 3f e6 a6 92 3f
       1.5355127 -0.036273684 1.2340225 1.1457183
0000d0 ee a4 b3 3f 26 95 a0 3f 1b 14 bc 3f ec ae aa bc
       1.4034708 1.2545516 1.4693636 -0.020835362
0000e0 53 f5 19 bc 61 60 98 3f 68 d4 1b bd 80 13 b6 3f
       -0.009396869 1.1904413 -0.038044363 1.4224701
0000f0 60 8f b8 3f 29 93 ac 3f 05 44 96 3f e7 32 92 3f
       1.4418755 1.348241 1.1739508 1.1421784

fc2.weight f4 [128, 64]
000000 c0 2d 97 3d b5 f0 03 3d 28 d1 db bc 90 78 3c 3d
       0.07381773 0.032211978 -0.026833132 0.046013415
000010 52 2a 80 bd 97 e2 d3 3d 34 a0 0b 3d 1b f1 2b bc
       -0.06258072 0.10345953 0.03408833 -0.010494496
000020 d8 09 de bc 6b 2f 9a bd 70 b5 3a 3c aa a8 4f bd
       -0.027104303 -0.075285755 0.011395797 -0.05069796
000030 6f 4c c9 3d 4a 0c a1 bc 56 cf f6 bd 2c 55 75 3d
       0.09829032 -0.01965918 -0.12051265 0.05989568
000040 d9 77 f5 bc 42 74 70 3d 42 8f 47 3d 3c 3b 19 3b
       -0.029964374 0.058704622 0.048720606 0.0023381254
000050 1a 82 87 bc 22 5f ec 3d f4 46 f6 3c 08 64 d3 3c
       -0.01654153 0.11541583 0.03006313 0.025804535
000060 b6 d2 6c bd 24 d6 66 bd 6d 9b e0 3d fa 11 c5 3d
       -0.057818137 -0.056356564 0.10967145 0.096225694
000070 a5 fd 9f bd 67 fc 54 bd ba 7f 67 bd ba a0 81 3b
       -0.07812051 -0.051998522 -0.056518294 0.0039559277
000080 fe d7 ab bd e1 6e 50 bd e4 72 5d 3d 4a ad ca bd
       -0.083908066 -0.050886992 0.054064646 -0.098963335
000090 d4 c7 6e 3d 13 79 e0 bc cd 51 97 3d c1 80 a4 3d
       0.05829604 -0.027401483 0.07388649 0.0803237
0000a0 f5 74 4a bd ee df f1 3c 5d f7 60 3d 21 c5 c7 bc
       -0.049427945 0.029525723 0.054923404 -0.02438599
0000b0 5d 0c ef 3d bc cc 90 3c f4 5f e7 bc 11 d6 4c 3d
       0.1167228 0.01767575 -0.028243996 0.050008837
0000c0 c2 5f 5c 3b de ef 9b bd 0b aa c1 bd 01 c8 c8 bc
       0.0033626412 -0.076141104 -0.09456261 -0.024509432
0000d0 09 8f 96 bd a9 38 a6 bc a6 64 c6 bd 3b cb 54 bd
       -0.073515005 -0.02029069 -0.09687166 -0.05195163
0000e0 37 73 27 3d b2 5d ea 3d b6 6a c8 3d 13 31 c6 3d
       0.04088136 0.11443652 0.097859785 0.09677329
0000f0 a1 1f 88 bc 3c e5 0a bd 5d bb 42 3d 52 a3 f0 bd
       -0.016616644 -0.03391002 0.047541965 -0.11749901
000100 88 80 ee 3d 3b f2 87 bc 15 b6 65 3d 42 20 ee bd
       0.11645609 -0.016594997 0.05608185 -0.116272464
000110 4d 18 49 3d 37 26 d9 3c eb 7a 46 3d e9 0c d8 bd
       0.04909544 0.02650748 0.048457067 -0.105493374
000120 af f8 07 bd 33 4e 6f bd 58 9e b1 bd 56 13 38 3c
       -0.033196148 -0.058424186 -0.0867278 0.011235079
000130 f1 25 98 bd b5 1c 99 bc 0a 3e 2c bd 8f 1d aa bd
       -0.07429112 -0.018690446 -0.042051353 -0.08306419
000140 22 a5 e7 bd 65 7c 42 bd d8 32 a6 bd 32 99 22 bb
       -0.113107935 -0.047481913 -0.081151664 -0.002481055
000150 cb c7 1f 3c 89 32 c3 3d ee 1c ef 3d ff 20 d5 bd
       0.009752224 0.09531123 0.1167544 -0.10406684
000160 bd 51 e3 bd 3c ce 37 3d 56 05 aa 3d e5 49 ed bd
       -0.11099575 0.044874415 0.08301799 -0.1158636
000170 e3 06 a9 bd d2 8e 87 3d e0 7f fc 3c 09 99 4a bd
       -0.08253267 0.06619038 0.030822694 -0.049462352
000180 72 f2 f4 bd 40 a5 3a bd a1 12 f5 bd 65 5c c2 bc
       -0.11960305 -0.04556775 -0.11966444 -0.023725698
000190 c4 b7 83 bd a9 32 2c bd a5 42 74 3d 0d 4f 16 bd
       -0.06431535 -0.0420405 0.05963387 -0.036696482
0001a0 72 c6 e9 bd e7 b9 f8 bd 00 96 41 3c dc 36 e8 bc
       -0.114148036 -0.12144833 0.011815548 -0.028346471
0001b0 1c 08 d2 3d 3f 7e 1b bd 60 cc 9e 3d 1c ad 27 3d
       0.10255453 -0.037962195 0.07753825 0.040936574
0001c0 1a 6d 36 bc 55 88 f5 3d 26 3c f4 bc ef ab d6 bd
       -0.01113441 0.11988894 -0.029813837 -0.104820125
0001d0 40 8d 2a 3d 6c 68 87 bd 60 47 6f 3d ea 19 c2 3d
       0.041638613 -0.06611714 0.058417678 0.09477599
0001e0 27 19 e4 3c 16 5c 72 bb e9 14 d7 bd 04 cc 3e bc
       0.027844025 -0.0036981157 -0.10502035 -0.011645321
0001f0 c5 67 83 bc b8 77 ce bd 2b 0d d5 3d 20 b7 02 3b
       -0.016040692 -0.10081428 0.10402902 0.0019945577
000200 47 a3 2a 3d 43 03 f8 bd 30 9a dd bb b9 63 e4 bd
       0.04165962 -0.12109997 -0.0067627653 -0.11151833
000210 88 fa 16 3d 7a c1 4b 3d 19 34 46 bd c7 33 72 3d
       0.03686002 0.04974506 -0.048389528 0.05913141
000220 89 9e bf bd ba a9 d1 bd 0e f8 ad bc 34 77 de bc
       -0.0935641 -0.10237451 -0.021236446 -0.02715645
000230 60 8c 5b bd 49 bf d6 3d 46 fb 4c 3d 49 34 df bc
       -0.05360067 0.104857035 0.05004432 -0.027246611
000240 9c 17 ab 3d 89 f9 ee bd 9a 6e 47 bd b6 0b f0 3d
       0.083541125 -0.11668689 -0.048689462 0.11720984
000250 17 fb 8a bd 08 ab df bd ba a1 73 bd 87 60 b6 3d
       -0.06786173 -0.109212935 -0.059480406 0.0890513
000260 08 21 88 3d a3 b8 bd bd fe a4 d7 3b 2d ff fb bd
       0.06646925 -0.09263732 0.006580948 -0.1230453
000270 2a d4 bc bd 21 f8 9e bd ab e3 00 3b 48 84 ee 3d
       -0.092201546 -0.077621706 0.001966695 0.116463244
000280 c8 c3 91 bd 02 c4 cc bc dc a9 a2 bd e6 0d 80 3d
       -0.071174204 -0.024995808 -0.07942554 0.06252651
000290 fa a3 d7 3d 45 26 15 3d 74 e9 bd bd 9c de d6 3d
       0.10529323 0.03641345 -0.09273043 0.10491678
0002a0 df 95 9b bd 9a fb f2 bc f7 14 b4 bd fc 5b c7 bd
       -0.07596945 -0.029660989 -0.08793061 -0.097343415
0002b0 65 cd a8 3d f0 fb 87 3c cc 03 de 3b 6e d6 85 bd
       0.08242301 0.016599625 0.006775355 -0.0653504
0002c0 b1 da 00 3d 6c de ba bd 39 d0 ab 3d 9a d2 dc 3d
       0.03145856 -0.09124455 0.08389325 0.107823566
0002d0 de 47 3a 3c 59 91 53 3d f4 4e 54 bd 00 3a 28 3d
       0.011369674 0.051652286 -0.051833108 0.041070938
0002e0 47 5b ac 3d 27 1a 23 bd ab b9 a3 bd aa 76 92 bb
       0.08415847 -0.039819863 -0.07994398 -0.0044697123
0002f0 59 45 0a 3d 96 fb 91 bb ba 9f 9b 3d 79 4b 92 bd
       0.03375754 -0.00445504 0.07598825 -0.071433015
000300 e3 1c 71 3f e2 b1 52 3d 44 fb b7 3c 2a 4c 5a 3f
       0.941847 0.051439174 0.02245868 0.8527247
000310 47 b1 4a bc cf 88 29 3d a4 ff e9 bb 5a 24 87 bd
       -0.012371368 0.041390236 -0.0071410704 -0.065987304
000320 3f 3b 62 3b 04 33 8c 3f 6c 4b 3f bc d8 a7 70 3f
       0.0034520177 1.0953069 -0.011675697 0.9400611
000330 e5 63 aa bd 07 5a d9 3d 57 8d 83 3f 05 c6 77 3f
       -0.083198346 0.106128745 1.0277508 0.9678653
000340 f9 21 55 3f d5 e3 f6 3c 28 2b 5b 3f 9a 41 7e 3f
       0.83254963 0.030137936 0.85612726 0.9931885
000350 7e 24 05 bd d4 89 6c 3f b0 97 85 3f dd 03 85 3d
       -0.032505505 0.9239781 1.0436916 0.064948775
000360 34 00 64 3f 5b 6f 79 3f 0c 3d 87 3f 5c db 87 3f
       0.8906281 0.9743554 1.0565505 1.0613818
000370 b1 32 8b 3f d1 b4 80 3f ab 84 82 3f 85 b0 62 3d
       1.0874845 1.0055181 1.0196737 0.055344123
000380 43 46 e1 3d a7 b7 54 3f ea 3d 72 3f b5 10 69 3f
       0.109997295 0.8309273 0.94625723 0.9104112
000390 0d 76 7c 3f 8b f2 64 3c 0b 03 33 3d 72 30 67 3f
       0.9861763 0.013973842 0.043704074 0.90308297
0003a0 c9 70 87 3f 9f 85 66 bd 2f 61 12 3d d3 c5 7e 3f
       1.0581294 -0.056279775 0.035737213 0.99520606
0003b0 58 5b 87 3f af 42 69 3f 50 b1 10 bc e6 db 62 3f
       1.0574751 0.91117376 -0.008831337 0.8861679
0003c0 0d 41 61 3f 4f a1 e5 bd 9f 7a 88 3f df e5 7b 3f
       0.87989885 -0.11212408 1.0662421 0.9839763
0003d0 bf 3d 5f 3f 32 f3 58 3f b0 dc 88 3f 14 ef 9b 3d
       0.8720359 0.84746087 1.0692348 0.0761396
0003e0 45 75 ca bd 67 8b 7a 3f 20 bc cd 3b a3 c6 72 3f
       -0.09885649 0.9786896 0.0062785298 0.94834346
0003f0 36 d2 5b 3f ee 85 81 3f 10 56 85 3f 6e 76 86 3f
       0.8586763 1.0118997 1.0416889 1.0504892

fc2.bias f4 [128]
000000 a7 2e 6a bd f8 66 f4 3d d3 8b 77 bd 1f b0 8a 3f
       -0.057173397 0.11933702 -0.06043608 1.0834998
000010 38 37 9f 3f 56 fb 81 3f ea 18 98 3f 9f 3e 53 bd
       1.2438726 1.0154827 1.1882603 -0.051573392
000020 89 5b 82 3d ba c9 99 3f d5 e2 ad bd 68 64 e8 bd
       0.06365115 1.2014687 -0.084905304 -0.11347276
000030 76 55 96 3f d3 5a 9d 3f a8 56 96 3f 5a 6a 8c 3f
       1.1744831 1.2293342 1.1745195 1.0969956
000040 0c bb 93 3f a9 9b 8d bd 3f 21 6f 3c cb 4b 87 3f
       1.1541457 -0.069144554 0.014595329 1.0570005
000050 3c e3 9a 3f e7 f0 01 3b 61 e7 8a 3f 66 ba c2 bd
       1.2100596 0.0019827427 1.0851861 -0.09508209
000060 04 76 b5 3d eb c9 c4 bd 52 e1 82 3f 7f 98 26 3d
       0.088604 -0.09608825 1.0225012 0.040672775
000070 1d 21 85 3f 35 dc 8a 3f ec 3b a8 bd 69 37 0f bd
       1.040073 1.0848452 -0.08214554 -0.034964953
000080 2e 2e bc 3c 26 ab 6e 3d 05 ff 9f 3f 7d fe 01 bd
       0.022971239 0.05826869 1.2499701 -0.03173684
000090 15 36 d6 3c 70 e0 b4 bd e8 7d 3a bd 77 85 f5 bd
       0.026148835 -0.088318706 -0.04553023 -0.11988347
0000a0 f8 7c c0 bd 7d 64 8c 3f 7c 0c d3 bd c8 13 9e 3f
       -0.09398836 1.0968167 -0.103051156 1.2349787
0000b0 7e 20 87 3f 56 df dd bd a8 02 90 3f 23 87 9e 3f
       1.0556791 -0.108336136 1.1250811 1.238499
0000c0 8b a1 c6 bc 7d 30 99 3f 4f c4 00 bd 8f c5 8c 3f
       -0.024246952 1.1967922 -0.031437214 1.099779
0000d0 ba bc 97 3f c8 a6 c9 3c 35 8a 95 3f df 3a 8a 3f
       1.185447 0.02461566 1.1682802 1.0799216
0000e0 83 23 b5 3d c1 3f 87 3f b5 31 20 bc 70 ae da 3d
       0.08844664 1.0566331 -0.009777476 0.106778026
0000f0 35 80 9f 3f 46 fc 86 3f 14 16 eb bd 60 a6 84 3f
       1.2461001 1.0545738 -0.114788204 1.0363274
000100 ae 36 93 3f e4 83 b4 bd 17 b6 91 3f 8c 4a a1 3d
       1.1501062 -0.08814219 1.1383694 0.07875547
000110 54 85 87 bd 3c d3 c0 3a e7 53 90 3f c6 6a dd bd
       -0.06617227 0.001471139 1.1275605 -0.10811381
000120 6a d8 98 3f aa bb 9a 3f ab 9c 9d 3f ee 78 39 bd
       1.1941044 1.208852 1.2313436 -0.045281343
000130 bd 8e 8e 3f b3 0e c1 3d 4c 81 5c 3d 48 58 71 3d
       1.113731 0.09426632 0.053834245 0.058922082
000140 70 4f 7d bd a0 38 4b 3b 63 14 91 3f aa 46 8c bd
       -0.061843336 0.0031009093 1.1334347 -0.068494156
000150 41 7f 80 bd 99 74 98 3f 5a 4f 5f bd 31 be 58 bd
       -0.06274272 1.1910583 -0.054519035 -0.052915756
000160 c3 db ac bd 37 5c 62 bd d7 eb 87 3f 8d 27 a2 3f
       -0.08440354 -0.055263724 1.0618848 1.266832
000170 9d 08 2a 3d 0e 71 96 3f ac 6e 9c 3d 96 fb c0 bd
       0.04151212 1.1753252 0.076382965 -0.09422986
000180 1b e3 8b 3f 20 bf 98 3f 56 f6 91 3f 36 e1 39 bd
       1.0928682 1.1933327 1.1403301 -0.045380794
000190 94 7b 86 3f e8 47 9c bd 87 a9 96 bd 8b 1b 75 bd
       1.0506463 -0.076309025 -0.073565535 -0.05984072
0001a0 ac fe 94 3f c3 f3 9d 3f 20 5f 8e 3f d2 53 87 bd
       1.164022 1.2340015 1.112278 -0.06607784
0001b0 40 05 bb 3c 59 4b 95 3f 98 32 3b 3a d2 90 50 3c
       0.022829652 1.1663619 0.0007141023 0.01272984
0001c0 a2 93 b3 ba d8 d4 90 3f 71 ba 42 3d c5 c7 96 3f
       -0.0013700614 1.1314955 0.047541086 1.1779715
0001d0 6c d2 a0 3f 35 d1 91 3f f2 b2 5c bb 88 12 8a 3f
       1.2564216 1.139197 -0.0033675996 1.0786905
0001e0 59 33 ae 3c f8 2c 81 3c 8f 44 c2 bd 91 16 07 3d
       0.021264719 0.015768513 -0.09485733 0.032980505
0001f0 ff 62 07 be 38 41 a0 3f 25 2e 98 3f 77 e4 9d 3f
       -0.13221358 1.2519903 1.1889082 1.2335347

fc3.weight f4 [6, 128]
000000 a5 c8 45 3d ec 0b b7 bc 8b 79 7e 3c cf 2b f2 be
       0.048287053 -0.022344552 0.015531908 -0.47299048
000010 ca f3 09 bf 92 36 13 bf f2 8c 00 bf 34 57 63 3d
       -0.5388762 -0.5750514 -0.50215065 0.055503085
000020 29 f5 8b bd ff 41 f8 be ca 0f 1d bd 5b 28 37 bd
       -0.0683387 -0.4848785 -0.038345136 -0.04471622
000030 bb f8 1d bf 87 9a 0b bf 8a c2 f4 be 09 65 09 bf
       -0.6170766 -0.54532665 -0.47804672 -0.5366979
000040 fb ea 16 bf 05 e8 86 bb 46 98 1b bd 33 7c 20 bf
       -0.589523 -0.0041170144 -0.037987016 -0.6268951
000050 a5 03 1d bf ba fa 4f bd c7 75 0f bf e6 ee 46 bd
       -0.61333686 -0.05077622 -0.5603909 -0.048567675
000060 85 ee 06 3d 2f 37 09 3d 8c 46 18 bf bd e3 6c 3c
       0.032942314 0.033499893 -0.59482646 0.014458594
000070 11 89 01 bf 4b 61 f2 be 25 4f 7d ba 41 a4 97 bb
       -0.5059977 -0.47339854 -0.00096629775 -0.004627735
000080 d8 d3 86 bd 64 fa a6 bc 2b 34 06 bf 6c 27 55 3d
       -0.06583375 -0.020383067 -0.5242335 0.05203955
000090 57 99 75 3d 4f 76 28 3c 8c ef 78 3d cb 25 53 bc
       0.05996069 0.010282113 0.060775325 -0.0128874285
0000a0 ab 42 96 bd 8f 04 06 bf 42 75 8e 3d 9b 0a fa be
       -0.07336935 -0.52350706 0.06955959 -0.48836216
0000b0 12 48 16 bf 89 e6 b2 3c b0 6a f2 be af 88 09 bf
       -0.5870372 0.021838443 -0.4734702 -0.5372419
0000c0 00 aa 83 bd ba 05 00 bf ae 1f 69 bc 5b 0b 07 bf
       -0.06428909 -0.5000874 -0.014228744 -0.527517
0000d0 46 da 03 bf 33 be 1f 3d 8d 52 0b bf 30 b9 1d bf
       -0.51504934 0.038999747 -0.5442284 -0.616107
0000e0 f0 a9 9a ba 15 80 01 bf c2 c0 ff 3c e7 35 8f 3d
       -0.0011799913 -0.5058606 0.031219844 0.06992703
0000f0 70 5f 0e bf eb c5 03 bf f9 aa 2a bd 26 5d 0d bf
       -0.55614376 -0.51473874 -0.04166696 -0.5522026
000100 c6 be 1d bf 2b 9f 56 3c 55 b0 0a bf 36 e4 fb 3c
       -0.6161922 0.013099472 -0.5417531 0.030748468
000110 d0 2f aa bc 58 f1 35 bd ea a8 08 bf a8 f2 e2 ba
       -0.020774752 -0.044419616 -0.5338274 -0.0017314749
000120 b0 95 15 bf 61 84 ff be 48 9e 19 bf d2 43 6a 3d
       -0.5843153 -0.49905685 -0.60007143 0.057193585
000130 82 b8 03 bf 1a 90 ab bd eb 60 6b bb ad 7b 5a bc
       -0.5145341 -0.083770946 -0.0035915922 -0.013335151
000140 4c 7d ac bc 06 88 87 bc 6d b8 18 bf ae 7e 98 3d
       -0.02105584 -0.016544353 -0.5965641 0.07446037
000150 24 d9 1d bd b5 28 0a bf 84 43 6e bc 49 29 81 3d
       -0.03853716 -0.53968364 -0.014542464 0.06306703
000160 c5 35 8b 3d 19 24 d4 bc 94 19 0c bf 66 de 07 bf
       0.06797365 -0.025896119 -0.5472653 -0.5307373
000170 35 b6 98 3c 4f cb ff be 7c da 69 bb 83 40 47 bd
       0.01864157 -0.499598 -0.0035683205 -0.048645508
000180 cf d2 13 bf cf 11 1a bf dc 32 f3 be 84 f1 45 bc
       -0.57743543 -0.60183424 -0.4749974 -0.012081508
000190 ff 5b 21 bf 7d 05 5a 3d 1c dc 25 3d 2c 30 09 bd
       -0.63031 0.05322789 0.040493116 -0.033493206
0001a0 b7 94 02 bf 1d f1 14 bf 43 7c 21 bf f8 b6 83 bd
       -0.5100817 -0.5818041 -0.63080233 -0.06431383
0001b0 56 ac a7 bc a8 08 0c bf d2 01 97 bd 72 01 1f 3d
       -0.020467918 -0.5470071 -0.07373394 0.038819738
0001c0 61 93 96 bd a4 d1 f2 be 28 b5 44 3d 5c 92 17 bf
       -0.07352329 -0.47425568 0.048024327 -0.592077
0001d0 f0 2e 05 bf bd d6 1f bf b1 17 6b bc b9 e7 26 bf
       -0.52024746 -0.6243704 -0.01434891 -0.6519733
0001e0 e4 b2 4e bd 1c 08 d5 3b 3a 96 19 3d d3 d9 47 3c
       -0.050463572 0.006501211 0.037496783 0.012197929
0001f0 33 01 7a 3c 9e 7c f6 be dc 86 23 bf 94 52 27 bf
       0.015259075 -0.4814195 -0.63877654 -0.6536038
000200 b7 6b 7e bb bc c2 71 bb 08 2b 7c bd 02 87 05 bf
       -0.0038821527 -0.0036889752 -0.061564475 -0.5215913
000210 5b c0 12 bf e9 80 1c bf ce 23 20 bf 54 99 64 bd
       -0.5732476 -0.611342 -0.62554634 -0.055810288
000220 0c e0 0c bd c0 48 08 bf 0b 8b 4d bd 1c 6a 7b bc
       -0.034393355 -0.5323601 -0.05018143 -0.015345123
000230 db 9a 14 bf 13 de 18 bf ed d8 20 bf 30 86 12 bf
       -0.5804879 -0.5971386 -0.62831 -0.57236004
000240 b3 95 0b bf 2f dd 99 bd d5 18 3c bc 50 2f 12 bf
       -0.545253 -0.075128905 -0.01148053 -0.57103443
000250 fd 9f fa be f4 8e 28 3d c8 94 ed be 13 7a 80 3d
       -0.48950186 0.041151956 -0.46402574 0.06273284
000260 12 ee 68 3c b5 7d 62 bd 9a 16 0b bf b8 49 9e 3d
       0.014216917 -0.055295665 -0.5433136 0.077289045
000270 47 a0 1c bf 3e e3 03 bf d7 88 6c 3d d3 02 e6 bc
       -0.61182064 -0.5151862 0.05774769 -0.028077519
000280 aa e3 7b 3d e2 bb 89 3d 53 6f ec be c7 4b 11 3d
       0.061496414 0.06725289 -0.46178684 0.035472658
000290 16 24 fa 3b 87 3e 4f bc dc 23 a9 bd 76 1f 52 bd
       0.0076336963 -0.012649185 -0.08258793 -0.051299535
0002a0 a7 ef 98 3d bb c3 1d bf e8 8c 85 bd ba a0 10 bf
       0.07467585 -0.61626786 -0.06521016 -0.5649525
0002b0 9c ac 20 bf ce f0 1c 3d 71 27 12 bf 8a 28 12 bf
       -0.6276338 0.038315587 -0.5709143 -0.5709311
0002c0 96 9e 48 3d 22 57 11 bf f4 b6 89 bd 24 bc 0f bf
       0.048979364 -0.5677358 -0.06724349 -0.56146455
0002d0 ef 55 06 bf b3 8c 9b bc 50 d3 01 bf 59 92 e9 be
       -0.52474874 -0.018987989 -0.5071306 -0.45619467
0002e0 4a 32 06 3d f0 86 1b bf 4c d8 18 3d 4d 68 bd bb
       0.032762803 -0.60752773 0.03731565 -0.005780256
0002f0 8a 9b 1a bf 8f c4 fa be d6 4f 37 3d 72 33 0f bf
       -0.60393584 -0.48978087 0.04475387 -0.55937874
000300 cd 4b f6 be dc 27 8e 3d 0b e1 1b bf d7 a3 87 3d
       -0.48104706 0.06941196 -0.60890263 0.06623047
000310 c4 fb a1 3c 9e 88 99 bd b2 cb fd be 4f 55 b8 bc
       0.019773372 -0.07496761 -0.4956947 -0.022501616
000320 0b ac 15 bf 3b 66 0c bf 1b ed ea be 63 4a 39 3c
       -0.5846564 -0.5484349 -0.45884022 0.011309239
000330 2c 4f 03 bf 32 87 a1 bd 6f 73 b8 3c 1c 22 cd 3c
       -0.5129268 -0.078871146 0.02251598 0.025040679
000340 a1 d1 38 bd 05 95 98 bc 24 1d fd be 08 98 38 3d
       -0.045121793 -0.018625746 -0.49436295 0.045066863
000350 dd 32 a8 3d 6b e5 1a bf e0 8b 6c 3d 8a 2e f2 3c
       0.082128264 -0.60506314 0.057750583 0.029563207
000360 32 c2 e5 bc 91 2c 87 bd ee e9 06 bf 43 97 0a bf
       -0.028046701 -0.06600297 -0.527007 -0.5413706
000370 1b 1b 73 bd b6 50 20 bf 6e 19 47 bd 3c d9 89 bd
       -0.05935202 -0.62623155 -0.048608236 -0.06730887
000380 5c 58 f1 be ad 4e 14 bf 32 76 0d bf fa a8 9f 3d
       -0.47137725 -0.5793255 -0.55258477 0.077959016
000390 c8 0b 18 bf 31 97 77 bd 2f 39 8e bb d5 0a 86 bd
       -0.59392977 -0.06044692 -0.004340313 -0.06545035
0003a0 96 44 06 bf 78 37 06 bf a1 78 0a bf c0 bd 19 3b
       -0.52448404 -0.5242839 -0.54090315 0.0023459047
0003b0 77 b2 35 3c 16 62 0a bf 5e bc 4e 3d 03 fc 39 3d
       0.011089913 -0.5405592 0.05047261 0.045406353
0003c0 f1 22 e7 bc 0d 07 1e bf f9 02 43 bd b0 12 1d bf
       -0.028214904 -0.6172951 -0.047610257 -0.6135664
0003d0 2a 50 f6 be 4b 74 f1 be ca ed 20 3d fe 6a 01 bf
       -0.48108035 -0.47159037 0.039289273 -0.5055388
0003e0 02 45 93 bc 0f 29 23 3d d2 1a 3e bd 1f 18 db 3c
       -0.017977241 0.03983408 -0.046412297 0.0267449
0003f0 05 5a b1 bd f0 83 05 bf eb 8e 17 bf a4 b2 16 bf
       -0.08659748 -0.52154446 -0.5920245 -0.58866334

fc3.bias f4 [6]
000000 b6 b6 da be 40 29 19 bf fd e3 d3 be 0c ab 0f bf
       -0.42717522 -0.5982857 -0.4138488 -0.5612037
000010 29 d0 cf be 47 3b d9 be
       -0.405885 -0.42428038
