dqn_taxi_light128.pth (torch, 80556 bytes, 6 tensors)

fc1.weight f4 [128, 16]
0	0x3e457296	0.19281992
1	0xbb4342ab	-0.0029794376
2	0x3dee0d5c	0.11623642
3	0xbdfa7a10	-0.12230313
4	0xbe2f8008	-0.17138684
5	0x3bc2aca9	0.005940993
6	0xbc84b628	-0.01620014
7	0xbb9d2080	-0.004795134
8	0x3decf9ef	0.115711085
9	0x3dc238fc	0.09483525
10	0xbce4e887	-0.027942909
11	0x3e34997e	0.17636678
12	0xbceb9a96	-0.028760236
13	0x3d05830b	0.032595675
14	0xbddba105	-0.107240714
15	0x3d4d3748	0.05010155
16	0x3e0517ff	0.12997435
17	0x3cbd612c	0.023117624
18	0x3c2de180	0.010612845
19	0xbdfff678	-0.12498182
20	0x3d35a348	0.04434517
21	0x3df6c107	0.12048536
22	0x3dbbcc23	0.09169795
23	0xbdfa264c	-0.12214336
24	0x3e198086	0.14990434
25	0xbd54efa7	-0.051986363
26	0x3e503b84	0.20335203
27	0x3e6f6a9e	0.23380515
28	0x3e89e843	0.26935014
29	0x3df3d646	0.11906104
30	0xbd86f881	-0.06590367
31	0x3ea16608	0.31523156
32	0x3dd2d800	0.10295105
33	0x3e8d3cff	0.275856
34	0xbe3a3a26	-0.18186244
35	0x3e434430	0.1906898
36	0x3df5c574	0.12000552
37	0xbbe0a176	-0.006855185
38	0x3ea3b1c5	0.31971565
39	0x3e4a5380	0.19758415
40	0x3e5a9dd2	0.21349266
41	0x3de927c4	0.11384538
42	0x3ddb25c5	0.10700563
43	0xbcc6d4dc	-0.024271421
44	0x3e4f63c7	0.20252906
45	0xbe148a7b	-0.14505951
46	0xbd807ae8	-0.062734425
47	0x3d71744d	0.058948804
48	0xbdadac36	-0.08480112
49	0xbdb84a45	-0.08998541
50	0x3da71df8	0.08160013
51	0xbd2c4998	-0.042062372
52	0x3e09f5aa	0.1347262
53	0xbdda6522	-0.10663821
54	0xb9eb7a5d	-0.0004491386
55	0x3e4e1918	0.2012676
56	0x3ea428bd	0.3206233
57	0x3df3936d	0.118933536
58	0x3d753d86	0.059873126
59	0x3e95fa0d	0.29292336
60	0x3e5903bb	0.2119283
61	0x3e2e2dc9	0.17009653
62	0x3d523a84	0.051325336
63	0xbdfca09d	-0.12335322
64	0x3e906a64	0.2820617
65	0x3e9078e5	0.28217235
66	0x3e73bbf6	0.2380217
67	0x3dba3f94	0.09094158
68	0xbd33fc68	-0.043941885
69	0x3d9acb09	0.07558257
70	0xbd53231a	-0.051547147
71	0x3e13dd50	0.14439893
72	0x3e9b223c	0.30299556
73	0xbd9825f8	-0.07429117
74	0xbe2b5994	-0.1673339
75	0x3de8ccd5	0.113671936
76	0x3e2b7259	0.16742839
77	0x3e9b43fd	0.30325308
78	0x3e928b92	0.2862211
79	0xbdf9aac8	-0.12190777
80	0x3e84058e	0.25785488
81	0x3e86ff53	0.26366672
82	0xbe654a7e	-0.22391698
83	0xbdfe9e24	-0.12432507
84	0xbdce7890	-0.10081589
85	0xbdac0feb	-0.084014736
86	0x3e4590a0	0.19293451
87	0xbdd20260	-0.10254359
88	0xbc83d321	-0.016091885
89	0x3d0adede	0.03390395
90	0xbdbb7b9f	-0.09154438
91	0xbdef2fba	-0.11679025
92	0x3e1aad20	0.15105104
93	0x3e8d8bbf	0.2764568
94	0x3d8975e4	0.06711939
95	0xbca41970	-0.02003166
96	0x3e2ec484	0.17067152
97	0x3c01c9ef	0.00792168
98	0xbda11df0	-0.07867038
99	0x3e4d6f68	0.2006203
100	0xbda8ef1c	-0.082487315
101	0xbdd63f71	-0.10461319
102	0x3df629e2	0.12019707
103	0x3e00c46a	0.12574926
104	0x3de253e1	0.11051155
105	0x3d8ac3fa	0.06775661
106	0x3e25278b	0.16128366
107	0xbcdc7f8c	-0.026916288
108	0x3e3d4888	0.184847
109	0x3eafa0c9	0.34302357
110	0xbdf27935	-0.11839525
111	0x3e659f41	0.22424032
112	0x3e547b9e	0.20750281
113	0xbd5c3e6e	-0.053770475
114	0x3e473298	0.19452894
115	0x3e528296	0.20557627
116	0x3e175ffe	0.14782712
117	0xbd386a3d	-0.04502319
118	0x3eafa2c6	0.34303874
119	0xbe381d94	-0.17980033
120	0x3d50daa3	0.05098976
121	0xbd451a97	-0.04812106
122	0x3e447fe6	0.19189414
123	0x3e83a2ae	0.25710052
124	0xbd5c4618	-0.053777784
125	0x3dd6f4f1	0.104959376
126	0x3d7fac32	0.062420078
127	0x3c9019ae	0.01759037
128	0x3e4a3ae8	0.19749033
129	0x3e550d80	0.20805931
130	0x3e0eb3f2	0.13935831
131	0x3e359742	0.17733482
132	0x3e44a052	0.19201782
133	0xbcb8477b	-0.022495022
134	0x3e635bfa	0.22203055
135	0x3e0daeca	0.13836208
136	0xbde7a94b	-0.11311587
137	0x3d200e2f	0.039076027
138	0x3df9abf3	0.12191
139	0xbda82e33	-0.08211937
140	0x3e1af976	0.15134224
141	0xbd57e633	-0.05270977
142	0xbcb91839	-0.022594558
143	0xbbbb4d48	-0.0057159998
144	0x3e1e3d08	0.15452969
145	0xbd22fb80	-0.03979063
146	0x3e25fe90	0.16210389
147	0x3d855a10	0.06511319
148	0xbcfb8ab0	-0.03070578
149	0xbd25cbe7	-0.04047766
150	0xbbf0ab81	-0.0073446636
151	0x3dfca1c0	0.12335539
152	0xbd9f8c9e	-0.077904925
153	0x3e8725e3	0.26396093
154	0x3d15e9de	0.036599986
155	0x3e9c4a10	0.30525255
156	0x3e28180f	0.16415428
157	0x3ce77939	0.028256046
158	0x3cec8827	0.028873516
159	0xbdfca359	-0.123358436
160	0x3e373eb2	0.1789501
161	0x3e9b8132	0.30372006
162	0x3e6b00d6	0.22949538
163	0xbe3e18e8	-0.18564188
164	0x3e57ed00	0.21086502
165	0xbd128df2	-0.0357799
166	0x3e0c4fd2	0.13702324
167	0xbe014400	-0.12623596
168	0x3e612073	0.21985035
169	0xbdd79bb1	-0.10527743
170	0x3e8eb6d4	0.27873862
171	0x3e5c1c4f	0.21495174
172	0x3e8662b4	0.2624718
173	0xb926d28f	-0.00015909433
174	0xbe30aa4e	-0.17252466
175	0xbb833944	-0.0040046293
176	0x3e91c186	0.2846796
177	0xbd9ebe5a	-0.077511504
178	0x3da09020	0.0783999
179	0x3e2cd2b2	0.16877249
180	0x3d1c6560	0.038182616
181	0x3ea85be3	0.32882604
182	0xbdac1806	-0.084030196
183	0xbc9a5ee0	-0.018844068
184	0x3dc7d3dd	0.097572066
185	0xbde1b9eb	-0.11021789
186	0x3d814b4d	0.063131906
187	0x3e2db1c3	0.16962342
188	0xbd6205f3	-0.055181455
189	0x3d0cb61e	0.034353368
190	0xbdd9bac2	-0.10631324
191	0x3ce2b905	0.027676115
192	0x3dc60cf7	0.096704416
193	0xbe2ac55d	-0.1667685
194	0xbe214c84	-0.15751845
195	0xbe769322	-0.24079564
196	0xbe5ef40a	-0.21772781
197	0x3d3dd129	0.04634205
198	0x3e03a9ea	0.12857786
199	0x3e6462f2	0.2230337
200	0x3e0dfd51	0.13866164
201	0x3e166fd8	0.14691103
202	0xbd6d03ee	-0.057865076
203	0x3e3956a7	0.18099461
204	0xbe2780c3	-0.16357712
205	0xbe260ceb	-0.16215865
206	0x3da8f5a4	0.08249977
207	0x3ce5ca14	0.02805046
208	0x3cb789c9	0.022404568
209	0x3ca6704d	0.020317221
210	0xbdfe9e14	-0.12432495
211	0xbdbd4694	-0.09241977
212	0xbe412362	-0.18861154
213	0x3e7d218f	0.24719833
214	0x3e03e7e1	0.12881424
215	0x3e7bc494	0.24586707
216	0x3e1453a5	0.14485033
217	0x3e0a20c7	0.13489066
218	0x3b69d380	0.0035679042
219	0x3e80174a	0.25017768
220	0xbd1fc607	-0.039007213
221	0x3e316f7c	0.17327684
222	0xbca5e040	-0.020248532
223	0xbe475a7b	-0.1946811
224	0x3e9ba8d0	0.3040223
225	0x3cd2d0fd	0.025734419
226	0x3dd6eb3c	0.10494086
227	0x3ccfef80	0.025382757
228	0xbe422d3c	-0.18962568
229	0x3c29728e	0.010342253
230	0x3e371d6b	0.17882316
231	0xbd340d60	-0.043958068
232	0xbd02ca65	-0.0319313
233	0x3d9c24c6	0.076242015
234	0xbd01f8f8	-0.031731576
235	0x3e0b2995	0.13590081
236	0x3ea34795	0.3189055
237	0x3e7742d5	0.24146588
238	0x3de60d34	0.11232987
239	0xbdf56500	-0.11982155
240	0x3e0e9ee3	0.13927798
241	0x3d85ab9a	0.06526871
242	0x3e6b869a	0.23000565
243	0xbc2f7980	-0.01071012
244	0xbd8e77c8	-0.0695644
245	0xbd99d750	-0.07511771
246	0x3d8f2c74	0.06990901
247	0xbda9fb9c	-0.08299944
248	0x3e3992ba	0.18122378
249	0xbdcc0c1b	-0.099632464
250	0x3e6157f8	0.22006214
251	0x3e454cdf	0.19267605
252	0x3e0eaaf2	0.13932398
253	0x3e041657	0.12899147
254	0xbe43d19a	-0.19122925
255	0xbdbba796	-0.09162824

fc1.bias f4 [128]
0	0xbd61f21e	-0.05516254
1	0xbd2c9399	-0.042132948
2	0xbd0ceea9	-0.03440729
3	0x3e47ad2f	0.19499658
4	0x3d2001a0	0.03906405
5	0x3cde9629	0.027171211
6	0x3d28576f	0.04109901
7	0x3ca7fd67	0.020506574
8	0xbdcb7d59	-0.099360175
9	0x3eb82174	0.35963023
10	0x3d521bce	0.051296048
11	0x3e656721	0.22402622
12	0xbe17eb0d	-0.14835759
13	0xbda6a780	-0.08137417
14	0x3ba7aa04	0.005116703
15	0x3e771a88	0.24131215
16	0x3e278399	0.16358794
17	0x3e7ac4e5	0.24489172
18	0xbc67d34b	-0.014149497
19	0x3cdb6452	0.026781235
20	0xbdd02de6	-0.101650044
21	0x3e816485	0.25272003
22	0x3da9ab5f	0.082846396
23	0xbe2d0d4e	-0.16899607
24	0x3e908465	0.2822601
25	0x3e8331a4	0.2562381
26	0x3db17605	0.086650886
27	0x3dec7daf	0.1154741
28	0xbcf74c39	-0.030187713
29	0x3ebbc1da	0.36671335
30	0xbdc69a7c	-0.09697434
31	0x3d1100f4	0.0354013
32	0x3d071d32	0.032986827
33	0xbcb34dc0	-0.02188766
34	0xbaf693e6	-0.0018812388
35	0x3d55c14e	0.052186303
36	0x3e4e2c73	0.20134144
37	0xbce64900	-0.028110981
38	0x3dc31b8f	0.09526741
39	0x3eaeb0cc	0.3411926
40	0x3e24013b	0.16016094
41	0xbccd4399	-0.025056647
42	0xbdfcd0b4	-0.123444945
43	0x3e160163	0.14648966
44	0x3e851630	0.2599349
45	0x3dac37a7	0.08409052
46	0x3e04107f	0.12896918
47	0xbe0ba51b	-0.13637201
48	0x3e479941	0.19492055
49	0x3e913106	0.28357714
50	0x3bbf8cb5	0.005845631
51	0x3e658896	0.22415385
52	0x3d81053a	0.06299825
53	0xbe0b4c07	-0.13603221
54	0xbdee8ec6	-0.116483256
55	0xbe02e45d	-0.12782426
56	0xbcea1581	-0.028574707
57	0xbe2a6eab	-0.16643779
58	0xbddb9dac	-0.10723433
59	0x3ead87ae	0.33892578
60	0xbdae2b06	-0.085043
61	0xb9755fb6	-0.00023400676
62	0x3e91ead0	0.2849946
63	0xbc8789c3	-0.016545182
64	0x3e9978a2	0.29974848
65	0x3c3cf811	0.011533753
66	0x3c9c1803	0.019054418
67	0x3e0d063b	0.13771908
68	0x3dddaaf2	0.10823621
69	0x3dca5bfd	0.098808266
70	0x3dac6214	0.084171444
71	0xbd4b50e0	-0.049637675
72	0x3e8ef6ee	0.27922767
73	0x3d11dcee	0.035611086
74	0x3e8aa6c3	0.27080354
75	0x3c14a41e	0.009072332
76	0x3e834587	0.25638983
77	0xbc5b8f7b	-0.013400908
78	0x3e479dd3	0.19493799
79	0xbd05016c	-0.03247206
80	0x3e334716	0.17507586
81	0x3db741c9	0.089480944
82	0x3e60effb	0.21966545
83	0xbdbd8426	-0.09253721
84	0x3e942cbd	0.28940383
85	0x3e892e23	0.26793012
86	0xbbdd815d	-0.006759806
87	0x3e2c661e	0.1683583
88	0x3e2f9fdc	0.17150825
89	0x3d397fcd	0.045287896
90	0xbe032515	-0.12807114
91	0x3d8f2693	0.06989779
92	0x3e3fdee1	0.18737365
93	0x3ed1f918	0.41010356
94	0x3e818d79	0.25303248
95	0xbc73d6ce	-0.014882756
96	0x3e093abe	0.13401315
97	0xbb7c48e6	-0.00384956
98	0x3e7af01f	0.24505661
99	0x3e3a4e48	0.18193924
100	0x3e92ea58	0.28694415
101	0xbd55e813	-0.052223276
102	0x3d8d4e69	0.06899721
103	0xbd919830	-0.071091056
104	0x3de48363	0.111578725
105	0x3cc81064	0.024421878
106	0x3d60fe1e	0.054929845
107	0xbe077936	-0.13229832
108	0x3e139332	0.1441162
109	0xbdce896d	-0.10084806
110	0xbd05da57	-0.03267893
111	0x3d57b7d6	0.052665554
112	0x3e8c7c2a	0.2743848
113	0x3e71a66b	0.2359864
114	0x3db6b736	0.089216635
115	0x3d4d5c8c	0.050137088
116	0x3e945ff9	0.2897947
117	0x3e5bda8c	0.21470088
118	0x3e807cc6	0.25095195
119	0x3e82af6c	0.2552446
120	0x3e3f374c	0.18673438
121	0x3e49f34a	0.19721714
122	0x3e1a6f2f	0.15081476
123	0x3e577178	0.21039379
124	0x3e8a54d0	0.27017832
125	0x3e969f66	0.29418486
126	0xbb0f3bf4	-0.0021855803
127	0xbc53e24a	-0.0129323695

fc2.weight f4 [128, 128]
0	0x3ce3ab4a	0.027791638
1	0x3e347b49	0.17625155
2	0xbc82b85f	-0.015957056
3	0x3c19079b	0.009340192
4	0xbd01e1eb	-0.031709593
5	0x3de77839	0.113022275
6	0x3e1b3c1a	0.15159646
7	0x3d3de726	0.04636302
8	0x3da1ecbb	0.07906481
9	0x3ca2257f	0.01979327
10	0x3e002961	0.12515785
11	0x3cd58fb9	0.026069509
12	0xbb75786a	-0.0037455806
13	0x3c509bfc	0.012732502
14	0x3e07d3a4	0.13264328
15	0x3d0abc17	0.033870783
16	0x3e0dc146	0.13843259
17	0xb92759d4	-0.00015959825
18	0x3dc167ff	0.09443664
19	0xbb34b4b6	-0.0027573532
20	0x3da38f0e	0.0798627
21	0x3dd9b240	0.106297016
22	0x3cc92af2	0.02455661
23	0x3c60d72b	0.013723175
24	0x3d66b854	0.056328133
25	0x3db035a4	0.08603981
26	0x3ca693b2	0.020334098
27	0x3d8f8c8c	0.07009229
28	0x3cfc8b37	0.030828102
29	0x3e3d44aa	0.18483225
30	0x3d3c6df0	0.046003282
31	0xbc3cb455	-0.011517604
32	0x3dde9bca	0.10869558
33	0x3cee2f93	0.02907542
34	0x3b5da347	0.0033819245
35	0x3e10f88f	0.14157318
36	0x3c9a58c0	0.018841147
37	0x3e10222e	0.14075539
38	0x3dfabd46	0.12243132
39	0x3e074d35	0.13213046
40	0xbbe9a872	-0.007130676
41	0x3d2da1fb	0.042390805
42	0x3ddec6eb	0.10877784
43	0x3ddeb678	0.10874647
44	0x3d1b6cc4	0.037945524
45	0x3de0e1ce	0.10980569
46	0x3ded10b2	0.1157545
47	0xbc276b29	-0.01021842
48	0xbc38ce9a	-0.011279726
49	0x3d89e314	0.06732765
50	0x3e0a4f4d	0.13506813
51	0x3db36c5a	0.08760901
52	0x3d4cf852	0.050041504
53	0x3d50ecc0	0.051007032
54	0xbcda67a2	-0.026660744
55	0xbc1ed6fe	-0.009694813
56	0x3db69af8	0.08916277
57	0x3b9cfcfd	0.0047909007
58	0x3da6145b	0.08109351
59	0x3d4ea693	0.050451826
60	0x3dc55747	0.096357875
61	0x3d7246cc	0.05914955
62	0x3c25e828	0.010126151
63	0x3de56a84	0.11201957
64	0x3d480f60	0.048842788
65	0x3dc1f86e	0.09471212
66	0x3dd9be3b	0.10631987
67	0x3d9c80fc	0.07641789
68	0x3e0739a1	0.13205577
69	0x3e0dba03	0.13840489
70	0x3d8d103c	0.06887862
71	0x3e01868e	0.12648985
72	0xbbbfc545	-0.005852374
73	0x3dd4ec7a	0.10396667
74	0x3cfac083	0.030609375
75	0x3e0662f8	0.13123691
76	0x3dfe0782	0.12403776
77	0xbccf3bc5	-0.025297055
78	0x3dff7c61	0.12474895
79	0x3e046e39	0.12932672
80	0x3be326ad	0.0069321007
81	0x3d8afd80	0.067866325
82	0xbccf03ea	-0.025270421
83	0x3dfaac2f	0.12239873
84	0x3e006a17	0.1254047
85	0x3d9fb395	0.077979244
86	0x3ba0d064	0.0049076546
87	0x3dc39592	0.09550013
88	0x3c8c4aca	0.017125506
89	0x3d966f0e	0.07345401
90	0x3e100f3d	0.14068313
91	0x3cb8a345	0.02253879
92	0xbcde096b	-0.0271041
93	0x3dc95989	0.098315306
94	0x3d0bb7db	0.034110885
95	0x3ddbb2e7	0.10727482
96	0x3e05561c	0.1302113
97	0xbc17d6db	-0.009267534
98	0xbcc81a83	-0.024426704
99	0x3cd39487	0.02582766
100	0x3db90ea9	0.09035999
101	0x3d62156c	0.05519621
102	0x3e62bb5e	0.22141787
103	0x3dbb189b	0.091355525
104	0x3c9ce794	0.019153394
105	0xbcb6ccc7	-0.022314442
106	0x3d0db012	0.03459174
107	0x3c687545	0.0141881155
108	0x3c04fe1b	0.008117224
109	0x3c8dbd38	0.01730214
110	0x3dc5fbe1	0.09667183
111	0x3da22b5e	0.07918428
112	0x3e14e507	0.14540492
113	0x3ae0c4e4	0.0017148522
114	0x3d624c16	0.055248342
115	0x3e0a1456	0.1348432
116	0x3d9f3477	0.07773679
117	0x3d07594f	0.033044156
118	0x3e137d29	0.14403214
119	0x3d2adabc	0.041712508
120	0x3e087bd2	0.13328484
121	0x3c0fb80a	0.008771906
122	0xbbc07e65	-0.0058744424
123	0x3df221a5	0.118228234
124	0x3d9a7001	0.07540894
125	0xbcafb2af	-0.021447508
126	0x3cba9d4f	0.022780089
127	0x3e04811e	0.1293988
128	0xbe0478d4	-0.12936717
129	0xbe35edcd	-0.17766495
130	0xbd9f0e15	-0.07766358
131	0x3c74c6cd	0.014939976
132	0xbdb0cd7c	-0.08632943
133	0xbd9cadb0	-0.07650316
134	0xbe0e71ac	-0.1391055
135	0xbd82bbdb	-0.06383487
136	0xbc95581f	-0.018230496
137	0xbd759f20	-0.059966207
138	0xbd96c63f	-0.07362031
139	0xbc859716	-0.016307395
140	0xbd46b9e9	-0.04851714
141	0x3cca1bf4	0.024671532
142	0xbd807a40	-0.06273317
143	0x3c0c8678	0.008576982
144	0x3c5c5e9a	0.013450289
145	0xbc802e64	-0.01564712
146	0xbd796b9a	-0.060893632
147	0xbce76b75	-0.028249482
148	0xbdf4fad6	-0.11961906
149	0x3b981077	0.0046406346
150	0xbbc8dcc3	-0.0061298325
151	0xbd44919c	-0.047990426
152	0xbdbdc00c	-0.09265146
153	0xbd9d5d36	-0.07683794
154	0xbc451b2a	-0.012030402
155	0x3cef27ea	0.029193837
156	0xbbd87a45	-0.0066063725
157	0xbda50710	-0.08057988
158	0xbcf74903	-0.030186182
159	0xbdbc052f	-0.09180676
160	0xbd562637	-0.05228254
161	0x3cc3d4b4	0.023905136
162	0x399ea679	0.0003026014
163	0xbdb7c6be	-0.08973454
164	0xbdfdcd14	-0.12392631
165	0x3d14a6c2	0.036291845
166	0x3c396371	0.011315213
167	0xbe34d050	-0.1765759
168	0xbd71e023	-0.059051644
169	0xbd9b64e7	-0.07587605
170	0xbd19d0ab	-0.037552517
171	0xbc745394	-0.014912505
172	0xbe2458d7	-0.16049515
173	0xbd509eff	-0.05093288
174	0xbe2e6939	-0.17032327
175	0xbce00a51	-0.02734867
176	0x3bc0063c	0.005860118
177	0xbd0682c2	-0.032839544
178	0x3c4e7bba	0.012602741
179	0xbc781841	-0.015142501
180	0xbda3e3a6	-0.08002405
181	0xbd877077	-0.06613248
182	0xbd84f216	-0.06491487
183	0xbd295770	-0.041343153
184	0xbc74c0fc	-0.014938589
185	0xbdbeb1b3	-0.09311237
186	0xbde592eb	-0.11209663
187	0xbd6beae9	-0.057597075
188	0xbd329e48	-0.04360798
189	0x3d356940	0.044289827
190	0xbdc8c79d	-0.09803698
191	0xbddef5c9	-0.108867235
192	0x3c6b7afa	0.014372582
193	0xbd08d8cb	-0.033409875
194	0x3cba5518	0.022745654
195	0xbe03e7ae	-0.12881348
196	0xbd0d2e18	-0.034467787
197	0xbd8faf45	-0.07015852
198	0xbc306cc6	-0.010768121
199	0xbc2af1f1	-0.01043366
200	0xbd68498f	-0.056710776
201	0xbe08dbac	-0.13365048
202	0xbdedde52	-0.1161467
203	0xbd845e48	-0.06463295
204	0xbd0d99db	-0.034570556
205	0xbd95ca6b	-0.07313999
206	0xbc87b0cb	-0.016563794
207	0x3c595d76	0.013266912
208	0xbdd18e3d	-0.10232208
209	0x3cca4367	0.024690343
210	0xbd316a0b	-0.04331402
211	0xbe1a7af4	-0.15085965
212	0xbd24c464	-0.040226355
213	0xbdc9a17b	-0.09845253
214	0xbb04996b	-0.0020233046
215	0xbd916785	-0.07099823
216	0xbd415988	-0.047204524
217	0xbd97b4ea	-0.074075535
218	0xbdf9c167	-0.12195092
219	0xbdc775f2	-0.09739293
220	0xbdf039f7	-0.11729806
221	0xbe276c05	-0.163498
222	0xba91709e	-0.0011096185
223	0xbdbeec5a	-0.09322424
224	0xbbe3a067	-0.0069466117
225	0x3b31bf76	0.0027122176
226	0xbd630ef6	-0.05543419
227	0xbdf4fb4a	-0.11961992
228	0xbd95ff4e	-0.07324086
229	0xbd166d2c	-0.03672521
230	0xbda07a6e	-0.078358516
231	0x3c758e8b	0.014987598
232	0xbdfd92f4	-0.12381545
233	0xbccd9393	-0.025094783
234	0x3cf8c3f1	0.03036687
235	0xbde044b4	-0.10950604
236	0xbdf377d2	-0.11888088
237	0xbc6aaa8f	-0.014322891
238	0xbd4a0bd3	-0.049327683
239	0x3cc7cf69	0.024390893
240	0xbc92b2ad	-0.017907465
241	0xbc880641	-0.016604545
242	0xbd36b496	-0.044605814
243	0xbde9a678	-0.114087045
244	0xbc1e658a	-0.0096677635
245	0x3c944b07	0.018102182
246	0xbdc8cdc5	-0.098048724
247	0xbdfe0f10	-0.12405217
248	0x3bfc43ea	0.0076985257
249	0xbdac7dd9	-0.08422441
250	0x3d04999c	0.032373056
251	0x3c8c2772	0.017108653
252	0xbcf1c9d8	-0.029515192
253	0xbd5f5e63	-0.054533374
254	0xbc852cc3	-0.016256696
255	0xbdbc71df	-0.09201407

fc2.bias f4 [128]
0	0x3df59185	0.11990646
1	0x3ccf2b6c	0.02528926
2	0x3d47a98d	0.04874568
3	0xbca0f843	-0.01964963
4	0x3d47ef81	0.048812393
5	0x3d72ac65	0.05924644
6	0xbb02a44e	-0.001993436
7	0x3e0e2b40	0.13883686
8	0x3da4af29	0.08041222
9	0x3db3ef18	0.08785838
10	0x3d87eaa0	0.06636548
11	0x3dcabf97	0.09899824
12	0x3de35515	0.111002125
13	0x3c8b8dba	0.017035354
14	0xbccdc5e5	-0.025118778
15	0x3e00a88d	0.12564297
16	0x3cb1e862	0.021717254
17	0x3d8ccf4e	0.06875478
18	0x3cdceaa2	0.02696735
19	0xbe00249b	-0.12513964
20	0xbccc5f9e	-0.024947938
21	0xbc8f10d9	-0.017464088
22	0x3def20ce	0.11676179
23	0x3d692aab	0.056925457
24	0x3e0d3527	0.13789807
25	0x3df8400e	0.121215925
26	0x3db6fd97	0.08935087
27	0x3dd332b3	0.103124045
28	0x3d42a4ff	0.047520634
29	0xbbe7ffc6	-0.007080051
30	0xbc2ec961	-0.01066813
31	0xbd1384e7	-0.036015417
32	0xbc361061	-0.0111123035
33	0x3dbc8934	0.09205857
34	0x3e0d4e18	0.13799322
35	0x3d58a90e	0.052895598
36	0xbc08d5b6	-0.008351734
37	0x3d9acf71	0.075590976
38	0x3e0ca152	0.13733414
39	0xbc12dc90	-0.008963719
40	0x3d6822fb	0.056673985
41	0xbd0fa672	-0.035070844
42	0x3c420b0b	0.011843453
43	0xbd1ad77d	-0.037803162
44	0x3ccd64dc	0.025072508
45	0xbcf9ec76	-0.030508261
46	0x3c299175	0.010349621
47	0x3de41453	0.11136689
48	0x3dcfec45	0.10152487
49	0x3ceb4b86	0.028722536
50	0x3dd09d20	0.10186219
51	0x3aeebf41	0.0018214957
52	0x3de1e91a	0.11030789
53	0x3e029f01	0.12755968
54	0x3d87a250	0.066227555
55	0x3df56146	0.11981444
56	0xbb7a1480	-0.0038159192
57	0x3d441f6a	0.04788152
58	0x3e023568	0.12715685
59	0xba90f51e	-0.0011059379
60	0x3dc0f62b	0.09421953
61	0x3cbe4980	0.023228407
62	0x3d3da5cb	0.04630069
63	0x3dd489e2	0.103778616
64	0xbdb40850	-0.08790648
65	0x3d1bc687	0.038031127
66	0x3d149b19	0.036280725
67	0x3bc94e75	0.006143386
68	0x3d58efe3	0.05296315
69	0x3d46a9b1	0.048501674
70	0x3d53cee8	0.051710993
71	0x3ca50c20	0.020147383
72	0xbc4834da	-0.012219632
73	0x3d9b4b26	0.07582693
74	0x3bcfc13e	0.006340175
75	0x3d5a0cb0	0.053234756
76	0x3d52ab9a	0.051433183
77	0x3d686e47	0.056745794
78	0x3c568e96	0.013095519
79	0xbd78b03d	-0.06071495
80	0x3dabbd2e	0.083856925
81	0x3d4c05f1	0.049810354
82	0x3d38bf48	0.045104295
83	0x3d8fa271	0.07013405
84	0x3dc41f50	0.09576285
85	0x3d88c280	0.06677723
86	0x3cc6cc63	0.024267381
87	0x3d35e4a3	0.044407498
88	0x3d22d26c	0.039751455
89	0x3c9b8623	0.01898486
90	0x3dc156db	0.094403945
91	0x3c82f1f3	0.015984511
92	0x3da4d548	0.08048493
93	0x3d0efe36	0.034910403
94	0x3d03f508	0.032216102
95	0x3e0f8342	0.14014915
96	0x3d0b2ca2	0.033978112
97	0x3da508ed	0.08058343
98	0x3cd05a0c	0.025433563
99	0xbccf1586	-0.025278818
100	0xbcb9bdfa	-0.022673596
101	0xbc9443d1	-0.018098744
102	0xba3ef5ab	-0.0007284532
103	0x3cd2b30f	0.025720147
104	0xbc77abd9	-0.015116655
105	0x3dbfb9d3	0.09361615
106	0x3c9c4abd	0.019078607
107	0x3c809de0	0.01570028
108	0x3dd37788	0.10325533
109	0x3dda9202	0.1067238
110	0x3cecf37f	0.028924702
111	0x3e07d8c1	0.13266279
112	0x3ccf6b0d	0.0253196
113	0x3d43e73c	0.047827944
114	0x3d26c8f0	0.040718973
115	0x3c40d407	0.011769301
116	0x3d2228a6	0.039589547
117	0xbc90e55c	-0.017687492
118	0xbd008179	-0.031373475
119	0xbbf963cb	-0.007610773
120	0xbcbe0c3b	-0.023199191
121	0x3e0c2a50	0.13688016
122	0x3d31d689	0.043417487
123	0x3dc2f2e0	0.09518981
124	0x3d05041b	0.03247462
125	0x3ce508aa	0.027958233
126	0xbd477279	-0.048693154
127	0x3c5d9345	0.013523881

fc3.weight f4 [6, 128]
0	0xbe0ec5f0	-0.13942695
1	0xbca1f62f	-0.01977071
2	0xbd9a90d2	-0.075471535
3	0xbe8bf896	-0.27338094
4	0xbe375fd9	-0.17907657
5	0xbe8a0f64	-0.26964867
6	0xbe93892f	-0.288156
7	0xbe19ba82	-0.15012553
8	0xbdf335a5	-0.11875466
9	0xbe124e20	-0.14287615
10	0xbe2deeec	-0.16985673
11	0xbe3a4d34	-0.18193513
12	0xbe17397b	-0.14768021
13	0xbe36d69b	-0.17855303
14	0xbc29f6fa	-0.010373825
15	0xbe0fa836	-0.14029011
16	0xbe006db7	-0.12541853
17	0xbe1afa8a	-0.15134636
18	0xbe54ebee	-0.20793125
19	0x3d019e26	0.031644963
20	0xbe8d516f	-0.2760119
21	0xbe58da8f	-0.21177123
22	0xbe66ba93	-0.2253211
23	0xbe66a082	-0.22522166
24	0xbe93509b	-0.28772435
25	0xbe77a047	-0.24182235
26	0xbe5b2f95	-0.2140487
27	0xbe927a89	-0.28609112
28	0xbe226af3	-0.1586111
29	0xbe2b07c0	-0.16702175
30	0xbe8196d2	-0.2531038
31	0xbe8decb8	-0.27719665
32	0xbe9091ed	-0.28236333
33	0xbe1de562	-0.15419534
34	0xbe5146de	-0.2043719
35	0xbe4445da	-0.19167271
36	0xbe8895ab	-0.26676688
37	0xbdd74ded	-0.1051291
38	0xbe612bfe	-0.21989438
39	0xbe420112	-0.18945721
40	0xbe06de3c	-0.13170713
41	0xbe743b49	-0.2385074
42	0xbe6fdaee	-0.23423359
43	0x3c71832c	0.0147407465
44	0xbe8228dd	-0.254218
45	0xbe031bcf	-0.12803577
46	0xbe5ded35	-0.21672519
47	0xbe46fc4e	-0.19432184
48	0xbe93ea9c	-0.2888993
49	0xbe90b1b0	-0.28260565
50	0xbe4bb114	-0.19891769
51	0xbe61c02d	-0.22045965
52	0xbe6d7289	-0.23188223
53	0xbdf541f0	-0.11975467
54	0xbe942c21	-0.28939918
55	0xbe9491f9	-0.29017618
56	0xbe857f5a	-0.26073724
57	0xbe0ff3a1	-0.14057781
58	0xbe148d79	-0.14507093
59	0xbe99ea2b	-0.30061468
60	0xbe755219	-0.23957099
61	0xbe8d740e	-0.27627605
62	0xbe3a9cd5	-0.18223889
63	0xbe44745d	-0.19185014
64	0x3c06044a	0.0081797335
65	0xbe43112a	-0.19049516
66	0xbe8fa2ee	-0.28053993
67	0xbe71bc1d	-0.23606916
68	0xbe287865	-0.16452177
69	0xbe798d11	-0.24370219
70	0xbe16f6ce	-0.14742586
71	0xbe5708e3	-0.20999484
72	0xbdf8b942	-0.1214471
73	0xbe193da2	-0.14964917
74	0xbe594352	-0.21217087
75	0xbe96b8d6	-0.29437894
76	0xbe480785	-0.19534118
77	0xbd99b8a8	-0.075059235
78	0xbe06493f	-0.13113879
79	0x3d229858	0.039696068
80	0xbe842d8b	-0.25815997
81	0xbe4049d0	-0.18778157
82	0xbe03195f	-0.12802647
83	0xbe6cf5cf	-0.23140644
84	0xbe8a213d	-0.26978484
85	0xbe2a3fc9	-0.16625895
86	0xbe7c97a8	-0.24667227
87	0xbe724522	-0.23659185
88	0xbe597380	-0.21235466
89	0xbe81a9f3	-0.25324973
90	0xbe695c50	-0.2278912
91	0xbe1c0000	-0.15234375
92	0xbe17db98	-0.14829862
93	0xbe9ca3e4	-0.3059379
94	0xbc5ef77d	-0.0136088105
95	0xbe1af125	-0.15131052
96	0xbe1d7d4a	-0.15379825
97	0xbe039a5c	-0.12851852
98	0xbe4bbc3e	-0.19896027
99	0xbe603a3b	-0.21897213
100	0xbe0b5bb0	-0.13609195
101	0xbe6a3c1e	-0.22874495
102	0xbe5ad630	-0.21370769
103	0xbe4d6a75	-0.20060141
104	0xbe5aa010	-0.21350121
105	0xbe5adbd1	-0.21372916
106	0xbe817ca8	-0.25290418
107	0xbe89fb98	-0.26949763
108	0xbe399300	-0.18122482
109	0xbe82b88a	-0.25531417
110	0xbe87a2ea	-0.2649148
111	0xbe7302fd	-0.23731609
112	0xbe7cf994	-0.24704581
113	0xbe3afe2f	-0.18261026
114	0xbe51bef6	-0.20483002
115	0xbe940bca	-0.28915244
116	0xbe53cc3e	-0.20683381
117	0xbe90d15b	-0.28284726
118	0xbe81dbf5	-0.25363126
119	0xbe1f6160	-0.1556449
120	0xbe788ff6	-0.24273667
121	0xbe84901c	-0.25891197
122	0xbe1658e0	-0.1468234
123	0xbe38732b	-0.18012683
124	0xbd20ed54	-0.039288834
125	0xbe8b745f	-0.27237222
126	0xbd5263d5	-0.05136474
127	0xbe26588a	-0.16244712
128	0xbe4b879d	-0.19875951
129	0xbce42549	-0.02784981
130	0xbe15334f	-0.14570354
131	0xbe8d012c	-0.27539957
132	0xbe50dd09	-0.20396818
133	0xbe764ce6	-0.24052772
134	0xbe7d25a5	-0.24721391
135	0xbe6eacef	-0.23308156
136	0xbe4da4e5	-0.20082434
137	0xbe20f8ae	-0.15719864
138	0xbe87a6f7	-0.26494572
139	0xbe765765	-0.24056776
140	0xbe507609	-0.20357527
141	0xbe3af54f	-0.1825764
142	0xbda06563	-0.07831838
143	0xbe39e2ca	-0.1815292
144	0xbcdd2d75	-0.026999215
145	0xbe86493c	-0.26227748
146	0xbe76fdd7	-0.2412027
147	0xbd992ff2	-0.07479848
148	0xbdebb48f	-0.11509048
149	0xbe7a6c58	-0.24455392
150	0xbe324551	-0.17409255
151	0xbe35d206	-0.17755899
152	0xbdedac71	-0.11605156
153	0xbe6f0642	-0.23342231
154	0xbe80f6f3	-0.25188407
155	0xbe8e7ade	-0.27828115
156	0xbe82e6c2	-0.2556668
157	0xbe28e15c	-0.16492218
158	0xbe7fe8b3	-0.24991111
159	0xbe693f01	-0.2277794
160	0xbe6aa533	-0.22914581
161	0xbd9f62fe	-0.07782553
162	0xbe4dc25f	-0.20093678
163	0xbe88c56c	-0.2671312
164	0xbe942910	-0.28937578
165	0xbe6651c8	-0.22492135
166	0xbe3e82b0	-0.18604541
167	0xbe62bbe6	-0.2214199
168	0xbe6f29e2	-0.23355821
169	0xbdf6f911	-0.120592244
170	0xbe1f7998	-0.15573728
171	0x3b4dc29d	0.0031396516
172	0xbe6bb8d7	-0.2301973
173	0xbe29f64c	-0.16597861
174	0xbdfb23a5	-0.12262658
175	0xbe5f757e	-0.21822163
176	0xbe442385	-0.19154175
177	0xbe184ada	-0.14872304
178	0xbe8b2a7b	-0.27180848
179	0xbe1a1d39	-0.1505021
180	0xbe4b4cac	-0.19853467
181	0xbe504f96	-0.2034286
182	0xbe823b65	-0.2543594
183	0xbe85cd4d	-0.26133195
184	0xbe3485a8	-0.17629111
185	0xbdf470b3	-0.11935558
186	0xbe5a2d79	-0.21306409
187	0xbe09f266	-0.13471374
188	0xbe960607	-0.29301473
189	0xbe16b134	-0.14716035
190	0xbe92400d	-0.28564492
191	0xbe67a790	-0.22622514
192	0xbc97e0d9	-0.018539833
193	0xbe89b1fe	-0.2689361
194	0xbe2dd817	-0.16976963
195	0xbe45c239	-0.19312371
196	0xbe791ac3	-0.24326615
197	0xbe3d84f5	-0.1850775
198	0xbe52276a	-0.20522848
199	0xbe6097e6	-0.21932945
200	0xbe913487	-0.28360388
201	0xbe6cd52b	-0.23128192
202	0xbe1d1c75	-0.15342887
203	0xbe1cc804	-0.15310675
204	0xbe3c7d9c	-0.18407291
205	0x3b86e2fc	0.004116414
206	0xbe4c2d21	-0.1993909
207	0x3d1261ab	0.035737675
208	0xbe941733	-0.2892395
209	0xbe780b8b	-0.24223153
210	0xbe76ff31	-0.24120785
211	0xbe28c87b	-0.16482727
212	0xbe2e0904	-0.16995627
213	0xbe30beb4	-0.17260247
214	0xbe31d1f8	-0.17365253
215	0xbe7d73a1	-0.2475114
216	0xbe6941c8	-0.22779
217	0xbe845d20	-0.258523
218	0xbe9523be	-0.29128832
219	0xbe7b39a4	-0.24533707
220	0xbe33158a	-0.17488685
221	0xbe1bc6e3	-0.15212588
222	0x3c518e0f	0.012790217
223	0xbe8fc396	-0.28078908
224	0xbe764534	-0.24049836
225	0xbe8e5178	-0.2779653
226	0xbe0cf3e8	-0.13764918
227	0xbe0b27df	-0.13589428
228	0xbe7872f5	-0.24262603
229	0xbe70f8da	-0.2353243
230	0xbe517f7a	-0.20458785
231	0xbe6a6439	-0.22889794
232	0xbe4ab5ca	-0.1979591
233	0xbe50e972	-0.20401552
234	0xbe8a851f	-0.27054688
235	0xbe37110b	-0.17877595
236	0xbe0445f0	-0.12917304
237	0xbe1b9126	-0.15192088
238	0xbe5b2686	-0.21401414
239	0xbe8db5a5	-0.27677646
240	0xbe92afd1	-0.28649762
241	0xbe15e33b	-0.14637463
242	0xbe8943af	-0.2680945
243	0xbe30f289	-0.1728002
244	0xbe25e975	-0.16202338
245	0xbe76a75f	-0.24087285
246	0xbe6c79c1	-0.2309332
247	0xbe916464	-0.28396904
248	0xbe879d55	-0.26487222
249	0xbe460ffc	-0.19342035
250	0xbe493cc4	-0.19652086
251	0xbe1e520b	-0.15460984
252	0xbdbb023e	-0.09131287
253	0xbe396334	-0.18104249
254	0xbccfe7bc	-0.025379054
255	0xbe494eeb	-0.19659011

fc3.bias f4 [6]
0	0xbe2dfa6a	-0.16990057
1	0xbdfef20b	-0.1244851
2	0xbe1aa3fb	-0.15101616
3	0xbe573ad4	-0.21018535
4	0xbdf5043e	-0.119637
5	0xbe6f3385	-0.23359497
