dqn_taxi_light64.pth (torch, 45922 bytes, 6 tensors)

fc1.weight f4 [128, 16]
00000000: a675 093f 16ed 733e 68d8 9c3d 8447 e93d
00000010: 1475 183e 2dda 933f 0a97 8f3f 5cd9 6fbe
00000020: fe19 4c3f d13f 903f 28ef 8c3f 1efd 263f
00000030: 98f4 243f 359e 983f a2a0 a93e 88b7 583f
00000040: 1d87 ce3e 59fa 0d3f e834 e53d 9cc0 5dbe
00000050: e8db 98bd 878d 933f 2338 973f f8c9 08bd
00000060: ec09 6e3f 6448 683f 0b0e 9c3f b115 483f
00000070: d1e3 673f c738 ca3f d1ce 843e 7f3c 3a3f
00000080: c2ce 5a3e 0b8a 003f 50e4 34bd badf 38be
00000090: f6cc 3bbe cbde 9b3f f501 843f 0818 02be
000000a0: 9f49 963f 0c0c 843f c6b6 ae3f dd1d e13e
000000b0: 5d80 0c3f b300 9a3f 06ca 0c3f cf1e 123f
000000c0: 34fa acbd aa4b 43be cabb 503e 6c0b d83d
000000d0: 0031 4fbc a0b0 243c c057 e7bd 4024 143d
000000e0: bcad e53d 508b 6dbe 8025 eb3c 3435 5ebe
000000f0: 68c6 49bd a493 93bd 1acb 4ebe 1edc 403e
00000100: 617e 803e afa5 4d3e 602f 833d 1c81 64be
00000110: d675 5ebe 58ae 513f df92 833f 68fc cb3d
00000120: 5a95 723f 95f8 963f 603b c63f 7c4a 1e3f
00000130: 760b 083f f3d4 c43f 9c30 fd3e 3a98 6a3f
00000140: e751 0f3d aac9 1c3e b6ef 493e e06e 77bc
00000150: 00b4 edb9 fe15 ed3c ac52 89bd d8bf 76be
00000160: 80e1 70be 7f88 8e3d 8039 d83c a5f0 be3c
00000170: 7172 1b3c 4e9c 3abe 087c 1a3c f155 1ebe
00000180: e0b0 9d3c 5088 d7bd dcab 16be 50bd 053e
00000190: 123d 3dbe 82e9 33be 486c c5bd b05e 8bbc
000001a0: 7ebb 78be 0826 4abd 6ca9 79be 08d1 be3d
000001b0: ec7b bf3d 6c0e cb3d f40c babd 1681 5b3e
000001c0: f309 183e 1c67 7f3e cc20 303e 9cb9 c9bd
000001d0: a0a2 03be bdc6 493f b052 9d3f 6076 6d3e
000001e0: a982 613f 0171 9a3f 852a 9a3f 502b 123f
000001f0: 91fd f43e 8853 9d3f 416b b63e ef16 6a3f
00000200: 9f5e fb3e 17cd 063f ac99 bcbd 5c84 8f3d
00000210: 6eb5 2c3e 4ed5 913f 6e86 8f3f 7cf4 cdbd
00000220: fe27 9c3f 44c6 883f dbee b83f 5abb 043f
00000230: 3732 3c3f 3950 a33f 4b43 073f 5eb4 773f
00000240: 0449 7e3e 7681 1d3e 6ea6 013e 000d 7fbc
00000250: b07a 823d e255 9c3f 7fc0 923f ea80 1f3e
00000260: 7eff 603f 05a6 833f 26e8 a63f 3d64 153f
00000270: 612c 343f be87 a13f 3d16 e73e 5740 793f
00000280: 67fb 1d3e 7cd7 083f 0461 abbd 80e3 3b3e
00000290: 10c8 a1bd f7a3 873f a167 7a3f 7cbb 61be
000002a0: 378d 6f3f 83e0 823f 2751 b23f 1584 f73e
000002b0: 1568 323f 7e39 983f d2d9 f23e 7f89 3b3f
000002c0: 0004 733b d813 31be 54be e93d d059 e33c
000002d0: ca9b 183e d02f 8bbd 124d 79be 1c1b 3a3e
000002e0: 3cd3 65be 4600 673e 385b 07bd 041d 7a3e
000002f0: 40fb aabc c409 dabd 92d3 3e3e 1c93 c4bd
00000300: da24 213e 658f a13e 08ee 31be 5af2 5fbe
00000310: 80ae 9c3d 3ed7 883f 56fc 8b3f 78a8 0e3e
00000320: 2fc6 863f 4a4e 693f 7e35 ba3f 3505 de3e
00000330: 69b7 573f 8511 9d3f 9a4d 163f f4cc 863f
00000340: c946 e53e d6b3 033f e060 00be 46aa 3e3e
00000350: b87f 94bd f695 413f 6474 7d3f 860c 4dbe
00000360: 058c 873f 03c3 813f fa6c a93f 2e97 2d3f
00000370: 6618 0f3f e73a a53f f860 9b3e 1b34 1d3f
00000380: 12ab ff3e 6d52 993e e66c 3a3e 4c13 bcbd
00000390: 24e4 e1bd f2c2 543f bbe1 913f 504e ab3c
000003a0: 5461 993f 16ca 593f 4e21 cd3f 352c ee3e
000003b0: d553 043f 643d 9f3f eab7 003f 5d9e 193f
000003c0: 8099 6e3e 5712 e43e e459 b03d 40f6 37bd
000003d0: 8854 5e3e 5b15 9c3f 5102 573f 78e3 683e
000003e0: 2bbe 9e3f f0ef 813f 3e0c b73f e0c9 2e3f
000003f0: 947c f63e 28d1 c53f 3e8f e33e 4031 1b3f
0.5369514 0.2382091 0.07658464 0.11390594 0.14888412 1.1550957 1.1217968 -0.2342276
0.7972716 1.1269475 1.1010485 0.65229976 0.6443572 1.1923281 0.33130366 0.84655046
0.40337458 0.55460125 0.11191732 -0.21655506 -0.07463819 1.1527566 1.1814007 -0.033395737
0.9298389 0.9073546 1.2191786 0.781581 0.90581995 1.5798577 0.25939038 0.7274856
0.21367934 0.50210637 -0.04416305 -0.18054095 -0.18339905 1.2177366 1.0313097 -0.1270448
1.1741217 1.0316176 1.3649528 0.43968096 0.54883367 1.2031463 0.54995763 0.5707826
-0.0844616 -0.19071832 0.20384136 0.105490535 -0.01264596 0.010051876 -0.11296034 0.036167383
0.11214778 -0.23197675 0.028704405 -0.21699983 -0.04926148 -0.072058946 -0.20194665 0.18833968
0.2509642 0.20082735 0.064055204 -0.22314876 -0.21724638 0.8190665 1.0279197 0.09960252
0.9475914 1.1794611 1.548687 0.61832404 0.5314249 1.5377487 0.4945115 0.9163853
0.034990218 0.15311304 0.19720349 -0.015102118 -0.00045338273 0.02894115 -0.067052215 -0.2409662
-0.23523521 0.06959628 0.026394606 0.023308108 0.009487734 -0.18223688 0.009428985 -0.15462472
0.01924938 -0.105240464 -0.14713997 0.13060498 -0.18480328 -0.17569545 -0.09639794 -0.017012924
-0.24290273 -0.049352676 -0.24381036 0.09317213 0.09349808 0.0991486 -0.09084502 0.21435961
0.14847545 0.24941677 0.17200011 -0.09849855 -0.12855005 0.78818876 1.2290859 0.23189688
0.88089997 1.2065736 1.2044226 0.5709734 0.47849706 1.2291117 0.35628703 0.91441244
0.49095628 0.5265669 -0.09208998 0.070076674 0.16866085 1.139322 1.12129 -0.10056397
1.2199705 1.0685506 1.4447893 0.51848376 0.7351412 1.2758857 0.52837056 0.96759593
0.24832541 0.15381417 0.12661144 -0.015567064 0.06371057 1.2213709 1.1464995 0.1557652
0.8788985 1.028504 1.3039596 0.58356076 0.70380217 1.261955 0.45134154 0.973638
0.15427934 0.53453803 -0.08368114 0.18348503 -0.07899487 1.0596913 0.97814375 -0.22044176
0.9357485 1.0224766 1.3931016 0.48342958 0.69690067 1.1892545 0.4743181 0.7325668
0.0037081242 -0.17292726 0.11413255 0.027752787 0.14903179 -0.06796229 -0.24345806 0.18174404
-0.22443861 0.22558698 -0.033045977 0.24425131 -0.020871758 -0.10646394 0.18635395 -0.095983714
0.15736714 0.31554714 -0.17375958 -0.21869794 0.07650471 1.0690687 1.0936382 0.13931453
1.0529231 0.91135085 1.4547575 0.43363348 0.84264237 1.2270972 0.5871216 1.0531297
0.44780567 0.5144628 -0.12536955 0.18619642 -0.07250923 0.7561945 0.99005723 -0.20024309
1.0589606 1.0137638 1.3236382 0.67808807 0.55896604 1.29086 0.3034742 0.6140763
0.49935204 0.29945698 0.18205604 -0.09183368 -0.110298425 0.8310996 1.1397012 0.020911366
1.1982827 0.85073984 1.6025789 0.46518102 0.5169042 1.244061 0.5028063 0.6000727
0.23300743 0.44545242 0.08610895 -0.044912577 0.21711934 1.2194017 0.8398791 0.22743022
1.2401785 1.0151348 1.4300611 0.68276787 0.4814192 1.5454454 0.44445223 0.60622025

fc1.bias f4 [128]
00000000: 97e9 d93f a64f ed3f a796 f33f 20e9 b53d
00000010: 8791 fd3f 279c e3bd 3815 b6bd 8fa4 f03f
00000020: 34e0 0240 a576 d83f c488 e83f e074 34be
00000030: 115d 0040 c3be cb3f 9249 fe3f fcda fd3f
00000040: 24a6 f43f 69c1 1e3e b680 43be 50ea e23f
00000050: b352 0440 ac69 dc3f 24e7 0240 2371 f63f
00000060: 70ab ac3d e8ff 78be 48e6 3cbd 66db 1cbe
00000070: eb85 e33f d6e4 d93f 449d cd3f 14ad fb3f
00000080: 0d26 d53f be56 743e 9bbb e33f 7d88 ca3f
00000090: 8169 e23f a889 c73f 3800 13be 0137 d13f
000000a0: 2e71 e63f 0d9f eb3f 991d eb3f a83f da3f
000000b0: 3e5c ef3f d98b 0040 564f 1cbe 5634 34be
000000c0: 57bd f43f 39e5 0240 8e51 e43f ca20 0240
000000d0: 25e4 c73f 7088 8f3d b332 0340 2774 d83f
000000e0: 6e82 21be 4ddb 0040 9591 cb3f d2aa 33be
000000f0: 502e de3f 7603 45be e2fb fb3f b63c 24be
00000100: 8a06 ff3f 16d0 e63f 2bc3 ff3f 39c4 e03f
00000110: ba25 6d3e 8e2a 2cbe 6076 cc3f fcdc ee3f
00000120: 44db ca3f ed5d d23f 90f7 043d a157 0340
00000130: 51f9 d63f dc2f 07be 8afe fb3f d88f f73f
00000140: 2a8a 2dbe 3fe0 d83f ab4a 0340 c2eb 12be
00000150: 0c55 fc3f 1de4 d93f fedd e73f b7ec fe3f
00000160: 9abf d63f 0808 fc3f 1908 0440 800a f63f
00000170: 2ef6 74be 013c ff3f 99c0 fc3f 76be 0140
00000180: 93bf db3f 2904 0340 bc5c b73d c8dc ed3f
00000190: 0ae4 78be b0b8 e13f c226 d83f f828 743d
000001a0: 31b6 da3f 7ee8 47be 1ac3 fa3f bcb6 e93f
000001b0: 6108 d03f d3a1 e33f 1acc e33f 6c33 163e
000001c0: 13a3 f33f febd 743e b92b d23f 011e c73f
000001d0: 599c e33f 9af7 fa3f 465f 263e fa3b 0340
000001e0: 34cb fe3f eda9 f43f 2a1c d63f 5976 fe3f
000001f0: 8c3f ee3d 4659 ce3f 1aec fe3f b4da fa3f
1.7024411 1.8539932 1.903035 0.08882356 1.9810036 -0.11113768 -0.08890766 1.8800219
2.0449343 1.6911207 1.8166738 -0.1762271 2.0056803 1.5917591 1.9866202 1.9832454
1.9113202 0.15503468 -0.19092068 1.7727757 2.0675476 1.7219748 2.0453577 1.9253277
0.084311366 -0.2431637 -0.04611805 -0.15318069 1.7775244 1.702296 1.6063619 1.9662194
1.6652237 0.23861215 1.7791628 1.5822903 1.7688447 1.5588884 -0.14355552 1.6344911
1.800329 1.8407913 1.8368407 1.7050676 1.8700025 2.0085356 -0.1526464 -0.1759809
1.9120282 2.0452406 1.7837389 2.0332513 1.5616499 0.07008445 2.0499694 1.6910447
-0.15772411 2.013385 1.5903803 -0.17545632 1.7357883 -0.19239601 1.9686244 -0.16038784
1.992387 1.8032253 1.9981436 1.7559882 0.23158923 -0.16813108 1.5973625 1.8661189
1.5848165 1.6434914 0.032462656 2.0522234 1.6794835 -0.1320185 1.9687054 1.9340773
-0.16947237 1.6943434 2.0514324 -0.14347747 1.9713454 1.702274 1.8114622 1.991599
1.6777222 1.9689951 2.0629942 1.9221954 -0.23922035 1.9940187 1.9746276 2.0272498
1.7167839 2.047129 0.089532346 1.8583002 -0.2430574 1.7634487 1.6886828 0.059609383
1.708685 -0.19522282 1.959079 1.8258891 1.6252557 1.778376 1.7796662 0.14668053
1.9034141 0.23900601 1.6419593 1.5556031 1.7782089 1.9606812 0.16247281 2.0505357
1.9905763 1.9114357 1.6727345 1.9879867 0.11633214 1.6120994 1.9915802 1.9597993

fc2.weight f4 [64, 128]
00000000: 682b 01bd 6b38 5d3c ca7a 0e3d 0e73 753c
00000010: 98cd b0bd 57c4 b1bd 7cf3 cfbc 69eb a13c
00000020: 92fb 1f3d 806c 16bd 9c21 afbb 283a 9c3d
00000030: be84 71bc 4931 a8bd 8f9c 44bd 61ca 673d
00000040: e1f3 2d3d 1a3c 873d b09a a7bd 6ba4 643d
00000050: 5e92 8ebc 4e22 bdbd bf24 1c3a 9563 913d
00000060: ed4e 963d 255d 91bd 2d0a 483c 4c4f 953c
00000070: 43f6 c43b 86d0 5e3c b14a acbc 789a eaba
00000080: 399f bdbb 7fb0 383d ba8f 963d fbe4 a93c
00000090: 9b10 723d 5b08 6f3d 1a8f 82bc bcc4 a6bd
000000a0: 47ac cf3c c3fc 8b3d 7d2f a2bd 9eeb 83bd
000000b0: e3a2 213c 0e2d 693d 208a be3c dfb6 94bd
000000c0: 64d7 2abd 5ad5 683c 4a79 5bbc 4f2b 56bd
000000d0: d84d 6dbc e3c4 9bbc f6f4 b03c 6745 9e3d
000000e0: 8b7d 9abd adb6 60bd d797 0dbd b289 853b
000000f0: f95c 82bc 353e d6bb f083 9abd f682 a7bd
00000100: 4a37 94bc 34b1 4e3d bb26 8dbc ed9e 63bd
00000110: 461a 0f3c dd1a aebc 6c7e 7c3d c519 9bbd
00000120: 1d82 513d 686e 91bd 2edd 113d 1516 d4bc
00000130: f8ab 9f3d fe24 63bd 73e2 98bd 2580 90bc
00000140: c832 45bd c89f 8a3c 01d3 08bc 22c2 76bd
00000150: 25b0 a53c 5e5a 9c3d 51a3 643c 9003 79bd
00000160: fb2d b33b 8944 5abc 464c 363d c3cd 81bd
00000170: bc49 683c 2924 44bd 96c1 41bd 6197 14bc
00000180: ca2a 703c bd12 b23b 1eae 153c 21d2 b9ba
00000190: 75cc d43c c1e9 763d 8f94 b2bd 0abc 4b3d
000001a0: 320d d2bc 89da babc eff8 6d3d f6d2 af3b
000001b0: 643e 7fbd 9cf6 493d 4c60 a3bd 0bd9 663d
000001c0: 7220 903c cca2 1cbd 9a55 8ebd d6eb ffbc
000001d0: 31f4 fc3c 56f7 efbb a9ea a2bd a044 4ebc
000001e0: cee8 76bb 3dc0 1dbb 646b a4bd 1672 24bd
000001f0: 6d1a 833d 3afc f1bc 7fd9 503c 1960 82bd
00000200: 17ee 50bc 1209 cabc 0c78 91bd 18b1 6abc
00000210: d8ae 503c ccfb dfbc daf0 713d 301e 97bd
00000220: ee77 4e3d 7731 603d 5f19 9bbc 1bde ac3d
00000230: 05e5 633d 454f 7ebd b0e5 a33d 6f72 793d
00000240: 46b8 5e3c f238 a0bd 475c 653d d93f c63c
00000250: 4286 50bd 330f c23b 481b 6b3d 9606 9abc
00000260: 7b0c 3ebc df56 603d 2fbe 90bc 4487 53bd
00000270: f344 3dbd 02b9 723a e71e 9cbc 60f5 f73c
00000280: 6cc3 66bd db6d 1cbd a10d 8fbd 1497 d03c
00000290: 5cb2 623b b823 843d a9c6 7bbd dc07 f03c
000002a0: a654 14bc f9d2 12bc 96cc 9e3d ad95 7dbd
000002b0: 11d7 41bd 2510 193b b141 16bd c834 2cbd
000002c0: 70f8 4bbd f75b 89bd a32d 123c 7b6d 0cbd
000002d0: 2342 b7bc deb5 f73b 6c26 b8bd 8b16 99bd
000002e0: d77d 9c39 9637 8ebc 5354 e1bc 1864 103c
000002f0: 9345 343d f786 963d 43b0 373d 9686 543d
00000300: 8ccf 81bd 83b0 e73c ac57 a53a bd15 89bd
00000310: 61d1 09bd 428c 95bd 3ab6 fa3b 714e 183c
00000320: cd41 94bd 530b 8f3c 3bfa a83d ef8c 433d
00000330: 7f80 253d 92f9 47bd 9bce 43bd dd6e f2bc
00000340: a94f 8c3d 877e 9a3d 4675 87bc 1fad 78bd
00000350: 096c b1bb 5512 6d3d 6f89 663d 932c 343c
00000360: cecc 54bd 4981 fb3c 4d25 43bb 385e cf3b
00000370: 5fef 8c3c 55ef b03d 0946 a3bd ae48 3ebd
00000380: 6d49 c43c 28cd 703d 526d 8e3d a714 26bc
00000390: 9a86 c43c 74f4 2d3d 2409 36bd d952 8a3c
000003a0: a7a6 653c ce13 88bd c01b 39bd 3aed 35bd
000003b0: db9e 64bd 750f a63d 9a16 ab3c 43f9 10bd
000003c0: 1fe5 fbbc 5c61 f43b f087 c43c 3e78 a0bd
000003d0: 0b6b bfbc 2c72 c0bc 927c af3d 154a 913d
000003e0: d293 153c 90bc 413d 5cc5 983d fd5e cd3c
000003f0: dcae 9abd 8d04 9c3c 87c0 03bd 050c db3c
-0.031535536 0.013502221 0.03478507 0.014981044 -0.08632964 -0.08680027 -0.025384657 0.019765573
0.039058276 -0.036724567 -0.0053445827 0.0762828 -0.014741121 -0.082125254 -0.04800087 0.056589488
0.04246891 0.0660326 -0.08183801 0.055820864 -0.017403778 -0.09235059 0.00059564033 0.07099072
0.07339273 -0.07097844 0.012209457 0.018226288 0.006010802 0.013599521 -0.02103171 -0.0017898818
-0.005786803 0.045090195 0.073516324 0.02073907 0.059097867 0.058357578 -0.015937377 -0.08142993
0.025350703 0.0683532 -0.07919214 -0.06441425 0.009865495 0.056927733 0.023259223 -0.072614424
-0.04170932 0.014211023 -0.013395617 -0.052287396 -0.014483891 -0.019014781 0.021601181 0.07728081
-0.07543477 -0.054861713 -0.034568634 0.0040752525 -0.015913473 -0.0065381774 -0.07544696 -0.08179276
-0.01809277 0.050461963 -0.017230382 -0.055571485 0.008734291 -0.021253044 0.061644003 -0.075732745
0.051149476 -0.071011364 0.035611324 -0.025889436 0.07796472 -0.0554552 -0.07465067 -0.01763923
-0.048144132 0.016921893 -0.0083510885 -0.060243733 0.020225594 0.07634424 0.013954953 -0.060794413
0.005468128 -0.013322004 0.044506334 -0.06338074 0.014177736 -0.047886048 -0.04730376 -0.009069295
0.014658639 0.0054343627 0.009135751 -0.0014177003 0.025976399 0.06028152 -0.087197416 0.049739875
-0.025641058 -0.022809284 0.05809873 0.0053657247 -0.06231536 0.04930745 -0.079773515 0.056359332
0.017593596 -0.038241193 -0.06949921 -0.031240385 0.030878158 -0.007323186 -0.07954914 -0.012589604
-0.0037675384 -0.0024070882 -0.08028296 -0.040147863 0.06401525 -0.029539216 0.012747168 -0.063659854
-0.012752078 -0.024662528 -0.07102975 -0.014324449 0.0127369985 -0.027341746 0.059067585 -0.07378805
0.050407343 0.054734673 -0.018932996 0.08440801 0.055638332 -0.062087316 0.08002794 0.060900148
0.013593739 -0.078233615 0.055996206 0.024200367 -0.05090929 0.005922222 0.057399064 -0.018801969
-0.011599655 0.054770347 -0.017668812 -0.05164267 -0.046208333 0.00092591357 -0.019057704 0.030268371
-0.056338713 -0.038190704 -0.069850214 0.025462665 0.0034591174 0.06452125 -0.061468754 0.029300623
-0.009053385 -0.008961433 0.077538654 -0.06191032 -0.047324244 0.002335557 -0.036683742 -0.042042524
-0.049797475 -0.06706994 0.008922013 -0.034284096 -0.022370404 0.007559522 -0.089917034 -0.07475003
0.00029848397 -0.01736049 -0.02750603 0.008812927 0.044011664 0.07349961 0.04484583 0.051886164
-0.063384145 0.02828241 0.0012614629 -0.066935994 -0.033646945 -0.07302143 0.0076511176 0.009296046
-0.07239113 0.017461454 0.08250853 0.047741827 0.040405747 -0.048821993 -0.047804456 -0.02959388
0.068511315 0.075436644 -0.016535413 -0.060711976 -0.00541449 0.05787881 0.05628341 0.010996955
-0.05195313 0.030701296 -0.0029776872 0.0063283704 0.017203985 0.08639399 -0.079723425 -0.04645603
0.023960793 0.058789402 0.06954445 -0.01013676 0.023989964 0.042469457 -0.04444231 0.016885208
0.014016784 -0.066444024 -0.04519248 -0.04441569 -0.05581556 0.08108417 0.0208848 -0.035393964
-0.030748902 0.007457895 0.023990601 -0.078354344 -0.023366472 -0.023491941 0.08568682 0.07094208
0.009129481 0.047298968 0.07459518 0.025069708 -0.07552883 0.019045139 -0.03216603 0.02673913

fc2.bias f4 [64]
00000000: 70a1 14bc 04b3 943c c64f bd3f bb23 b23f
00000010: c2ac e1bb 1934 bc3f 3bd4 913b c0b2 cc3f
00000020: 8d74 d13f cbad b13c a58a c13f 0306 29bd
00000030: cbf0 bdbd 80e6 c23f 567f 063d e7a1 013d
00000040: 2ec3 be3f cb17 c63f 4792 2cbd 4157 b63c
00000050: 30e3 9abd 815a be3f 47fb bd3f eba7 b03f
00000060: 34d3 ce3c 3b47 583d 5107 a4bd 9d26 c53f
00000070: 27c3 dabb f6ba 843d 65ad a33d 8296 f23c
00000080: 20c6 5a3c fd5f abbd e926 b73f af0d cb3f
00000090: 20ac a53c d76e e9bc 8333 523d 37c3 2d3d
000000a0: fa52 b73f dfc6 53bd decc 29bc b8ac 01bd
000000b0: 59e9 813d 7f92 bf3f 56ec 45bd e081 e1bc
000000c0: ea7c cabc 47ee 9f3d 6134 703d 04ef c03f
000000d0: 23c2 1fbd fe3c 58bd 2f3b a0bd cb04 a73d
000000e0: 03d4 c83f 455a c4bd f5d9 3b3d ce4a d03f
000000f0: 1854 c83f a46f 883d 4f76 87bd a600 b0bd
-0.009071693 0.018151768 1.478997 1.3917154 -0.0068870494 1.4703399 0.0044503487 1.599205
1.6363693 0.021689316 1.5120436 -0.0412655 -0.09274443 1.5226593 0.03283628 0.031648543
1.4903314 1.5476011 -0.04213169 0.022258403 -0.07562864 1.487137 1.4842309 1.3801244
0.025247194 0.052802306 -0.08009208 1.5402409 -0.006676096 0.064809725 0.07992057 0.029612783
0.013352901 -0.08367918 1.430875 1.5863551 0.020223677 -0.028495235 0.051318657 0.0424225
1.4322197 -0.05170333 -0.010363786 -0.031658858 0.06343336 1.4966582 -0.04832109 -0.02752775
-0.024717767 0.0780912 0.058643702 1.5072942 -0.039003503 -0.05279254 -0.078237884 0.08155211
1.5689701 -0.0958753 0.045862157 1.6272829 1.5650663 0.06661919 -0.066143624 -0.08593874

fc3.weight f4 [6, 64]
00000000: 4d71 e03d bdb1 863d 94af 13bf 1d9b f3be
00000010: 0188 a13d e102 00bf b434 dd3d 69a3 fdbe
00000020: 18b6 33bf fcb6 593d 71c1 35bf ac52 08bd
00000030: 0898 3fbd eb51 33bf 8651 ebbd 61db 0a3d
00000040: 22c6 32bf c9f4 13bf c1f8 f3bd 8cd9 15bd
00000050: 363a d3bd 35a7 26bf 92e2 22bf 67c0 19bf
00000060: 11ec 85b9 bdf1 cabd d049 b8bd 657f 12bf
00000070: c0fe e43c 2eb7 bfba 1416 973d 673a b33d
00000080: 12ac 933d ae73 a8bd 2a68 33bf 75dc f8be
00000090: c4c3 003d 613e ff3d 28db 9fbc 05e0 243d
000000a0: ca53 00bf 20f9 473d 2aad f23d 221d bebd
000000b0: 0894 e43d 9af4 11bf 59f5 623c 00a2 e7bb
000000c0: 84ae 65bc f686 a53d 1d63 f7bd a791 17bf
000000d0: 133b ef3d 7610 3e3c 8954 3abc a07a b33d
000000e0: b62a 03bf 3bc8 05be dc2a a4bd d3fe 1abf
000000f0: 3297 f5be 8121 63b9 b11f 973d e102 7dbd
00000100: 1966 18bd 365b dd3d a5e9 0fbf 7e1d 28bf
00000110: 0ce2 d43d ca8d 24bf d837 493d 5ffa f6be
00000120: 2125 23bf f24f a1bd cb4d 16bf 3a01 e23d
00000130: 7887 8a3d dab3 24bf 766c bdbd 3db9 8bbd
00000140: 4a79 09bf 6b13 25bf f30b e73b c0b2 963d
00000150: 0a13 d23d 27c2 2dbf a50b fbbe f863 03bf
00000160: 4855 cebd eb50 04be 7699 8f3d aead 25bf
00000170: b97b e73d 0b81 eb3d a8b0 223d d194 f6bd
00000180: f8f4 b1bd 5ab6 d9bd 808b f5be 39ea 06bf
00000190: 0160 9a3d 6570 1dbd 00cc d3bc 7b5e 34bc
000001a0: c7ac 2abf d4b1 d3bd 3ced b4bc 981f 913c
000001b0: 0e31 c2bd 139b dfbe 5852 8cbd d2a1 b3bd
000001c0: 8f8e 073d 6191 5f3d a820 5c3d 1a6e 1fbf
000001d0: 899b b73c 3989 e03d 5c98 553d 3c1c 763d
000001e0: da97 25bf 1acd 97bd dc31 c6bc ad7f 14bf
000001f0: 7cfe 2abf 1009 a9bc 5581 65bd a31c acbd
00000200: ef45 b83b e0dc 863b 599f 03bf 1c22 f9be
00000210: dac9 0dbe c40b 08bf 2270 febd 5f02 1bbf
00000220: feba 0bbf c409 593d 24ec 10bf 7a85 d0bc
00000230: 9d83 7d3c 9948 0ebf 5443 43bd e7bc fabd
00000240: 5a37 22bf 654a 2fbf a264 2a3d 2034 8f3d
00000250: 80d5 cabb 63de 17bf 0035 34bf cf74 2fbf
00000260: ded2 ab3d 89cd 923d 5474 313d c043 1ebf
00000270: 9cbe 923d 4ecd cbbd 482d 38bd 3ace e2bd
00000280: 8061 bb3a f036 c6bd 8fa9 1ebf c7da 0abf
00000290: fc49 843d 7725 783d 786c 3f3d 045c f73d
000002a0: 8063 05bf 20ad bfbc 63e8 e63c da9d 89bd
000002b0: 6c55 62bd 7128 09bf fa7a cd3d b4f2 e2bd
000002c0: 3638 c13d d8e0 723b 1442 443d 9bc3 26bf
000002d0: 9441 01be 42d8 4ebd b11c 83bd 3d2c ba3c
000002e0: 54e7 20bf 3a2f 593d 1efc d63d 7941 1dbf
000002f0: 4007 04bf 7018 ab3c b42d d83c 92c1 6ebd
00000300: 6782 4c3d 8420 9fbd cf9a 0ebf c198 0bbf
00000310: db43 6b3d c276 15bf bc40 603d 8355 2bbf
00000320: 6d04 25bf 78cd 523d f076 1bbf 4dca dc3d
00000330: 0ad4 383d 3c9d 17bf 2cab 213d 16b4 603d
00000340: 40e2 0fbf c34f 10bf 2de3 4fbd 74cd 2c3d
00000350: 580c 6ebd 98fe 22bf c41b 23bf 9bc9 f2be
00000360: 527c 07bd 1890 003d c609 a2bd 05cb 18bf
00000370: b0ff 15bd 87bd 803d 331d d43d 1fbb 73bd
00000380: 7edc cdbd 8055 3d3c 22f0 debe 45a8 13bf
00000390: 2870 4dbd 2126 bb3d c073 0b3c 6c56 d4bd
000003a0: 4f7d f7be 025c ecbd fb85 a63d 8862 bcbd
000003b0: fa1b ec3d df20 30bf 72da b9bd b0d0 0e3c
000003c0: 867f 5cbc 2b21 a4bc 9629 86bd cb9a 26bf
000003d0: 6d2a dd3d 00e5 a8bd 57d0 aebd 809b 49bd
000003e0: c2ef febe 5de0 ba3d 6bc6 d83d 0a89 32bf
000003f0: e6e6 23bf 7e40 e93d 2f00 da3d a1f1 363d
0.109591104 0.0657687 -0.57689786 -0.4757928 0.07887269 -0.5000439 0.10801068 -0.49538735
-0.7019973 0.053153023 -0.70998293 -0.033281967 -0.046775848 -0.7004687 -0.11490159 0.033900622
-0.69833577 -0.5779539 -0.119126804 -0.036584422 -0.10313837 -0.6509889 -0.6362697 -0.6005921
-0.0002554362 -0.09909389 -0.089984536 -0.5722564 0.027953506 -0.0014626735 0.07377258 0.08751374
0.07210554 -0.08225189 -0.70080817 -0.48605695 0.031436697 0.1246307 -0.019513682 0.040252704
-0.5012785 0.04882157 0.11849435 -0.092829004 0.11161047 -0.5701386 0.013852441 -0.0070688725
-0.014018659 0.080823824 -0.12079451 -0.5920662 0.116811894 0.011600604 -0.011372694 0.08763623
-0.51237047 -0.13064663 -0.08015987 -0.6054508 -0.47966915 -0.00021660888 0.073790915 -0.061770324
-0.037206743 0.10808413 -0.5621589 -0.6567 0.103946775 -0.6427885 0.049125522 -0.48237893
-0.6372853 -0.078765765 -0.5871245 0.1103539 0.0676412 -0.6433693 -0.09249203 -0.06822441
-0.537007 -0.64482754 0.007050985 0.073583126 0.10257538 -0.6787438 -0.49032322 -0.51324415
-0.1007486 -0.12921493 0.07011692 -0.6471814 0.11302895 0.11499222 0.039719254 -0.12040103
-0.08689302 -0.10630484 -0.47957993 -0.52701145 0.075378425 -0.038437266 -0.02585411 -0.011008854
-0.6666989 -0.103366524 -0.022085778 0.01771526 -0.09482013 -0.43673 -0.06851643 -0.08771099
0.03309494 0.054582004 0.05374208 -0.62277377 0.022413032 0.10963673 0.052147254 0.06008552
-0.6468483 -0.07412167 -0.024193697 -0.5800732 -0.6679456 -0.020634204 -0.056031544 -0.084038995
0.005623571 0.004115686 -0.5141502 -0.48658836 -0.13846532 -0.5314295 -0.124237314 -0.60550493
-0.545822 0.05298783 -0.5661032 -0.025454272 0.015473274 -0.55579525 -0.04767163 -0.122430615
-0.6336571 -0.6847289 0.041599877 0.06992364 -0.006190002 -0.5932371 -0.7039337 -0.6853761
0.08389829 0.07168109 0.04332383 -0.6182213 0.07165262 -0.09951268 -0.04496506 -0.11074491
0.0014296025 -0.09678447 -0.61977476 -0.5424008 0.06459424 0.060582604 0.046734303 0.120780975
-0.5210495 -0.023397982 0.028186982 -0.06719561 -0.055257246 -0.53577334 0.100332215 -0.11081448
0.094345495 0.0037060287 0.04791458 -0.6514222 -0.12622672 -0.05049921 -0.06401957 0.022726173
-0.6285298 0.053023554 0.10497306 -0.6142803 -0.5157356 0.020885676 0.02638898 -0.05829007
0.04992905 -0.07769874 -0.5570497 -0.5452996 0.05743776 -0.58384335 0.054749236 -0.66927356
-0.6445988 0.05146548 -0.6072836 0.10780773 0.04512409 -0.59224296 0.039469883 0.054859243
-0.56204605 -0.56371707 -0.05075376 0.042188123 -0.05811724 -0.6366973 -0.6371424 -0.47419438
-0.033077545 0.03138742 -0.079120204 -0.59684783 -0.036620796 0.062861495 0.10357132 -0.059504624
-0.10051821 0.011556029 -0.43542582 -0.57678634 -0.05015579 0.09138132 0.008511484 -0.10368046
-0.4833779 -0.115409866 0.081310235 -0.09198481 0.115287736 -0.6880016 -0.09074868 0.008716747
-0.013458138 -0.020035347 -0.06550901 -0.65079945 0.10799108 -0.08246803 -0.085358314 -0.049220562
-0.49792296 0.09124825 0.1058472 -0.69740355 -0.640242 0.11389254 0.10644566 0.04466403

fc3.bias f4 [6]
00000000: 44aa 03bf ca76 43bf eeb6 d4be cdda 41bf
00000010: b43d 3abf 99d4 18bf
-0.5143168 -0.7635313 -0.41545814 -0.7572449 -0.727504 -0.596994
