dqn_taxi_light64.pth (torch, 43362 bytes, 6 tensors)

fc1.weight f4 [64, 16]
00000000: eed4 ed3e e2b7 463e 0aef 343e 1da2 e5bd
00000010: 3257 15bd 1e73 803f 43b1 413f 6419 05be
00000020: e767 5d3f 7f0f 493f 7da2 c53f dd6b f03e
00000030: c545 a03e 6180 a93f 1bbf 40bd bb88 363f
00000040: 0f2b 433b 155e 62be 6add c8bd 1b4a 363d
00000050: 40cc 0fbe 7829 cbbd 7e0a 71be a64d 93bd
00000060: c8b4 f33d b1d8 afbd ec12 493e fa3c dfbd
00000070: a675 5dba f30d 64be 1c36 ec3d 86ab ac3c
00000080: ae80 413d ad30 2bbc 6fc9 933c dcdb bebd
00000090: 5b24 3f3e d3ac 8fbd 76c7 8fbd f4ee ae3d
000000a0: 48ad 9a3c 8cf6 a2bd c732 f6bc b882 a63d
000000b0: 1f1a cbbd 3aa1 093e c4c5 043e 7b94 d5bd
000000c0: 76be ee3e 3689 f83e 9821 593e ba30 293e
000000d0: d80b 793c 668a 8e3f 8d73 973f f9fd 3fbe
000000e0: 9017 a23f 2908 783f 32bd b13f 7b99 e23e
000000f0: 878e 273f af64 b33f d8a4 2a3e 3e96 ed3e
00000100: 52d0 ebbd 5153 64be ce59 6ebe 0881 023e
00000110: 56ba dcbc ff7e 403e 5c63 a43d 5781 1dbe
00000120: b5f2 76be 4472 0abe 16b7 2dbe 2b12 3fbe
00000130: c3a1 ceba 6d7d 56be 4514 d5bd c475 013e
00000140: 107a 9bbd 81cc 293e 7544 d9bd f103 323e
00000150: 39d0 63be 0b76 26bd 499e 013d f020 4e3e
00000160: 7f98 09be 8f7b 64be da21 c1bd 5f38 b3bc
00000170: 7114 643e 899e b4bd e4c6 ecbd f6b7 2cbd
00000180: e3df 2dbe 5088 503e a5d6 1f3e 362c a4bd
00000190: b4ca 033e 7ac2 68be 91ea 7bbd f012 263e
000001a0: d56c 153e 899a 46be b2f4 40be b632 0fbe
000001b0: 636f 4fbe f2fa debc d0db 2bbe 9247 32bd
000001c0: b453 153c 77ba 79bd 6739 acbc a708 923d
000001d0: 5048 193e 9d59 7a3c 1859 ccbc 89a7 80bd
000001e0: 9833 a23c bd8d a3bd cbd9 273c 923f 583e
000001f0: fd4c d63d dc8b 69be 25a3 89bc 8820 f5bc
00000200: d87f cc3d e73b 23be 115f d63d ee5b 20bd
00000210: 90ab 303e fb9f 07be 92c2 00be 5458 1e3e
00000220: 509e 63bd 7659 c33d 2c82 cf3d 3ba2 143e
00000230: 10b0 0ebe e10e 5dbe 9742 d13c 856b 29be
00000240: 4b5a 893e a337 263f 8d67 2a3e f8b8 4b3d
00000250: 5990 b9bd 83ff 713f cd7c 953f 9377 12bd
00000260: ae1c 553f de85 813f 2618 a13f 8eac f93e
00000270: 482e 4c3f 3c74 a23f a615 0a3f 4691 413f
00000280: 221c fd3d 0040 48bd 4e7b 48be a8b4 c8bd
00000290: 865c 03be 9f02 03be 9eac 3b3b 7695 cc3d
000002a0: ed22 78be c110 07be 0934 d7bd 4680 3e3e
000002b0: c3c5 0fbe 0877 0c3d ed4d 713e 6734 5b3e
000002c0: 3315 053f f5da ce3e 27c6 ae3d 610d 4a3e
000002d0: cb40 253e 6fdb 5d3f 3985 a03f 8de0 493e
000002e0: 5a62 4c3f 7c22 a13f 8290 a23f d7cc 1c3f
000002f0: a74c 263f 3d00 8e3f 5e35 bf3e 27b6 3e3f
00000300: fb85 acbd 052b 6d3e ae16 363d 2696 a73d
00000310: b65e 723e f01a 9abc 9ca0 40be 08a7 343d
00000320: bf24 46be 68ea 823b a56c c43d 19e7 313e
00000330: bfb6 1d3e d895 ccbd 6878 91bd c95d 6c3e
00000340: b351 55be 64c4 febd 7e1c 45bd a680 93bb
00000350: 0f33 e53d bc20 a93d 6646 9cbd 0c25 64bd
00000360: 7845 5bbe ca5b 2d3e 7d72 49bd 45e9 23be
00000370: d64f 9d3d ce04 68be ecb3 5ebd f7d7 31be
00000380: 1548 003f b779 9b3e 7d68 1dbe 19f2 44be
00000390: c397 3dbe 5295 993f 39b4 813f bb00 da3d
000003a0: 8df6 7c3f 7352 933f 6662 a03f 341f 1e3f
000003b0: 95c8 293f 0be3 bc3f d295 b13e b4e6 113f
000003c0: 4949 6b3e 1651 2c3f de52 8bbd 82d1 96bd
000003d0: 8e9d 63be b68a 5d3f 7260 9a3f 9fe9 533e
000003e0: f84a 8a3f f14d 853f 052c b93f eac4 513f
000003f0: 906f 0c3f f26d a63f 7972 8b3d 4d6a c53e
0.46451515 0.19406083 0.17669311 -0.11212561 -0.03646011 1.0035131 0.75661105 -0.12997967
0.8648667 0.7853927 1.5440212 0.46957293 0.3130323 1.3242303 -0.047057252 0.71302384
0.0029780304 -0.22106202 -0.098078564 0.044504266 -0.14042759 -0.09920019 -0.23539159 -0.07192545
0.11899716 -0.085862525 0.19636124 -0.10900302 -0.0008448012 -0.22270946 0.11533758 0.021077882
0.04724186 -0.010448617 0.018040387 -0.093192786 0.18666212 -0.070153855 -0.07020466 0.085416704
0.018881455 -0.07957181 -0.03005351 0.081304014 -0.099170916 0.1344041 0.12966067 -0.10428711
0.46629685 0.48542184 0.21204221 0.16522494 0.015200578 1.1135986 1.1832138 -0.18749227
1.2663441 0.9688745 1.3885863 0.4425772 0.65451854 1.4015101 0.16664445 0.46403688
-0.11514343 -0.22297408 -0.23276445 0.12744534 -0.02694432 0.18798445 0.08026764 -0.1538137
-0.24116023 -0.13520151 -0.16964373 -0.18659274 -0.0015764761 -0.20946284 -0.10404257 0.1264258
-0.07591641 0.16581918 -0.1060876 0.17384316 -0.222474 -0.04063992 0.031645093 0.20129752
-0.13437079 -0.22312759 -0.09430285 -0.021877466 0.22273423 -0.08819301 -0.11561373 -0.042167626
-0.16979937 0.20364499 0.15609224 -0.08016245 0.12870294 -0.22730437 -0.061502997 0.16218162
0.14592297 -0.19394888 -0.18843344 -0.13984188 -0.20257334 -0.02721927 -0.1678307 -0.043525286
0.009114195 -0.060968842 -0.021023465 0.071305566 0.14968991 0.0152801545 -0.024944827 -0.06281955
0.019799992 -0.07986019 0.010244797 0.21118 0.10463903 -0.22807258 -0.016801426 -0.029922739
0.09985322 -0.1594082 0.10467351 -0.03915017 0.17252946 -0.13244621 -0.12574223 0.15463382
-0.0555709 0.09538548 0.1013225 0.14515011 -0.1393435 -0.21587707 0.025544448 -0.16544922
0.268267 0.64928645 0.16641064 0.049736947 -0.09060735 0.94530505 1.1678711 -0.035758566
0.83246887 1.0118978 1.2585495 0.4876446 0.7975812 1.2691722 0.5393928 0.75612295
0.123588815 -0.04888916 -0.19578287 -0.098000824 -0.12828264 -0.12793969 0.0028636823 0.09989445
-0.24232073 -0.13189985 -0.10507972 0.1860362 -0.14040284 0.034293205 0.23564883 0.21406709
0.5198547 0.40401426 0.08533888 0.19731666 0.16137998 0.86662954 1.2540656 0.19714566
0.7983757 1.2588649 1.270035 0.6125006 0.6496071 1.1093823 0.37345403 0.7449669
-0.08423992 0.23160942 0.044455223 0.081829354 0.23668942 -0.018811673 -0.18811268 0.044104606
-0.19349955 0.0039952286 0.09591035 0.17373313 0.15401743 -0.09989518 -0.07103044 0.23082651
-0.20831947 -0.12439802 -0.048122875 -0.00450142 0.11191379 0.08258197 -0.07630615 -0.055699393
-0.21413219 0.16929546 -0.04918145 -0.16006954 0.07681243 -0.22658083 -0.054370806 -0.1736754
0.5010999 0.303663 -0.1537189 -0.19232978 -0.18514924 1.1998694 1.0133125 0.106446706
0.98813707 1.1509537 1.2530029 0.6176636 0.6632169 1.4756788 0.34684616 0.5699265
0.22977175 0.6731123 -0.06802915 -0.07364179 -0.22228071 0.8653978 1.2060683 0.20694588
1.0804129 1.0414411 1.4466559 0.8194109 0.5485773 1.3002303 0.06808943 0.38557664

fc1.bias f4 [64]
00000000: 95ce af3f 77dc 0a3e f391 3c3d 080e c23f
00000010: 566f a63d 31a0 46be 9f2b aabd e1fe 08be
00000020: 0e83 dc3d 96bf c33f 72e0 1fbe e66b a63f
00000030: 8bb7 1abe ab48 713e 61e3 933f 64ed be3f
00000040: e169 8e3f dcf4 f83d 9c62 a23f 1a2d 983f
00000050: be55 42be 3a2b af3f 7837 bb3f 51ac a93d
00000060: 6d7a 8b3f f277 a73f 379b 9f3f 92df b33f
00000070: 40af be3f b4a5 bd3f 8672 a03f 0c87 cebd
00000080: 0c10 a0bd b699 bd3f 9ad0 8e3f 1a7a bf3f
00000090: 4a19 983f ee4e 6bbe 9a70 dc3c 511e ad3f
000000a0: f55b a33f 756d d7ba 5107 d2bd 8a42 a33f
000000b0: a33f 8b3f d0ff bd3f a6aa 153d 9f2d 923f
000000c0: ed00 be3f 8b8c 15bd a72d 973f e6c8 8b3f
000000d0: 76ff ac3f 34d1 993f d87e b53f 4ccb abbc
000000e0: 4ff8 1abc 9d8a 913f 64d7 1cbd 4c71 af3f
000000f0: 43f6 b13f a8e1 a53f 206a 8f3f ac53 8b3f
1.3734919 0.13560663 0.046037626 1.5160532 0.081267044 -0.19397046 -0.08309101 -0.13378479
0.10767184 1.5292842 -0.15612963 1.3001678 -0.15109079 0.23562877 1.1553766 1.4916196
1.1126062 0.12156078 1.2686343 1.1888764 -0.1897802 1.3685067 1.4626303 0.0828482
1.0896736 1.308348 1.2469243 1.4052603 1.4897232 1.4816194 1.253495 -0.10084352
-0.07815561 1.4812534 1.115741 1.4959137 1.1882718 -0.22979328 0.026909161 1.3524877
1.2762438 -0.0016435819 -0.10255302 1.2754681 1.0878795 1.4843693 0.036539696 1.1420172
1.4844033 -0.036510985 1.1810807 1.0920684 1.351546 1.2016969 1.4179335 -0.020970963
-0.009458615 1.1370426 -0.03829135 1.370645 1.3903278 1.295949 1.1204262 1.088491

fc2.weight f4 [128, 64]
00000000: a82b 983d 64cc 043d d33f ddbc 68b3 3d3d
00000010: 9aff 80bd 0f46 d53d cc89 0c3d 6c11 2dbc
00000020: 8c7c dfbc 6732 9bbd 43ed 3b3c e702 51bd
00000030: 979b ca3d 6e19 a2bc c76a f8bd 80f0 763d
00000040: 2d13 f7bc 6e05 723d 2fde 483d c63a 1a3b
00000050: f965 88bc 3aeb ed3d 48e2 f73c f3c5 d43c
00000060: ce5e 6ebd 1458 68bd 3513 e23d 0e5c c63d
00000070: be0a a1bd df5f 56bd aa01 69bd 167b 823b
00000080: ddf7 acbd 09cc 51bd 98e5 5e3d 8601 ccbd
00000090: 8057 703d dbf0 e1bc b54f 983d f992 a53d
000000a0: 61c8 4bbd da74 f33c 256f 623d 4914 c9bc
000000b0: ea9c f03d 7cc0 913c e4e1 e8bc 072c 4e3d
000000c0: 68d0 5d3b daf2 9cbd 0bef c2bd 2917 cabc
000000d0: 628b 97bd f54f a7bc fbae c7bd b32e 56bd
000000e0: 838a 283d b6e4 eb3d deb9 c93d 277b c73d
000000f0: 2504 89bc d4ce 0bbd 5d00 443d 7e34 f2bd
00000100: 4a0f f03d bfd6 88bc b636 673d c8ad efbd
00000110: 7567 4a3d 1e91 da3c 97c5 473d 7575 d9bd
00000120: 33dd 08bd 5fdf 70bd 03c7 b2bd cd47 393c
00000130: d923 99bd a31b 9abc 7e5f 2dbd ef39 abbd
00000140: 1b27 e9bd 65c1 43bd 244a a7bd 3fa9 23bb
00000150: dbd3 203c 8977 c43d b1ad f03d 7784 d6bd
00000160: 99ce e4bd 8c01 393d b621 ab3d fdd5 eebd
00000170: b922 aabd fb72 883d 5c25 fe3c 01ed 4bbd
00000180: 8a8c f6bd cfdc 3bbd 20ad f6bd 65a1 c3bc
00000190: 2092 84bd 1d54 2dbd 8ada 753d 184a 17bd
000001a0: 764d ebbd 4f5a fabd 00db 423c c0ba e9bc
000001b0: 8066 d33d 3b81 1cbd 70d4 9f3d 68c4 283d
000001c0: ca9d 37bc a923 f73d f7d3 f5bc ce13 d8bd
000001d0: a0a9 2b3d b64b 88bd 8cd8 703d ea5e c33d
000001e0: 0396 e53c 56f2 73bb 757d d8bd f00b 40bc
000001f0: 2142 84bc 08d1 cfbd a370 d63d 7c91 033b
00000200: a7bf 2b3d 82a2 f9bd e40c dfbb 95e0 e5bd
00000210: 70f8 173d b615 4d3d 2d7e 47bd c2c9 733d
00000220: 75de c0bd 1e08 d3bd 8219 afbc e8e9 dfbc
00000230: 17fa 5cbd 6f27 d83d ca51 4e3d 47a9 e0bc
00000240: 0b34 ac3d d889 f0bd 06bd 48bd e29c f13d
00000250: afe4 8bbd a721 e1bd fa37 75bd 3791 b73d
00000260: 8c05 893d 71f5 bebd 8a0d d93b a9a4 fdbd
00000270: 020f bebd 3200 a0bd 29ba 013b 1613 f03d
00000280: 88b7 92bd b319 cebc 3aba a3bd 2ee3 803d
00000290: 860c d93d 191f 163d 0c27 bfbd 2847 d83d
000002a0: db98 9cbd da91 f4bc 9340 b5bd 1faa c8bd
000002b0: 30e8 a93d 74e0 883c 8076 df3b deb5 86bd
000002c0: f9b0 013d eb16 bcbd f4ef ac3d d844 de3d
000002d0: e57d 3b3c ecf3 543d 6cb2 55bd 1d52 293d
000002e0: bb7c ad3d 5f2c 24bd e3cb a4bd 6a6a 93bb
000002f0: b12c 0b3d 56ef 92bb b6a2 9c3d 393f 93bd
00000300: 5708 743f 3811 543d 542f b93c 37c7 5d3f
00000310: 8305 4cbc 2fa5 2a3d a886 ebbb 1806 88bd
00000320: 49b5 633b 042f 8e3f 588b 40bc 42ad 743f
00000330: 4580 abbd a9c5 da3d 6e7e 853f ea25 7b3f
00000340: ed4f 593f 877f f83c 131f 5f3f 1c61 813f
00000350: ee03 06bd 463c 703f 911d 873f 4de3 853d
00000360: ab55 683f 4650 7d3f a2cf 883f bbab 893f
00000370: c1e9 8c3f 6283 823f 2d64 843f 242c 643d
00000380: 0bbe e23d 569c 583f 1535 763f 75dc 6c3f
00000390: 1366 803f 9170 663c a72e 343d eb5c 6b3f
000003a0: 6e7e 893f 8f07 68bd ef54 133d 1ca2 813f
000003b0: e479 893f d9de 6c3f b0a4 11bc edce 663f
000003c0: 64c9 643f a921 e7bd d6c6 8a3f 9aa8 7f3f
000003d0: 0457 633f 5701 5d3f 9016 8b3f 10f2 9c3d
000003e0: b2c8 cbbd 131e 7e3f 7015 cf3b 9cb9 763f
000003f0: cb6b 603f 9590 833f 4f2c 873f 495d 883f
0.07430202 0.032421485 -0.027007973 0.046313673 -0.06298752 0.10413753 0.0343111 -0.010563236
-0.027281068 -0.07577973 0.011470142 -0.05102816 0.09892958 -0.019787516 -0.12129741 0.060287952
-0.03016051 0.05908721 0.049040016 0.0023533567 -0.016650187 0.116171315 0.030259266 0.025973296
-0.05819588 -0.056724623 0.1103882 0.09685527 -0.07863377 -0.052337524 -0.056886353 0.003981958
-0.08445714 -0.051219974 0.054418176 -0.09961228 0.058677197 -0.02758067 0.07437078 0.080846734
-0.049751643 0.029718805 0.055281777 -0.024545806 0.11748679 0.017791979 -0.028428026 0.050334956
0.0033846144 -0.07663508 -0.0951825 -0.024669247 -0.07399632 -0.020423869 -0.09750172 -0.05229063
0.04114772 0.115182325 0.098499045 0.09740286 -0.01672561 -0.034132794 0.04785191 -0.11826418
0.11721666 -0.016703961 0.05644866 -0.11703068 0.04941507 0.026680525 0.04877242 -0.10618106
-0.033414077 -0.058806773 -0.08729365 0.011308623 -0.074775405 -0.018812006 -0.042327397 -0.08360659
-0.11384412 -0.047791857 -0.08168438 -0.0024972705 0.009816135 0.09593112 0.11751879 -0.104744844
-0.11172218 0.04516749 0.08356039 -0.11661909 -0.08307404 0.06662556 0.031023674 -0.04978657
-0.120385244 -0.045864876 -0.1204474 -0.02388067 -0.06473184 -0.042316545 0.06002287 -0.036935896
-0.11489384 -0.12224256 0.011893034 -0.028531432 0.10322285 -0.03820918 0.07804191 0.041202933
-0.011207053 0.120673485 -0.0300083 -0.105506524 0.041909814 -0.06655066 0.058800265 0.09539588
0.028025633 -0.00372233 -0.10570804 -0.011721596 -0.016144814 -0.101472914 0.104707025 0.002007573
0.04193082 -0.12189199 -0.0068069566 -0.11224476 0.037102163 0.050069533 -0.048704315 0.059518583
-0.0941743 -0.103042826 -0.021374468 -0.027333215 -0.05394944 0.10554396 0.05037097 -0.027424468
0.08408364 -0.117450416 -0.04900839 0.11797501 -0.06830727 -0.10992747 -0.059867837 0.089632444
0.06690511 -0.09324158 0.0066239284 -0.12384922 -0.09280206 -0.07812537 0.0019794798 0.1172239
-0.07163912 -0.025158739 -0.07994504 0.06293331 0.10598092 0.03665075 -0.093336195 0.10560447
-0.07646342 -0.029854704 -0.08850207 -0.09798073 0.082962394 0.01670859 0.006819546 -0.06577657
0.031662915 -0.09184059 0.08444205 0.10852975 0.01144359 0.051990435 -0.05217211 0.041338075
0.08471056 -0.040081378 -0.08046701 -0.0044987695 0.033978168 -0.0044840975 0.07648222 -0.07189793
0.95325226 0.051774234 0.022605576 0.866321 -0.012452486 0.041661438 -0.007187683 -0.06641787
0.0034745506 1.1108098 -0.011751972 0.9557687 -0.08374075 0.10682232 1.0429208 0.9810473
0.8488758 0.030334247 0.8715679 1.010776 -0.03271859 0.9384197 1.0555898 0.06537495
0.9075572 0.9895061 1.0688365 1.0755533 1.1008836 1.0196345 1.0343071 0.05570616
0.11071404 0.8461355 0.96174747 0.9252389 1.003115 0.014064924 0.043989804 0.91938657
1.0741708 -0.056647833 0.03596967 1.0127597 1.0740323 0.9252754 -0.008889362 0.90159494
0.893698 -0.11285717 1.084193 0.9986664 0.8880465 0.8633017 1.086626 0.07663357
-0.09950389 0.9926464 0.006319694 0.9637697 0.8766448 1.0278498 1.0560397 1.0653468

fc2.bias f4 [128]
00000000: abb5 6bbd 52ff f53d 9829 79bd 38f2 833f
00000010: d379 983f ca4a 763f 485c 913f ff9f 54bd
00000020: e535 833d ec06 933f 4904 afbd e5e8 e9bd
00000030: bf8f 8f3f b3b6 963f 0993 8f3f 87b9 853f
00000040: 4afb 8c3f be89 8ebd 11b2 703c ba83 803f
00000050: dd40 943f 43cb 023b 2957 843f 66ff c3bd
00000060: b4a6 b63d ff13 c6bd 6826 783f cbaf 273d
00000070: 008c 7c3f 2c0d 843f 1254 a9bd 1526 10bd
00000080: 0669 bd3c 743a 703d 314f 993f d9d8 02bd
00000090: 459c d73c 250f b6bd d2b4 3bbd cb20 f7bd
000000a0: c3bd c1bd fdb3 853f 226d d4bd f677 973f
000000b0: c963 803f 0a52 dfbd bf26 893f 53d1 973f
000000c0: cfec c7bc 4d79 923f 0e9a 01bd 1f20 863f
000000d0: 392c 913f 14f7 ca3c 13d2 8e3f 6988 833f
000000e0: 5b53 b63d 677b 803f d93e 21bc 101c dc3d
000000f0: d2c3 983f 9c19 803f 819e ecbd 1995 7b3f
00000100: eb7d 8c3f 08b1 b5bd aff6 8a3f b057 a23d
00000110: 4669 88bd 6615 c23a ac82 893f 7add debd
00000120: ed26 923f 8b1d 943f b9ea 963f b2ae 3abd
00000130: 75d2 873f ce51 c23d 69f2 5d3d 7ceb 723d
00000140: 68f6 7ebd dc8c 4c3b 5083 8a3f 4230 8dbd
00000150: 8954 81bd fbda 913f b7c4 60bd a127 5abd
00000160: 37fd adbd b3d6 63bd b919 813f 8058 9b3f
00000170: fd24 2b3d 42b5 8f3f 2074 9d3d 643e c2bd
00000180: 305b 853f c616 923f 5156 8b3f fa16 3bbd
00000190: 0c27 7f3f 9a4c 9dbd 6ba6 97bd 27b6 76bd
000001a0: 8942 8e3f 3b39 973f ecc2 873f a436 88bd
000001b0: 623e bc3c 136d 8e3f 786c 3c3a 79ee 513c
000001c0: 3ebf b4ba 9811 8a3f 71ff 433d 271d 903f
000001d0: 4230 9a3f d128 8b3f c024 5ebb e25f 833f
000001e0: 3955 af3c 3505 823c 8f89 c3bd fff7 073d
000001f0: 2946 08be 6d78 993f 4056 913f 624a 973f
-0.0575463 0.12011589 -0.060830683 1.0308294 1.1912178 0.9620787 1.1356287 -0.051910397
0.06406764 1.1486487 -0.08545739 -0.11421374 1.1215743 1.1774505 1.1216747 1.0447243
1.1014187 -0.06959866 0.014690892 1.00402 1.1582295 0.001995758 1.0339099 -0.09570198
0.08918515 -0.09671783 0.96933603 0.040939134 0.98651123 1.031652 -0.08267988 -0.035192568
0.023121368 0.058649495 1.1977292 -0.031945083 0.026319632 -0.08889607 -0.04582674 -0.12066802
-0.09460022 1.0445553 -0.10372378 1.1833484 1.0030452 -0.109043196 1.0714949 1.1860756
-0.024404911 1.1443268 -0.03164106 1.0478553 1.1341621 0.02477602 1.115786 1.0276004
0.089026175 1.003766 -0.009841644 0.1074754 1.193476 1.0007815 -0.1155367 0.9827438
1.0975927 -0.08871657 1.0856532 0.07926881 -0.06660704 0.0014807403 1.0743003 -0.10882087
1.1418129 1.1571516 1.1790382 -0.04557676 1.0611101 0.09488259 0.05418626 0.059306607
-0.06224671 0.0031211888 1.0821323 -0.0689397 -0.06314952 1.1394953 -0.054875102 -0.05326045
-0.084955625 -0.055624675 1.0085975 1.2136383 0.04178332 1.122719 0.07688165 -0.09484556
1.0418453 1.14132 1.0885717 -0.04567621 0.99668956 -0.07680626 -0.074047886 -0.060232308
1.1114055 1.181434 1.060636 -0.06651047 0.022978965 1.1127037 0.0007187794 0.012813204
-0.0013789905 1.0786619 0.04785103 1.1258897 1.2045977 1.0871831 -0.0033896416 1.0263636
0.021402942 0.015871624 -0.095477216 0.033195492 -0.13308014 1.1989876 1.1354446 1.1819575

fc3.weight f4 [6, 128]
00000000: b912 473d 9c3c b8bc 0d12 803c 9337 f5be
00000010: e091 0bbf 5eeb 14bf e224 02bf 10d4 643d
00000020: c1de 8cbd e851 fbbe da17 1ebd 0b59 38bd
00000030: 50b5 1fbf 373d 0dbf 21d4 f7be 0407 0bbf
00000040: e5a2 18bf 64c8 87bb 429b 1cbd 003e 22bf
00000050: 1cbf 1ebf 2c56 51bd ff22 11bf 5b3b 48bd
00000060: 0acf 073d b31b 0a3d f4fe 19bf d56f 6e3c
00000070: 3018 03bf 476b f5be 1cf6 7eba 29a2 98bb
00000080: c2b3 87bd b011 a8bc 54c6 07bf e48a 563d
00000090: ab34 773d 848f 293c f48f 7a3d cf86 54bc
000000a0: 753d 97bd 5e9a 07bf ee63 8f3d bf19 fdbe
000000b0: 7600 18bf 2512 b43c e568 f5be cf21 0bbf
000000c0: 5c84 84bd d68f 01bf a2a6 6abc 3ca9 08bf
000000d0: 4c70 05bf 14ca 203d 1cf6 0cbf 1377 1fbf
000000e0: ecac 9bba a710 03bf a9b5 003d 9324 903d
000000f0: c402 10bf 755f 05bf 59c7 2bbd 6c05 0fbf
00000100: 4a7e 1fbf db06 583c 8754 0cbf b289 fd3c
00000110: 304c abbc 0822 37bd 1947 0abf 2c6f e4ba
00000120: de4e 17bf ab4e 01bf 5258 1bbf d6ca 6b3d
00000130: 4b4b 05bf b0ae acbd 50ea 6cbb 4de9 5bbc
00000140: c09e adbc 086c 88bc 4a72 1abf 967c 993d
00000150: 34e1 1ebd 57cd 0bbf 7ed1 6fbc 7001 823d
00000160: 5d1f 8c3d 9187 d5bc 88b8 0dbf 577d 09bf
00000170: 1db4 993c 1872 01bf 8061 6bbb 398e 48bd
00000180: 937c 15bf b2ce 1bbf 5d34 f6be 983b 47bc
00000190: 8a23 23bf 1d73 5b3d 4bf2 263d b014 0abd
000001a0: 0523 04bf 969c 16bf dd47 23bf 5491 84bd
000001b0: a2c3 a8bc 87a4 0dbf baff 97bd b109 203d
000001c0: d18f 97bd 25e3 f5be 3cff 453d 824a 19bf
000001d0: d6c2 06bf e795 21bf 23a0 6cbc 6faf 28bf
000001e0: 340c 50bd 946b d63b 9697 1a3d fb28 493c
000001f0: 3ea2 7b3c a791 f9be 0b52 25bf 461e 29bf
00000200: 0e0b 80bb 4957 73bb 84d0 7dbd 99d9 06bf
00000210: b72f 14bf 06fc 1dbf a3a0 21bf 3016 66bd
00000220: 0dca 0dbd 95a3 09bf b4e3 4ebd 8d0f 7dbc
00000230: 8a0e 16bf ac54 1abf b558 22bf 06f1 13bf
00000240: 84f2 0cbf f6df 9abd ad53 3dbc b99e 13bf
00000250: ea38 fdbe 9ca8 293d fc08 f0be 5b4f 813d
00000260: 5f74 6a3c a5f8 63bd 2a75 0cbf c851 9f3d
00000270: d821 1ebf 6a36 05bf ef14 6e3d 7a84 e7bc
00000280: 2689 7d3d 66a0 8a3d 65f3 eebe 873f 123d
00000290: 8dc5 fb3b d797 50bc 3940 aabd da7d 53bd
000002a0: aeed 993d f444 1fbf 586c 86bd 020c 12bf
000002b0: a52e 22bf cff8 1d3d 1f96 13bf 6e9a 13bf
000002c0: beed 493d 83c4 12bf 789b 8abd 6c23 11bf
000002d0: 5cae 07bf af8f 9cbc ec21 03bf d90a ecbe
000002e0: ba11 073d d303 1dbf 34d6 193d d0a3 bebb
000002f0: 2f17 1cbf db4e fdbe 0b81 383d 5297 10bf
00000300: 56d6 f8be 8816 8f3d d15a 1dbf 5b88 883d
00000310: e808 a33c b489 9abd 522f 00bf df8a b9bc
00000320: 781a 17bf e9c8 0dbf 8965 edbe 2780 3a3c
00000330: b2a5 04bf 5694 a2bd 33a9 b93c 3479 ce3c
00000340: 6507 3abd ed92 99bc 55b2 ffbe cccd 393d
00000350: d84a a93d a85b 1cbf f817 6e3d 74c4 f33c
00000360: fc42 e7bc 7f0e 88bd 9747 08bf 0bf4 0bbf
00000370: 5bb1 74bd 8fd5 21bf 8b66 48bd 2dbe 8abd
00000380: e2e7 f3be 6bbb 15bf 16de 0ebf 72b4 a03d
00000390: 847f 19bf 1a35 79bd db27 8fbb 45ea 86bd
000003a0: 009f 07bf 6e93 07bf 04d5 0bbf e6bf 1a3b
000003b0: 27e3 363c d3c6 0bbf ae15 503d c731 3b3d
000003c0: e1a4 e8bc d780 1fbf f947 44bd 948e 1ebf
000003d0: aedf f8be f401 f4be eefa 213d 7bc3 02bf
000003e0: f53a 94bc 473b 243d 3659 3fbd bf85 dc3c
000003f0: 8281 b2bd fad5 06bf 6502 19bf 762c 18bf
0.04860184 -0.022489838 0.015633607 -0.47893962 -0.5451946 -0.5817164 -0.5083753 0.0558663
-0.068784244 -0.49085927 -0.038596965 -0.045006793 -0.62386036 -0.5517153 -0.4840403 -0.5430758
-0.5962356 -0.0041437615 -0.038234003 -0.63375854 -0.6201036 -0.05110757 -0.56694025 -0.04888473
0.033156432 0.033717822 -0.6015465 0.01455303 -0.5120878 -0.4793341 -0.0009726004 -0.004658003
-0.06626083 -0.020516247 -0.53037 0.05237855 0.060352962 0.010349158 0.06117244 -0.012971594
-0.07384769 -0.5296992 0.07001482 -0.49433705 -0.59375703 0.021981308 -0.4793159 -0.5434846
-0.06470558 -0.506101 -0.014321955 -0.5338323 -0.52124476 0.039255217 -0.55063033 -0.6229107
-0.0011877096 -0.51197284 0.031423245 0.07038226 -0.5625422 -0.5209878 -0.04193816 -0.5586765
-0.62302077 0.013185228 -0.5481648 0.030949447 -0.020910352 -0.04471019 -0.54014736 -0.0017428151
-0.59104717 -0.5051066 -0.6068164 0.057566486 -0.5206801 -0.084317565 -0.0036150403 -0.013422322
-0.021193862 -0.016653076 -0.6033064 0.07494466 -0.03878899 -0.546102 -0.014637349 0.063479304
0.068419196 -0.02606562 -0.553597 -0.5370688 0.018762643 -0.5056472 -0.0035916269 -0.04896376
-0.5839321 -0.60862267 -0.48086825 -0.012160204 -0.63726103 0.053576577 0.040758412 -0.033711135
-0.51615936 -0.5883268 -0.6378153 -0.06473032 -0.020601097 -0.55329174 -0.07421823 0.039071742
-0.07400478 -0.4802486 0.048339114 -0.59879315 -0.52641046 -0.6311936 -0.014442476 -0.6589269
-0.050792888 0.006543586 0.03774222 0.012277837 0.015358506 -0.48743936 -0.6457831 -0.6606182
-0.003907568 -0.0037130883 -0.061966434 -0.5267578 -0.5788531 -0.6171268 -0.6313574 -0.056173503
-0.03461652 -0.5376523 -0.050510123 -0.015445602 -0.58615935 -0.6028545 -0.63416606 -0.5778965
-0.5505755 -0.075622484 -0.011555594 -0.57664067 -0.49457484 0.041420564 -0.46881855 0.06313964
0.014309972 -0.055657048 -0.5486628 0.077792704 -0.6177039 -0.52036154 0.058125433 -0.028261412
0.061898373 0.06768875 -0.4667007 0.035705116 0.007683462 -0.012731514 -0.08313031 -0.051633693
0.07516037 -0.6221459 -0.06563634 -0.5704957 -0.63352424 0.03856736 -0.5765094 -0.57657516
0.049298994 -0.57331103 -0.067679346 -0.56694674 -0.53000426 -0.019111482 -0.51223636 -0.46102026
0.03297589 -0.6133396 0.037557796 -0.005817868 -0.60972875 -0.49474224 0.04504494 -0.56480896
-0.48601025 0.06986719 -0.614667 0.06666633 0.019901708 -0.07545796 -0.50072205 -0.022649227
-0.59024763 -0.5538469 -0.46366528 0.011383093 -0.5181533 -0.07938449 0.022663688 0.025204279
-0.04541721 -0.018746817 -0.49940744 0.04536228 0.082662284 -0.61077356 0.058128327 0.029756762
-0.028230183 -0.0664339 -0.5323424 -0.54669255 -0.05973945 -0.6321649 -0.048925918 -0.067745544
-0.4763785 -0.584891 -0.55807626 0.07846917 -0.599602 -0.060841657 -0.004368765 -0.06587652
-0.5297699 -0.52959335 -0.5462191 0.0023612916 0.011162556 -0.54600257 0.050801925 0.04570177
-0.028398933 -0.6230597 -0.0479202 -0.61936307 -0.48608154 -0.4765774 0.039545946 -0.5107953
-0.01809452 0.040095594 -0.046715938 0.026919244 -0.08716108 -0.5267025 -0.5976928 -0.5944284

fc3.bias f4 [6]
00000000: f429 d8be 5b0c 13bf 86d1 d2be 116f 0abf
00000010: 244d bdbe 5663 cfbe
-0.42219508 -0.5744073 -0.4117548 -0.54075724 -0.36972916 -0.40505475
