dqn_taxi_light2.pth (torch, 45912 bytes, 6 tensors)

fc1.weight f4 [128, 16]
000000 0d 61 b0 3e 36 d3 43 be 7e 27 15 be 60 c8 b5 bd
       0.34449044 -0.1912354 -0.14565846 -0.08876109
000010 d0 7e 7d bd a3 fb 15 3e 27 87 1a be 74 96 2b be
       -0.061888516 0.14646773 -0.15090619 -0.16756612
000020 2e 78 93 3d 83 27 3d 3e 7d 07 82 be 90 7f 4b 3e
       0.07200657 0.18472104 -0.25396338 0.1987288
000030 26 32 ce be a1 f5 b4 3f d0 83 9f be b8 75 c7 bc
       -0.40272635 1.413746 -0.31155252 -0.024348125
000040 0f 28 74 3e 04 4c b7 bd 28 4f ba bd 76 cc 0f 3e
       0.23843406 -0.08950046 -0.09097129 0.1404284
000050 98 10 3c bd ec e2 41 3e 47 4c 4e 3d c0 7f f9 3d
       -0.045914263 0.1893422 0.050365712 0.121825695
000060 44 fd 27 be bc a4 3c be 27 b4 e9 3d c6 3b 78 3d
       -0.16405207 -0.18422216 0.114113145 0.06060388
000070 78 3e 8a 3f 88 3a c5 3c 30 39 b3 3c 8c d3 04 3e
       1.0800314 0.024075761 0.021877855 0.12971324
000080 f3 42 99 be 44 0a ce 3d 28 23 9f 3d 80 75 0e 3c
       -0.2993389 0.10060552 0.077703774 0.008695006
000090 70 ec 91 bc af 96 c3 3d 83 45 41 3e bc ba a9 bd
       -0.017812937 0.09550225 0.18874173 -0.0828757
0000a0 9f 4b 50 be ff 36 2a be ed e4 4d 3e 66 06 1d be
       -0.20341347 -0.16622542 0.2010686 -0.15334472
0000b0 18 69 8d 3f fc 34 0e be 8a 58 83 be f2 30 bf 3d
       1.1047697 -0.138874 -0.25653487 0.093355075
0000c0 a4 a4 8c 3e aa 94 2d be 6c 42 84 bd 1c a6 85 bd
       0.2746936 -0.16951242 -0.064579815 -0.065258235
0000d0 48 e8 20 be 36 18 ce bd 0f 5f 2c be 08 3c 47 bd
       -0.15713608 -0.100632116 -0.16833137 -0.048641235
0000e0 f5 f9 20 3e 68 a2 f0 3d 8c 29 55 3d c7 09 98 3d
       0.15720351 0.117497265 0.052041575 0.0742374
0000f0 a4 d6 9f 3f 8a de ad 3b 0c 13 f1 bd 2e a3 0b 3e
       1.2487378 0.0053060697 -0.11771211 0.13636467
000100 e4 c2 48 3e b8 c2 66 be dc cc b3 3d 88 c9 aa 3d
       0.19605595 -0.22535217 0.08779308 0.0833922
000110 ce be 15 3e 00 1a 73 3c 1e 2b 3f be 96 83 1f be
       0.14623567 0.014837742 -0.18668792 -0.1557754
000120 90 7a f0 bd 6a 87 66 be f0 c5 7f bd b0 da 77 bd
       -0.11742127 -0.22512594 -0.062444627 -0.06051129
000130 50 d8 23 be 88 d3 0c be 20 b2 67 bc b0 25 4e be
       -0.16000485 -0.13752568 -0.014141589 -0.20131564
000140 14 7a e0 bd 30 9c 6e bd 80 01 e7 3d 5c 0b 11 3e
       -0.109607846 -0.05825442 0.11279583 0.1416449
000150 f4 25 5b 3e 72 5e 52 be b4 6b 27 3e 4c 56 7a be
       0.21401197 -0.2054384 0.16349679 -0.24446982
000160 2c 59 0d 3e 98 67 f9 bd 78 b7 15 3d a0 a4 2d bc
       0.13803548 -0.12177962 0.036551923 -0.010598332
000170 5a e8 7d be 9e 10 24 be 00 76 a7 3a 18 1a 82 3d
       -0.24795666 -0.16021964 0.0012776256 0.06352633
000180 99 21 cd bc 77 68 22 3e 8e b0 78 be 5c da 7e 3e
       -0.025040435 0.15860163 -0.242861 0.24887985
000190 b8 f6 3d 3d 15 7c 51 be 9e d4 bd 3c 24 e8 bd bd
       0.046377867 -0.2045749 0.023172673 -0.09272793
0001a0 ed a7 02 3e 63 d7 23 be 1d ad d0 bd 37 49 0d bd
       0.12759371 -0.16000132 -0.10189269 -0.03449365
0001b0 4c 73 de 3f 14 bb 28 be fd 6f d7 3d 9c 3b 2c bd
       1.7378936 -0.16477615 0.10519407 -0.042049035
0001c0 3e de d3 3e 69 3b b5 be f6 ac 75 be 60 9f 63 3d
       0.41380495 -0.3539689 -0.2399176 0.055571914
0001d0 dc 3d c4 3d e0 6b 93 bd 68 82 70 3e c0 e6 50 3d
       0.09582111 -0.0719831 0.23487246 0.05100131
0001e0 7f aa ea bd d8 5b 27 bc 2c 86 d7 be 23 56 05 3f
       -0.11458301 -0.010214768 -0.42094553 0.5208456
0001f0 b2 10 5b 3e 46 19 ae 3f f5 8c 26 3e bd a8 20 3c
       0.21393088 1.3601463 0.16264708 0.009805855
000200 04 a8 49 3d cc 9c 5a 3c b0 73 83 bc 98 6a bb 3d
       0.049232498 0.013343047 -0.016046375 0.091511905
000210 14 f9 25 3e 72 47 34 3e 67 a3 6a 3e 14 1e 42 be
       0.16208297 0.17605379 0.22913896 -0.18956786
000220 6c 43 47 3e 7c 93 2e 3e ce a1 04 3c 4e 62 30 bd
       0.19459313 0.17048448 0.008095218 -0.0430625
000230 be f9 92 3f fa d3 5d 3e c4 78 1b be 19 b9 91 3e
       1.1482465 0.21662894 -0.15182787 0.2846153
000240 ad 97 90 3d 26 84 72 bd 2c 7e 6f 3e 6e a3 76 3e
       0.0706018 -0.059208058 0.23387975 0.24085781
000250 90 f3 6f 3e f0 9b 87 3e 0b 5b 86 3e 54 5f 4c be
       0.23432755 0.26486158 0.26241335 -0.1995824
000260 d7 ca 9f 3d 0b c7 47 3e 81 5a 81 3d d2 96 f3 3e
       0.078023605 0.19509523 0.063160904 0.47576004
000270 c8 3e 98 be 31 9b 87 3f 04 51 04 3e 6c a3 38 bd
       -0.29735398 1.0594236 0.1292153 -0.045077726
000280 03 0e 8f be 06 db d6 3d ca 0c 1f be e4 fe c4 3d
       -0.27940378 0.10490994 -0.15532222 0.09618929
000290 e4 a9 8a 3d bb eb ce bd f3 c3 35 3e 56 cd 3e be
       0.06770685 -0.10103556 0.1775053 -0.18633017
0002a0 06 7d 1a bd d2 07 90 be e4 89 0b 3f ad c9 4b bd
       -0.037716888 -0.28130966 0.5450728 -0.04975288
0002b0 2f 18 91 3f 8e f0 fd 3c 34 75 1f 3e 37 37 a3 bc
       1.1335505 0.030998494 0.15572053 -0.01992379
0002c0 6e 26 c0 bd 1b 25 8d be c0 c9 a8 bc a6 06 22 3e
       -0.0938233 -0.27567372 -0.020604014 0.15822849
0002d0 18 e5 2e 3e f1 e0 a6 3d 69 c8 20 bd 42 2f 24 3e
       0.1707958 0.08148373 -0.039253626 0.16033652
0002e0 16 32 3b 3e f6 ed 20 3e b5 f1 f2 3e 75 11 05 be
       0.18280825 0.15715775 0.47450033 -0.1299494
0002f0 0e 6c 01 3f 12 27 3a 3f ba f2 73 3d e2 1a 91 3e
       0.50555503 0.72715867 0.059557654 0.28340822
000300 b6 a9 1d be 20 23 a4 3d 00 cb f9 3d 38 5f 74 3e
       -0.15396771 0.08014512 0.12196922 0.23864448
000310 08 7e 09 be 86 5d 56 be 0b 44 1b 3e 7c a1 34 3e
       -0.13426983 -0.20934114 0.15162675 0.17639726
000320 74 5c 04 3d 49 40 81 be a1 79 99 bb 2f 74 99 3e
       0.032314733 -0.25244358 -0.0046836887 0.29971454
000330 a7 77 a5 3f 46 f6 be 3e 8b 20 03 be 88 de 9d 3d
       1.292714 0.37297267 -0.12805383 0.0770846
000340 88 e5 1d be ff ef e2 bc fa ab 6b 3e 50 d2 57 bd
       -0.1541959 -0.02770233 0.23014823 -0.052690804
000350 b8 5e 1d 3e bf c7 c5 3d dd 0e ab 3a f2 89 54 be
       0.15368164 0.09657239 0.0013050694 -0.20755747
000360 d1 75 76 3d 35 00 34 3d cf 1c a7 3e 82 dd df 3e
       0.060170952 0.04394551 0.32639167 0.43723685
000370 29 56 ff 3d cd a6 47 3f f8 b1 8c be ac 73 82 3e
       0.124676056 0.7798889 -0.2747953 0.25478876
000380 27 c2 80 3e 88 54 23 be 0a f4 18 3e a2 8b 33 3e
       0.25148126 -0.15950215 0.14936844 0.17533734
000390 c8 d7 1a bd 3d a5 27 be bb 7a 4c 3c 54 f0 cd bd
       -0.03780344 -0.16371627 0.012480433 -0.100556046
0003a0 61 89 10 bc 87 15 53 3e 05 77 11 bf 8d 55 f5 3d
       -0.008821816 0.20613681 -0.56822234 0.11979208
0003b0 3d a6 91 3f af ae 99 3e 6d c2 ad 3d 5a 5f 8e 3e
       1.1378857 0.30016086 0.084843494 0.27807122
0003c0 d5 a7 c9 bd 05 97 b5 be d8 5d c9 3d d8 7f 5d bd
       -0.098464645 -0.3546678 0.098323524 -0.054077
0003d0 f0 85 d8 bc 5f 52 9d 3c 04 84 4b 3d aa af 0b 3e
       -0.026431054 0.019204317 0.049686447 0.1364123
0003e0 0a 73 d4 3d f4 e3 2d 3e 66 03 eb 3e 97 29 92 3d
       0.103735045 0.16981488 0.4590103 0.07136839
0003f0 1c 19 51 be a7 9c 5a 3f 31 1d 47 bd f3 03 a1 3e
       -0.20419735 0.8539528 -0.048611823 0.31448326

fc1.bias f4 [128]
000000 6f 3f 21 3f 75 81 7b 3f 54 5b 44 3f f9 8b 52 3f
       0.62987417 0.9824441 0.76701856 0.8224483
000010 d8 09 45 3d 50 58 f3 3c d5 1e 1f 3f de ec 2a 3f
       0.04810509 0.029705197 0.6215642 0.6676768
000020 40 0e 18 3f 85 e2 32 3f 0a df 59 3f 51 b6 31 3f
       0.59396744 0.6987689 0.85105956 0.6941882
000030 ca 95 56 3f 44 a3 1e 3f 4e 67 45 3f 8a ca d4 3e
       0.8382231 0.61967874 0.77110755 0.41560775
000040 ab 0e 40 3f 02 97 00 3f 00 b6 a5 bd d6 9c 68 3f
       0.7502238 0.5023042 -0.08091354 0.9086431
000050 95 96 07 3f 18 1f 05 3f ce 16 78 be 28 50 6c be
       0.52964145 0.5200057 -0.2422745 -0.23077452
000060 a3 b3 2e 3f 88 98 61 3f 06 ee 4a 3f 20 dc 98 bc
       0.68242854 0.8812337 0.79269445 -0.018659651
000070 dd ce 0c 3f 24 dd 20 3f a6 92 7c 3f a7 ce 6c 3f
       0.5500315 0.62837434 0.9866127 0.92502826
000080 2c ae 4e 3f 80 3f 3c bb 40 58 b2 3e 88 7f 6b 3f
       0.80734515 -0.0028724372 0.34832954 0.9199147
000090 84 cc 02 3f 54 27 46 3f 2c cf 4a 3f 4a d0 20 3f
       0.51093316 0.7740376 0.7922237 0.62817824
0000a0 cc b6 03 3f 55 8c 4f 3f c4 40 d6 3d 33 85 18 3f
       0.514508 0.81073505 0.10461572 0.59578246
0000b0 34 dd 16 3f 25 b1 38 3f fe 30 3b be 97 5d 5d 3f
       0.5893128 0.721453 -0.18280408 0.8647093
0000c0 e2 fd 31 3f ae 7c 4b 3e 40 40 c0 3c 18 f3 00 3f
       0.6952802 0.1987178 0.023468137 0.5037093
0000d0 b0 49 ec bc c2 08 23 be ab 74 2d 3f 0a 41 0e 3f
       -0.02884373 -0.1592131 0.67756146 0.5556799
0000e0 14 be e4 3d 46 43 6b 3f 4b c6 39 3f 58 44 01 bd
       0.11169067 0.91899526 0.72568196 -0.03155932
0000f0 0c a2 3e 3f 04 ee 0a 3f 5c ed 79 3e c7 18 72 3f
       0.74466014 0.54269433 0.24406952 0.9456906
000100 ac 98 4f 3f c0 07 75 be a9 27 11 3d 48 46 0d be
       0.81092334 -0.23928738 0.035438213 -0.13796341
000110 f6 8c 20 be 39 b8 ff 3e 8e 66 33 3f 6d 72 f4 3e
       -0.15678772 0.49945238 0.7007836 0.4774355
000120 79 53 62 3f d8 b3 b7 bd 79 e8 73 3f 23 13 1b 3f
       0.8840862 -0.08969849 0.952766 0.60576075
000130 43 66 4f 3f e0 84 62 3d 93 29 ec 3e aa fb cf 3e
       0.81015414 0.0553025 0.4612547 0.40621692
000140 e5 c2 65 3f b6 0e da 3e 75 56 51 3f d2 13 16 be
       0.8975051 0.4258935 0.8177255 -0.14655998
000150 de 0b 18 3f c6 5d 6e 3f 15 9d 06 3f 7c 41 20 3f
       0.5939311 0.93111837 0.5258344 0.6259992
000160 0c 66 dd bd f4 c3 0d 3f 8d 62 67 3f e6 d4 2f be
       -0.108104795 0.55377126 0.9038475 -0.17171058
000170 74 5e 2b be 82 17 5c 3f 2e c3 24 3f c6 a8 19 3e
       -0.1673525 0.8597337 0.6436032 0.15005788
000180 c4 7e fb 3e 41 d9 a4 3e 02 a4 0b 3f 30 84 27 3f
       0.49120152 0.32197002 0.5454713 0.6543608
000190 fd 70 3b 3f 1e d5 57 3f 26 3e de 3e f0 05 f8 bc
       0.7321928 0.84309566 0.4340679 -0.030276269
0001a0 27 a4 7f 3f 51 a6 6a 3f 53 ac 4c 3f 5e 5c 30 3f
       0.9985985 0.9166003 0.79950446 0.6889094
0001b0 e7 4f 54 3f c8 87 49 3f 46 4f f9 bd d9 0e 5f 3f
       0.8293442 0.7872281 -0.12173323 0.8713203
0001c0 b8 d2 a3 3d a9 6c 57 3f a1 38 a4 3e d0 ea 42 bd
       0.07999176 0.8415018 0.32074454 -0.047587216
0001d0 31 72 f5 3e 0f ee 06 3f 60 9b 6f 3c a8 b9 94 3d
       0.47938684 0.52707 0.014624447 0.072619736
0001e0 e8 40 4d 3d 1e 2a 72 3e 5f bc f0 3e a9 40 6e 3f
       0.050110728 0.23648879 0.47018716 0.93067414
0001f0 d8 67 23 3f 28 28 01 3f ef 24 7c 3f 6e 8e 6c 3e
       0.6383033 0.504519 0.98493856 0.23101208

fc2.weight f4 [64, 128]
000000 f4 09 da bd 59 34 40 3e 0d 4d 60 3e 34 27 3a 3d
       -0.1064643 0.18769969 0.21904393 0.045447543
000010 b2 53 ad bd 40 58 88 3c b6 c3 47 3e 9d 84 e1 3d
       -0.08463229 0.016643643 0.19508252 0.11011622
000020 31 95 9e 3b c0 67 ea bc 08 6d 91 3e 48 07 ee 3d
       0.0048395623 -0.028613925 0.28403497 0.116224825
000030 1e db 62 3e 61 67 c9 bc 9b 1c f9 bc 23 c1 11 3e
       0.22153899 -0.024585428 -0.030409148 0.14233832
000040 16 73 76 3e 79 81 44 3d 20 fb 50 bd 83 39 88 3e
       0.2406734 0.047975037 -0.05102074 0.26606378
000050 82 3e 56 3e ec 85 ae bd 67 82 64 3d 97 fa 57 3d
       0.20922282 -0.08521637 0.055788424 0.052729215
000060 50 06 16 3e f4 1e 8a bd b2 49 84 3e e7 3a b3 3d
       0.14650846 -0.06744185 0.25837475 0.08751469
000070 05 a2 8f 3e 88 f8 02 3e f6 1d 81 3d 5b 2b fd 3e
       0.280533 0.1279012 0.06304543 0.4944714
000080 1f 59 1e 3e cb 99 57 3c 00 66 18 3d 62 6b b4 3e
       0.15463684 0.013159226 0.03720665 0.35238177
000090 24 9d 61 3c ee c2 ab bd 49 7d 1e 3e 47 51 44 3e
       0.013770375 -0.08386789 0.1547748 0.1917163
0000a0 28 1e 25 3e 39 d2 d2 bc 49 57 fc bc a4 f4 bd bc
       0.16124785 -0.025735008 -0.03080334 -0.023187943
0000b0 48 90 ed 3d 62 ed 34 3f 3e f5 e6 bc 9b c9 b5 bd
       0.11599785 0.7067472 -0.028193112 -0.08876344
0000c0 a2 e2 f6 3e d7 a0 82 3d f6 d3 23 3d 9d 98 21 be
       0.48219782 0.06378334 0.039997064 -0.15780874
0000d0 81 e1 13 3d 4b 32 a3 bd f9 fb 3c 3e 99 f1 39 3e
       0.03610373 -0.07968577 0.18455495 0.18158568
0000e0 da ab 97 bb 4b e1 68 3e 65 5f b4 3c ca 76 25 bc
       -0.0046286406 0.22742192 0.022018144 -0.010099122
0000f0 46 94 27 bd 43 0f 46 3e 51 74 34 3d 26 47 81 3d
       -0.04091289 0.1934176 0.04405624 0.063123986
000100 ac 06 8f 3d a0 1f b2 3d 5b 99 e5 3c 75 de 5e 3d
       0.069836944 0.08697438 0.028027227 0.05441137
000110 74 6f a5 bb a8 68 b7 3e 96 ca 00 3e 9b 34 b2 bc
       -0.0050486866 0.35822034 0.1257728 -0.0217536
000120 4e a1 b2 3c a8 77 63 3a 4d 2c 51 3e 3f 74 cd bb
       0.021805432 0.0008677193 0.20427056 -0.006269961
000130 fa 3b 2a 3f 5d da 20 3c 40 b1 0c bb 50 dc d7 3d
       0.66497767 0.009817687 -0.0021467954 0.10540068
000140 d9 2f 26 3e c8 2d 13 3e ea ed 10 3e 36 1e 73 bc
       0.1622919 0.14372933 0.14153257 -0.014838746
000150 97 6c e4 bd 48 85 30 3e 24 23 05 be b5 31 89 3e
       -0.11153524 0.17238343 -0.13001686 0.26795736
000160 5b be 70 3d 2a 06 91 3e 0e 5f 9d 3e 96 02 a2 bd
       0.058775287 0.28325015 0.30736583 -0.079106495
000170 20 a7 12 3b 27 87 e3 3d a9 25 96 3d 00 44 2f bd
       0.0022377446 0.11109763 0.07331402 -0.04278946
000180 4c 2b 1f 3e 41 a4 1b be c8 ce 67 3d 8b 64 b2 bc
       0.1554386 -0.15199377 0.056593686 -0.021776458
000190 3b d5 d1 3d dd 93 68 3e ed d8 d2 3d d9 29 36 3d
       0.102457486 0.22712655 0.102952816 0.044473503
0001a0 17 61 67 3d 4f b9 37 3e c3 62 b2 bd 31 91 93 3a
       0.056489076 0.17941783 -0.087102436 0.001125848
0001b0 52 26 4a 3e 61 c5 ae 3d 5b cb 9e bd 59 f0 4c 3e
       0.1974118 0.08533741 -0.07753631 0.2001356
0001c0 b9 61 37 bd 21 39 28 3d 2a bd 2a 3e 7c d1 fc bb
       -0.04477093 0.041070107 0.16673723 -0.007715402
0001d0 03 a0 65 3e 55 75 a5 3c 92 85 98 bd db 9d 1f bd
       0.22424321 0.02019755 -0.074473515 -0.038968902
0001e0 30 23 31 bd 76 81 64 bd 1b 73 5c 3e 9a c6 e3 3d
       -0.043246448 -0.055787526 0.21528284 0.111218646
0001f0 73 82 38 3d 70 e3 f9 3d 87 d9 ce 3e 57 27 7f 3c
       0.04504628 0.122015834 0.40400335 0.015573344
000200 a6 e4 6e 3c bc 36 c3 bd ab a0 16 3d 38 5a e4 3c
       0.014580881 -0.09531924 0.03677432 0.02787505
000210 61 33 97 3a 02 8e 69 3d 7a c1 ea bc 63 52 e9 3c
       0.0011535698 0.057020195 -0.02865671 0.028481668
000220 e4 13 6d bd 55 40 6e bc b9 21 5c bb d2 ce 2b bd
       -0.057880297 -0.014541705 -0.0033589436 -0.041945286
000230 a2 7c c7 bd ae 1c 49 bd 32 53 61 3d 2a bd 26 bc
       -0.09740569 -0.049099617 0.05501098 -0.010176936
000240 39 46 6e 3d b4 d3 7a 3d 5c be 8c 3b 79 98 bd bd
       0.05817244 0.061237052 0.0042951535 -0.092575975
000250 73 ab 5e bd ec 60 1e bd cf bf 79 3d 7e 10 97 bd
       -0.054362725 -0.03866665 0.06097394 -0.073761925
000260 9e e3 28 3d 8f 33 4f 3d 76 0d eb 3c 20 5f ec bc
       0.041232698 0.05058628 0.028692942 -0.028853953
000270 bd 41 16 bd c7 99 0a 3d 62 20 a3 bc 0c e5 68 bd
       -0.036683787 0.03383806 -0.019912902 -0.05685906
000280 09 09 99 bd 8e ee b2 bc 50 0b 4f 3d f8 1b 1c bd
       -0.074724264 -0.021842267 0.050547898 -0.03811261
000290 21 eb 9d 3c 65 a4 dc bd 2e e5 fa 3c ba e3 29 3d
       0.019277157 -0.10773543 0.03062686 0.041476943
0002a0 69 1b 40 bd 28 3b 51 3d 3b a0 d6 bb e4 69 c1 bd
       -0.04690114 0.051081806 -0.0065498627 -0.09444025
0002b0 5c 85 35 bd 49 71 90 bd b2 50 ac 3d 88 4f 25 3d
       -0.044316635 -0.070528574 0.08413829 0.04035905
0002c0 98 70 20 bd 72 4a 5b 3b f7 da af 3d 6a 89 7b 3b
       -0.039169878 0.003346112 0.08586686 0.0038381466
0002d0 9f f1 89 3a 86 28 ac 3d f5 9c b9 bd f0 8b af bd
       0.0010524279 0.08406167 -0.0906314 -0.08571613
0002e0 7e 80 29 bd ae b2 19 bd eb 6e 95 bd e9 e9 4e 3d
       -0.041382305 -0.037523918 -0.072965465 0.050516043
0002f0 b8 49 85 bd 79 f0 a4 bd 6e 8b 5b 3d c3 08 0b bc
       -0.06508201 -0.08053679 0.053599767 -0.008485976
000300 2b e6 7e bc 67 4f 3c 3c fb 39 5d 3d 0a cd 6e bd
       -0.015557806 0.01149354 0.054010373 -0.05830101
000310 da 85 b1 3d e9 a9 49 3d 54 8b 8d bd 85 50 cf 3c
       0.08668108 0.049234305 -0.0691134 0.02530695
000320 e3 e7 30 3d e4 55 6e 3d 7a 2a dd bd d3 1a 9a 3c
       0.043189894 0.05818738 -0.107991174 0.018811619
000330 d5 d8 6b bd 34 89 1d bd cf ea 98 bd 52 8b e3 3c
       -0.057579834 -0.038460925 -0.07466661 0.027776394
000340 ce 48 89 bd ad 1b 90 3d 0f 02 e9 3c b3 6b ad 3b
       -0.067033395 0.07036529 0.028443364 0.0052923798
000350 73 9c 28 3d be a1 85 3d bf 5d 6a bc 7c e6 ef 3c
       0.041164827 0.065249905 -0.014304577 0.029284708
000360 0c 05 16 3c 05 c0 0e 3c 3a 77 6b 3d b0 f4 a8 3d
       0.009156477 0.008712773 0.05748675 0.082497954
000370 c0 18 b5 b9 28 3f 5e 3d 9c 00 5f bd b1 81 b4 bb
       -0.0003454145 0.05425945 -0.05444394 -0.0055086245
000380 93 6d c6 bd ae af c3 bc 95 1d 39 3d 6e 0a a4 bc
       -0.096888684 -0.023887482 0.045194227 -0.020024505
000390 9c 8a 60 bd a7 7e a9 3c ff 23 07 bd ea 02 4f 3d
       -0.05481969 0.020690275 -0.032993313 0.05053989
0003a0 cc eb 8f bc aa 91 95 3c fd b3 af bd b6 fe 9a bd
       -0.017568491 0.018257935 -0.08579252 -0.075681135
0003b0 c2 f0 c4 bd 84 49 77 bd 66 ab 5a bd 09 43 c3 bd
       -0.096162334 -0.060372844 -0.053386115 -0.0953427
0003c0 bc fa 1e bd fb 84 7b bd 60 53 b7 bd 2c 03 0d bd
       -0.038813338 -0.061406117 -0.089514494 -0.034426853
0003d0 48 95 8b 3d 4b bb db bb 9f 8f 99 bc 15 ae aa bd
       0.068155825 -0.0067056767 -0.018745242 -0.08333985
0003e0 b9 52 97 3d 3a 53 01 3d 21 c9 5e 3d f5 6d 3b 3d
       0.07388825 0.03157351 0.05439103 0.04575916
0003f0 28 65 c1 bd d3 5f 00 3d 3a 5d b9 3c b5 4e be bc
       -0.09443122 0.031341385 0.022627462 -0.02323089

fc2.bias f4 [64]
000000 ec 74 fc 3e c0 db c5 bd 6b 71 81 3c e3 67 0d 3f
       0.49307954 -0.096610546 0.015801152 0.55236644
000010 f1 2a 11 3f c5 3f 83 3c f3 16 3d 3f 0a 84 29 bd
       0.5670615 0.016021619 0.7386314 -0.041385688
000020 d7 db 13 3f e2 f2 12 3f dc a5 14 3d 4a 50 6c bc
       0.57757324 0.5740186 0.03629099 -0.014423439
000030 23 0a 00 3f e3 cd 0c 3e 50 c7 07 3f 17 b4 18 3f
       0.5001547 0.13750415 0.530385 0.59649795
000040 1c b0 15 3f f0 5c 25 3f be 86 08 bc 09 e0 0d 3f
       0.58471847 0.64594936 -0.008332906 0.55419976
000050 e6 d1 7d bc 63 51 8d 3d c6 99 4d 3d 42 64 32 bd
       -0.015491938 0.06900289 0.050195478 -0.043552645
000060 9b 92 00 3f aa 67 22 3f f5 20 09 3f 41 ac 64 3d
       0.502237 0.6343943 0.53565913 0.055828337
000070 5a 0b 56 bd 7e 44 8c 3e 59 8e 88 3d 1b 6e b7 3c
       -0.05225692 0.27396005 0.06667776 0.02239137
000080 9c 7a fd 3e bc 6f 3b 3f 81 05 79 3c 65 e1 15 3f
       0.49507606 0.7321737 0.015199066 0.5854705
000090 53 b6 2e 3f 4e ae d1 bc 61 43 20 3f 13 4a 1d 3f
       0.68246955 -0.02559581 0.6260281 0.61441153
0000a0 2d f6 69 bd d1 e9 26 3f e7 98 36 bd fe 38 22 bd
       -0.057119537 0.65200526 -0.044579413 -0.039605133
0000b0 0f b8 69 bd 6e 77 3e 3b b1 ad b1 3c f9 77 0e 3d
       -0.057060298 0.0029062885 0.021689268 0.034782384
0000c0 92 39 57 bd f7 85 1a 3f 2e 8c cf 3b 6f 48 92 3b
       -0.052545138 0.60360664 0.0063338494 0.004464201
0000d0 d4 6e 96 bd 92 23 75 bb db 8b 31 3f 00 43 4c 3f
       -0.073453575 -0.0037405235 0.6935403 0.79789734
0000e0 b1 d0 39 bd 18 18 10 3f c5 9a 30 3f 3f 62 22 3f
       -0.04536504 0.56286764 0.6898616 0.6343116
0000f0 af dc a4 3e c5 97 c0 bc 7d e2 95 bd 62 ee de bb
       0.32199618 -0.02350987 -0.0731859 -0.00680332

fc3.weight f4 [6, 64]
000000 7a a9 de bd 0f 1f b6 3d 90 62 be 3d 83 54 66 be
       -0.10872169 0.08892643 0.09296143 -0.22493176
000010 8f 0c 90 bd 90 84 d6 3c 27 84 58 ba 96 2a e4 bd
       -0.07033645 0.026186258 -0.00082594383 -0.11140935
000020 d8 73 95 be 0f d2 58 be a9 dd b7 bd 40 2c 2e 3b
       -0.29189944 -0.21173881 -0.08977825 0.0026576668
000030 f2 6b e4 bd 38 fb 69 3e c1 39 0d be 00 d3 60 be
       -0.111534014 0.22849739 -0.13791563 -0.2195549
000040 82 db 0b be 17 8f 34 be fc fd 7e bd ee 21 7a be
       -0.13657954 -0.1763271 -0.062253937 -0.24427006
000050 c0 30 2d 3d fd 54 e6 3d 38 4d e8 3c dc 50 dc bd
       0.04228282 0.11246679 0.028357133 -0.1075761
000060 3a 4c a2 be 76 40 58 be b0 68 fe bd 55 ac c5 bc
       -0.3169878 -0.2111834 -0.12422311 -0.024130026
000070 aa a8 5d bd 35 4e 1f bc cb da ad bd 77 b6 07 be
       -0.05411593 -0.009723236 -0.08488997 -0.13253199
000080 d2 1a 7f 3d 68 f8 6a bc 6b ae 29 3d fd b8 8d bd
       0.062281437 -0.014341451 0.041426104 -0.06920049
000090 b6 e1 83 be 5e 7d 83 3d 82 8b 80 be 72 9d 1b be
       -0.2575814 0.06420396 -0.25106436 -0.1519678
0000a0 da bc bd bb c8 ef 75 be 58 a1 74 3d 94 9a 9a 3d
       -0.005790335 -0.2401725 0.059724182 0.07549015
0000b0 20 bb c8 bb ec f1 d9 3d 38 8f 87 3c 84 6b df bd
       -0.0061258227 0.10641846 0.016547784 -0.10909179
0000c0 ae 11 ca bd 44 24 03 be 88 95 02 3d 36 cf d7 bd
       -0.098666534 -0.12806803 0.031880885 -0.10537569
0000d0 88 2b 40 3d 1b ae b6 3d fc be 47 bd f3 5a d5 bd
       0.046916515 0.08919927 -0.04876612 -0.10417738
0000e0 9b 27 22 3d 21 90 f0 bd 32 6c b2 bd 0c 5e e5 bc
       0.039588552 -0.117462404 -0.08712043 -0.027998947
0000f0 db 32 f5 bc d4 df 3b bd 1c 5d 50 bd 3f c8 00 be
       -0.029931476 -0.045867756 -0.050870046 -0.12576388
000100 e1 d9 9b be f6 5c d5 bd a4 6c 60 bc 57 f2 5b be
       -0.30439666 -0.104181215 -0.013697777 -0.21479164
000110 eb 1e ac bd 90 b3 44 3c b5 2b 85 be 30 6c 25 3d
       -0.08404335 0.012005702 -0.26009908 0.04038638
000120 cd 13 ae bd 2e f7 11 be 77 4e 99 3d c8 6f ff bc
       -0.084998704 -0.14254448 0.07485669 -0.031181231
000130 67 b2 09 bd 8c b2 93 3e 56 e1 81 be 91 6b 4e be
       -0.033617403 0.28847158 -0.2536723 -0.20158221
000140 fe 35 7c be 83 fe 06 be cc fd f7 bd 45 72 e0 bd
       -0.24629971 -0.13183026 -0.12108955 -0.10959295
000150 96 c5 c7 3d d8 48 22 bd 18 a9 ef 3c 7c a2 fd 3d
       0.097544834 -0.03962025 0.029255435 0.12384507
000160 8d 9f ca bd 8a 12 94 be 3e 08 7f bd 5d cb e0 3c
       -0.09893713 -0.28920394 -0.06226372 0.027440721
000170 31 0a e5 3d 0c 0c ad be 53 ec 2d bc c8 6d e7 3d
       0.111835845 -0.33798254 -0.010615426 0.11300236
000180 d7 87 a4 be ac 3b 8a be 39 7b d4 3d f6 17 3a be
       -0.32134888 -0.2699865 0.10375065 -0.18173203
000190 e0 ef d3 3d f8 e8 b4 3d 05 81 a4 bc 58 05 31 be
       0.10348487 0.08833498 -0.020081053 -0.17287195
0001a0 a2 09 cb bd f0 9b a1 3d 62 bf a6 3d 57 30 22 3b
       -0.09913947 0.07891071 0.08141972 0.002474805
0001b0 80 5f 5c bc 34 1d 79 3d 84 61 a7 bd 47 56 5d 39
       -0.013450503 0.060818866 -0.081728965 0.00021108343
0001c0 4a d7 9b bd 1a fd 84 be b6 af f8 3d f0 61 ce 3d
       -0.076094225 -0.2597435 0.12142889 0.10077274
0001d0 ff 46 f3 3d a6 47 d4 3b 42 29 45 bd 49 9f 12 be
       0.11878776 0.0064782677 -0.04813505 -0.14318575
0001e0 78 35 74 3d 1a 47 2d 3d b9 fb b2 bc 83 73 d4 bd
       0.059621304 0.042304136 -0.021848546 -0.103735946
0001f0 36 d3 5f be 50 99 a4 3c bd 57 88 3d 02 61 22 bb
       -0.21857914 0.020092636 0.0665736 -0.002477706
000200 56 ab 6e be 4a 93 24 bc 2d 5d 7d bc db db 68 bd
       -0.23307547 -0.010044882 -0.015464109 -0.056850296
000210 ce b2 66 bd cc 5c df 3d 12 e6 0b 3c 70 87 dd 3c
       -0.056322865 0.109063715 0.00853874 0.02704212
000220 92 6c 81 be 52 42 31 be e1 c0 a8 bd 2c 26 27 3c
       -0.25278145 -0.17310455 -0.08239914 0.010201972
000230 1e 11 45 3d 53 40 02 bd 35 1d ff bd 8a 23 96 3c
       0.048112027 -0.031799626 -0.12456743 0.018327493
000240 75 66 1e bd 9e 2c b2 be 7c 32 7c 3d 75 2e 2d 3d
       -0.03867193 -0.34799665 0.061571583 0.042280633
000250 10 c1 d4 bc 96 91 cc 3b b8 59 c5 3c 89 d6 90 3d
       -0.025970966 0.006242941 0.024090633 0.07072169
000260 bb dc 32 3d 97 1c 96 3c 1f eb d1 be 34 f5 b0 3b
       0.043667536 0.01832418 -0.40999696 0.0054003242
000270 d3 0d 0a 3c df 6b bd 3e d0 11 c0 3e f1 16 a7 3c
       0.0084261475 0.36996362 0.3751359 0.020396682
000280 1e 8c c6 be 91 90 7b be f5 65 e6 3c 24 16 d4 bd
       -0.38778776 -0.24566866 0.028124789 -0.103557855
000290 44 cc 4a be e8 da 97 3d 9f c7 57 be 52 c3 1b be
       -0.19804484 0.074148 -0.21072243 -0.15211228
0002a0 ba dd b4 3d 94 45 3b be ff cd 6f bc ae 98 82 bd
       0.088313535 -0.1828826 -0.014636516 -0.063767776
0002b0 e4 d2 10 bd 48 9f d6 3d 9c 47 8b bd 7d b4 b3 bd
       -0.03535737 0.10479599 -0.06800768 -0.0877466
0002c0 76 ec 80 3d 29 64 19 be 92 7f 9a bd 96 d3 a0 3b
       0.06295101 -0.14979614 -0.07543863 0.0049080355
0002d0 e8 cc 7d 3d 5c 97 22 bd b4 2a b9 be 26 27 8f be
       0.061962992 -0.03969513 -0.36165392 -0.27959555
0002e0 50 5b a0 3c 37 2b 21 be b7 e4 bb be 0d 60 9f be
       0.019574791 -0.15739141 -0.36697933 -0.31127968
0002f0 c5 76 d3 3d 20 35 7e bd 90 3c f6 bc 8c 67 c0 3d
       0.10325388 -0.062062383 -0.030058175 0.0939475
000300 db 8f 3b be 99 e5 c0 3d 45 29 98 3d b9 0c 8e be
       -0.18316595 0.09418792 0.074297465 -0.27744082
000310 5a 7c 84 be c6 fa b9 bd 29 4b 6a 3d c4 d7 96 bd
       -0.25876123 -0.09081034 0.057200585 -0.07365373
000320 91 df 79 be 53 03 d6 3b 1d e8 78 3d f0 8d a1 bd
       -0.2440169 0.006531158 0.060768235 -0.078884006
000330 60 ef 92 be d4 f8 0b bd 44 94 25 be 7b e5 2e be
       -0.28698254 -0.034172848 -0.1616984 -0.17079727
000340 9b 9e 32 be 2a 8d b3 bd da b8 db bd 26 b2 9f bd
       -0.17443316 -0.08767159 -0.10728617 -0.07797651
000350 c0 5a f1 bd 99 a5 c1 bd de ad e1 3d 97 37 d7 bd
       -0.11784887 -0.09455413 0.11019491 -0.1050865
000360 f8 66 96 be 1f 8d 28 be 15 5f 23 3d 94 b0 53 bd
       -0.29375434 -0.16460083 0.0398856 -0.05168207
000370 17 0e 81 3b 31 56 c7 be b4 d2 4d 3e d0 11 8f bc
       0.003938447 -0.38932946 0.20099908 -0.017464548
000380 1d 17 b4 bc c9 97 c9 bd ab 18 d1 3d 8b b5 86 be
       -0.021983678 -0.09843404 0.10209783 -0.2631038
000390 fd 19 4b be 5e e3 d4 3b ae ec 8e bd fb e9 10 be
       -0.19834132 0.006496831 -0.06978737 -0.14151756
0003a0 3c 5f 73 3d 1f 8c 5f be 4b a0 b3 bb df 3f a8 bd
       0.059416994 -0.21830796 -0.005481755 -0.082153074
0003b0 38 0d bd 3c a2 9a b1 bd dc 03 d7 bd 62 1a b9 3d
       0.023077592 -0.08672072 -0.10498783 0.09038235
0003c0 10 22 8a 3d 58 a0 89 be 60 9d f9 3d 6e 11 c2 3d
       0.06744778 -0.26880145 0.1218822 0.09475981
0003d0 da 6f ae 3c 19 f9 ee 3c 93 8e ab 3c 48 2a 6f bc
       0.02129357 0.029171513 0.020942008 -0.014597483
0003e0 60 53 b6 bb cf a8 94 be 8b 1b a3 3d 0b 85 ac 3d
       -0.0055641383 -0.2903504 0.07964238 0.084238134
0003f0 d3 10 a9 be 58 63 4c bd 8c dc b7 bd 1e 84 73 bd
       -0.33020648 -0.04989943 -0.08977613 -0.05945217

fc3.bias f4 [6]
000000 db c9 1b bd 50 db 7f be 33 d7 8c be 1c d1 01 be
       -0.0380343 -0.24986005 -0.27507934 -0.12677425
000010 57 fa 81 bf c9 ab 95 bf
       -1.0154523 -1.169305
