dqn_taxi_light64.pth (torch, 43362 bytes, 6 tensors)

fc1.weight f4 [64, 16]
000000 6b 35 8a 3e af dc 99 3b ac fe 30 3e 69 a1 e0 bd
       0.2699388 0.004695497 0.1728465 -0.109682865
000010 32 16 12 bd c3 19 73 3f 3b 44 35 3f 41 33 02 be
       -0.0356657 0.94961184 0.70807236 -0.12714864
000020 3e 60 50 3f 3e 79 3c 3f 09 b0 da 3f bb 52 f7 3e
       0.81396854 0.736225 1.7084972 0.48305306
000030 36 5f ab 3e 6c 4b bb 3f bf a0 48 bf ad 7b 3b 3f
       0.33471078 1.4632392 -0.7837028 0.7323559
000040 ab e9 3e 3b 34 6f 5d be be 7b c4 bd f6 4f 32 3d
       0.0029130976 -0.21624452 -0.095939144 0.043533288
000050 46 aa 0c be ac bc c6 bd 5d c9 6b be 48 18 90 bd
       -0.13736829 -0.09703955 -0.23026033 -0.07035881
000060 30 65 ee 3d 21 03 ac bd 17 b0 44 3e 75 5f da bd
       0.11640394 -0.08399034 0.19207798 -0.10662738
000070 f0 a2 58 ba d8 15 5f be 96 11 e7 3d f8 e7 a8 3c
       -0.00082640257 -0.21785676 0.11282651 0.020618424
000080 c1 4a 3d 3d 01 76 27 bc 7c 91 90 3c b9 b3 ba bd
       0.04621387 -0.010221005 0.017647497 -0.091163106
000090 eb f9 3a 3e 84 8b 8c bd 96 a5 8c bd 22 20 ab 3d
       0.18259399 -0.06862548 -0.068675205 0.08355738
0000a0 07 4e 97 3c 7c 6a 9f bd be d5 f0 bc 77 e1 a2 3d
       0.018469824 -0.07783982 -0.029398795 0.0795316
0000b0 c8 ad c6 bd 89 a1 06 3e 88 e1 01 3e 11 ec d0 bd
       -0.09701115 0.13147558 0.1268369 -0.10201276
0000c0 4c a0 8b 3e 87 a2 94 3e 44 66 54 3e fb 81 25 3e
       0.27270734 0.2903025 0.20742136 0.16162865
0000d0 0e 9f 73 3c 69 57 87 3f 09 0e 90 3f 30 ce 3b be
       0.014869465 1.057355 1.1254283 -0.18340373
0000e0 ec 78 9a 3f 65 71 6a 3f be 13 c7 3f 1e de e9 3e
       1.2068152 0.91579276 1.55529 0.45677274
0000f0 c6 2b 2b 3f 51 e1 c4 3f 9a a3 12 bf d0 09 fa 3e
       0.6686367 1.5381261 -0.57280886 0.4883561
000100 30 ad e6 bd 5c 59 5f be 46 27 69 be a4 52 ff 3d
       -0.11263502 -0.21811432 -0.22768888 0.12466934
000110 fc eb d7 bc 29 4d 3c 3e 11 ce a0 3d 0e 12 1a be
       -0.026357643 0.1838881 0.07851804 -0.1504595
000120 ee 90 71 be ee 6d 07 be bc ed 29 be 4f e8 3a be
       -0.23590443 -0.13225529 -0.16594595 -0.18252681
000130 d4 20 ca ba af d1 51 be ec 6e d0 bd 6c 4b fd 3d
       -0.001542116 -0.20490144 -0.10177407 0.12367901
000140 cb 16 98 bd 31 18 26 3e a4 88 d4 bd fe 23 2e 3e
       -0.074262224 0.16220166 -0.10377625 0.17005917
000150 c2 d9 5e be 40 d5 22 bd 61 9a fd 3c cb a3 49 3e
       -0.21762756 -0.039754152 0.030957403 0.19691388
000160 00 99 06 be 88 80 5f be 6f ed bc bd 70 4f af bc
       -0.13144302 -0.21826375 -0.09224974 -0.021400183
000170 29 1c 5f 3e 88 af b0 bd a8 9e e7 bd f8 f3 28 bd
       0.21788086 -0.0862723 -0.11309558 -0.04124829
000180 d2 15 2a be 23 fe 4b 3e df 5b 1c 3e f0 97 a0 bd
       -0.16609886 0.19921164 0.15269421 -0.0784148
000190 53 eb 00 3e 70 b0 63 be da 6d 76 bd a7 75 22 3e
       0.12589769 -0.22235274 -0.060163356 0.15865193
0001a0 64 2b 12 3e 88 46 42 be fe c0 3c be 01 14 0c be
       0.14274365 -0.18972218 -0.18432996 -0.13679506
0001b0 58 e9 4a be 55 1e da bc 15 1e 28 be 75 66 2e bd
       -0.19815576 -0.026625792 -0.16417725 -0.04257818
0001c0 c6 12 12 3c 6b 49 74 bd da 79 a8 bc 0e da 8e 3d
       0.008915609 -0.05964033 -0.020565916 0.069751844
0001d0 b5 f1 15 3e af e4 74 3c 4b e4 c7 bc df b3 7b bd
       0.14642985 0.014947101 -0.02440085 -0.061450835
0001e0 35 ab 9e 3c 77 fc 9f bd 7f 31 24 3c 73 88 53 3e
       0.019368747 -0.07811826 0.010021566 0.2065752
0001f0 f0 a1 d1 3d d8 75 64 be 69 a3 86 bc a0 c9 ef bc
       0.10235965 -0.22310579 -0.016435342 -0.029270947
000200 77 0a c8 3d a9 ad 1f be c2 b3 d1 3d e4 dc 1c bd
       0.09767621 -0.1559359 0.10239364 -0.038296595
000210 8d d1 2c 3e b2 ab 04 be 4d e9 fb bd e8 e4 1a 3e
       0.16876812 -0.12956122 -0.12300358 0.15126383
000220 2f a9 5e bd 58 17 bf 3d da fb ca 3d ec 64 11 3e
       -0.054360565 0.09330624 0.09911318 0.14198655
000230 22 94 0b be fd 3e 58 be da b3 cc 3c ac ba 25 be
       -0.13630727 -0.21117778 0.024988104 -0.16184491
000240 53 fe 9f 3d ec eb e6 3e 78 b0 26 3e e4 47 47 3d
       0.0781218 0.4510187 0.16278255 0.048652545
000250 22 84 b5 bd 91 8e 64 3f 1c 26 8e 3f aa 46 0f bd
       -0.08863093 0.8928004 1.110538 -0.0349795
000260 0d 4d 48 3f fc 3b 75 3f 7e ea b6 3f 4e 0f 00 3f
       0.7824257 0.95794654 1.4290311 0.50023353
000270 72 06 4f 3f 14 44 b4 3f 67 dd 54 be ba 34 46 3f
       0.8086921 1.4083276 -0.20787583 0.77424204
000280 0e 98 f7 3d 19 e3 43 bd 9b 1c 44 be 38 54 c4 bd
       0.12089549 -0.047824 -0.19151537 -0.09586376
000290 b5 7f 00 be e5 27 00 be 8c 96 37 3b c2 1f c8 3d
       -0.12548716 -0.12515219 0.0028013317 0.09771682
0002a0 11 bb 72 be 2e 1f 04 be 74 84 d2 bd 0c 5b 3a 3e
       -0.23704173 -0.12902519 -0.1027917 0.18198794
0002b0 ed a3 0c be 95 67 09 3d 17 0b 6c 3e 0a 6d 56 3e
       -0.13734408 0.03354605 0.23051105 0.20940033
0002c0 a7 1e a6 3e 08 08 58 3e 0c f8 aa 3d c0 a6 45 3e
       0.3244526 0.21096814 0.083480924 0.19301891
0002d0 66 a7 21 3e b8 d9 50 3f d6 ee 98 3f 9a 7a 45 3e
       0.15786514 0.8158221 1.1947887 0.1928505
0002e0 6f c1 3f 3f a5 89 99 3f 93 55 b8 3f 71 62 1f 3f
       0.7490453 1.1995131 1.4401115 0.62259585
0002f0 f6 ec 29 3f fb 42 a0 3f fd 75 bd be a9 66 43 3f
       0.663772 1.2520441 -0.3700408 0.7632852
000300 be c3 a8 bd 37 00 68 3e 22 1e 32 3d 15 ef a3 3d
       -0.0824046 0.22656332 0.04348577 0.08004586
000310 aa 17 6d 3e 21 bf 96 bc 3e 6e 3c be e3 b7 30 3d
       0.23153558 -0.018401684 -0.18401429 0.043144118
000320 8d d2 41 be 3e 10 80 3b 3a 26 c0 3d a6 07 2e 3e
       -0.18927975 0.003908186 0.09382291 0.16995105
000330 6f 46 1a 3e 23 20 c8 bd d0 4c 8e bd 3f 38 67 3e
       0.15065931 -0.097717546 -0.069482446 0.2258005
000340 99 aa 50 be d6 37 f9 bd 3b d1 40 bd 38 4a 90 bb
       -0.20377578 -0.12168853 -0.047074538 -0.004403379
000350 d6 33 e0 3d 7e 72 a5 3d 20 df 98 bd 53 2c 5f bd
       0.10947387 0.08078478 -0.07464433 -0.05448563
000360 a3 7d 56 be 0b 94 29 3e 35 0e 45 bd 3c 56 20 be
       -0.20946364 0.1656038 -0.048109252 -0.15657896
000370 9e e1 99 3d 91 f5 62 be 7e d8 59 bd c6 f8 2d be
       0.07513736 -0.22163989 -0.05318498 -0.16989431
000380 9a 3b 9d 3e fb 61 e6 3d ae f9 19 be 24 a8 40 be
       0.30709535 0.11249157 -0.15036651 -0.1881414
000390 63 76 39 be 2d 25 92 3f 0e 92 75 3f ea 41 d5 3d
       -0.18111567 1.1417595 0.95925987 0.10412963
0003a0 f7 44 6f 3f 77 05 8c 3f 47 0b b6 3f 16 e0 20 3f
       0.93464607 1.0939168 1.4222192 0.6284193
0003b0 b8 54 2d 3f 35 29 ce 3f 0e da ca be bc 86 17 3f
       0.67707396 1.6106325 -0.39619488 0.59189963
0003c0 82 c8 23 3d 66 ec f2 3e c5 49 88 bd c9 88 93 bd
       0.03998614 0.47445983 -0.066546954 -0.07203824
0003d0 71 a8 5e be 92 88 50 3f 1a eb 92 3f ce 4c 4f 3e
       -0.21743943 0.8145839 1.1477997 0.20244142
0003e0 5b 30 83 3f 71 9d 7c 3f fe 88 ce 3f 0d 1d 53 3f
       1.0249132 0.98677737 1.6135557 0.824662
0003f0 a2 c5 10 3f 42 25 b8 3f 3a 8d 2b bf 2e ed d2 3e
       0.56551564 1.438637 -0.6701237 0.4119658

fc1.bias f4 [64]
000000 47 7d bf 3f f1 d5 07 3e cc 74 38 3d a7 49 d1 3f
       1.4960107 0.13265206 0.04503326 1.6350602
000010 c9 ce a2 3d 19 4c 42 be 9c 75 a6 bd cc 02 06 be
       0.079495974 -0.18974341 -0.08127901 -0.13087004
000020 78 b5 d7 3d 23 f0 d2 3f 7c 65 1c be aa 3d b6 3f
       0.10532659 1.6479534 -0.15273088 1.4237568
000030 17 58 17 be f7 05 6c 3e 41 1f a4 3f f6 3d ce 3f
       -0.14779697 0.2304915 1.2822038 1.6112659
000040 4a bd 9e 3f a2 88 f3 3d 00 4a b2 3f d1 47 a8 3f
       1.2401516 0.11891295 1.3928833 1.3146917
000050 3e 19 3e be 8b ce be 3f 8f a3 ca 3f 28 f9 a5 3d
       -0.18564317 1.4906782 1.5831164 0.081041634
000060 82 de 9b 3f 93 48 b7 3f 8b 9e af 3f 20 6b c3 3f
       1.2177279 1.4319023 1.3720258 1.5267067
000070 b7 01 ce 3f 63 fe cc 3f 37 6b b0 3f e7 06 ca bd
       1.6094273 1.6015133 1.3782719 -0.09864598
000080 df 93 9c bd d3 e9 cc 3f 17 2a 9f 3f 70 c0 ce 3f
       -0.07645392 1.6008857 1.243472 1.6152477
000090 64 39 a8 3f 7a 2d 66 be 46 a3 d7 3c 24 ca bc 3f
       1.3142514 -0.22478285 0.026322972 1.4749188
0000a0 54 41 b3 3f 42 bc d2 ba e0 72 cd bd 5b 20 b3 3f
       1.4004312 -0.0016077834 -0.10031676 1.3994249
0000b0 1b a9 9b 3f c5 52 cd 3f f2 67 12 3d 28 74 a2 3f
       1.2160982 1.6040884 0.03574366 1.2691698
0000c0 4c 52 cd 3f 74 4a 12 bd 64 4d a7 3f 36 33 9c 3f
       1.604074 -0.035715535 1.3070493 1.2203128
0000d0 12 aa bc 3f 47 e7 a9 3f 13 f8 c4 3f dd 0d a8 bc
       1.4739401 1.3273705 1.5388206 -0.020514423
0000e0 96 97 17 bc 08 d7 a1 3f 46 6d 19 bd 96 12 bf 3f
       -0.0092524495 1.2643747 -0.037457727 1.4927547
0000f0 8e 80 c1 3f 33 b8 b5 3f ed c6 9f 3f c3 c1 9b 3f
       1.5117357 1.4196838 1.2482582 1.2168506

fc2.weight f4 [128, 64]
000000 be da 94 3d 01 e8 01 3d 97 6e d8 bc 96 91 39 3d
       0.07268284 0.031715397 -0.02641992 0.045304857
000010 e9 61 7c bd 4a 9f d0 3d f1 79 09 3d fb 4a 29 bc
       -0.061616812 0.10186632 0.033563558 -0.010332818
000020 28 9e da bc 8a d0 97 bd 1b d5 37 3c 03 76 4c bd
       -0.026686743 -0.074128225 0.011220242 -0.049917232
000030 cf 32 c6 3d 8a 91 9e bc eb 01 f3 bd c7 8e 71 3d
       0.0967766 -0.019356508 -0.118656 0.058974054
000040 99 b0 f1 bc c9 bf 6c 3d 7d 7c 44 3d c4 dd 16 3b
       -0.029503154 0.057800088 0.047970284 0.0023020366
000050 4a 6d 85 bc 7e bb e8 3d 38 7b f2 3c d7 22 d0 3c
       -0.016287465 0.11363886 0.02959977 0.025407238
000060 36 2c 69 bd 70 47 63 bd 57 25 dd 3d 03 09 c2 3d
       -0.05692693 -0.05548805 0.10798138 0.09474375
000070 f5 87 9d bd 8d b4 51 bd cb ee 63 bd 06 47 7f 3b
       -0.07691947 -0.051197577 -0.055647653 0.0038952245
000080 de 31 a9 bd 50 39 4d bd 46 09 5a 3d 46 8e c7 bd
       -0.082614645 -0.050103486 0.0532315 -0.097439334
000090 e7 1a 6b 3d 74 03 dd bc 12 fe 94 3d 0e f8 a1 3d
       0.057398703 -0.026979186 0.072750226 0.07908641
0000a0 d7 56 47 bd da 26 ee 3c 09 80 5d 3d 6f b1 c4 bc
       -0.0486668 0.02907126 0.054077182 -0.024010388
0000b0 8f 5e eb 3d 64 93 8e 3c 70 cf e3 bc 8e ae 49 3d
       0.11492645 0.017404266 -0.027808875 0.049238734
0000c0 36 fb 58 3b 32 88 99 bd 97 ae be bd 62 b0 c5 bc
       0.0033108718 -0.0749668 -0.09310644 -0.024131957
0000d0 ad 3d 94 bd 2a aa a3 bc 79 56 c3 bd 15 84 51 bd
       -0.07238326 -0.019978601 -0.09537978 -0.051151354
0000e0 00 df 24 3d 50 c1 e6 3d 81 54 c5 3d b1 23 c3 3d
       0.040251732 0.1126734 0.096352585 0.09528292
0000f0 f2 07 86 bc 0a c3 08 bd a3 bb 3f 3d 40 ee ec bd
       -0.01636121 -0.03338913 0.046809804 -0.1156888
000100 85 d4 ea 3d 8e db 85 bc e5 2c 62 3d 7b 75 ea bd
       0.11466316 -0.016340043 0.055218596 -0.11448189
000110 77 ff 45 3d 4b ce d5 3c 66 6c 43 3d f3 b8 d4 bd
       0.048339333 0.026099345 0.0477108 -0.10386839
000120 dd e1 05 bd 56 9f 6b bd 9a e1 ae bd 2e 3d 35 3c
       -0.032686103 -0.057525 -0.08539124 0.01106195
000130 f8 cd 95 bd cd bf 96 bc ae 97 29 bd 18 7f a7 bd
       -0.07314676 -0.018402005 -0.04140442 -0.08178538
000140 b5 13 e4 bd a7 7d 3f bd 74 a4 a3 bd 66 17 20 bb
       -0.11136571 -0.04675069 -0.07990351 -0.002442801
000150 1b 52 1d 3c f3 30 c0 3d ea 6e eb 3d 9f d8 d1 bd
       0.009602095 0.09384336 0.114957646 -0.10246395
000160 5a d1 df bd 3b f9 34 3d 4e 67 a7 3d de a1 e9 bd
       -0.109286025 0.044182997 0.08174001 -0.11407827
000170 df 6c a6 bd 02 7a 85 3d 9a 9b f8 3c 5f 7a 47 bd
       -0.08126234 0.06517412 0.030347634 -0.048700687
000180 49 2d f1 bd 2f c5 37 bd 11 4d f1 bd 27 5e bf bc
       -0.117762156 -0.044865783 -0.117822774 -0.023360325
000190 10 af 81 bd 80 8c 29 bd af 7f 70 3d b1 fd 13 bd
       -0.06332219 -0.041393757 0.05871552 -0.03613061
0001a0 07 2c e6 bd 5d e5 f4 bd dc 9a 3e 3c 84 a3 e4 bc
       -0.11238866 -0.1195781 0.011633601 -0.027910002
0001b0 f5 cb ce 3d cd 18 19 bd b5 59 9c 3d d8 17 25 3d
       0.100974955 -0.037377167 0.07634298 0.040305942
0001c0 fc 9d 33 bc ad c0 f1 3d 45 79 f0 bc eb 5d d3 bd
       -0.010962959 0.11804328 -0.0293547 -0.10320648
0001d0 cb ec 27 3d 9c 53 85 bd af 98 6b 3d b6 1c bf 3d
       0.040997308 -0.06510088 0.057518657 0.09331648
0001e0 78 95 e0 3c 34 a1 6e bb 98 c4 d3 bd ee db 3b bc
       0.027415022 -0.0036412003 -0.10340232 -0.01146601
0001f0 f9 5f 81 bc 8d 49 cb bd 14 c5 d1 3d 70 b3 00 3b
       -0.015792834 -0.09926138 0.10242668 0.0019638203
000200 6d 02 28 3d 0b 32 f4 bd 08 30 da bb 0c df e0 bd
       0.04101794 -0.119236074 -0.006658558 -0.10980043
000210 8c a8 14 3d 18 9e 48 3d ab 26 43 bd a4 79 6e 3d
       0.03629355 0.048978895 -0.0476443 0.058221474
000220 1b ab bc bd f2 6e ce bd f1 49 ab bc 05 0a db bc
       -0.09212323 -0.10079755 -0.020909281 -0.026738176
000230 c3 2a 58 bd fe 70 d3 3d 35 d3 49 3d 83 c4 db bc
       -0.052775156 0.10324286 0.04927369 -0.026827103
000240 ae 74 a8 3d f9 4b eb bd 55 5c 44 bd 8f 58 ec 3d
       0.0822538 -0.114891 -0.047939617 0.11540329
000250 6b d8 88 bd a1 39 dc bd c7 e0 6f bd 9e 91 b3 3d
       -0.066819035 -0.10753179 -0.058563974 0.08768009
000260 51 09 86 3d 7f cc ba bd 7f 52 d4 3b 4b 1d f8 bd
       0.06544746 -0.09121036 0.006479561 -0.12114962
000270 b5 eb b9 bd 9f 84 9c bd 31 d0 fd 3a 39 d8 ea 3d
       -0.09078161 -0.07642483 0.0019364414 0.114670224
000280 4a 85 8f bd c4 9c c9 bc 10 28 a0 bd be 29 7c 3d
       -0.07007845 -0.024610884 -0.07820141 0.061563246
000290 7e 51 d4 3d 04 da 12 3d 87 fc ba bd d3 8f d3 3d
       0.10367106 0.035852447 -0.09130197 0.10330167
0002a0 f7 2f 99 bd ba 3c ef bc d3 4e b1 bd 01 4a c4 bd
       -0.07479852 -0.029203761 -0.08657613 -0.095844276
0002b0 61 33 a6 3d 0c e5 85 3c 32 98 da 3b 5c c6 83 bd
       0.081152685 0.01634457 0.006670975 -0.064343184
0002c0 74 be fd 3c 6b fd b7 bd 19 2a a9 3d 76 6c d9 3d
       0.030974604 -0.089838825 0.082599826 0.106163904
0002d0 54 69 37 3c 80 4f 50 3d 94 09 51 bd 2c a2 25 3d
       0.011194546 0.050857067 -0.051034525 0.040437862
0002e0 68 b4 a9 3d 18 98 20 bd a8 34 a1 bd 72 34 90 bb
       0.08286363 -0.039207548 -0.078713715 -0.004400783
0002f0 6d 24 08 3d ef bb 8f bb a0 39 99 3d 28 0a 90 bd
       0.033237863 -0.004386417 0.07481694 -0.07033187
000300 1c 3c 6b 3f 46 73 4f 3d 83 25 b5 3c be c7 52 3f
       0.91888595 0.050647043 0.022112614 0.8233603
000310 25 92 47 bc 00 ed 26 3d 7b 64 e6 bb 8a 0f 85 bd
       -0.01218084 0.040753365 -0.007031021 -0.064971045
000320 8a bf 5e 3b 9e a3 87 3f 50 59 3c bc df 1f 68 3f
       0.0033988678 1.0596807 -0.011495903 0.9067363
000330 2d c4 a7 bd 60 01 d6 3d 70 8e 7e 3f b7 5b 70 3f
       -0.081917144 0.10449481 0.9943609 0.93889946
000340 18 fe 4c 3f 29 16 f3 3c ab a5 52 3f 4f b3 74 3f
       0.80075216 0.029673653 0.8228404 0.95586103
000350 77 18 03 bd ef 94 64 3f c1 d6 81 3f 94 f8 82 3d
       -0.032005753 0.89289755 1.0143663 0.06395069
000360 54 c4 5b 3f de 77 71 3f 28 8b 83 3f 1b 89 83 3f
       0.8584645 0.9432353 1.0276842 1.0276216
000370 66 3c 87 3f 79 9a 79 3f f9 86 7c 3f 3b 33 5f 3d
       1.0565307 0.9750133 0.9864345 0.054492217
000380 de cd dd 3d ab b2 4c 3f 37 4c 6a 3f 19 e4 60 3f
       0.10830282 0.79960126 0.91522545 0.8784805
000390 c0 76 73 3f f6 6b 61 3c 8c 41 30 3d cf 71 5e 3f
       0.95103073 0.01375865 0.04303126 0.8689241
0003a0 6f 3b 83 3f 3f f8 62 bd 6a 1f 10 3d 76 20 75 3f
       1.0252513 -0.055412527 0.03518621 0.95752656
0003b0 02 b8 82 3f b9 4b 61 3f 2c 78 0e bc c7 dd 5a 3f
       1.0212405 0.8800617 -0.008695643 0.85494655
0003c0 bf 6e 59 3f 66 18 e2 bd 40 8d 83 3f f2 fa 73 3f
       0.8493461 -0.1103981 1.0277481 0.9530479
0003d0 2c 90 56 3f 93 91 50 3f 3e 2c 84 3f 6c 87 99 3d
       0.8381374 0.8147213 1.0326002 0.07496533
0003e0 25 57 c7 bd 5e df 72 3f 1b 91 ca 3b 66 84 6a 3f
       -0.097334184 0.9487208 0.0061818487 0.91608274
0003f0 5c fc 52 3f 73 aa 7a 3f f4 3a 81 3f 0a 54 82 3f
       0.8241632 0.97916335 1.0096116 1.0181897

fc2.bias f4 [128]
000000 e2 92 66 bd 8e a3 f0 3d 14 bc 73 bd 16 58 94 3f
       -0.056292422 0.117499456 -0.059505537 1.1589382
000010 a8 fb a8 3f f0 cc 8b 3f f7 ed a1 3f f8 fd 4f bd
       1.3201799 1.0921917 1.2650746 -0.050779313
000020 fa 59 80 3d 80 7f a3 3f 17 35 ab bd 77 d0 e4 bd
       0.06267162 1.2773285 -0.083597355 -0.11172574
000030 90 ed 9f 3f 1c c6 a6 3f a9 32 a0 3f 53 fb 95 3f
       1.2494373 1.3029208 1.251546 1.1717323
000040 ee 62 9d 3f a1 6e 8b bd 2d 73 6b 3c 73 14 91 3f
       1.2295816 -0.0680821 0.014370722 1.1334366
000050 7c 62 a4 3f a6 e3 ff 3a 8e 33 94 3f b0 ba bf bd
       1.2842555 0.00195228 1.1578233 -0.0936178
000060 04 ab b2 3d 0f c2 c1 bd 4e a5 8c 3f 42 08 24 3d
       0.08724025 -0.09460842 1.0987947 0.040046938
000070 bc 28 8f 3f 72 c4 94 3f 0f a4 a5 bd 32 02 0d bd
       1.1184306 1.162245 -0.08087932 -0.03442592
000080 67 48 b9 3c 97 fe 6a 3d 7c aa a9 3f 30 fe ff bc
       0.022617532 0.057371702 1.3255153 -0.031249136
000090 c0 e9 d2 3c d9 16 b2 bd 7c 9e 37 bd e1 bd f1 bd
       0.025746226 -0.08695764 -0.044828877 -0.11803795
0000a0 03 86 bd bd 63 0f 96 3f 8f cc cf bd 8a 85 a7 3f
       -0.09254076 1.1723446 -0.10146438 1.3087628
0000b0 a1 d6 90 3f 3c 74 da bd d2 f6 99 3f 12 29 a8 3f
       1.13155 -0.10666701 1.2028449 1.3137534
0000c0 6e 92 c3 bc 5d e2 a2 3f 38 92 fd bc 62 39 96 3f
       -0.023873534 1.272533 -0.030953512 1.1736262
0000d0 de 25 a1 3f c9 8b c6 3c 4b 20 9f 3f 3c f9 93 3f
       1.2589681 0.024236577 1.243173 1.1560435
0000e0 0f 59 b2 3d d8 13 91 3f 14 bb 1d bc e9 4f d7 3d
       0.08708393 1.1334181 -0.009627122 0.105132885
0000f0 78 4c a9 3f 4d d9 90 3f 4d 77 e7 bd 9a b5 8e 3f
       1.3226461 1.1316315 -0.11302052 1.114917
000100 6b df 9c 3f df bb b1 bd 62 8d 9b 3f 9f ce 9e 3d
       1.2255682 -0.08678412 1.2152522 0.077542536
000110 84 70 85 bd e8 da bd 3a cd 20 9a 3f 44 01 da bd
       -0.06515601 0.0014484795 1.204126 -0.10644773
000120 01 74 a2 3f 02 26 a4 3f 24 1f a7 3f c9 9d 36 bd
       1.2691652 1.2824099 1.3056378 -0.04458407
000130 e9 1e 98 3f 6d 15 be 3d 49 1c 59 3d ec a0 6d 3d
       1.1884433 0.092814304 0.05300549 0.058014795
000140 aa 68 79 bd 49 17 48 3b b6 87 9a 3f c9 1c 8a bd
       -0.06089083 0.0030531457 1.2072666 -0.067437716
000150 c1 09 7d bd ef d9 a1 3f 35 df 5b bd bc 67 55 bd
       -0.06177688 1.2644633 -0.053679664 -0.052100882
000160 a3 32 aa bd 10 e0 5e bd fc b1 91 3f 51 e8 ab 3f
       -0.083104394 -0.0544129 1.1382442 1.3430272
000170 86 6a 27 3d 3d 31 a0 3f 18 05 9a 3d 9e 02 be bd
       0.040873073 1.2515026 0.07520503 -0.09277843
000180 bc 38 95 3f ba 30 a2 3f f8 7f 9b 3f 5b 04 37 bd
       1.1657939 1.267112 1.2148428 -0.044681888
000190 3e 9d 90 3f 82 de 99 bd 2b 58 94 bd df 55 71 bd
       1.1297987 -0.07513143 -0.07243379 -0.058919784
0001a0 26 c2 9e 3f e2 ba a7 3f ee be 97 3f 02 3f 85 bd
       1.2402999 1.3103907 1.1855142 -0.065061584
0001b0 9c 23 b8 3c 89 3b 9f 3f 35 50 38 3a c1 5a 4d 3c
       0.022477917 1.2440044 0.0007030995 0.012533844
0001c0 b0 cf b0 ba d8 9c 9a 3f bb ba 3f 3d bf 3a a0 3f
       -0.001348963 1.2079115 0.04680894 1.2517928
0001d0 e5 34 aa 3f 63 76 9b 3f 3e 4d 59 bb 44 c5 93 3f
       1.3297392 1.2145504 -0.0033157612 1.1544576
0001e0 31 84 ab 3c 0c 61 7e 3c b1 46 bf bd c1 01 05 3d
       0.020937057 0.015526067 -0.09339655 0.032472376
0001f0 2f 4e 05 be 71 f6 a9 3f da 08 a2 3f bc 4f a7 3f
       -0.13018106 1.3278333 1.2658951 1.3071208

fc3.weight f4 [6, 128]
000000 de bc 42 3d 28 3a b4 bc 2d 8f 7a 3c ee 3d eb be
       0.0475434 -0.022000387 0.015292925 -0.45945686
000010 cc 43 06 bf 31 55 0f bf 7f e0 f9 be ab d6 5f 3d
       -0.524472 -0.55989367 -0.4880409 0.054648083
000020 0d cd 89 bd 63 49 f1 be ac a5 1a bd 1e 56 34 bd
       -0.067285635 -0.47126302 -0.037755653 -0.04402744
000030 0d fb 19 bf d6 dc 07 bf d6 c6 ed be 97 ad 05 bf
       -0.601487 -0.53071344 -0.46440762 -0.52218
000040 64 ff 12 bf 35 d3 84 bb 52 32 19 bd 67 74 1c bf
       -0.57420945 -0.004053498 -0.037401505 -0.61115116
000050 72 0c 19 bf de c6 4c bd 20 a8 0b bf 98 de 43 bd
       -0.59784615 -0.049994342 -0.54553413 -0.047819704
000060 b5 d9 04 3d 49 19 07 3d 28 57 14 bf 05 3d 69 3c
       0.032434184 0.0329831 -0.5794549 0.01423574
000070 12 f5 fb be d7 77 eb be 60 68 79 ba e0 4e 95 bb
       -0.4921041 -0.45989868 -0.0009514149 -0.004556522
000080 08 bf 84 bd 60 68 a4 bc b3 9b 02 bf f5 de 51 3d
       -0.06481749 -0.020069301 -0.5101883 0.05123802
000090 44 d1 71 3d 62 dd 25 3c b2 19 75 3d 81 e5 4f bc
       0.059037462 0.010123583 0.059838958 -0.012688995
0000a0 4f f1 93 bd 6c 62 02 bf 2c 44 8c 3d ba 0f f3 be
       -0.0722376 -0.5093143 0.0684894 -0.47472936
0000b0 c8 5d 12 bf 86 25 b0 3c 5f 95 eb be bd e1 05 bf
       -0.5717435 0.021502268 -0.460124 -0.52297574
0000c0 4c a1 81 bd b1 00 f9 be 46 89 65 bc 0e 5f 03 bf
       -0.06329593 -0.4863334 -0.014009779 -0.51316917
0000d0 26 3f 00 bf 83 48 1d 3d b1 95 07 bf bb ba 19 bf
       -0.50096357 0.03839923 -0.52962786 -0.60050553
0000e0 a8 48 98 ba 06 dd fb be c9 cf fb 3c b8 00 8d 3d
       -0.0011618333 -0.49192065 0.030738728 0.06884903
0000f0 bd 9e 0a bf 52 26 00 bf fc 09 28 bd ca 97 09 bf
       -0.54148465 -0.5005847 -0.041025147 -0.53747237
000100 52 bd 19 bf 56 51 53 3c e1 f3 06 bf fa 02 f8 3c
       -0.60054505 0.01289781 -0.5271588 0.030274857
000110 06 91 a7 bc 4a 24 33 bd 60 f7 04 bf 79 74 df ba
       -0.020454895 -0.04373578 -0.51939964 -0.0017048261
000120 42 ab 11 bf a3 6e f8 be 6d ae 15 bf c6 a7 66 3d
       -0.56901944 -0.4852191 -0.5846928 0.056312345
000130 6b 24 00 bf 05 eb a8 bd 2c c1 67 bb da 1d 57 bc
       -0.5005557 -0.082479514 -0.0035362942 -0.013129676
000140 d4 d5 a9 bc 36 73 85 bc 76 c9 14 bf ef 24 96 3d
       -0.020731844 -0.016290288 -0.58119905 0.07331263
000150 26 6b 1b bd e5 6c 06 bf 4a 98 6a bc c5 59 7e 3d
       -0.03794398 -0.5250991 -0.014318535 0.06209733
000160 d2 11 89 3d 56 df d0 bc 42 63 08 bf ad 2d 04 bf
       0.06692852 -0.02549712 -0.53276455 -0.51632196
000170 5a 5b 96 3c 3d b4 f8 be cf 3f 66 bb f4 2e 44 bd
       0.018354107 -0.4857501 -0.0035133248 -0.04789634
000180 95 03 10 bf 0e 19 16 bf d8 57 ec be 1c e5 42 bc
       -0.56255466 -0.5863198 -0.4616077 -0.011895444
000190 b7 48 1d bf 02 aa 56 3d 34 4e 23 3d 6e 12 07 bd
       -0.6143908 0.052408226 0.039869502 -0.03297656
0001a0 21 09 fe be 1c 1b 11 bf 06 63 1d bf 44 ae 81 bd
       -0.4961634 -0.5668199 -0.6147922 -0.06332067
0001b0 15 17 a5 bc 52 57 08 bf b1 af 94 bd c2 8d 1c 3d
       -0.020152608 -0.5325824 -0.07260073 0.03822113
0001c0 05 42 94 bd bb dc eb be 9e ad 41 3d fc a2 13 bf
       -0.07239155 -0.4606684 0.047284715 -0.5767057
0001d0 57 93 01 bf 43 d6 1b bf e5 78 67 bc ca cd 22 bf
       -0.5061545 -0.6087381 -0.014127945 -0.6359526
0001e0 db 83 4b bd 17 c0 d1 3b c2 38 17 3d d0 c5 44 3c
       -0.049686294 0.0064010727 0.036919363 0.012010053
0001f0 45 27 76 3c 9b 7f ef be df 6a 1f bf 6b 31 23 bf
       0.015024011 -0.46777043 -0.6227245 -0.6374728
000200 84 81 7a bb 07 0a 6e bb 18 48 78 bd 25 84 01 bf
       -0.003822417 -0.0036321895 -0.06061563 -0.5059226
000210 ae 80 0e bf 4c 23 18 bf 97 bf 1b bf f0 13 61 bd
       -0.556651 -0.5942886 -0.6083922 -0.054950655
000220 04 b3 0a bd b4 35 04 bf d5 60 4a bd c7 8b 77 bc
       -0.03386213 -0.51644444 -0.049408752 -0.015109009
000230 d5 4d 10 bf e9 8b 14 bf 1a 6b 1c bf c4 4d 0e bf
       -0.5636876 -0.58025986 -0.61100924 -0.5558741
000240 c5 7a 07 bf b7 7f 97 bd 66 33 39 bc 2d ed 0d bf
       -0.52921706 -0.073974065 -0.011303758 -0.55440027
000250 2a c1 f2 be 94 f5 25 3d 24 03 e6 be 85 ff 7c 3d
       -0.47412997 0.040517405 -0.4492427 0.06176712
000260 51 58 65 3c 1a 01 5f bd d5 f9 06 bf 90 d9 9b 3d
       0.013998107 -0.05444441 -0.52724963 0.07609856
000270 52 37 18 bf 73 ca ff be 22 e4 68 3d 9d 78 e2 bc
       -0.5945941 -0.49959144 0.05685819 -0.027645404
000280 72 02 78 3d 09 9b 87 3d 0d c4 e4 be c9 0f 0f 3d
       0.060549207 0.066213675 -0.44680825 0.034927163
000290 bb 49 f6 3b 70 0d 4c bc d8 89 a6 bd f9 e2 4e bd
       0.0075161136 -0.012454376 -0.0813176 -0.050509427
0002a0 a6 93 96 3d 7b 56 19 bf 81 7e 83 bd 2a 69 0c bf
       0.073523805 -0.59897584 -0.06420613 -0.5484797
0002b0 ad 3b 1c bf 3a 87 1a 3d 94 e6 0d bf 92 e2 0d bf
       -0.6102856 0.03772662 -0.5542996 -0.55423844
0002c0 98 87 45 3d 98 19 0d bf 38 96 87 bd 59 8e 0b bf
       0.048225015 -0.5511718 -0.06620449 -0.5451408
0002d0 1c 49 02 bf f9 26 99 bc 74 bb fb be 79 ff e1 be
       -0.50892806 -0.018695341 -0.49166453 -0.44140223
0002e0 21 20 04 3d fb 25 17 bf c2 7c 16 3d 75 7d ba bb
       0.032257203 -0.5904233 0.036740072 -0.005691225
0002f0 42 3b 16 bf a8 01 f3 be f0 7c 34 3d fc 07 0b bf
       -0.5868417 -0.474622 0.044064462 -0.5430906
000300 71 8d ee be 6c f8 8b 3d 27 86 17 bf e8 8e 85 3d
       -0.46592286 0.06834492 -0.59189075 0.06521398
000310 7f 7c 9f 3c 26 2b 97 bd 36 f4 f5 be bf 7e b5 bc
       0.019468544 -0.07381277 -0.4803788 -0.022155164
000320 38 6b 11 bf 28 41 08 bf c1 58 e3 be 01 70 36 3c
       -0.5680423 -0.5322442 -0.4440365 0.011135102
000330 c9 93 fe be 20 0a 9f bd 93 9c b5 3c 77 f9 c9 3c
       -0.49722126 -0.07765603 0.022169387 0.024655087
000340 3a f9 35 bd d4 3a 96 bc f5 41 f5 be 93 c0 35 3d
       -0.044427134 -0.018338598 -0.47901884 0.044373106
000350 2a 9b a5 3d b4 8d 16 bf 17 e7 68 3d 77 74 ee 3c
       0.08086236 -0.5880997 0.05686101 0.02910827
000360 d9 38 e2 bc c1 17 85 bd f4 d5 02 bf 58 80 06 bf
       -0.027614998 -0.06498671 -0.51107717 -0.5253959
000370 d7 5b 6f bd 6a dd 1b bf 79 08 44 bd 50 b8 87 bd
       -0.058437195 -0.60884726 -0.047859643 -0.06626952
000380 aa 91 e9 be d6 10 10 bf fc 47 09 bf 4a 33 9d 3d
       -0.45618945 -0.5627569 -0.53625464 0.07675798
000390 5e bb 13 bf 4e c7 73 bd 61 09 8c bb 92 f9 83 bd
       -0.57707775 -0.059516244 -0.004273579 -0.06444086
0003a0 e2 33 02 bf 0b 23 02 bf 19 62 06 bf 48 60 17 3b
       -0.50860417 -0.5083472 -0.52493435 0.002309816
0003b0 75 e6 32 3c 55 3d 06 bf 31 8d 4b 3d b8 1e 37 3d
       0.010919203 -0.52437335 0.049695197 0.04470703
0003c0 3b 93 e3 bc d0 a5 19 bf 21 02 40 bd a1 b1 18 bf
       -0.027780166 -0.60018635 -0.04687703 -0.5964604
0003d0 ec 88 ee be d9 b0 e9 be 9d 73 1e 3d d2 c7 fa be
       -0.46588838 -0.45642737 0.038684476 -0.48980576
0003e0 c2 ff 90 bc ba a6 20 3d 19 2d 3b bd 20 b8 d7 3c
       -0.01770008 0.039221503 -0.045697305 0.026332915
0003f0 74 9e ae bd 97 81 01 bf d9 3f 13 bf c9 5c 12 bf
       -0.08526316 -0.50588363 -0.575193 -0.5717283

fc3.bias f4 [6]
000000 2d dd db be 0a 65 22 bf 6a 41 d6 be 2b 31 19 bf
       -0.4294218 -0.63435423 -0.41846782 -0.5984065
000010 e5 5f f1 be 26 1f dc be
       -0.47143474 -0.42992514
