dqn_taxi_light128.pth (torch, 45932 bytes, 6 tensors)

fc1.weight f4 [128, 16]
00000000: f925 343e 11fa 913d 4c3f eabd 2e49 183e
00000010: 727c 333e ff51 8f3e 87fc ab3e 80ca 8a3d
00000020: d1b3 8c3e ff6a 823d 2d90 c03d d07c 163e
00000030: 956c 8cbb 3677 943e 9fca c1bc 8eef bbbd
00000040: 3a0d 35be 42dd 493d 08f1 703d d0e2 ed3d
00000050: 0e49 56be 75b8 643e 49a1 7c3e b03f 99bd
00000060: ece1 823e 73db 853d 7b8c e83c 9a2c 23be
00000070: b5c9 483d 6f37 f8bd c367 fabc f4c9 0d3d
00000080: 40e3 43bd 9e6d b03e f034 6abd 6017 123d
00000090: cc07 86bd d325 4f3e 792f ec3d 74c0 a13d
000000a0: b241 5cbd 1f28 403e 298c 833d 41ad 7f3d
000000b0: 3a63 1f3e eaa7 c63c 488f 1a3d 18fd 923e
000000c0: c2b3 b53e 8c49 3a3e 9ee3 45be d025 88bc
000000d0: a271 583e a55a 783e 45e8 613e 7642 0c3e
000000e0: b248 86bd 67bd 5ebc 0329 a53e 7926 3b3e
000000f0: 8132 35bd 7569 5e3e bf9d 823e e7c9 2c3e
00000100: 8420 083d 9273 203d 0883 1a3d 00b0 f5b9
00000110: a0ba 3b3d eefd b73e 003e f83d 4854 3bbd
00000120: ca9b 053e 48eb 573d 0529 d43d 29b0 243e
00000130: caea b83d dc7e b53e 567c b03d 252a 253e
00000140: da71 a03d b4b3 023e 7021 053e 8818 e6bd
00000150: 405d 3f3c fcda a63e aa2a 033e b47e dbbd
00000160: d2e5 4e3d d6bb 48bc 9270 963e 3036 c53e
00000170: 7dfc bb3e bef4 cb3e cdba 893e bb55 213e
00000180: 34d1 d539 06ad 193e 1af2 17be a66a 23be
00000190: c05b b9bb 396b 1d3d 002e 913e f6f5 1dbe
000001a0: 83f8 173e a5d2 773e 4941 7f3e addc 97bd
000001b0: bc3b 8ebd 176b 9a3e 6513 123d fb87 e1bc
000001c0: d363 8b3e d2d7 bdbc 8c99 203e 9098 e73d
000001d0: 206b 7a3c 3404 313e c9f5 8d3e 60a0 a13c
000001e0: 1fcc cfbd bf7b 963e a3df e23b 7c4d ac3d
000001f0: f174 ab3c 11e0 f93d e66d 893e fe32 9bbd
00000200: ff1a 8e3d d99b bb3e fcce 093e e27f 40be
00000210: 64af b33d 5768 4fbd 63e6 573d b835 633e
00000220: a8c8 2b3d 69f1 9c3e ded6 753e 9de6 543e
00000230: 1489 483e be6d c13e 6bb4 73bd c113 573e
00000240: 707e a93d 9357 3e3e f0e4 8d3c 904c 00bd
00000250: cc6f c9bd 2206 0c3e e3b5 df3d b08c b73c
00000260: da17 413e 8c0c 623e a1fb 393e a654 943d
00000270: 967a 2f3d b626 423e 5156 253e ae29 533e
00000280: 3901 dcbd 8f27 193e ca8f 473e a0a3 13be
00000290: c8d9 8abd c4e3 b13e b5fb 6d3e 58ab 23bd
000002a0: fde0 a33d 38ec 9eba 99fb 143e d899 63bd
000002b0: 0909 373d 69ea c53d da62 46bc 8158 833d
000002c0: a742 4c3d 7855 ed3c aede 683e a6cc 29be
000002d0: 089a ae3d 6bdf 7c3d efe2 2c3e b808 f13d
000002e0: 1763 5b3d 7d2c f03d 158c c13e 4ea8 863e
000002f0: 2222 ab3e 4d37 b43d 5c73 dabd c4d6 703e
00000300: 757e 3b3e 7e1e 8c3e ea98 0e3e ac5a 99bd
00000310: 2227 5cbe 68e3 443d fdb2 ffbd 980e ddbd
00000320: 3d2f 883e 53f6 8e3e 82a4 a4bc 01f2 cd3d
00000330: 34e3 d43d ad84 663e 61d6 903d 2405 9f3e
00000340: 3c4c 8c3d c873 7abc 4a05 783e 00ff 10be
00000350: 54c6 dc3d b719 993e 803a 26bd dab6 023e
00000360: 0743 ad3e 0be4 283e 5b3b f3bc feff 163e
00000370: 210c abbc a04c 33bd 18c1 89bd 78a6 133e
00000380: df59 893e f4fc 253e 10b6 f5bc a09a 4c3c
00000390: 3096 e53c 6752 e73d 72a3 f33d 80b9 083d
000003a0: d05f 493e 7006 663e fa37 6a3e a0b1 a63e
000003b0: 57d3 de3e 11e3 a63e d8d2 1e3e 833c 963e
000003c0: efff ac3e 8441 d23d 9822 473e ccaf 683e
000003d0: 34a4 543e e2c7 8d3d 1d9f 1d3b b40a c0bd
000003e0: d963 203e 5250 373e 1e56 b33e 9cbc b83c
000003f0: ddfd 70bd 492d 333e 2aff ee3d 9d7b 983e
0.1759261 0.071277745 -0.11437854 0.14871666 0.17527941 0.27992246 0.335911 0.06776905
0.2748094 0.06368064 0.09402499 0.1469605 -0.004285405 0.289972 -0.023656188 -0.09176551
-0.17680827 0.049283274 0.058823615 0.11615527 -0.20926306 0.2233599 0.246709 -0.074828506
0.2556299 0.06535997 0.028387299 -0.15934983 0.049020488 -0.12119948 -0.030567056 0.034616426
-0.047824144 0.3445863 -0.05717939 0.035666823 -0.06544456 0.20229273 0.11532492 0.07898036
-0.05377359 0.18765305 0.06423218 0.062421087 0.15565196 0.02424999 0.0377343 0.2870872
0.35488707 0.18192118 -0.1932511 -0.016619593 0.21137097 0.24253328 0.2206126 0.13697228
-0.06556834 -0.013594962 0.32257852 0.18276395 -0.044237617 0.21719916 0.25510976 0.16873895
0.033234134 0.039172716 0.037722617 -0.00046861172 0.045832276 0.3593592 0.121212006 -0.045734674
0.1304771 0.052714616 0.10359386 0.16082825 0.090291575 0.3544835 0.08617465 0.16129358
0.078342155 0.12763864 0.13001037 -0.11235148 0.011679947 0.32588947 0.12809244 -0.10717526
0.050512142 -0.012251815 0.2938276 0.38517904 0.3671607 0.3983516 0.2690033 0.1575536
0.00040782394 0.1500741 -0.14838448 -0.15958652 -0.0056566894 0.038432334 0.28355408 -0.15425858
0.14840893 0.24201448 0.24927248 -0.074151374 -0.06944987 0.30159828 0.035663027 -0.02753066
0.27224597 -0.0231742 0.15683573 0.11308396 0.01528433 0.1728676 0.27726582 0.019729793
-0.10146355 0.29391286 0.006923632 0.084132165 0.020929785 0.122009404 0.26841658 -0.07578085
0.06938743 0.3664234 0.13457865 -0.18798783 0.087736875 -0.050636616 0.05270995 0.22188461
0.041939408 0.3065293 0.24007747 0.20791097 0.19583541 0.3777904 -0.05949823 0.2100363
0.08276069 0.18588094 0.01732108 -0.031323016 -0.09835777 0.13674214 0.10923364 0.022405952
0.18856755 0.22075099 0.18162395 0.07242708 0.042841516 0.1896008 0.16146208 0.20621368
-0.10742421 0.14956497 0.19488445 -0.14417887 -0.0677982 0.34744084 0.2324055 -0.039958328
0.080018975 -0.0012124842 0.14549102 -0.05556664 0.04468635 0.09663851 -0.012108529 0.06413365
0.049868252 0.028971419 0.22741196 -0.16581973 0.08525473 0.061736505 0.16883443 0.11769241
0.053561296 0.117272355 0.37802187 0.2630028 0.3342448 0.0879961 -0.10666534 0.23519427
0.18309958 0.27367014 0.1392552 -0.074879974 -0.21499303 0.048068434 -0.12485311 -0.10793799
0.2659854 0.27922305 -0.020097975 0.10055924 0.10394898 0.2251155 0.070721395 0.3105861
0.06850478 -0.015286393 0.24220768 -0.14159775 0.107800156 0.2990243 -0.040583134 0.12765065
0.338402 0.16493241 -0.029691389 0.14746091 -0.020879807 -0.043774247 -0.06726283 0.14418972
0.2682638 0.16209775 -0.02999404 0.012488037 0.028025717 0.11295014 0.11896409 0.03338003
0.19665456 0.22463393 0.22872916 0.32557392 0.43520615 0.32595113 0.15510118 0.29343042
0.33789012 0.10266402 0.1944679 0.22723311 0.20765764 0.0692289 0.0024051138 -0.093770415
0.15663089 0.17901734 0.3502664 0.022550873 -0.058835853 0.17497744 0.116697624 0.2978181

fc1.bias f4 [128]
00000000: 590c dc3d 0d4c 853e b383 723e ebdf 103d
00000010: 26ea 023d b4ae 2b3e 0186 203c 443e 873e
00000020: 3e62 a03d f0a0 e03d 0a7b fd3b f0a1 433e
00000030: c6e4 183e 8c41 c13e 714f 083e fea9 d0bc
00000040: b188 7c3e 6a1d 7c3d 8beb 7e3e d0d5 a03d
00000050: 6d1d 423e f15c cc3e afea 263d a7a9 413d
00000060: 2478 eebc 6b30 d53e 30bc b03e dc2c 013e
00000070: 0489 d63c 55fd 7a3e de97 6c3d 9969 4b3e
00000080: 0bd3 d03e c416 b33e 36b7 733e f08f 4abc
00000090: bb16 523e 8e44 0abe 5073 143e f6aa 0bbe
000000a0: 54f3 fcbc 60c3 283e 9e6f 623d 7f5e 2bbd
000000b0: 7c55 1fbd 5f69 613e 6fcf dfbc dffe 13ba
000000c0: fcb1 ddbd d302 843e ee10 a03d 24c8 cc3d
000000d0: 53a6 963d 0cd0 4f3d 1843 863e 651d 873e
000000e0: 522b 0e3e 8a02 8a3e 326c 9e3e ac70 923e
000000f0: ea3a ee3e 0582 b33e c609 20bd 5ad0 923d
00000100: d113 cd3d d745 8b3e 0751 513e 0c26 603e
00000110: e84e 42bd 472a 523d cfe6 013d 1bff 4b3e
00000120: b37c 5e3d 5838 a93b 28f1 c23d 5452 333e
00000130: 15f0 893e 49fd 723d bfd0 7e3e c71f 703d
00000140: f113 ba3c 7fc1 9f3d 9e57 5e3e f315 a83d
00000150: ff77 823e 579c 563e 651b b73c ff6a 4c3e
00000160: 149e b23e 367e 233e bcd6 443e 55fd 883d
00000170: e359 9a3e 4802 b33e e59f 933d 5d5b 10bc
00000180: c02b a03e ae28 093e 6706 883e dacd b2bd
00000190: 5330 a83d c20d 0f3e 441d 493c ad4e 12be
000001a0: f57f b8bd 098c b83e 5b98 96bd 5a34 bdbd
000001b0: 918e 933e 24c9 8c3e fe07 49bd 4374 3e3e
000001c0: 1b4c 843e db0f cd3b fda1 923e b968 583e
000001d0: e146 c63e 6937 813e b669 9b3e d3a2 733e
000001e0: 7e84 dc3e 7a9c 6c3e 7736 d73e 16e6 b23e
000001f0: 87c1 833d 1a9a 03be d3ba 84bd 65df db3e
0.10744543 0.26034585 0.23683052 0.035369795 0.031961583 0.16765863 0.009797574 0.26414692
0.07831238 0.109681964 0.0077356147 0.19104743 0.1493102 0.3774532 0.13311554 -0.025471684
0.24661519 0.06155149 0.2489454 0.078532815 0.18956538 0.3991466 0.040751155 0.047280934
-0.029110022 0.41638502 0.34518576 0.12614769 0.026188381 0.24510701 0.05776202 0.19864501
0.40786013 0.34978306 0.23800358 -0.012363419 0.20516483 -0.13502714 0.14497113 -0.13639435
-0.030877747 0.1648078 0.055282228 -0.041838165 -0.038899884 0.22012852 -0.027320592 -0.0005645584
-0.108249635 0.25783405 0.07815729 0.09999111 0.073559426 0.05073552 0.26223063 0.26389614
0.13883713 0.26955062 0.3094192 0.28601587 0.46529323 0.35060135 -0.03907182 0.07168646
0.10013545 0.2720172 0.20441066 0.21889514 -0.047438532 0.05130985 0.031714257 0.19921534
0.05431814 0.0051641874 0.09518653 0.17511874 0.2694098 0.059323583 0.24884318 0.058624055
0.022714587 0.07800578 0.21713111 0.082073115 0.25482175 0.20958076 0.02235193 0.19962691
0.3488623 0.15966114 0.1922254 0.06688944 0.30146703 0.34962678 0.07208232 -0.008810845
0.3128338 0.13394424 0.26567385 -0.08730669 0.08212342 0.13970092 0.012275044 -0.14287825
-0.09008781 0.36044338 -0.07353278 -0.09238501 0.28819707 0.27497208 -0.049079888 0.18599038
0.25839314 0.0062579936 0.28639212 0.21133699 0.3872595 0.25237587 0.3035409 0.23792581
0.43069834 0.23106566 0.4203374 0.34941167 0.06433397 -0.12851754 -0.064809464 0.42943874

fc2.weight f4 [64, 128]
00000000: d72e 393d 7a0a bb3d 4fa2 ef3d 0583 593e
00000010: b370 8d3e 683f 563e fbf0 0f3e 2f13 dc3d
00000020: 8894 593e cefe 3c3e e93e 383e bad7 113e
00000030: d67f b83c 5d6d 083e 92d8 8a3e f34a 213e
00000040: 0e90 e23c 24a0 a53d 30c3 ed3d 2f6c 493e
00000050: da8a 263e b947 3c3e b009 053e 0090 993d
00000060: 8439 283e 22b4 673e 2d08 5a3e 7caf 093e
00000070: 4b46 3c3e c51a 453e 00c6 113d 4cee 8b3d
00000080: 0a08 703e 5935 623d 686a 293e d405 933d
00000090: f43e 403e fba5 5e3d aead db3d 6ad1 dc3d
000000a0: c536 f13c 0ee0 573c 34e6 af3d 2e37 493e
000000b0: f11c 6c3e b3eb 053d 5956 323e 5ddf ef3d
000000c0: 25e5 573d 1c59 213e 246d 543d 21a1 bb3e
000000d0: cda2 3b3d b2db 113e 7e71 c43d 37b1 253e
000000e0: 7a03 143f 1569 743e fedc 943d ba68 3b3e
000000f0: 98d1 ef3d 4e25 353e 4995 3e3e 84e2 b23d
00000100: cfb8 c23d 1616 b03e 8cce be3d 365d 7e3d
00000110: aae0 2f3e a0e6 de3c 68ba 423d 400b b43d
00000120: 3a58 4b3d e07a a63c e880 2b3e 012c 0a3e
00000130: bff2 443e b67b 843d 0235 3f3e 663c 1b3e
00000140: 3b08 643d b33b 803e b825 6a3e 63db d03d
00000150: be25 393e 1b42 eb3d ee3d 803d 5be9 2e3d
00000160: 8ef5 043e 0489 383e 1658 ca3d 2d31 343e
00000170: 2a8f 823d acf0 323e d34d f83d c0dc 7a3d
00000180: 77a4 793e 42fe 0d3e 778a 3e3e 41c9 a23d
00000190: 0777 9b3d b294 3a3d b3f3 0e3e e850 d83d
000001a0: 7ae4 eb3d cb2e 1b3e ffd9 003e 8e47 1c3e
000001b0: d5e6 073e 97f0 cf3d 288b a83d 36fd 3a3e
000001c0: 51c8 d03d c7d6 e23d 1c63 ee3d f0f7 333d
000001d0: d88c af3c a5ce 1b3e 1450 863e cdc7 863d
000001e0: 1b1b 0a3e 485c 243d ed2a f23d a50f 9c3d
000001f0: 0d2a 343d 15ad 853d d43e cd3d 7a97 2e3e
00000200: e927 cf3d 08e3 703d 9f61 e83d ecc6 563e
00000210: 4e49 f13d 928b 673e 6f0f 953d 53db 163e
00000220: 899b 4c3e 01c5 8e3e 696b 7c3d 894a c73d
00000230: c554 213e b1f2 a83d 58dd c63e dcde 3c3e
00000240: 360e 043e 2e67 e03d 3692 8f3b e386 533e
00000250: 380b ce3d 8769 e73d 03b4 083e f418 073c
00000260: a4db 213d 437f 393e 75bc 5b3e 6165 0a3e
00000270: fd3d 0f3d d75d 293e c975 2e3d 3ddf 173d
00000280: b623 993e 09f9 143e fdef 013e a27f 0d3d
00000290: 3e8a e53d ec4a 0a3e b909 c43d 445c 3c3d
000002a0: 6ee1 013e 2982 aa3d ea42 003e b13c 863e
000002b0: 49ec 3a3e 4c1a 0f3e 78cf 813c 3dc3 1c3e
000002c0: 901c 903d 0f0a 363e 86aa 383d e3d6 093f
000002d0: 94c7 df3d 94e8 6d3d 0e95 253e b620 0a3d
000002e0: 7fa9 163f 67a6 073e 7bfa 033e ecd8 fe3d
000002f0: 5cf1 1e3e 5431 c43d b4af 323e 52c3 af3d
00000300: 6e9b 023e 6dde 093f 669c 783d 8a5c b03d
00000310: f9bf 0d3d 341a 913d f207 0c3e 3ffc 033e
00000320: 3e82 d83d d7c6 b53c 80e0 323e 955c f43c
00000330: 9f1c 483e ccb6 cc3d 82ce a13e 7d99 8d3e
00000340: f2ae db3c 0867 4a3e b1d7 713e 04aa f83d
00000350: cca4 dd3d b025 cd3d 9b17 fa3c 65b9 5a3d
00000360: 19df ba3d 7af8 873d a197 933d 40c5 333e
00000370: 3059 d03d 6ac8 903d 9c73 2c3e c771 273e
00000380: d2e6 ec3e a0fe 033e ab93 1e3e 9146 a03c
00000390: dfa5 fa3d 70c8 ea3c 75cb 083e 8abd d63d
000003a0: 697a aa3d bc10 8f3d 2b21 0d3e 68ac 953d
000003b0: 9d3f b73d 2013 4e3e 0bb5 d33d d1a7 1d3e
000003c0: f111 ac3d 321a 153e a13c b63d 283c 233e
000003d0: fd6c 1b3e 5c68 8dbb 06d0 4b3e cb1b 953d
000003e0: 2a00 883e 42b5 033e e679 4d3e 5583 0d3e
000003f0: 590d e2bb 5882 823d 0a6b 293d 175c d43d
0.045210686 0.091328576 0.1170088 0.21241386 0.27625045 0.20922625 0.1405677 0.107458465
0.21248066 0.18456575 0.17992748 0.1424245 0.022521894 0.13322969 0.27118355 0.15751247
0.027656581 0.08087185 0.11609495 0.19670175 0.16263905 0.18386735 0.12991977 0.07498169
0.1642819 0.22627309 0.21292181 0.13445848 0.1838619 0.19248493 0.03558922 0.06832561
0.23440567 0.055226658 0.16544497 0.07178846 0.18774015 0.05435751 0.10726486 0.1078213
0.029445061 0.013175977 0.0858883 0.19649956 0.23057915 0.032695483 0.17415752 0.11712525
0.052708764 0.15756649 0.051861897 0.3664637 0.045809556 0.14243963 0.095919594 0.16180883
0.57817805 0.2386821 0.072687134 0.18301669 0.11709899 0.17690012 0.18611635 0.08734611
0.09507906 0.3439185 0.093167394 0.06210061 0.17175546 0.02720958 0.047541052 0.08791208
0.049644686 0.020322263 0.16748393 0.13493349 0.19233225 0.064689085 0.18672565 0.15159759
0.05567191 0.25045547 0.22865951 0.10198095 0.18080804 0.11487218 0.06261812 0.042703014
0.12984297 0.18021017 0.09880082 0.17596884 0.06374963 0.17474622 0.12124219 0.06124568
0.24379145 0.13866523 0.18607508 0.079485424 0.07591062 0.045551963 0.13960151 0.10562307
0.11518188 0.15154569 0.12583159 0.15261671 0.13271649 0.10153311 0.08229667 0.18260655
0.10194457 0.11076122 0.11639997 0.043937624 0.021429464 0.15215547 0.2623297 0.06581078
0.13486902 0.04012707 0.11824594 0.076201715 0.043985415 0.065271534 0.10021749 0.17049971
0.10115034 0.058810264 0.11346745 0.2097432 0.1178156 0.22611836 0.07278334 0.14732103
0.19981207 0.27884677 0.06162587 0.09731013 0.15754993 0.08249415 0.38840747 0.18444389
0.12896046 0.1095718 0.0043814434 0.20656924 0.100607336 0.112994246 0.13349919 0.008245695
0.039516106 0.18114953 0.2145861 0.13515235 0.034971226 0.16539703 0.042592797 0.03707813
0.29910058 0.14548124 0.12689205 0.03454555 0.11208008 0.13505143 0.09572167 0.04598643
0.12683651 0.08325607 0.12525526 0.2621818 0.18254198 0.13974875 0.015846 0.15308852
0.07036698 0.17777275 0.0450845 0.53843516 0.109267384 0.058083132 0.16170141 0.0337226
0.5885238 0.13247071 0.1288852 0.12443718 0.15521759 0.09579721 0.17449838 0.08582176
0.12754604 0.5385502 0.06069603 0.086114004 0.034606908 0.07085076 0.13674906 0.12889193
0.10571717 0.02218954 0.17468452 0.029829303 0.19542168 0.09995803 0.31602865 0.27656165
0.026816819 0.19765866 0.23617436 0.12141803 0.10822448 0.10016954 0.030528834 0.053399462
0.09124584 0.0663919 0.07206655 0.17555714 0.10173261 0.07069476 0.16840976 0.16351996
0.46269852 0.128901 0.15486018 0.019564899 0.12238669 0.02866003 0.13358863 0.104853705
0.08324129 0.06985614 0.13782184 0.073082745 0.0894768 0.20124483 0.103372656 0.15396048
0.084018596 0.14560774 0.08898283 0.15940917 0.15178294 -0.004315419 0.19903573 0.07280692
0.26562625 0.12862113 0.20066032 0.1381963 -0.006898564 0.06372517 0.041361846 0.10369127

fc2.bias f4 [64]
00000000: 3fe4 dd3d 9ec4 163e 5ead c33d c8c9 513c
00000010: f329 793d 2629 183e 5523 223e 1a0b df3d
00000020: f2a8 1a3e 2ee0 e93d 65dc cb3c d0d1 a43d
00000030: d474 a23c e413 bd3b 12cd 593c cf2a 413d
00000040: dc71 903d 1687 253e 64f3 1f3c 1668 6e3d
00000050: 8eb3 ab3d ee38 173e f43c d33c 315b 1b3d
00000060: 350f 003e a9bd ef3d 7ebc e33d 2204 183c
00000070: c9e2 673d 7d17 093e 042d e83d 892f a13d
00000080: 1a0a ab3d d79f 2a3d 0746 0c3e bac0 a43d
00000090: f4ee ed3c 9021 f93c cd2f 443d f294 9f3d
000000a0: 0c59 073e 9223 183d d322 a63d 8307 063e
000000b0: 63f0 0d3e 2656 c93d 1752 1e3e eca9 07bc
000000c0: 3dfe 463d e2c8 d13d fed3 8a3c 2071 e13d
000000d0: 52dc dc3c 7bf6 e53c 244b de3d 6a17 633d
000000e0: f866 a33c d7e3 dd3c 7a66 d9bb 132d f93c
000000f0: bda9 533b af7d 2d3d 22cd bb3d b1b1 143e
0.1083455 0.14723441 0.095545515 0.012804456 0.06083102 0.14859447 0.1583379 0.10890789
0.1510351 0.11419712 0.024885366 0.08047831 0.019831099 0.0057701934 0.0132935215 0.047159966
0.07052967 0.16164812 0.009762619 0.058204733 0.08383857 0.1476781 0.0257859 0.037928764
0.12505801 0.11706097 0.111199364 0.009278329 0.056612764 0.13387866 0.11336711 0.07870395
0.08351536 0.04165634 0.13698588 0.08044572 0.029044606 0.030411512 0.04789715 0.07792081
0.13217562 0.037143297 0.08112111 0.13088803 0.13861232 0.09830885 0.15461002 -0.008280259
0.048582304 0.102433935 0.016946789 0.11007905 0.026960526 0.028071633 0.10854176 0.05544225
0.01994656 0.027086182 -0.0066345306 0.030417 0.0032297217 0.04235619 0.09169985 0.14520909

fc3.weight f4 [6, 64]
00000000: 72b7 41c0 0ba7 3ec0 032c 49c0 ee98 3dc0
00000010: 855b f6bf 6ce7 3ec0 20c2 3bc0 f012 48c0
00000020: 10ff 3ec0 5a44 3cc0 2fd1 38c0 4522 3dc0
00000030: b402 43c0 150d 3ac0 9c06 c8bf 1f1b 02c0
00000040: 3777 0bc0 823a 43c0 cf98 39c0 4bf4 02c0
00000050: 2bcc 43c0 257d 44c0 f214 3ec0 0ca3 3cc0
00000060: b9c7 40c0 a6d7 43c0 0872 42c0 0803 3ac0
00000070: c7e3 3cc0 d811 3dc0 1b48 3dc0 7246 45c0
00000080: f38a 3fc0 934d debf 3299 29bf acb0 3cc0
00000090: 2c57 3fc0 f4da 3bc0 b775 39c0 0d42 3cc0
000000a0: 975f 41c0 bc85 3fc0 d7da 46c0 fc79 bfbf
000000b0: b049 42c0 27cc 44c0 5fea 43c0 f702 39c0
000000c0: 0d2d 43c0 6484 42c0 7e01 3ac0 73b7 44c0
000000d0: bf57 47c0 4ca3 41c0 d65f 3bc0 7a73 40c0
000000e0: cae8 3fc0 ba1d 47c0 b0c5 42c0 8159 48c0
000000f0: fd5e c6bf 4261 3dc0 df7e 3cc0 d48a 3bc0
00000100: 5e26 44c0 f0df 3bc0 738e 46c0 7d6b 47c0
00000110: a443 f8bf e751 38c0 a67a 45c0 8a25 3fc0
00000120: aadf 3dc0 bbdf 44c0 4ebc 42c0 729f 37c0
00000130: 7960 42c0 5418 40c0 0428 c6bf 1ced 07c0
00000140: 7807 07c0 542e 3ac0 1876 3cc0 bbc5 febf
00000150: c473 44c0 f6c7 42c0 c6b2 43c0 be1b 3ac0
00000160: 81ad 42c0 02e4 45c0 8e0e 3ec0 5344 38c0
00000170: d54f 3ac0 465c 47c0 0aee 3dc0 22ac 39c0
00000180: dcb8 43c0 b837 d5bf 0613 49bf 9e5b 39c0
00000190: 4404 3ec0 00ae 3cc0 f090 43c0 4b81 44c0
000001a0: 6e7f 39c0 b774 41c0 cebd 45c0 346a bebf
000001b0: 2577 3dc0 2cdf 41c0 063f 47c0 d4c9 3fc0
000001c0: 0897 3ec0 59da 3cc0 a9b0 40c0 383f 3fc0
000001d0: c80a 42c0 5c1d 47c0 ecbc 45c0 9b50 42c0
000001e0: 0856 41c0 b4f9 39c0 4246 3dc0 af19 39c0
000001f0: 01e8 d1bf 3600 46c0 9831 3cc0 c667 3ac0
00000200: 612a 42c0 b6ab 3dc0 e57d 40c0 8ec3 39c0
00000210: bc7f e4bf 9c3b 45c0 924b 3fc0 ccc7 3dc0
00000220: 5a86 3ac0 6928 47c0 4ad0 41c0 b42d 33c0
00000230: 8f34 3dc0 2313 43c0 355b c1bf c193 f2bf
00000240: dd56 07c0 9168 40c0 ff2b 3dc0 cec7 f7bf
00000250: 0bfe 3fc0 6389 48c0 aeef 3ac0 d632 42c0
00000260: d392 37c0 cd4b 47c0 009d 43c0 a6f0 38c0
00000270: 0df1 47c0 46a3 42c0 1977 43c0 3491 39c0
00000280: cee5 44c0 7d00 d0bf e5a0 1fbf de96 3cc0
00000290: 6525 46c0 3d8c 3dc0 8f44 3fc0 22a4 44c0
000002a0: dfc4 44c0 41fc 47c0 e32d 43c0 0a51 d6bf
000002b0: a951 41c0 ceff 46c0 eac5 3bc0 739a 39c0
000002c0: 1e90 3cc0 2070 46c0 5451 39c0 77e8 3dc0
000002d0: 263c 46c0 63aa 42c0 28cf 3cc0 3588 3dc0
000002e0: 6416 3fc0 deff 3ec0 cd1b 46c0 ef8a 3fc0
000002f0: 8385 cebf 0ea7 46c0 3e30 45c0 6825 3ec0
00000300: 490a 47c0 bf82 41c0 66fc 40c0 3832 47c0
00000310: fe0b f9bf 52f9 40c0 9fd6 46c0 3d0c 3dc0
00000320: 24b2 3ac0 22fd 3cc0 17c0 43c0 604d 3dc0
00000330: 6a54 42c0 4f58 3cc0 31c9 c5bf 5531 0bc0
00000340: 5f8f 0ec0 28db 3ac0 cd3c 3ac0 1641 ffbf
00000350: ae09 45c0 90aa 38c0 270b 46c0 a986 46c0
00000360: 7bc8 3fc0 4d01 3fc0 1a51 38c0 f35f 3bc0
00000370: d2d3 3ec0 aa0c 3ec0 4db3 38c0 867a 40c0
00000380: 0be7 3fc0 6542 e0bf dc46 21bf 6a71 41c0
00000390: 1f9b 41c0 e019 43c0 a022 3ac0 cf8f 3cc0
000003a0: 67bb 3ec0 0ad9 3ac0 94db 43c0 2415 d5bf
000003b0: da79 43c0 ca05 3bc0 4116 41c0 b437 3bc0
000003c0: 94df 3fc0 9626 3dc0 3e14 45c0 e942 3cc0
000003d0: 2226 40c0 cb63 3bc0 785e 40c0 985e 3fc0
000003e0: 2ff2 3ac0 3650 46c0 ddbe 3ec0 7515 44c0
000003f0: 7e50 dcbf 6842 3cc0 2128 42c0 66da 43c0
-3.0268216 -2.9789455 -3.1433113 -2.962459 -1.924668 -2.9828749 -2.9337234 -3.1261559
-2.9843178 -2.9416718 -2.8877676 -2.9552166 -3.04704 -2.9070485 -1.5627017 -2.0329053
-2.1791513 -3.050446 -2.8999517 -2.0461605 -3.0593364 -3.0701382 -2.9700284 -2.9474516
-3.01219 -3.0600371 -3.03821 -2.906435 -2.9514024 -2.954214 -2.957526 -3.0824246
-2.9928558 -1.7367424 -0.6624938 -2.9482832 -2.9896955 -2.9352388 -2.8978097 -2.9415314
-3.0214593 -2.9925375 -3.107107 -1.4959102 -3.0357475 -3.0749605 -3.0611799 -2.890806
-3.0496247 -3.0393305 -2.906341 -3.0736969 -3.1147306 -3.0255919 -2.9277244 -3.0070481
-2.9985833 -3.1111894 -3.043316 -3.130463 -1.5497738 -2.9590611 -2.9452436 -2.9303484
-3.0648417 -2.935543 -3.1024444 -3.1159356 -1.9395642 -2.879999 -3.0856109 -2.9866662
-2.9667764 -3.0761554 -3.0427432 -2.8691068 -3.0371382 -3.0014849 -1.5480962 -2.123847
-2.1098309 -2.9090776 -2.9447079 -1.9904093 -3.0695658 -3.0434546 -3.0577865 -2.9079432
-3.0418398 -3.0920415 -2.9696383 -2.8791702 -2.9111226 -3.115007 -2.9676538 -2.9011312
-3.058158 -1.6657629 -0.7854465 -2.8962169 -2.9690104 -2.94812 -3.0557213 -3.0703914
-2.8984027 -3.0227487 -3.0897098 -1.4876161 -2.960397 -3.0292463 -3.1132216 -2.9966936
-2.9779682 -2.950827 -3.0107825 -2.9882336 -3.031908 -3.111167 -3.0896559 -3.0361698
-3.020876 -2.9058657 -2.9574132 -2.8921926 -1.6398927 -3.0937629 -2.940527 -2.9125838
-3.0338366 -2.9636054 -3.007684 -2.9025607 -1.7851481 -3.0817633 -2.9889874 -2.9653196
-2.9144502 -3.1118414 -3.028338 -2.7996645 -2.956333 -3.048043 -1.5105959 -1.8951341
-2.1146767 -3.0063822 -2.9558103 -1.935785 -2.9998806 -3.1333854 -2.920879 -3.0343528
-2.8683364 -3.1140015 -3.0564575 -2.889688 -3.1240876 -3.0412154 -3.0541441 -2.8994875
-3.0765262 -1.6250149 -0.6235488 -2.9467082 -3.0960324 -2.9616845 -2.9885595 -3.0725179
-3.074516 -3.1247714 -3.0496757 -1.6743481 -3.0206091 -3.109363 -2.9339547 -2.9000518
-2.9462962 -3.1005936 -2.8955889 -2.9673135 -3.0974212 -3.0416496 -2.9501438 -2.9614384
-2.9857416 -2.984367 -3.0954468 -2.9928548 -1.6134495 -3.1039462 -3.0810695 -2.971033
-3.1100028 -3.023605 -3.0154052 -3.11244 -1.9456785 -3.0152173 -3.1068494 -2.953872
-2.9171228 -2.95295 -3.0585992 -2.9578476 -3.0364022 -2.94289 -1.5452024 -2.174886
-2.2275007 -2.9196262 -2.909961 -1.9941738 -3.0787158 -2.8854103 -3.0944307 -3.101969
-2.9966114 -2.9844544 -2.87995 -2.9277313 -2.9816785 -2.969523 -2.8859437 -3.0074782
-2.9984767 -1.7520262 -0.6299875 -3.0225472 -3.0250928 -3.0484543 -2.9083633 -2.9462774
-2.9801881 -2.919497 -3.060277 -1.6647077 -3.0543122 -2.9222283 -3.0169833 -2.9252748
-2.9980211 -2.95548 -3.0793605 -2.9415839 -3.0023274 -2.9279659 -3.005766 -2.9901485
-2.9210317 -3.0986457 -2.9803994 -3.0638096 -1.7212064 -2.941553 -3.0336993 -3.060205

fc3.bias f4 [6]
00000000: df07 43c0 5510 3dc0 000f 41c0 1707 3cc0
00000010: d5cc 35c0 6fa5 37c0
-3.0473554 -2.9541218 -3.0165405 -2.9379327 -2.840627 -2.8694723
