dqn_taxi_light64.pth (torch, 43362 bytes, 6 tensors)

fc1.weight f4 [64, 16]
0	0x3e936741	0.28789714
1	0x3c374fb9	0.011188441
2	0x3e316ff4	0.17327863
3	0xbde131f1	-0.10995854
4	0xbd1273f2	-0.035755105
5	0x3f753872	0.95789254
6	0x3f373b1e	0.7157458
7	0xbe02873d	-0.12746902
8	0x3f52684f	0.8219041
9	0x3f3e74e4	0.7439711
10	0x3fdaec7f	1.7103423
11	0x3efb9fc7	0.49145338
12	0x3eac932e	0.3370604
13	0x3fbb2346	1.462014
14	0xbf277f4e	-0.65428627
15	0x3f3f4114	0.74708676
16	0x3b3f64b7	0.0029204318
17	0xbe5dfdc8	-0.21678841
18	0xbdc4fa58	-0.09618062
19	0x3d32c332	0.043643184
20	0xbe0d041e	-0.13771102
21	0xbdc73ba0	-0.097281694
22	0xbe6c605e	-0.23083636
23	0xbd907414	-0.0705339
24	0x3deefd88	0.11669451
25	0xbdac71a5	-0.084201135
26	0x3e452f0b	0.19256227
27	0xbddaec15	-0.1068956
28	0xba592d9c	-0.00082846894
29	0xbe5fa46c	-0.21840066
30	0x3de7a606	0.11310963
31	0x3ca9543e	0.020670053
32	0x3d3dc3d9	0.046329353
33	0xbc27e16d	-0.010246617
34	0x3c90ee2f	0.0176917
35	0xbdbb2add	-0.09139035
36	0x3e3b711e	0.1830487
37	0xbd8ce55c	-0.06879684
38	0xbd8cff6e	-0.06884657
39	0x3dab8d82	0.083766
40	0x3c97afaf	0.01851639
41	0xbd9fd00c	-0.07803354
42	0xbcf1700a	-0.02947237
43	0x3da34a21	0.07973123
44	0xbdc72cbc	-0.09725329
45	0x3e06f779	0.13180341
46	0x3e023584	0.12715727
47	0xbdd172d5	-0.102269806
48	0x3e94c81f	0.2905893
49	0x3e984ee7	0.29747698
50	0x3e54eefc	0.2079429
51	0x3e25eb73	0.16203098
52	0x3c743b4e	0.014906717
53	0x3f886e95	1.0658747
54	0x3f912abe	1.1341169
55	0xbe3c4748	-0.18386567
56	0x3f9b9cf4	1.2157273
57	0x3f6c8907	0.9239659
58	0x3fc74493	1.5567802
59	0x3eee1ea7	0.4650776
60	0x3f2bfd7f	0.6718368
61	0x3fc4c15b	1.5371507
62	0xbee2efbb	-0.44323525
63	0x3f00a1ca	0.5024687
64	0xbde741a0	-0.11291814
65	0xbe5fe7f0	-0.21865821
66	0xbe69bdaa	-0.22826257
67	0x3dfff6b4	0.12498227
68	0xbcd876a8	-0.026423767
69	0x3e3cc641	0.18435003
70	0x3da13595	0.07871548
71	0xbe1a75aa	-0.15083948
72	0xbe722b3a	-0.23649302
73	0xbe07c4b8	-0.13258636
74	0xbe2a5b1c	-0.16636318
75	0xbe3b5f73	-0.1829813
76	0xbacaa1bc	-0.0015459578
77	0xbe525873	-0.20541553
78	0xbdd0f474	-0.10202876
79	0x3dfded88	0.12398821
80	0xbd987873	-0.07444849
81	0x3e26839d	0.16261144
82	0xbdd5115c	-0.10403702
83	0x3e2e9352	0.17048386
84	0xbe5f6856	-0.21817145
85	0xbd233daf	-0.039853748
86	0x3cfe3c7d	0.031034702
87	0x3e4a24b3	0.19740562
88	0xbe06eef0	-0.13177085
89	0xbe600f51	-0.21880843
90	0xbdbd6687	-0.09248071
91	0xbcafc0b8	-0.0214542
92	0x3e5faabd	0.21842475
93	0xbdb120d0	-0.086488366
94	0xbde83318	-0.1133787
95	0xbd296076	-0.041351758
96	0xbe2a8332	-0.1665161
97	0x3e4c80ff	0.19971083
98	0x3e1cbf7b	0.15307419
99	0xbda0ff74	-0.07861224
100	0x3e013d5b	0.12621062
101	0xbe6442ec	-0.22291154
102	0xbd770c0e	-0.06031423
103	0x3e22dd2b	0.15904681
104	0x3e128924	0.14310127
105	0xbe42c388	-0.19019902
106	0xbe3d3a16	-0.1847919
107	0xbe0c6dd9	-0.13713779
108	0xbe4b6c34	-0.19865495
109	0xbcdaaaf5	-0.026692847
110	0xbe288981	-0.16458704
111	0xbd2ed5c9	-0.04268435
112	0x3c127086	0.0089379605
113	0xbd74e5ab	-0.05978934
114	0xbca8e546	-0.020617139
115	0x3d8f35da	0.06992693
116	0x3e165169	0.14679493
117	0x3c75817b	0.014984484
118	0xbcc86533	-0.024462318
119	0xbd7c55fb	-0.061605435
120	0x3c9f10c5	0.019417176
121	0xbda063ea	-0.07831557
122	0x3c249af7	0.010046712
123	0x3e541025	0.20709284
124	0x3dd228b4	0.1026167
125	0xbe650854	-0.22366458
126	0xbc86f959	-0.01647632
127	0xbcf063ec	-0.029344521
128	0x3dc88b5f	0.09792208
129	0xbe201398	-0.15632474
130	0x3dd23a86	0.10265069
131	0xbd1d4201	-0.038393024
132	0x3e2d40e1	0.1691928
133	0xbe0501a2	-0.12988904
134	0xbdfc8b69	-0.12331278
135	0x3e1b4884	0.15164381
136	0xbd5f37c3	-0.054496538
137	0x3dbf9264	0.09354094
138	0x3dcb7eb6	0.099362776
139	0x3e11c2ac	0.14234418
140	0xbe0bedfa	-0.13665
141	0xbe58c9a9	-0.21170677
142	0x3ccd36b6	0.025050502
143	0xbe26245c	-0.16224808
144	0x3dc3b7a2	0.095565096
145	0x3eeaca1b	0.4585732
146	0x3e271be4	0.16319233
147	0x3d47c777	0.04877421
148	0xbdb5f952	-0.08885445
149	0x3f66a1ec	0.90090823
150	0x3f8f421e	1.1192052
151	0xbd0fa276	-0.035067044
152	0x3f4a4e52	0.7902576
153	0x3f7759e4	0.9662154
154	0x3fb70e9b	1.4301332
155	0x3f0239a0	0.5086918
156	0x3f4fede6	0.8122238
157	0x3fb41915	1.4070154
158	0xbd9e98f4	-0.07744017
159	0x3f49ff3d	0.7890509
160	0x3df83642	0.12119724
161	0xbd446019	-0.04794321
162	0xbe4499b9	-0.19199266
163	0xbdc4d234	-0.096104056
164	0xbe00d1bd	-0.12580009
165	0xbe0079ed	-0.12546511
166	0x3b380bbc	0.0028083166
167	0x3dc8a0aa	0.09796269
168	0xbe735751	-0.23763777
169	0xbe04732a	-0.12934557
170	0xbdd30b38	-0.10304874
171	0x3e3ad230	0.18244243
172	0xbe0cfdc5	-0.1376868
173	0x3d09bf79	0.03362987
174	0x3e6ca2f2	0.23109034
175	0x3e56f623	0.20992331
176	0x3eaf5b4b	0.34249339
177	0x3e5f2982	0.21793178
178	0x3dab656c	0.08368954
179	0x3e4625b4	0.1935032
180	0x3e220eea	0.15826002
181	0x3f52e0a4	0.82374024
182	0x3f9a111d	1.2036473
183	0x3e45f98e	0.19333479
184	0x3f41bd57	0.75679535
185	0x3f9aac56	1.2083843
186	0x3fb87a84	1.4412389
187	0x3f219ef6	0.6313318
188	0x3f2abe31	0.6669646
189	0x3fa00c03	1.2503666
190	0xbe75d04e	-0.24005243
191	0x3f472f3e	0.7780646
192	0xbda92f5c	-0.08260986
193	0x3e6894a7	0.22712956
194	0x3d3290a1	0.04359496
195	0x3da4588d	0.08024702
196	0x3e6db002	0.23211673
197	0xbc972036	-0.018447977
198	0xbe3ce756	-0.18447623
199	0x3d31292b	0.04325215
200	0xbe424f8d	-0.18975659
201	0x3b806246	0.003917965
202	0x3dc0a146	0.094057605
203	0x3e2e76fa	0.17037573
204	0x3e1aaa0b	0.15103929
205	0xbdc8a10b	-0.097963415
206	0xbd8ea89c	-0.069657534
207	0x3e67ccaf	0.22636674
208	0xbe513101	-0.2042885
209	0xbdf9d7fe	-0.121994
210	0xbd414c47	-0.047191884
211	0xbb90a604	-0.004414322
212	0x3de0c45e	0.10974954
213	0x3da5dbf6	0.08098595
214	0xbd9940c8	-0.07483059
215	0xbd5fbae7	-0.054621603
216	0xbe5706f8	-0.20998752
217	0x3e2a016b	0.16602103
218	0xbd458d29	-0.048230324
219	0xbe20bdc0	-0.15697384
220	0x3d9a451c	0.07532713
221	0xbe6387bf	-0.22219752
222	0xbd5a64e8	-0.053318888
223	0xbe2e681a	-0.17031899
224	0x3ea66a87	0.3250315
225	0x3df42c90	0.11922562
226	0xbe1a5d4a	-0.1507465
227	0xbe412330	-0.18861079
228	0xbe39ed87	-0.18157016
229	0x3f934347	1.1504906
230	0x3f77b0ad	0.9675396
231	0x3dd5caa2	0.1043904
232	0x3f715f8f	0.94286436
233	0x3f8d1fa9	1.1025287
234	0x3fb632e4	1.423428
235	0x3f231aa0	0.637125
236	0x3f2e282c	0.6803005
237	0x3fce0f06	1.6098335
238	0xbe885447	-0.266268
239	0x3f1b34de	0.60627544
240	0x3d6b068c	0.05737929
241	0x3ef6d039	0.48205736
242	0xbd88a1a9	-0.06671459
243	0xbd93e706	-0.072217986
244	0xbe5f3705	-0.21798332
245	0x3f528f94	0.8225033
246	0x3f9409ed	1.1565529
247	0x3e4fd19e	0.20294806
248	0x3f844500	1.0333557
249	0x3f7ec13c	0.995136
250	0x3fcebbb7	1.6151036
251	0x3f557d71	0.83394533
252	0x3f11837d	0.5684126
253	0x3fb7fd81	1.4374238
254	0xbf0a63b7	-0.540584
255	0x3eda0bf0	0.42587233

fc1.bias f4 [64]
0	0x3fbf8994	1.496386
1	0x3e082dd5	0.13298734
2	0x3d38ebf0	0.045146883
3	0x3fd16238	1.6358099
4	0x3da33719	0.079694934
5	0xbe42c919	-0.19022025
6	0xbda6e108	-0.0814839
7	0xbe0658bc	-0.13119787
8	0x3dd84024	0.10559109
9	0x3fd3089c	1.6487002
10	0xbe1cc918	-0.15311086
11	0x3fb644b9	1.4239722
12	0xbe17b9bf	-0.1481695
13	0x3e6c9dc1	0.23107053
14	0x3fa41a8c	1.2820601
15	0x3fce542e	1.611944
16	0x3f9eb4ae	1.2398889
17	0x3df424e2	0.11921097
18	0x3fb24e09	1.3930064
19	0x3fa8456e	1.3146188
20	0xbe3e92bb	-0.1861066
21	0x3fbedb12	1.4910605
22	0x3fcab6c2	1.5837023
23	0x3da66400	0.08124542
24	0x3f9bd3e8	1.2174044
25	0x3fb74f7d	1.4321133
26	0x3fafa120	1.3721046
27	0x3fc379cf	1.5271548
28	0x3fce17e4	1.6101041
29	0x3fcd12f3	1.6021408
30	0x3fb06e2b	1.378362
31	0xbdca87cf	-0.09889185
32	0xbd9cf78e	-0.07664405
33	0x3fccfe94	1.6015191
34	0x3f9f2147	1.243203
35	0x3fced6fc	1.6159358
36	0x3fa836a6	1.3141677
37	0xbe66c1ea	-0.2253491
38	0x3cd82df2	0.026389096
39	0x3fbcd51a	1.4752533
40	0x3fb34662	1.4005854
41	0xbad34306	-0.0016117997
42	0xbdcdf6ad	-0.10056815
43	0x3fb32597	1.3995847
44	0x3f9b9e89	1.2157756
45	0x3fcd6754	1.6047158
46	0x3d12c5b2	0.03583307
47	0x3fa26d44	1.2689595
48	0x3fcd66ea	1.6047032
49	0xbd12a834	-0.035804942
50	0x3fa74ac5	1.3069693
51	0x3f9c2869	1.2199832
52	0x3fbcb4ee	1.4742715
53	0x3fa9e670	1.3273449
54	0x3fc508d9	1.5393325
55	0xbca87949	-0.020565646
56	0xbc17f93e	-0.009275733
57	0x3fa1d043	1.2641681
58	0xbd19ceee	-0.03755086
59	0x3fbf1f77	1.4931477
60	0x3fc18e4b	1.5121549
61	0x3fb5bf06	1.4198921
62	0x3f9fbe03	1.2479862
63	0x3f9bb70b	1.2165235

fc2.weight f4 [128, 64]
0	0x3d953a72	0.07286538
1	0x3d023bfd	0.03179549
2	0xbcd8f943	-0.026486045
3	0x3d3a08ba	0.04541848
4	0xbd7d0405	-0.06177141
5	0x3dd12588	0.10212237
6	0x3d09d1d5	0.033647377
7	0xbc29b85b	-0.010358895
8	0xbcdb2ac8	-0.026753798
9	0xbd983232	-0.07431449
10	0x3c384a4b	0.011248182
11	0xbd4cf8df	-0.05004203
12	0x3dc6b1c3	0.09701874
13	0xbc9ef71a	-0.019404937
14	0xbdf39e2b	-0.118954025
15	0x3d722913	0.059121203
16	0xbcf24aeb	-0.02957674
17	0x3d6d5821	0.057945374
18	0x3d44fb1a	0.04809103
19	0x3b173f6c	0.0023078574
20	0xbc85c33a	-0.016328443
21	0x3de95081	0.11392308
22	0x3cf31778	0.029674277
23	0x3cd0a7a7	0.025470568
24	0xbd69c29a	-0.057070352
25	0xbd63d9ec	-0.05562775
26	0x3dddb3eb	0.10825332
27	0x3dc28603	0.09498217
28	0xbd9ded85	-0.07711319
29	0xbd523b51	-0.0513261
30	0xbd648147	-0.05578735
31	0x3b7feb16	0.0039050034
32	0xbda99f3e	-0.08282326
33	0xbd4dbc41	-0.05022836
34	0x3d5a95e6	0.05336561
35	0xbdc80eef	-0.09768473
36	0x3d6bb14b	0.057542127
37	0xbcdd9208	-0.027047172
38	0x3d955dc6	0.072932765
39	0x3da25f92	0.07928385
40	0xbd47d6a5	-0.048788685
41	0x3ceebf32	0.029143903
42	0x3d5e0e9d	0.054213155
43	0xbcc53063	-0.024070924
44	0x3debf4f3	0.1152133
45	0x3c8eef30	0.017448038
46	0xbce461ec	-0.027878724
47	0x3d4a2f76	0.04936167
48	0x3b5985e2	0.0033191373
49	0xbd99e9e6	-0.07515316
50	0xbdbf29a3	-0.093341134
51	0xbcc62f56	-0.024192493
52	0xbd949d61	-0.0725658
53	0xbca413a2	-0.020028893
54	0xbdc3d379	-0.095618196
55	0xbd520ad9	-0.051279876
56	0x3d254878	0.040352315
57	0x3de755c0	0.112956524
58	0x3dc5d375	0.09659473
59	0x3dc3a0b1	0.09552134
60	0xbc865de2	-0.016402189
61	0xbd091aee	-0.033472948
62	0x3d4036af	0.04692715
63	0xbded8698	-0.11597937
64	0x3deb6ae9	0.11495001
65	0xbc86317e	-0.016381022
66	0x3d62bd6d	0.05535643
67	0xbdeb0bdf	-0.114768736
68	0x3d467e6b	0.048460405
69	0x3cd65703	0.026164537
70	0x3d43e966	0.047830008
71	0xbdd541ab	-0.10412916
72	0xbd0637cd	-0.03276806
73	0xbd6c35cb	-0.05766849
74	0xbdaf5148	-0.08560425
75	0x3c35b1f6	0.0110897925
76	0xbd962dac	-0.0733293
77	0xbc9720e5	-0.018448303
78	0xbd2a050e	-0.041508727
79	0xbda7ea84	-0.08199027
80	0xbde4a631	-0.11164511
81	0xbd3ff8b3	-0.046868037
82	0xbda40dec	-0.08010468
83	0xbb207eea	-0.002448971
84	0x3c1db7ab	0.009626309
85	0x3dc0abff	0.09407806
86	0x3dec054e	0.11524449
87	0xbdd25f63	-0.102721
88	0xbde0613f	-0.10956048
89	0x3d356cdc	0.04429327
90	0x3da7d2ba	0.0819449
91	0xbdea3842	-0.114365116
92	0xbda6d84b	-0.08146723
93	0x3d85cff2	0.06533803
94	0x3cf93bc2	0.030424003
95	0xbd47fab9	-0.048823092
96	0xbdf1c795	-0.118056454
97	0xbd383a5f	-0.044977542
98	0xbdf1e75d	-0.11811707
99	0xbcbfd933	-0.023418998
100	0xbd82030c	-0.063482374
101	0xbd29f9e0	-0.041498065
102	0x3d7119fb	0.058862668
103	0xbd145d65	-0.03622188
104	0xbde6c077	-0.112671785
105	0xbdf5822b	-0.11987718
106	0x3c3f15e8	0.011662938
107	0xbce53600	-0.02797985
108	0x3dcf50c5	0.101228274
109	0xbd197a75	-0.0374703
110	0x3d9cbd51	0.07653297
111	0x3d258150	0.040406525
112	0xbc341138	-0.010990433
113	0x3df25b33	0.11833801
114	0xbcf11391	-0.029428275
115	0xbdd3e4ff	-0.10346412
116	0x3d285837	0.041099753
117	0xbd85a98c	-0.06526479
118	0x3d6c2f13	0.05766208
119	0x3dbf97c2	0.093551174
120	0x3ce12600	0.02748394
121	0xbb6f398c	-0.0036502806
122	0xbdd44d29	-0.1036628
123	0xbc3c5506	-0.011494881
124	0xbc81b30d	-0.015832448
125	0xbdcbcc69	-0.099510975
126	0x3dd24bd8	0.10268372
127	0x3b010578	0.0019687098
128	0x3d286dd9	0.041120384
129	0xbdf4ce4b	-0.1195341
130	0xbbdabca8	-0.0066753216
131	0xbde16f94	-0.1100761
132	0x3d150840	0.03638482
133	0x3d491f00	0.04910183
134	0xbd43a3ab	-0.047763508
135	0x3d6f11fc	0.05836676
136	0xbdbd2433	-0.0923542
137	0xbdcef3c2	-0.10105087
138	0xbcabb751	-0.020961436
139	0xbcdb96a5	-0.026805231
140	0xbd58b56f	-0.052907404
141	0x3dd3f859	0.10350103
142	0x3d4a541d	0.049396623
143	0xbcdc5123	-0.026894158
144	0x3da8e01a	0.08245869
145	0xbdebe25d	-0.11517785
146	0xbd44da72	-0.04805989
147	0x3decf0e7	0.11569386
148	0xbd89304f	-0.06698667
149	0xbddcc641	-0.107800014
150	0xbd707b13	-0.058711123
151	0x3db404da	0.08789988
152	0x3d865f41	0.06561137
153	0xbdbb43a3	-0.0914376
154	0x3bd4db37	0.006495859
155	0xbdf8bc9c	-0.121453494
156	0xbdba62d9	-0.09100885
157	0xbd9ce83b	-0.07661482
158	0x3afe724d	0.0019412726
159	0x3deb6e9d	0.11495707
160	0xbd8fe116	-0.070253536
161	0xbcca1dac	-0.024672352
162	0xbda08f94	-0.07839885
163	0x3d7ccbda	0.061717845
164	0x3dd4da36	0.10393183
165	0x3d1337c4	0.035941854
166	0xbdbb73c4	-0.0915294
167	0x3dd417a0	0.103560686
168	0xbd99919f	-0.07498478
169	0xbcefd706	-0.029277336
170	0xbdb1c01b	-0.08679219
171	0xbdc4c7d4	-0.09608427
172	0x3da69ecd	0.081357576
173	0x3c863afc	0.016385548
174	0x3bdb24d2	0.006687739
175	0xbd841a58	-0.06450337
176	0x3cfe6090	0.031051904
177	0xbdb872e4	-0.09006289
178	0x3da99779	0.08280844
179	0x3dd9f75a	0.10642882
180	0x3c37de84	0.011222485
181	0x3d50d491	0.05098397
182	0xbd519058	-0.051163048
183	0x3d260ba4	0.040538445
184	0x3daa21c8	0.083072245
185	0xbd20ff9c	-0.039306268
186	0xbda19c2c	-0.078911155
187	0xbb90903e	-0.0044117263
188	0x3d087c51	0.033321682
189	0xbb9017bb	-0.00439736
190	0x3d999b48	0.07500321
191	0xbd9065f4	-0.07050696
192	0x3f6cb743	0.92467135
193	0x3d4ff816	0.050773703
194	0x3cb599e4	0.022168107
195	0x3f5475ba	0.82992136
196	0xbc4812dd	-0.012211529
197	0x3d27586c	0.04085581
198	0xbbe6f8eb	-0.0070487163
199	0xbd85657a	-0.06513496
200	0x3b5f4e1e	0.003407366
201	0x3f889fb2	1.0673735
202	0xbc3cd268	-0.011524774
203	0x3f6a06f2	0.9141685
204	0xbda82f99	-0.082122035
205	0x3dd68a18	0.10475558
206	0x3f803e0d	1.0018936
207	0x3f71ef66	0.9450592
208	0x3f4ebcc8	0.8075681
209	0x3cf3b269	0.029748159
210	0x3f548730	0.8301878
211	0x3f76b558	0.9637046
212	0xbd036c73	-0.032085847
213	0x3f664aaf	0.8995771
214	0x3f82b970	1.0212841
215	0x3d834c90	0.064110875
216	0x3f5d8217	0.86526626
217	0x3f734806	0.95031774
218	0x3f8467cf	1.034418
219	0x3f847b2e	1.0350091
220	0x3f881c57	1.0633649
221	0x3f7b6e39	0.9821506
222	0x3f7e86ea	0.9942461
223	0x3d5fc1cf	0.05462819
224	0x3dde5c72	0.10857476
225	0x3f4e6e32	0.80636895
226	0x3f6c1d4c	0.92232203
227	0x3f62ab92	0.88543046
228	0x3f757b3d	0.9589117
229	0x3c61fc7e	0.013793109
230	0x3d30b2d4	0.043139294
231	0x3f6070f7	0.8767237
232	0x3f842c67	1.032605
233	0xbd638a77	-0.055551972
234	0x3d107b36	0.035273753
235	0x3f7729bb	0.9654805
236	0x3f83c301	1.0293885
237	0x3f630e55	0.88693744
238	0xbc0ed3f8	-0.0087175295
239	0x3f5ca9e4	0.8619673
240	0x3f5b2706	0.8560642
241	0xbde2a8ee	-0.11067377
242	0x3f8493c8	1.0357599
243	0x3f75a19f	0.9594974
244	0x3f587b19	0.8456283
245	0x3f52639b	0.82183236
246	0x3f852945	1.040322
247	0x3d99e91c	0.07515165
248	0xbdc7d6f5	-0.09757797
249	0x3f749922	0.9554616
250	0x3bcb1394	0.0061974023
251	0x3f6c4bff	0.9230346
252	0x3f54d805	0.8314212
253	0x3f7c86fe	0.9864348
254	0x3f823246	1.0171592
255	0x3f833d73	1.0253128

fc2.bias f4 [128]
0	0xbd672752	-0.056433983
1	0x3df13dda	0.117793754
2	0xbd745854	-0.05965455
3	0x3f94510c	1.1587234
4	0x3fa8ec1e	1.3197057
5	0x3f8bbc55	1.0916849
6	0x3fa1dbab	1.2645162
7	0xbd5082c8	-0.050905973
8	0x3d80ac02	0.06282808
9	0x3fa37d20	1.277256
10	0xbdaba277	-0.08380597
11	0xbde562f3	-0.11200514
12	0x3f9feae4	1.2493558
13	0x3fa6c66c	1.3029304
14	0x3fa0204b	1.2509855
15	0x3f95ee5d	1.1713368
16	0x3f9d5c67	1.2293824
17	0xbd8bc879	-0.068253465
18	0x3c6c0991	0.014406578
19	0x3f9101d3	1.1328682
20	0x3fa45ba5	1.2840468
21	0x3b0043db	0.0019571695
22	0x3f942cc1	1.1576158
23	0xbdc035bc	-0.09385249
24	0x3db31e40	0.08746004
25	0xbdc23f0f	-0.09484684
26	0x3f8c9388	1.0982523
27	0x3d2471ba	0.04014752
28	0x3f8f13ee	1.1177957
29	0x3f94b09e	1.1616399
30	0xbda60d87	-0.08108049
31	0xbd0d5c0a	-0.034511603
32	0x3cb9bf8b	0.022674343
33	0x3d6b94fb	0.057515126
34	0x3fa9a145	1.325234
35	0xbd005120	-0.031327367
36	0x3cd37084	0.025810488
37	0xbdb28938	-0.08717579
38	0xbd3813ac	-0.044940636
39	0xbdf2585e	-0.11833261
40	0xbdbdff1b	-0.09277173
41	0x3f95f6c4	1.1715932
42	0xbdd0515f	-0.1017177
43	0x3fa78005	1.3085943
44	0x3f90c532	1.1310179
45	0xbddb00dc	-0.10693523
46	0x3f99e688	1.2023478
47	0x3fa820a8	1.3134966
48	0xbcc40f6e	-0.023933139
49	0x3fa2d7c7	1.27221
50	0xbcfe3454	-0.031030811
51	0x3f96336f	1.1734446
52	0x3fa11701	1.2585145
53	0x3cc70abd	0.024297113
54	0x3f9f1c12	1.2430441
55	0x3f93df80	1.1552582
56	0x3db2cc4b	0.08730372
57	0x3f9105a9	1.1329852
58	0xbc1e20a4	-0.009651337
59	0x3dd7da95	0.10539738
60	0x3fa93943	1.32206
61	0x3f90d29b	1.1314272
62	0xbde80bbd	-0.11330364
63	0x3f8e9533	1.1139282
64	0x3f9cd36c	1.2252021
65	0xbdb22d27	-0.087000184
66	0x3f9b7478	1.2144918
67	0x3d9f342f	0.07773625
68	0xbd85c674	-0.065319926
69	0x3abe5400	0.0014520884
70	0x3f9a14a9	1.2037555
71	0xbdda8de4	-0.10671595
72	0x3fa264b0	1.2686977
73	0x3fa42195	1.2822748
74	0x3fa71e97	1.305621
75	0xbd3712f9	-0.044695828
76	0x3f981c49	1.1883632
77	0x3dbe8edb	0.09304591
78	0x3d59a6f5	0.05313774
79	0x3d6e3944	0.05816008
80	0xbd7a08d2	-0.061043568
81	0x3b489831	0.0030608291
82	0x3f9a775e	1.2067678
83	0xbd8a74ad	-0.067605354
84	0xbd7dabdd	-0.06193148
85	0x3fa1d1e9	1.2642184
86	0xbd5c6bd5	-0.053813774
87	0xbd55f074	-0.052231267
88	0xbdaaa003	-0.08331301
89	0xbd5f6ea4	-0.054548874
90	0x3f91a9fa	1.1379998
91	0x3fabe147	1.3428124
92	0x3d27d5f2	0.04097552
93	0x3fa0250b	1.2511305
94	0x3d9a68b4	0.07539502
95	0xbdbe7bbe	-0.09300946
96	0x3f952942	1.1653216
97	0x3fa23255	1.267161
98	0x3f9b6f34	1.2143312
99	0xbd37798b	-0.044793647
100	0x3f907ab0	1.1287441
101	0xbd9a41f0	-0.07532108
102	0xbd94b7df	-0.07261633
103	0xbd71f02b	-0.059066933
104	0x3f9eb1e6	1.239804
105	0x3fa7a7ca	1.309808
106	0x3f97b215	1.1851221
107	0xbd8594f2	-0.0652255
108	0x3cb899b8	0.022534236
109	0x3f9f29bf	1.2434615
110	0x3a38c710	0.00070487056
111	0x3c4dde32	0.0125651825
112	0xbab140f8	-0.001352339
113	0x3f9a90c7	1.2075433
114	0x3d4035c7	0.046926286
115	0x3fa03414	1.2515893
116	0x3faa3a08	1.329896
117	0x3f9b60dc	1.2138934
118	0xbb59d7ea	-0.0033240267
119	0x3f93aa14	1.1536279
120	0x3cabf191	0.020989211
121	0x3c7f04d0	0.015565112
122	0xbdbfc1bd	-0.093631245
123	0x3d0557b1	0.032554332
124	0xbe05a41f	-0.13050888
125	0x3fa9f331	1.3277341
126	0x3fa1f6ae	1.2653406
127	0x3fa745bc	1.3068156

fc3.weight f4 [6, 128]
0	0x3d4339de	0.04766261
1	0xbcb4ad64	-0.022055335
2	0x3c7b2f55	0.015331109
3	0xbeeb6e72	-0.459827
4	0xbf066572	-0.52498543
5	0xbf0f7ea8	-0.5605264
6	0xbefa1cf1	-0.48850206
7	0x3d6066a3	0.054785382
8	0xbd8a24f1	-0.06745327
9	0xbef17c1f	-0.4716501
10	0xbd1b0948	-0.03785065
11	0xbd34c95a	-0.044137336
12	0xbf1a2925	-0.6021903
13	0xbf0800c3	-0.5312616
14	0xbeedf9b7	-0.4647958
15	0xbf05d09d	-0.52271444
16	0xbf132a07	-0.57486004
17	0xbb852925	-0.0040637427
18	0xbd1993fa	-0.037494637
19	0xbf1ca3c7	-0.61187404
20	0xbf193937	-0.5985293
21	0xbd4d49ba	-0.05011914
22	0xbf0bcef7	-0.5461268
23	0xbd445b98	-0.047938913
24	0x3d052fa5	0.03251614
25	0x3d076f39	0.033065055
26	0xbf14831f	-0.58012575
27	0x3c69d369	0.0142715955
28	0xbefc2dad	-0.49253598
29	0xbeeba7f2	-0.4602657
30	0xba7a0888	-0.00095380144
31	0xbb95ae94	-0.0045679305
32	0xbd8514f8	-0.0649814
33	0xbca4d1d8	-0.020119593
34	0xbf02ba1e	-0.5106524
35	0x3d5265b9	0.05136654
36	0x3d726c00	0.059185028
37	0x3c2647b7	0.010148934
38	0x3d75b728	0.059989125
39	0xbc506a51	-0.01272066
40	0xbd945103	-0.07242014
41	0xbf02823c	-0.5097997
42	0x3d8c9e04	0.068660766
43	0xbef342f6	-0.47512025
44	0xbf1288b4	-0.5723984
45	0x3cb096ce	0.021556284
46	0xbeebc28a	-0.4604686
47	0xbf060259	-0.5234733
48	0xbd81f548	-0.06345612
49	0xbef936af	-0.48674533
50	0xbc661bce	-0.014044715
51	0xbf037fe2	-0.5136701
52	0xbf005d69	-0.5014253
53	0x3d1dae13	0.03849609
54	0xbf07b950	-0.5301714
55	0xbf19e897	-0.6012053
56	0xba98aa50	-0.0011647437
57	0xbefc168f	-0.4923596
58	0x3cfc71e5	0.030816028
59	0x3d8d5a90	0.06902039
60	0xbf0ac310	-0.5420389
61	0xbf004536	-0.5010561
62	0xbd287568	-0.041127592
63	0xbf09bc83	-0.5380327
64	0xbf19eb79	-0.6012493
65	0x3c53d83b	0.012929971
66	0xbf071719	-0.5276962
67	0x3cf8a1f8	0.03035067
68	0xbca7fc72	-0.020506117
69	0xbd339786	-0.043845676
70	0xbf051968	-0.5199189
71	0xbae00318	-0.0017090766
72	0xbf11d68d	-0.56968004
73	0xbef8a615	-0.4856421
74	0xbf15da1c	-0.58535933
75	0x3d673c36	0.056453906
76	0xbf0041c8	-0.50100374
77	0xbda9575a	-0.08268614
78	0xbb68559c	-0.0035451418
79	0xbc57a886	-0.013162738
80	0xbcaa4334	-0.020783998
81	0xbc85c926	-0.016331267
82	0xbf14f580	-0.58187103
83	0x3d9684a3	0.07349517
84	0xbd1bcec2	-0.038038976
85	0xbf06902c	-0.5256374
86	0xbc6b2eae	-0.014354391
87	0x3d7efd72	0.062253423
88	0x3d8969b6	0.06709616
89	0xbcd1661a	-0.025561381
90	0xbf08865b	-0.5333001
91	0xbf044ee2	-0.51682866
92	0x3c96bb0e	0.018399742
93	0xbef8ebcd	-0.48617402
94	0xbb66d43f	-0.0035221723
95	0xbd44ac5b	-0.048015933
96	0xbf102a06	-0.5631412
97	0xbf1645bd	-0.5870016
98	0xbeec8601	-0.46195987
99	0xbc43621c	-0.011925247
100	0xbf1d7a60	-0.61514854
101	0x3d5733fa	0.052539803
102	0x3d23b7ac	0.039970085
103	0xbd07685e	-0.033058517
104	0xbefe4251	-0.4965997
105	0xbf11432d	-0.5674313
106	0xbf1d95a5	-0.61556464
107	0xbd820240	-0.063480854
108	0xbca5808d	-0.0202029
109	0xbf0879b8	-0.5331073
110	0xbd950f65	-0.07278327
111	0x3d1cf15e	0.038316123
112	0xbd94a1b9	-0.07257409
113	0xbeec0ed7	-0.46105072
114	0x3d422a9e	0.047403924
115	0xbf13ce53	-0.577367
116	0xbf01b1be	-0.5066184
117	0xbf1c0483	-0.60944384
118	0xbc680d55	-0.014163335
119	0xbf230034	-0.63672185
120	0xbd4c06b7	-0.04981109
121	0x3bd246db	0.006417138
122	0x3d179a6a	0.037012495
123	0x3c4544c4	0.012040321
124	0x3c76c579	0.01506173
125	0xbeefb322	-0.46816355
126	0xbf1f9d2a	-0.6234919
127	0xbf23655b	-0.6382653
128	0xbb7b21ac	-0.003831963
129	0xbb6ea25f	-0.0036412699
130	0xbd78e7f0	-0.060768068
131	0xbf028044	-0.5097697
132	0xbf0f86cb	-0.5606505
133	0xbf192e15	-0.5983594
134	0xbf1ccb5f	-0.6124782
135	0xbd61a478	-0.05508849
136	0xbd0b0cdc	-0.03394781
137	0xbf05340b	-0.52032536
138	0xbd4ae293	-0.049532484
139	0xbc7829fb	-0.015146728
140	0xbf11552f	-0.56770605
141	0xbf15951f	-0.58430666
142	0xbf1d782d	-0.615115
143	0xbf0f5303	-0.5598604
144	0xbf087aa9	-0.53312165
145	0xbd97e15f	-0.07416033
146	0xbc39aa8a	-0.011332164
147	0xbf0ef337	-0.55839866
148	0xbef4b297	-0.47792503
149	0x3d26605c	0.04061924
150	0xbee7e903	-0.4529496
151	0x3d7da1a1	0.06192172
152	0x3c65eacd	0.014033032
153	0xbd5f8fae	-0.054580383
154	0xbf07f9d2	-0.5311557
155	0x3d9c3d2c	0.07628855
156	0xbf19438f	-0.5986871
157	0xbf00e0ae	-0.50342834
158	0x3d6979ad	0.057000805
159	0xbce30925	-0.027714321
160	0x3d78a16e	0.060700826
161	0x3d87f2da	0.06638117
162	0xbee6ad3f	-0.4505405
163	0x3d0f6b95	0.035014708
164	0x3bf6e7ef	0.007534973
165	0xbc4c904c	-0.012485575
166	0xbda6f544	-0.081522495
167	0xbd4f67c9	-0.050636087
168	0x3d96f3d7	0.073707275
169	0xbf1a631d	-0.60307485
170	0xbd83d27d	-0.06436632
171	0xbf0d6d60	-0.5524502
172	0xbf1d4911	-0.61439615
173	0x3d1aead6	0.037821613
174	0xbf0eec62	-0.5582944
175	0xbf0ee8f6	-0.5582422
176	0x3d46068c	0.048346087
177	0xbf0e1e8e	-0.5551537
178	0xbd87edec	-0.06637177
179	0xbf0c91bf	-0.5490989
180	0xbf034726	-0.5128044
181	0xbc9988a1	-0.018741908
182	0xbefdaf7a	-0.4954794
183	0xbee3e534	-0.44510806
184	0x3d04741d	0.032337297
185	0xbf18314d	-0.5945023
186	0x3d16dc7c	0.036831364
187	0xbbbaf499	-0.005705428
188	0xbf1745cc	-0.59090877
189	0xbef4ef9c	-0.47839057
190	0x3d34f02c	0.04417436
191	0xbf0c0b03	-0.547043
192	0xbef07a65	-0.4696838
193	0x3d8c5244	0.068516284
194	0xbf1890f4	-0.5959618
195	0x3d85e4d8	0.06537789
196	0x3c9fe20f	0.019516973
197	0xbd978cce	-0.07399903
198	0xbef7e516	-0.48416966
199	0xbcb5f3ef	-0.022211043
200	0xbf1271e7	-0.5720505
201	0xbf094327	-0.5361809
202	0xbee53e8c	-0.44774282
203	0x3c36e531	0.011163042
204	0xbf00461c	-0.5010698
205	0xbd9f6fb0	-0.077849746
206	0x3cb611c3	0.022225266
207	0x3cca7a5f	0.024716554
208	0xbd366e6a	-0.044538893
209	0xbc969a88	-0.018384233
210	0xbef7332e	-0.48281235
211	0x3d3635c3	0.044484865
212	0x3da604a2	0.081063524
213	0xbf17974c	-0.59215236
214	0x3d697cac	0.057003662
215	0x3cef0ccf	0.029180912
216	0xbce2c961	-0.027683916
217	0xbd856db1	-0.065150626
218	0xbf03d4a3	-0.5149633
219	0xbf077f70	-0.5292883
220	0xbd6ff623	-0.058584344
221	0xbf1ceb05	-0.6129611
222	0xbd448579	-0.047978852
223	0xbd881034	-0.066437155
224	0xbeeb7ec5	-0.45995155
225	0xbf11164b	-0.5667464
226	0xbf0a4aa5	-0.5402015
227	0x3d9d98da	0.0769517
228	0xbf14c3a3	-0.5811102
229	0xbd74638e	-0.059665255
230	0xbb8c6339	-0.004284289
231	0xbd844d8e	-0.06460105
232	0xbf033290	-0.5124903
233	0xbf03221a	-0.5122391
234	0xbf07613e	-0.52882755
235	0x3b17c1f0	0.0023156367
236	0x3c3359b1	0.010946677
237	0xbf073e48	-0.5282941
238	0x3d4c100d	0.049819995
239	0x3d3793e8	0.04481879
240	0xbce425b7	-0.027850015
241	0xbf1ab0dd	-0.6042612
242	0xbd407d2d	-0.046994377
243	0xbf19bc9c	-0.6005342
244	0xbef076df	-0.4696569
245	0xbeeb9dc6	-0.4601881
246	0x3d1ed92d	0.038781334
247	0xbefcc066	-0.49365538
248	0xbc915d82	-0.017744783
249	0x3d210e3e	0.039320223
250	0xbd3ba522	-0.04581178
251	0x3cd842cc	0.026399039
252	0xbdaf0dc8	-0.085475504
253	0xbf027d88	-0.50972795
254	0xbf1447c4	-0.57922006
255	0xbf136592	-0.5757686

fc3.bias f4 [6]
0	0xbedc23e1	-0.42996123
1	0xbf2210d6	-0.6330694
2	0xbed69ec5	-0.41918007
3	0xbf186c30	-0.5954008
4	0xbef0c76e	-0.47027153
5	0xbede49a7	-0.43415567
